models/part2_advanced.pt (torch, 45711 bytes, 6 tensors)

fc1.weight f4 [50, 155]
-0.033617288 0.014815211 0.06395403 -0.00486695 0.0082938075 0.0059642717 -0.0010260791 0.048222877
0.043461606 -0.043017663 0.07669636 0.046217643 -0.012567975 0.06993116 0.004319884 0.05075661
-0.068200804 0.07209889 0.07571872 -0.060017515 -0.07189188 -0.023377273 -0.049382947 0.021460533
0.03575392 -0.010234311 0.056363128 0.0030436888 -0.023607556 -0.06856046 0.025528021 -0.07567978
-0.0002746731 0.011740379 -0.044984154 0.02413033 0.015613839 0.053753234 0.050237156 -0.06500262
-0.059597425 -0.029480033 -0.057783563 0.02518396 -0.052626103 -0.06132377 0.023394719 0.04847575
-0.023351382 -0.08003731 0.01135201 0.04116209 0.062745206 0.0076211095 0.055761807 -0.07181888
0.07684224 -0.05186675 -0.05482567 0.05764491 -0.017848492 0.049569465 -0.056259423 0.06076949
0.076176934 0.024321131 0.06479522 -0.057359997 -0.017736122 0.02444829 0.045389123 -0.04288858
0.051111616 -0.026435595 -0.04287224 0.015712008 -0.06397703 -0.07371935 0.026707374 0.027358621
0.030887708 -0.010533303 -0.05874227 -0.064525574 0.07685994 -0.0696335 0.024208471 0.065235905
0.061363988 -0.050643317 -0.025898892 -0.06422001 0.050383456 -0.075377256 -0.07394332 -0.05362302
0.06551849 0.05206365 0.05381935 0.06162999 -0.037460618 -0.04479452 -0.049344577 0.026502892
0.0312441 0.016667284 -0.061793208 0.007135205 -0.042622097 -0.015795067 -0.0124345645 0.003992617
-0.070427805 0.068562694 -0.034178708 0.025096752 0.055313207 0.032367304 0.056251027 0.04535643
0.058815055 0.016952604 0.051301517 -0.034913868 -0.043281037 0.03835415 0.021075264 -0.0030120537
-0.06775226 0.026246302 0.052028798 -0.009273529 0.018453218 0.035757758 -0.07932425 -0.013215244
-0.029796626 -0.041054018 0.049093433 0.07963819 0.012816161 0.049991064 -0.059589393 0.014150612
-0.010388188 -0.049539357 0.016469426 0.025568523 -0.0038795397 0.0341082 0.03856328 0.07285536
0.0046561435 0.0028617233 -0.0011496544 0.011084683 -0.05208221 -0.009886764 -0.06792283 -0.056340143
-0.06841724 0.0595667 -0.046161015 -0.0064821094 0.008587122 0.070941664 0.0364533 -0.05719991
0.078560926 -0.07607985 0.010443278 0.073390566 0.06965936 -0.018616553 -0.053603776 0.035269417
0.06191715 -0.042819604 -0.012710251 -0.048847955 0.030673929 0.017096527 0.03981506 -0.027558297
-0.07753559 -0.03382591 -0.0628184 -0.019350324 0.029190645 -0.06682241 -0.0037492812 -0.07858539
-0.05692009 -0.05623649 -0.02734844 -0.040697344 0.012363493 0.049101137 0.060564958 0.025307626
-0.0005314946 -0.014313653 0.05453881 -0.046002813 0.058057435 -0.077334926 -0.059949912 0.021306537
-0.033082176 0.014985733 0.06998452 0.036685564 0.07861661 -0.034021907 -0.03835615 -0.010198593
-0.01617682 -0.03533119 -0.004986882 0.07256443 -0.044029083 0.04510743 0.037313208 0.046515875
0.02166935 -0.029672131 0.03314995 -0.03783128 -0.049302984 0.075084545 0.066577844 -0.058048926
0.06524176 0.01665555 0.020588651 0.07741962 -0.0042175353 -0.025546249 0.05042415 -0.020748269
-0.019282214 -0.032390237 0.07905998 0.038326457 -0.013021074 -0.001602456 0.0056215525 -0.047614556
0.02280537 -0.062340133 -0.0037450194 -0.015071198 -0.03279677 0.07428882 0.022494987 0.03869363
00000000: 48b2 09bd 80bb 723c 55fa 823d f07a 9fbb
00000010: c0e2 073c f06f c33b 807d 86ba 5a85 453d
00000020: cc04 323d 4a33 30bd fb12 9d3d b64e 3d3d
00000030: e8e9 4dbc 1138 8f3d d08d 8d3b 2ae6 4f3d
00000040: ddac 8bbd 95a8 933d 6b12 9b3d edd4 75bd
00000050: 0d3c 93bd b281 bfbc c645 4abd 00ce af3c
00000060: b472 123d d0ad 27bc 06dd 663d a078 473b
00000070: a264 c1bc 6d69 8cbd 2420 d13c 00fe 9abd
00000080: 0002 90b9 b85a 403c 4e41 38bd f8ac c53c
00000090: 30d1 7f3c 5a2c 5c3d 7ac5 4d3d 1820 85bd
000000a0: 6e1c 74bd 1c80 f1bc 75ae 6cbd 984e ce3c
000000b0: 788e 57bd a22e 7bbd 48a6 bf3c 828e 463d
000000c0: 664b bfbc 9aea a3bd c8fd 393c 9499 283d
000000d0: 8f80 803d 80ba f93b 7e66 643d c715 93bd
000000e0: 775f 9d3d 3b72 54bd e290 60bd 121d 6c3d
000000f0: 0037 92bc 5a09 4b3d 4870 66bd 6ee9 783d
00000100: a702 9c3d 1c3d c73c 5bb3 843d 51f2 6abd
00000110: 584b 91bc c847 c83c f2e9 393d f0ab 2fbd
00000120: 6a5a 513d 768f d8bc cd9a 2fbd 78b6 803c
00000130: 6406 83bd 2cfa 96bd 6cc9 da3c 301f e03c
00000140: 3808 fd3c e093 2cbc bc9b 70bd fc25 84bd
00000150: bf68 9d3d 029c 8ebd d850 c63c 679a 853d
00000160: ce58 7b3d 5e6f 4fbd ea29 d4bc c885 83bd
00000170: e25e 4e3d 645f 9abd 986f 97bd d0a3 5bbd
00000180: 8f2e 863d b240 553d ae71 5c3d ba6f 7c3d
00000190: 4e70 19bd 757a 37bd 8a1d 4abd 981c d93c
000001a0: a0f3 ff3c d489 883c e01a 7dbd 70ce e93b
000001b0: 8294 2ebd a864 81bc 58ba 4bbc 80d4 823b
000001c0: 743c 90bd 996a 8c3d f9fe 0bbd b497 cd3c
000001d0: 1a90 623d 9493 043d 7a67 663d aac7 393d
000001e0: 0ee8 703d 30e0 8a3c 8a21 523d d801 0fbd
000001f0: 7547 31bd 3e19 1d3d 08a6 ac3c e065 45bb
00000200: b2c1 8abd 7c02 d73c 261c 553d 00f0 17bc
00000210: 342b 973c ba76 123d c174 a2bd c084 58bc
00000220: 0e18 f4bc 4228 28bd 3216 493d 5919 a33d
00000230: e0fa 513c 6ec3 4c3d 0214 74bd f8d7 673c
00000240: 3833 2abc c8e9 4abd e4ea 863c 1475 d13c
00000250: e03f 7ebb 0ab5 0b3d 88f4 1d3d 3135 953d
00000260: 9092 983b c08b 3b3b 00b0 96ba 889c 353c
00000270: 2854 55bd 18fc 21bc 201b 8bbd ecc4 66bd
00000280: 571e 8cbd 36fc 733d 5513 3dbd e067 d4bb
00000290: 00b1 0c3c dd49 913d 0e50 153d 744a 6abd
000002a0: 8de4 a03d c1cf 9bbd 481a 2b3c cb4d 963d
000002b0: 91a9 8e3d be81 98bc a28f 5bbd aa76 103d
000002c0: d69c 7d3d 9c63 2fbd a83e 50bc cb14 48bd
000002d0: e447 fb3c 040e 8c3c 1e15 233d f0c1 e1bc
000002e0: fbca 9ebd 0a8d 0abd efa6 80bd 9284 9ebc
000002f0: 3821 ef3c 30da 88bd 80b6 75bb 60f1 a0bd
00000300: 0a25 69bd 3c58 66bd d609 e0bc 42b2 26bd
00000310: 4090 4a3c 461e 493d f612 783d f051 cf3c
00000320: 0054 0bba d083 6abc 1664 5f3d 726d 3cbd
00000330: a2cd 6d3d c661 9ebd 0a8e 75bd 0c8b ae3c
00000340: 2d81 07bd b886 753c 0b54 8f3d 9a43 163d
00000350: bf01 a13d 8e5a 0bbd 571b 1dbd 0018 27bc
00000360: 4085 84bc 70b7 10bd 0069 a3bb a99c 943d
00000370: d757 34bd 92c2 383d bcd5 183d 6e87 3e3d
00000380: ec83 b13c f812 f3bc 3ec8 073d f9f4 1abd
00000390: edf1 49bd edc5 993d f759 883d b6c4 6dbd
000003a0: 799d 853d 3871 883c 88a9 a83c 2d8e 9e3d
000003b0: 4033 8abb 5e46 d1bc 8e89 4e3d 46f8 a9bc
000003c0: bcf5 9dbc a0ab 04bd 33ea a13d 34fc 1c3d
000003d0: 5856 55bc 8009 d2ba 0035 b83b 7b07 43bd
000003e0: 54d2 ba3c 5e58 7fbd 006f 75bb 30ed 76bc
000003f0: e855 06bd bd24 983d 6847 b83c 367d 1e3d

fc1.bias f4 [50]
0.02257508 0.06449141 0.06266978 0.027344868 0.006839134 0.036102347 -0.025090605 0.061943553
0.04238054 -0.08008865 0.07323886 0.0037802383 -0.06073133 -0.030735716 0.07801583 -0.06705992
0.020095997 -0.027014863 -0.06597412 0.031034373 0.04679551 0.078961365 -0.06552561 0.039283097
0.057162218 -0.0019752309 0.061968066 0.07332613 -0.065048434 0.040358737 0.01914148 0.009088062
0.059212483 0.0043126345 -0.029913884 0.06859457 0.046542503 0.038964085 -0.02162493 -0.06699779
-0.011197656 -0.015045643 -0.016151294 -0.04099155 0.057674564 -0.013362944 -0.078682326 -0.051499583
-0.07946263 0.04444942
00000000: 60ef b83c 1314 843d 0359 803d 5802 e03c
00000010: d01a e03b 0ee0 133d d08a cdbc 86b8 7d3d
00000020: 3897 2d3d 8505 a4bd 41fe 953d e0bd 773b
00000030: 6ac1 78bd 78c9 fbbc c3c6 9f3d b656 89bd
00000040: 5ca0 a43c 464e ddbc 701d 87bd cc3b fe3c
00000050: a6ac 3f3d 7fb6 a13d 4b32 86bd 50e7 203d
00000060: ee22 6a3d e072 01bb 3ad2 7d3d 032c 963d
00000070: 1d38 85bd 344f 253d 98ce 9c3c 18e6 143c
00000080: ca88 723d 0051 8d3b f60d f5bc 4f7b 8c3d
00000090: 5aa3 3e3d ce98 1f3d c426 b1bc 2336 89bd
000000a0: 6076 37bc 0082 76bc b84f 84bc c1e6 27bd
000000b0: 2a3c 6c3d 40f0 5abc 3324 a1bd 3af1 52bd
000000c0: 4ebd a2bd 9810 363d

fc2.weight f4 [50, 50]
-0.016225204 -0.072082646 -0.108459055 0.06891982 -0.122229 -0.12862903 -0.012743011 0.08444159
-0.11167095 -0.091556296 0.045594275 -0.13738121 0.09396565 0.075599074 0.069015905 0.12037848
0.1228597 -0.06531843 0.07988845 0.07722625 0.064028144 -0.03860134 -0.077821516 -0.091812685
0.030349106 -0.0038746 0.0071587563 0.12666167 -0.114907086 0.032715946 0.025453955 -0.0062683523
0.09362154 0.09181306 -0.095214 0.025146917 -0.08510569 -0.078197345 -0.11815313 0.05272664
-0.014465317 -0.08982578 -0.028080054 -0.010428414 0.053432956 0.12034668 -0.0939005 -0.008837581
0.13688563 0.09325449 0.06518617 -0.042560883 0.024653092 0.009613141 0.0020769835 0.09229158
-0.04817479 -0.03485725 0.09856862 0.035889313 -0.13427006 -0.027733251 0.09540686 0.085697144
0.094378054 -0.082876086 -0.105669424 0.045168683 0.108529344 0.11561032 0.054335535 0.08348286
-0.09762271 0.033992395 -0.014573976 -0.0015794784 0.066788316 -0.105943546 0.013642013 -0.049547903
0.070975915 -0.12627162 -0.07801473 -0.10101575 0.10590431 0.08801249 0.117270455 0.13961355
0.043082803 0.018032685 0.039507672 0.022685945 0.01688698 -0.10673882 0.10880445 -0.09576909
0.09865451 0.064879924 0.036663532 0.0529792 0.031037763 -0.069392174 -0.07519812 -0.07187592
-0.08513561 0.064436585 0.01052241 -0.001455754 0.037860885 0.13062702 -0.010957181 -0.067902654
-0.1025736 0.11684628 -0.124962784 0.06901242 0.123768434 0.07553992 -0.0010912269 -0.018365324
0.08960648 -0.07519864 0.049994305 -0.043710023 0.0745108 -0.0313098 -0.09437953 -0.05400279
0.08316803 0.051609933 -0.09985025 -0.091960095 -0.029023282 -0.013511658 -0.039761826 0.09508315
0.009817079 -0.037783034 -0.008114442 0.06475754 -0.09917842 -0.13896516 -0.11360893 0.06217824
0.015354753 -0.1264909 0.11558767 0.07574837 -0.13195437 0.08689511 -0.0054893196 0.011882439
0.116115406 0.10937019 0.030893639 -0.0675827 0.10635589 0.11756657 -0.0208769 -0.11269866
0.13249259 -0.061134733 -0.0844871 -0.13352387 0.057114735 0.054319292 -0.060873166 -0.13704778
0.099004656 0.008608222 0.12554912 -0.013222054 0.12762104 -0.0358918 -0.06564313 0.08266628
0.035290956 0.1269836 0.01062873 -0.1082418 -0.10020321 -0.031756304 -0.021195114 -0.07757509
0.11996077 -0.07719258 0.0134180635 0.08082001 0.029085368 0.007230878 0.055127412 -0.07335005
-0.14005291 0.0416992 -0.10461118 -0.121373996 -0.10349803 0.1144702 -0.09490179 0.110137984
0.0939872 0.024482965 -0.08302447 -0.12821662 -0.10944035 0.091288045 -0.09332525 -0.018402293
0.022937551 -0.017141126 0.031658813 -0.11172973 0.116124764 -0.10201945 -0.08265412 -0.11781058
0.092051014 -0.070023924 -0.04820005 0.074236244 -0.014674619 0.11669324 0.043233603 -0.012006402
-0.094935104 -0.13486767 0.039145067 0.0108386725 0.1287934 -0.13000908 0.028409064 0.05265498
0.078008145 0.06867124 -0.010031015 -0.1346598 -0.028082736 0.13969724 -0.10609156 -0.0944141
0.12868552 -0.009194434 -0.047324777 0.016117126 0.05936472 0.012530491 0.113829836 -0.002002269
-0.05949407 -0.06608215 -0.010896996 -0.027625255 0.095624104 0.0659408 0.108941 0.110811815
00000000: b8ea 84bc 11a0 93bd c81f debd d625 8d3d
00000010: 3353 fabd 54b7 03be 10c8 50bc b6ef ac3d
00000020: bdb3 e4bd de81 bbbd 10c1 3a3d a9ad 0cbe
00000030: 1071 c03d b0d3 9a3d 3658 8d3d fe88 f63d
00000040: de9d fb3d abc5 85bd 8e9c a33d cc28 9e3d
00000050: 3021 833d 701c 1ebd e360 9fbd 4a08 bcbd
00000060: b09e f83c 00ed 7dbb 0094 ea3b 99b3 013e
00000070: 6854 ebbd 2801 063d d084 d03c c066 cdbb
00000080: a6bc bf3d 7c08 bc3d 8fff c2bd e800 ce3c
00000090: e44b aebd ee25 a0bd 45fa f1bd e4f7 573d
000000a0: f0ff 6cbc 94f6 b7bd 2408 e6bc f0db 2abc
000000b0: 84dc 5a3d 5278 f63d e84e c0bd 80cb 10bc
000000c0: bf2b 0c3e 36fc be3d 5480 853d 5254 2ebd
000000d0: 48f5 c93c 7080 1d3c 001e 083b 5e03 bd3d
000000e0: ee52 45bd 7ac6 0ebd 58de c93d ac00 133d
000000f0: 177e 09be d830 e3bc ac64 c33d fc81 af3d
00000100: 4849 c13d f0ba a9bd 3669 d8bd cc02 393d
00000110: a244 de3d 1ac5 ec3d f08e 5e3d 10f9 aa3d
00000120: 6aee c7bd 9c3b 0b3d b0c7 6ebc 8006 cfba
00000130: 50c8 883d eef8 d8bd c082 5f3c bef2 4abd
00000140: d25b 913d 594d 01be 30c6 9fbd 58e1 cebd
00000150: 5ce4 d83d e43f b43d 7e2b f03d dbf6 0e3e
00000160: 9877 303d 48b9 933c ccd2 213d e0d7 b93c
00000170: 9056 8a3c e299 dabd ded4 de3d 9622 c4bd
00000180: 600b ca3d c4df 843d 802c 163d b800 593d
00000190: e842 fe3c 7c1d 8ebd 7901 9abd af33 93bd
000001a0: 945b aebd 54f7 833d 3066 2c3c 00cf beba
000001b0: 0414 1b3d 17c3 053e c085 33bc 8c10 8bbd
000001c0: 1c12 d2bd 1a4d ef3d 7dec ffbd 6256 8d3d
000001d0: 4e7a fd3d acb4 9a3d 8007 8fba e072 96bc
000001e0: 9a83 b73d bf01 9abd d4c6 4c3d 4809 33bd
000001f0: 1e99 983d b43e 00bd 0e4a c1bd 0832 5dbd
00000200: 0054 aa3d f064 533d 4a7e ccbd 9355 bcbd
00000210: 3cc2 edbc 0060 5dbc 4cdd 22bd f4ba c23d
00000220: d0d7 203c 62c2 1abd 70f2 04bc 9a9f 843d
00000230: 0e1e cbbd e24c 0ebe ccab e8bd 9cae 7e3d
00000240: 8092 7b3c d586 01be 3ab9 ec3d f621 9b3d
00000250: 0c1f 07be 10f6 b13d c0df b3bb 90ae 423c
00000260: eacd ed3d 7afd df3d a814 fd3c cc68 8abd
00000270: 1ed1 d93d bec6 f03d 0806 abbc 8ece e6bd
00000280: 23ac 073e 6a68 7abd 9307 adbd 7bba 08be
00000290: 24f1 693d e87d 5e3d 2456 79bd 4156 0cbe
000002a0: f4c2 ca3d 8009 0d3c f38f 003e 50a1 58bc
000002b0: 17af 023e 4803 13bd e86f 86bd f04c a93d
000002c0: 408d 103d fd07 023e 2024 2e3c e0ad ddbd
000002d0: 5737 cdbd e612 02bd 60a1 adbc b0df 9ebd
000002e0: fead f53d 2517 9ebd 70d7 5b3c f684 a53d
000002f0: 7044 ee3c 00f1 ec3b 48cd 613d 8d38 96bd
00000300: 086a 0fbe c8cc 2a3d 633e d6bd ee92 f8bd
00000310: c6f6 d3bd 5a6f ea3d df5b c2bd 0690 e13d
00000320: 5c7c c03d 8090 c83c bc08 aabd 384b 03be
00000330: 4322 e0bd 3af5 ba3d 4f21 bfbd 68c0 96bc
00000340: 88e7 bb3c 8c6b 8cbc acac 013d 8fd2 e4bd
00000350: d2d2 ed3d 93ef d0bd 9046 a9bd ac46 f1bd
00000360: 3e85 bc3d b468 8fbd 6a6d 45bd 2c09 983d
00000370: d06d 70bc defc ee3d b815 313d 80b6 44bc
00000380: 566d c2bd c01a 0abe 9456 203d b094 313c
00000390: 6be2 033e 1a21 05be 20ba e83c c0ac 573d
000003a0: bcc2 9f3d 82a3 8c3d 2059 24bc 42e4 09be
000003b0: c40d e6bc cb0c 0f3e 8846 d9bd 2e5c c1bd
000003c0: 23c6 033e 40a4 16bc a0d7 41bd 1008 843c
000003d0: 6c28 733d b04c 4d3c 9e1f e93d 8038 03bb
000003e0: 0eb0 73bd 1456 87bd 5089 32bc 5c4e e2bc
000003f0: 92d6 c33d f80b 873d 761c df3d 4ef1 e23d

fc2.bias f4 [50]
0.025437042 0.13786696 -0.12397075 0.12068574 0.07312882 -0.13335674 -0.054491445 0.049129948
-0.10645226 0.13224278 -0.053203605 0.054207593 0.027296156 -0.05505456 -0.13308962 0.010341123
-0.11555618 -0.03088855 0.029735371 -0.049521826 0.08075808 -0.12705806 -0.11164379 0.07531828
-0.07364892 0.11614455 -0.028604507 -0.025321826 0.13485329 -0.015682086 -0.11339108 -0.058913052
0.04400748 0.096313074 0.11924456 -0.051917166 0.020813778 0.103024274 -0.0578563 0.009455159
-0.06853695 0.020151377 0.13758211 0.119500205 -0.093007915 0.06940985 0.1330557 -0.02503641
0.050195336 -0.12699609
00000000: 5861 d03c ff2c 0d3e 60e4 fdbd 162a f73d
00000010: 90c4 953d ab8e 08be 6c32 5fbd 7c3c 493d
00000020: a403 dabd a76a 073e 06ec 59bd c808 5e3d
00000030: 309c df3c e480 61bd a548 08be d06d 293c
00000040: b8a8 ecbd fc09 fdbc 9897 f33c 66d7 4abd
00000050: 7e64 a53d 821b 02be 80a5 e4bd 7840 9a3d
00000060: 3fd5 96bd 32dd ed3d 0054 eabc b86f cfbc
00000070: fb16 0a3e b877 80bc 9539 e8bd d04e 71bd
00000080: 3041 343d ca3f c53d 7e36 f43d 18a7 54bd
00000090: a881 aa3c 64fe d23d bafa 6cbd d0e9 1a3c
000000a0: 1a5d 8cbd 8014 a53c 53e2 0c3e 86bc f43d
000000b0: ef7a bebd c026 8e3d c13f 083e 2819 cdbc
000000c0: a099 4d3d 430b 02be

fc3.weight f4 [11, 50]
0.078574285 -0.026493259 0.12989192 0.09905705 -0.08129352 -0.06253898 -0.11120438 -0.13064994
-0.1283075 0.068461 0.09378128 -0.08972469 0.098979056 -0.044367097 0.04219547 0.11845352
0.10972293 -0.11272064 0.055661544 -0.071031876 -0.121434316 -0.00626643 -0.031672873 0.029687703
0.015953436 0.08186795 0.07294947 -0.1267907 -0.12358684 -0.08936639 0.072827384 0.13060315
-0.08278343 0.026499465 0.007893667 0.052777573 0.05462596 0.02203548 0.09408213 -0.04701127
0.13500594 -0.003994718 -0.12817225 0.06891775 0.09956242 0.094819084 0.015547618 0.047846943
0.04389073 -0.060384788 -0.005657524 0.003338322 -0.07830634 -0.052757114 -0.056343257 -0.023213387
-0.093054965 0.08202398 -0.0035667866 0.10877983 -0.09079077 0.03927274 -0.04638374 0.07493074
-0.056550197 -0.070137285 0.011240989 -0.08109273 0.097592786 -0.0053276718 0.07927036 -0.041499898
-0.034813143 -0.13375857 0.03952056 0.04823503 0.09284827 0.018742979 -0.013526112 -0.019001432
0.057676226 0.13526736 0.0090902895 -0.11930895 -0.12623936 0.054144144 0.12589045 -0.074748755
0.07128577 0.11836298 0.123784676 0.089848146 -0.09175958 0.09920761 0.004969418 -0.08489534
-0.14038853 -0.055534475 0.117653325 0.14130373 0.10388489 -0.09995717 0.08156417 0.078181595
0.12762786 -0.08322336 0.11713822 -0.018482268 0.05649686 -0.12088263 -0.021914355 -0.089493036
-0.04022047 -0.014661625 -0.050667696 0.06274812 0.13105108 0.0328418 -0.062373646 -0.03154756
-0.04376173 0.010489628 -0.012584522 0.08270116 0.010824397 -0.12682793 -0.050591677 -0.06850729
0.04968065 0.12676863 0.114935026 0.03347303 -0.091302335 -0.0048437566 0.022084758 0.002843693
0.07799123 0.068286344 -0.043450117 -0.052408107 0.016452849 0.013550863 0.0028815418 -0.13635689
-0.1326892 0.12724905 0.13799058 -0.123962484 -0.09907386 -0.020558387 -0.080049194 -0.13865748
0.043767065 -0.09046844 0.045359164 -0.0913534 -0.007383764 -0.044907995 -0.026772812 -0.061241128
-0.11851954 0.11454345 -0.011778176 -0.07616088 0.13208969 0.0180524 -0.033321723 0.041088462
-0.008648008 0.035464495 0.11875139 0.052234277 0.09968519 0.07478008 -0.05695434 -0.01162909
-0.026653081 0.14058878 -0.053577922 0.101096004 -0.04094334 0.11827402 0.06031455 0.077960566
-0.10113047 -0.0041876733 0.13183038 -0.1123117 -0.030914932 -0.13944201 -0.13069195 0.1042753
-0.0835031 0.013474986 -0.12057484 -0.10708481 0.12765993 0.027663723 -0.038793884 -0.03751783
0.13644238 0.100776 0.100107014 0.12719686 0.005357668 0.021094024 0.008273989 -0.05651878
-0.12275575 0.12620766 0.1173615 0.013264388 -0.05024053 0.12287672 -0.062876254 -0.00537093
-0.04848823 -0.08250706 -0.10782469 0.13801675 0.12415747 0.06951553 -0.051965937 -0.04619082
0.0828671 0.10723618 0.14137764 0.06608181 -0.053841658 -0.06191045 0.13472088 -0.09972877
-0.11903503 -0.014699787 -0.023126751 0.070416465 -0.096116394 -0.03219994 -0.10939051 0.09648624
0.032130867 -0.0706347 -0.03803605 0.08912994 0.112144694 -0.1300885 -0.082239375 0.024282217
0.03581412 -0.08965474 0.05400154 0.0067045987 -0.07850053 -0.10816559 -0.0013769716 0.04410045
00000000: 8eeb a03d 6408 d9bc 6302 053e 6cde ca3d
00000010: 387d a6bd 7014 80bd 1fbf e3bd 19c9 05be
00000020: 0b63 03be 4835 8c3d 6610 c03d 94c1 b7bd
00000030: 88b5 ca3d 46ba 35bd 28d5 2c3d c297 f23d
00000040: 6ab6 e03d 14da e6bd 5cfd 633d 2979 91bd
00000050: 8eb2 f8bd a056 cdbb 6abb 01bd a033 f33c
00000060: c8b0 823c 62aa a73d 8866 953d 6cd5 01be
00000070: 191b fdbd ba05 b7bd 8626 953d d5bc 053e
00000080: 5c8a a9bd 6815 d93c 7054 013c 4c2d 583d
00000090: 78bf 5f3d c083 b43c 22ae c03d e48e 40bd
000000a0: ff3e 0a3e 20e6 82bb 963f 03be c024 8d3d
000000b0: 62e7 cb3d 8230 c23d 70bb 7e3c 28fb 433d
000000c0: c4c6 333d 0a56 77bd c062 b9bb c0c7 5a3b
000000d0: 135f a0bd d817 58bd 30c8 66bd 002a bebc
000000e0: 9a93 bebd 30fc a73d c0c0 69bb f6c7 de3d
000000f0: 83f0 b9bd 74dc 203d e0fc 3dbd 4a75 993d
00000100: 2ea1 67bd 23a4 8fbd 202c 383c f213 a6bd
00000110: bade c73d c093 aebb 8058 a23d ccfb 29bd
00000120: 3a98 0ebd 02f8 08be 50e0 213d 1892 453d
00000130: 3c27 be3d e08a 993c a09c 5dbc e4a8 9bbc
00000140: e83d 6c3d 8783 0a3e 70ef 143c 4058 f4bd
00000150: e444 01be 40c6 5d3d 6de9 003e e015 99bd
00000160: 46fe 913d 4a68 f23d d282 fd3d 4e02 b83d
00000170: 72ec bbbd 5c2d cb3d 80d6 a23b 9cdd adbd
00000180: 03c2 0fbe 1e78 63bd 3af4 f03d edb1 103e
00000190: 9ac1 d43d 58b6 ccbd 1e0b a73d ac1d a03d
000001a0: e1b0 023e 0271 aabd 2ae6 ef3d 2068 97bc
000001b0: 4069 673d 5091 f7bd bc85 b3bc 2048 b7bd
000001c0: 38be 24bd 5037 70bc ee88 4fbd 1682 803d
000001d0: 4132 063e 2085 063d 827b 7fbd 0438 01bd
000001e0: 803f 33bd b0dc 2b3c 502f 4ebc 3a5f a93d
000001f0: d058 313c 2edf 01be 3839 4fbd 8d4d 8cbd
00000200: f07d 4b3d a3cf 013e 0e63 eb3d 041b 093d
00000210: b8fc babd 60b8 9ebb 18eb b43c 405d 3a3b
00000220: deb9 9f3d b6d9 8b3d c0f8 31bd e2a9 56bd
00000230: 20c8 863c 7004 5e3c 40d8 3c3b 24a1 0bbe
00000240: addf 07be 934d 023e 674d 0d3e 0be0 fdbd
00000250: 3ce7 cabd 106a a8bc d5f0 a3bd 3afc 0dbe
00000260: 1845 333d 8447 b9bd 88ca 393d 7e17 bbbd
00000270: 80f3 f1bb 72f1 37bd a852 dbbc fad7 7abd
00000280: 5fba f2bd c295 ea3d 40f9 40bc 3cfa 9bbd
00000290: 8542 073e a0e2 933c 5c7c 08bd 604c 283d
000002a0: 60b0 0dbc 3843 113d ee33 f33d 9cf3 553d
000002b0: c027 cc3d 4c26 993d f448 69bd f087 3ebc
000002c0: 9057 dabc 81f6 0f3e 8674 5bbd 6c0b cf3d
000002d0: 34b4 27bd a639 f23d 640c 773d caa9 9f3d
000002e0: 7e1d cfbd c038 89bb 8bfe 063e ad03 e6bd
000002f0: 5041 fdbc e3c9 0ebe 1cd4 05be 4a8e d53d
00000300: ac03 abbd 30c6 5c3c f1ef f6bd 484f dbbd
00000310: 49b9 023e 089f e23c 56e6 1ebd 4cac 19bd
00000320: 8db7 0b3e a663 ce3d e804 cd3d e53f 023e
00000330: 608f af3b 60cd ac3c a08f 073c 3c80 67bd
00000340: 5e67 fbbd 953c 013e 3a5b f03d e052 593c
00000350: 04c9 4dbd caa6 fb3d 44c5 80bd a0fe afbb
00000360: 989b 46bd 76f9 a8bd 31d3 dcbd 4354 0d3e
00000370: 4646 fe3d 285e 8e3d 3cda 54bd 9632 3dbd
00000380: 3ab6 a93d a49e db3d 4dc5 103e e655 873d
00000390: 1289 5cbd d095 7dbd 45f4 093e 993e ccbd
000003a0: a3c8 f3bd 60d7 70bc 5074 bdbc 8236 903d
000003b0: acd8 c4bd 16e4 03bd 2208 e0bd 949a c53d
000003c0: a89b 033d eda8 90bd b0cb 1bbd c289 b63d
000003d0: 1eac e53d eb35 05be 1e6d a8bd 80eb c63c
000003e0: d4b1 123d e89c b7bd b830 5d3d 40b2 db3b
000003f0: e3c4 a0bd ec85 ddbd 807b b4ba aca2 343d

fc3.bias f4 [11]
-0.07170113 0.07315415 -0.09104596 0.108820364 -0.12490137 -0.13781413 0.13878305 0.07725841
0.004972607 -0.10936047 0.08720173
00000000: 0bd8 92bd d8d1 953d 4e76 babd 36dd de3d
00000010: 4acc ffbd 261f 0dbe 251d 0e3e a839 9e3d
00000020: 40f1 a23b 62f8 dfbd d296 b23d
