models/part1.pt (torch, 109191 bytes, 6 tensors)

net.0.weight f4 [100, 155]
000000 48 b2 09 bd 80 bb 72 3c 55 fa 82 3d f0 7a 9f bb
       -0.033617288 0.014815211 0.06395403 -0.00486695
000010 c0 e2 07 3c f0 6f c3 3b 80 7d 86 ba 5a 85 45 3d
       0.0082938075 0.0059642717 -0.0010260791 0.048222877
000020 cc 04 32 3d 4a 33 30 bd fb 12 9d 3d b6 4e 3d 3d
       0.043461606 -0.043017663 0.07669636 0.046217643
000030 e8 e9 4d bc 11 38 8f 3d d0 8d 8d 3b 2a e6 4f 3d
       -0.012567975 0.06993116 0.004319884 0.05075661
000040 dd ac 8b bd 95 a8 93 3d 6b 12 9b 3d ed d4 75 bd
       -0.068200804 0.07209889 0.07571872 -0.060017515
000050 0d 3c 93 bd b2 81 bf bc c6 45 4a bd 00 ce af 3c
       -0.07189188 -0.023377273 -0.049382947 0.021460533
000060 b4 72 12 3d d0 ad 27 bc 06 dd 66 3d a0 78 47 3b
       0.03575392 -0.010234311 0.056363128 0.0030436888
000070 a2 64 c1 bc 6d 69 8c bd 24 20 d1 3c 00 fe 9a bd
       -0.023607556 -0.06856046 0.025528021 -0.07567978
000080 00 02 90 b9 b8 5a 40 3c 4e 41 38 bd f8 ac c5 3c
       -0.0002746731 0.011740379 -0.044984154 0.02413033
000090 30 d1 7f 3c 5a 2c 5c 3d 7a c5 4d 3d 18 20 85 bd
       0.015613839 0.053753234 0.050237156 -0.06500262
0000a0 6e 1c 74 bd 1c 80 f1 bc 75 ae 6c bd 98 4e ce 3c
       -0.059597425 -0.029480033 -0.057783563 0.02518396
0000b0 78 8e 57 bd a2 2e 7b bd 48 a6 bf 3c 82 8e 46 3d
       -0.052626103 -0.06132377 0.023394719 0.04847575
0000c0 66 4b bf bc 9a ea a3 bd c8 fd 39 3c 94 99 28 3d
       -0.023351382 -0.08003731 0.01135201 0.04116209
0000d0 8f 80 80 3d 80 ba f9 3b 7e 66 64 3d c7 15 93 bd
       0.062745206 0.0076211095 0.055761807 -0.07181888
0000e0 77 5f 9d 3d 3b 72 54 bd e2 90 60 bd 12 1d 6c 3d
       0.07684224 -0.05186675 -0.05482567 0.05764491
0000f0 00 37 92 bc 5a 09 4b 3d 48 70 66 bd 6e e9 78 3d
       -0.017848492 0.049569465 -0.056259423 0.06076949
000100 a7 02 9c 3d 1c 3d c7 3c 5b b3 84 3d 51 f2 6a bd
       0.076176934 0.024321131 0.06479522 -0.057359997
000110 58 4b 91 bc c8 47 c8 3c f2 e9 39 3d f0 ab 2f bd
       -0.017736122 0.02444829 0.045389123 -0.04288858
000120 6a 5a 51 3d 76 8f d8 bc cd 9a 2f bd 78 b6 80 3c
       0.051111616 -0.026435595 -0.04287224 0.015712008
000130 64 06 83 bd 2c fa 96 bd 6c c9 da 3c 30 1f e0 3c
       -0.06397703 -0.07371935 0.026707374 0.027358621
000140 38 08 fd 3c e0 93 2c bc bc 9b 70 bd fc 25 84 bd
       0.030887708 -0.010533303 -0.05874227 -0.064525574
000150 bf 68 9d 3d 02 9c 8e bd d8 50 c6 3c 67 9a 85 3d
       0.07685994 -0.0696335 0.024208471 0.065235905
000160 ce 58 7b 3d 5e 6f 4f bd ea 29 d4 bc c8 85 83 bd
       0.061363988 -0.050643317 -0.025898892 -0.06422001
000170 e2 5e 4e 3d 64 5f 9a bd 98 6f 97 bd d0 a3 5b bd
       0.050383456 -0.075377256 -0.07394332 -0.05362302
000180 8f 2e 86 3d b2 40 55 3d ae 71 5c 3d ba 6f 7c 3d
       0.06551849 0.05206365 0.05381935 0.06162999
000190 4e 70 19 bd 75 7a 37 bd 8a 1d 4a bd 98 1c d9 3c
       -0.037460618 -0.04479452 -0.049344577 0.026502892
0001a0 a0 f3 ff 3c d4 89 88 3c e0 1a 7d bd 70 ce e9 3b
       0.0312441 0.016667284 -0.061793208 0.007135205
0001b0 82 94 2e bd a8 64 81 bc 58 ba 4b bc 80 d4 82 3b
       -0.042622097 -0.015795067 -0.0124345645 0.003992617
0001c0 74 3c 90 bd 99 6a 8c 3d f9 fe 0b bd b4 97 cd 3c
       -0.070427805 0.068562694 -0.034178708 0.025096752
0001d0 1a 90 62 3d 94 93 04 3d 7a 67 66 3d aa c7 39 3d
       0.055313207 0.032367304 0.056251027 0.04535643
0001e0 0e e8 70 3d 30 e0 8a 3c 8a 21 52 3d d8 01 0f bd
       0.058815055 0.016952604 0.051301517 -0.034913868
0001f0 75 47 31 bd 3e 19 1d 3d 08 a6 ac 3c e0 65 45 bb
       -0.043281037 0.03835415 0.021075264 -0.0030120537
000200 b2 c1 8a bd 7c 02 d7 3c 26 1c 55 3d 00 f0 17 bc
       -0.06775226 0.026246302 0.052028798 -0.009273529
000210 34 2b 97 3c ba 76 12 3d c1 74 a2 bd c0 84 58 bc
       0.018453218 0.035757758 -0.07932425 -0.013215244
000220 0e 18 f4 bc 42 28 28 bd 32 16 49 3d 59 19 a3 3d
       -0.029796626 -0.041054018 0.049093433 0.07963819
000230 e0 fa 51 3c 6e c3 4c 3d 02 14 74 bd f8 d7 67 3c
       0.012816161 0.049991064 -0.059589393 0.014150612
000240 38 33 2a bc c8 e9 4a bd e4 ea 86 3c 14 75 d1 3c
       -0.010388188 -0.049539357 0.016469426 0.025568523
000250 e0 3f 7e bb 0a b5 0b 3d 88 f4 1d 3d 31 35 95 3d
       -0.0038795397 0.0341082 0.03856328 0.07285536
000260 90 92 98 3b c0 8b 3b 3b 00 b0 96 ba 5f ef 5c bf
       0.0046561435 0.0028617233 -0.0011496544 -0.8630275
000270 d4 6b b8 bf 9e 8a cf bf 20 1b 8b bd ec c4 66 bd
       -1.4407907 -1.6214178 -0.06792283 -0.056340143
000280 57 1e 8c bd 46 3a d0 bf 0a a9 e3 bf 6f af 36 bf
       -0.06841724 -1.6267784 -1.7785962 -0.7136144
000290 1b f0 6a 40 8c c5 b6 bf b3 ce e4 bf b5 2a bb bf
       3.6709049 -1.4279037 -1.787558 -1.4622408
0002a0 66 18 d5 3f 6a 23 16 40 e4 07 46 bf 6c cc 69 bf
       1.6648071 2.3459115 -0.7735579 -0.9132755
0002b0 c4 14 c5 bf c5 1d 4b bf 01 da a8 bf d3 77 cf bf
       -1.5396962 -0.793423 -1.319153 -1.6208442
0002c0 92 0e da 3f 9c 63 2f bd 6a aa 33 bf a8 66 ee 3f
       1.7035697 -0.042819604 -0.70181906 1.8625078
0002d0 01 cc 25 40 9f ca 45 40 a0 53 1c 3f 43 04 5c bf
       2.5905764 3.090492 0.610651 -0.85944
0002e0 e5 67 10 40 0a 8d 0a bd ef a6 80 bd ba 28 11 40
       2.2563412 -0.03382591 -0.0628184 2.2681108
0002f0 9e 69 3b 3e e2 88 35 bf 17 d3 08 c0 12 ad c8 be
       0.18302009 -0.7091199 -2.137884 -0.39194542
000300 0a 25 69 bd 3c 58 66 bd 94 64 ce bf 60 6e dc bf
       -0.05692009 -0.05623649 -1.6124444 -1.7221184
000310 af 53 0c c0 64 f0 1f 3f 6a 0a 64 3e 61 16 18 3f
       -2.1926076 0.6247618 0.22269598 0.5940915
000320 b8 62 9b 3e d0 83 6a bc 16 64 5f 3d 72 6d 3c bd
       0.30348754 -0.014313653 0.05453881 -0.046002813
000330 a2 cd 6d 3d c6 61 9e bd 0a 8e 75 bd d5 95 59 40
       0.058057435 -0.077334926 -0.059949912 3.39977
000340 2d 81 07 bd 94 e3 88 3f 7b b4 03 c0 9a 43 16 3d
       -0.033082176 1.0694451 -2.0578907 0.036685564
000350 bf 01 a1 3d dd db 24 be 57 1b 1d bd 87 94 30 bf
       0.07861661 -0.16099496 -0.03835615 -0.68976635
000360 18 ec 45 3f 70 b7 10 bd 00 69 a3 bb a9 9c 94 3d
       0.77313375 -0.03533119 -0.004986882 0.07256443
000370 d7 57 34 bd 92 c2 38 3d bc d5 18 3d 00 91 95 bf
       -0.044029083 0.04510743 0.037313208 -1.1684875
000380 cd 4b 40 bf f8 12 f3 bc 3e c8 07 3d f9 f4 1a bd
       -0.7511566 -0.029672131 0.03314995 -0.03783128
000390 f3 2e 0c 3e 15 82 11 c0 b5 82 47 bf fd ee 4f bf
       0.13689785 -2.2735646 -0.7793382 -0.8122404
0003a0 c3 01 ad be 8d 5c ab bf 70 9b f5 bf 8e 20 a7 3f
       -0.33790407 -1.3387619 -1.9188061 1.305681
0003b0 d0 ff a6 3d a7 48 24 c0 4b 2a de bf 89 90 8c bd
       0.08154261 -2.5669343 -1.7356657 -0.068635054
0003c0 2f e6 dc bd 30 d1 33 c0 51 f7 22 bf 6b 85 0f 3e
       -0.107860915 -2.8096428 -0.63658625 0.14015739
0003d0 17 3e 06 3e c3 fd 4f c0 16 3e 36 bf ff 16 b7 bf
       0.13109623 -3.2498634 -0.71188486 -1.4303893
0003e0 19 5e 93 be ba 65 c6 be 91 6d e7 bf c3 01 e5 bf
       -0.28782728 -0.38749486 -1.8080312 -1.7891163
0003f0 e5 91 44 bf 53 dc da bf b5 cd 76 be 94 49 e1 bf
       -0.7678512 -1.7098488 -0.24101909 -1.7600579

net.0.bias f4 [100]
000000 fe 37 d2 bc 58 9e 95 3f ad 74 94 3f 61 5f 92 3f
       -0.025661465 1.1688948 1.1598107 1.1435357
000010 1a ad 8d 3f 99 16 91 bd 1a de 99 3f 11 65 a1 3f
       1.1068451 -0.07084388 1.2020905 1.2608968
000020 03 bb 75 bd 7f 98 9c 3f c6 97 95 bd c8 b1 95 3f
       -0.0599928 1.2234038 -0.07304339 1.169488
000030 5e 75 93 3f 4c 43 8e bd b7 79 77 3c 24 a1 9d 3f
       1.1520193 -0.069464296 0.015104703 1.2314801
000040 79 9b 96 3f 46 aa 97 3f eb f9 35 bd a8 de 9e 3f
       1.1766196 1.1848838 -0.044427793 1.2411699
000050 6e ec 82 bd 17 00 93 3f bb 63 30 bd 51 a7 91 3f
       -0.06392752 1.1484402 -0.04306386 1.1379186
000060 a6 c1 9e 3f 04 cd 9d 3f 48 0f 9e 3f ee 8b fd bc
       1.2402847 1.2328191 1.2348413 -0.030950513
000070 94 3d 91 3f 89 d7 91 3f 15 af 94 3f 40 5e 97 3f
       1.1346917 1.1393901 1.1615931 1.1825638
000080 76 7f 9d 3f 02 2d a0 3f 41 51 9a 3f 67 24 87 bd
       1.2304523 1.2513735 1.2056047 -0.0659874
000090 58 f9 9f 3f a5 9f 98 bd e3 72 99 3f a5 20 98 3f
       1.2497969 -0.07452325 1.1988186 1.1884962
0000a0 da 71 94 3f 4a 9b 53 bd 12 9f 94 3f eb ff 9e 3f
       1.1597245 -0.051661767 1.1611044 1.242185
0000b0 ab b4 51 bd a7 12 9a 3f bf 4e 9c 3f 23 f4 9f 3f
       -0.05119769 1.2036942 1.2211531 1.249638
0000c0 ef a1 90 3f 65 43 a0 3f b7 fb a0 bd cd cb 35 bd
       1.1299418 1.2520567 -0.07860511 -0.044383813
0000d0 35 f4 8e bd 9b 96 98 3f 6c 76 4b bd 7c fe 9e 3f
       -0.069801725 1.1920961 -0.049673483 1.2421412
0000e0 a0 d1 56 bd 3b 2a 98 3f e8 df a0 3f f7 1e a2 bd
       -0.052446008 1.1887888 1.2568331 -0.07916062
0000f0 2c 1d 9a 3f 7b 64 8f 3f e0 cb 9d 3f 82 8c 93 3f
       1.2040153 1.1202539 1.2327843 1.1527255
000100 88 25 8d bd 9a ce 98 3f b0 a0 96 3f 1f d7 97 3f
       -0.06891924 1.193805 1.1767788 1.1862525
000110 1f fa 9d 3f ff 4b 93 3f 25 92 18 bd 38 38 a2 3f
       1.2341956 1.1507567 -0.03724875 1.2673407
000120 5f eb 20 bd 80 7b 9d 3f b3 d3 95 3f 24 54 a1 bd
       -0.039286967 1.2303314 1.170523 -0.07877377
000130 31 52 95 3f c5 b8 98 3f 52 d3 83 bd ba e7 96 3f
       1.1665708 1.1931387 -0.064367905 1.1789467
000140 8b fd 07 bd da d5 28 bd 1d 66 9c 3f 17 7c 9a 3f
       -0.03320078 -0.04121957 1.2218663 1.2069119
000150 76 1f 9e 3f 80 88 0b bd 05 8f 93 3f 33 20 52 bd
       1.2353351 -0.034065723 1.1528021 -0.05130024
000160 c0 13 95 3f 3b 73 9f 3f 9b 67 97 3f a0 f2 e3 bc
       1.1646652 1.245704 1.1828493 -0.027825654
000170 e1 86 9d 3f e8 05 95 3f 65 c9 9a 3f 94 b9 a1 3f
       1.2306787 1.1642427 1.2092711 1.2634759
000180 75 1b a0 3f 02 b4 a0 3f f2 99 94 bd db bc 99 3f
       1.2508379 1.2554934 -0.07255925 1.2010759

net.2.weight f4 [100, 100]
000000 a9 84 a6 3d 0b 48 a6 3d 79 5b c7 bd c2 69 75 3d
       0.08130772 0.0811921 -0.09734244 0.05991531
000010 17 40 3d bd c7 20 4d bd 95 86 8f bd 52 64 89 bd
       -0.0462037 -0.050080087 -0.07008091 -0.06708588
000020 18 19 80 bc 01 8b 80 bc 7d 75 33 bd 34 ba 4e 3d
       -0.015636966 -0.015691282 -0.043813217 0.050470546
000030 e1 49 92 bd 69 72 b6 3d 06 48 d3 bd 1e 24 b5 3c
       -0.071429975 0.08908541 -0.10316472 0.022111949
000040 88 0d 96 bd 22 fc 87 bd 54 38 c2 3c 46 4d 03 bd
       -0.073268 -0.066398874 0.0237085 -0.032056116
000050 ed 66 89 bd b9 37 83 bc 70 9f 93 bd cd 9a 73 bd
       -0.06709085 -0.016017782 -0.07208145 -0.0594738
000060 0a 40 3a 3d 57 2d f7 bb 57 85 21 bd 83 fc a3 3d
       0.04547123 -0.0075432467 -0.039433803 0.08007147
000070 32 c6 c9 3a 6b 6a 7d 3d af 5e f7 3c d2 06 b9 bb
       0.001539415 0.061869066 0.030196516 -0.005646565
000080 fc b9 4e bd c5 1e 6c bd 84 e4 96 3d 54 25 af 3c
       -0.050470337 -0.05764653 0.07367805 0.021380104
000090 61 c2 92 3d d6 c2 74 3d f0 0f 85 bc 86 d8 cf bd
       0.07165981 0.059756123 -0.016242951 -0.101487204
0000a0 48 ee d8 3c c6 49 13 bd 46 34 cc 3b b9 e6 4d bd
       0.026480809 -0.035959028 0.0062318174 -0.050268862
0000b0 3d ed a0 3d f0 b2 a8 3d 81 d5 95 bd 27 88 1a bd
       0.078577496 0.082372546 -0.07316113 -0.0377275
0000c0 01 6a b4 bd 36 34 0e 3d 4d 64 94 bd fb 5b 9e bd
       -0.08809281 0.03471776 -0.07245693 -0.07732388
0000d0 73 b6 95 bd 79 bd c1 bd eb 34 9e 3d b0 e5 68 bd
       -0.0731019 -0.09459967 0.07724937 -0.056859672
0000e0 b4 7f 5d 3d fd 92 14 bd 5a de 31 bd 60 67 e0 bc
       0.054076865 -0.03627299 -0.04342494 -0.027393043
0000f0 ea 91 c2 bd c9 8b 92 3c f6 20 5d bd 9b cc a4 3c
       -0.09500487 0.01788892 -0.053986512 0.020117095
000100 ca 80 ae bd c5 fe e9 3a a9 07 8a 3d 36 8f 2a bd
       -0.08520658 0.0017852416 0.06739742 -0.041640483
000110 85 62 f2 3b ca 2f ca bd a3 4c 27 bd 90 4a 8d 3d
       0.0073969983 -0.09872396 -0.04084457 0.06898987
000120 df 8f db 3c f8 b2 ba 3c 02 16 07 3d 78 44 a7 bc
       0.026802002 0.022790417 0.032979973 -0.02041839
000130 48 11 55 bd 1e 23 a4 3d 2c 33 16 bd 39 04 b3 bc
       -0.052018434 0.080145106 -0.036669895 -0.0218526
000140 28 36 9b bd 6b fc 9c 3d 30 89 3d bd f6 53 51 bd
       -0.07578689 0.076653324 -0.04627341 -0.051105462
000150 15 de 9a bd e3 8e 22 3c 93 8d ba bd 7d 69 b0 3d
       -0.0756189 0.009921762 -0.091090344 0.0861387
000160 4d bf 82 3d 36 6d b8 bd 22 bf d2 bd ac 0f d6 3c
       0.06384144 -0.09005205 -0.10290362 0.02613052
000170 ce 24 96 bd 6f f7 d5 bd e0 0f 48 3d a7 8f 1f bd
       -0.07331239 -0.10447585 0.048843265 -0.038955357
000180 af 61 e4 3b f1 f9 44 bb 57 a5 7f bd ea c9 80 bd
       0.0069696526 -0.0030056203 -0.06241354 -0.06288512
000190 f6 66 0e 3d ac 07 98 3f 33 9e a2 3f b6 28 a1 3f
       0.03476616 1.1877341 1.2704529 1.2590549
0001a0 c1 a6 99 3f 8b 6a ca 3d bf 1f 97 3f e5 02 92 3f
       1.2004014 0.09883603 1.1806563 1.1407133
0001b0 e5 0f 94 bd 90 b4 a4 3f 8d 55 ae bd f4 a9 a7 3f
       -0.07229594 1.2867603 -0.08512411 1.309874
0001c0 54 38 ad 3f 31 37 c0 3d 5c a2 e4 3d 55 11 a4 3f
       1.3532815 0.09385527 0.1116378 1.2817789
0001d0 e3 0a 97 3f 9e c1 a8 3f 72 a4 28 3d 2a 08 9f 3f
       1.1800197 1.3184087 0.041172452 1.2424366
0001e0 ad 7a b3 bd d3 60 b1 3f 2a 72 c3 3c 81 a6 ab 3f
       -0.08763633 1.3857673 0.023858149 1.3410188
0001f0 73 c9 9d 3f cb 6d 93 3f 74 41 ac 3f 55 71 c8 bd
       1.2327102 1.1517881 1.3457475 -0.09787241
000200 3a 84 9a 3f 30 e0 b2 3f 70 bf 9f 3f 85 33 a7 3f
       1.2071602 1.3974667 1.2480297 1.3062598
000210 e0 c5 a8 3f 5e 89 9e 3f e5 b1 9d 3f 4a ff 35 3d
       1.3185387 1.2385671 1.2319914 0.044432916
000220 84 54 9c 3f da 48 29 3d 76 e5 9d 3f 1d c3 9d 3f
       1.2213292 0.041329242 1.2335651 1.2325169
000230 71 c3 98 3f ff 41 97 bd ca f1 9c 3f f1 14 99 3f
       1.1934644 -0.07385635 1.2261288 1.1959516
000240 42 a3 01 3d 74 bf a0 3f f4 81 97 3f 92 81 94 3f
       0.031649835 1.2558427 1.1836534 1.1602042
000250 b4 20 9e 3f b0 1c a3 3f 00 cd c0 3b 50 b6 3e 3c
       1.235373 1.274313 0.005883813 0.011640146
000260 aa f6 5b bd f2 cf 9a 3f f0 9c 61 bc ba f5 a3 3f
       -0.053702034 1.209471 -0.013770327 1.2809365
000270 b5 b1 a0 bd 9a 8f a9 3f ed 67 a7 3f 4f 5c ca bd
       -0.07846395 1.3246949 1.3078591 -0.09880888
000280 82 29 a4 3f e0 8c a7 3f 79 8c a3 3f b4 7f 9e 3f
       1.2825167 1.3089867 1.2777244 1.2382722
000290 63 0e 81 3d 0a 0b 98 3f a2 7c 9b 3f c0 3a a8 3f
       0.06301572 1.1878369 1.214741 1.3142929
0002a0 23 08 9b 3f 94 de aa 3f a8 bc 3d bc eb 72 92 3f
       1.2111858 1.3349175 -0.011580624 1.144132
0002b0 25 e6 8f bd 68 4f 9f 3f 97 0d 97 3f b9 14 b7 3d
       -0.070263185 1.2446108 1.1801022 0.089394994
0002c0 67 08 b1 3f 54 2e a7 3f 8b 44 9c bd fe a8 9c 3f
       1.3830689 1.3061013 -0.07630261 1.2239072
0002d0 bb 1a 97 3d 20 d5 a6 3c 5e e0 a2 3f b4 e6 9d 3f
       0.07378145 0.020365298 1.2724721 1.233603
0002e0 c9 8f 9a 3f 50 c6 84 bc df 62 a9 3f 54 91 9f bc
       1.207513 -0.016207844 1.3233298 -0.019478478
0002f0 26 c3 9d 3f d8 9b a5 3f 81 a2 9e 3f 28 13 73 bc
       1.232518 1.2938185 1.2393342 -0.01483611
000300 5d f4 a9 3f 8a c6 a5 3f 0a 9a a5 3f a5 97 98 3f
       1.3277699 1.2951214 1.2937634 1.1921278
000310 68 14 a6 3f 3f b7 98 3f df 7a c8 3d ee 6e 9b 3f
       1.2974977 1.1930922 0.09789061 1.2143228
000320 25 7d 95 bd 78 1e b1 bc 33 db 96 3d 19 b0 a0 3d
       -0.0729926 -0.021620974 0.07366028 0.07846088
000330 b0 b4 e7 3b 41 73 8e 3d b4 a9 08 bd 98 d0 21 bc
       0.0070711 0.06955577 -0.033364967 -0.009876393
000340 41 a1 96 3d 40 4f 8e ba f4 e2 ac 3c 82 9e 73 3d
       0.073549755 -0.0010857359 0.021104313 0.059477337
000350 50 74 fd 3b ed a4 6e bd 00 82 31 3c d0 71 c5 bb
       0.007734813 -0.058262754 0.010834217 -0.0060255304
000360 f0 6f 22 bc 77 28 c6 3d 77 ae ae 3d 28 83 b9 bd
       -0.009914383 0.09675687 0.0852937 -0.09058219
000370 20 04 15 bd 70 4e 34 bc 42 1b 6c 3d e8 a1 b3 bc
       -0.036380887 -0.011005029 0.057643183 -0.021927789
000380 40 d2 7b bc 0c 4f d4 bc c7 2e 7f bd 8f ef af bd
       -0.015369952 -0.025916599 -0.06230047 -0.08590614
000390 4b c3 a2 bd 00 76 9b 3c 86 f4 3e 3d 80 49 d2 bb
       -0.079474054 0.018977165 0.046619914 -0.0064174533
0003a0 f3 91 bc 3d b4 56 8e bc 29 93 98 3d a0 56 89 bc
       0.09207525 -0.017375328 0.074499436 -0.016764939
0003b0 2d be 63 bd 18 dd 20 3c 37 2a cc bd 9e 82 19 3d
       -0.055601288 0.009818338 -0.09968989 0.037478082
0003c0 60 87 ad 3c 92 de 3e 3d ae a7 55 3d 91 dd af 3d
       0.021182716 0.04659898 0.052161865 0.08587182
0003d0 46 5b 86 bd 6f f6 c0 bd e8 92 0b 3c 90 db 34 bd
       -0.06560378 -0.094220035 0.008518912 -0.044154704
0003e0 80 d9 03 3a a1 72 b1 3d 58 15 2e 3c 68 e0 44 3c
       0.00050296634 0.08664442 0.010625206 0.012016393
0003f0 3e 61 aa bd 80 42 09 3a ed 38 a4 bd 68 03 cd bc
       -0.08319329 0.00052360445 -0.0801867 -0.025026038

net.2.bias f4 [100]
000000 1a 8a 68 3b f2 43 80 3f 2a 3a 52 bd c7 00 5d 3f
       0.0035482706 1.0020735 -0.051325 0.8632931
000010 7c 42 ba 3b a1 d0 81 3f 1d 9e 81 3f 71 08 d6 bc
       0.005684195 1.0141793 1.0126377 -0.026127072
000020 90 32 6a 3f ef 4f e4 bc b2 8b 84 3f da a3 76 3f
       0.914834 -0.027870147 1.0355132 0.9634377
000030 36 0b c3 bb 81 1a 75 3f bc 12 58 3f e6 4b 66 3f
       -0.005952264 0.95743567 0.84403586 0.8995956
000040 2b 7d a4 bd 3d 51 76 3f 0a 58 81 3f c8 62 89 3c
       -0.080316864 0.9621771 1.0104992 0.016770735
000050 73 df 65 3f 46 62 80 3f b6 53 70 3f b7 4e 54 3f
       0.8979408 1.0029991 0.9387773 0.8293261
000060 92 09 48 3f 1c 59 be 3c 03 36 82 3f 24 6c 83 3f
       0.78139603 0.02323585 1.0172733 1.0267377
000070 7a 1a 74 3f a4 7e 59 3f 0b d5 a2 bd 4f 28 6f 3f
       0.953529 0.84958863 -0.07950791 0.9342088
000080 a2 f4 7e 3f 18 a0 aa bc c5 6c 94 3c 77 4e 80 3f
       0.9959203 -0.020828292 0.018118272 1.0023946
000090 cc d6 73 3f a4 d3 00 bd d4 5a a8 bc 7e 6c 93 bd
       0.9524963 -0.031451836 -0.020551123 -0.071984276
0000a0 c0 16 ba 3a 50 cf c8 bd 67 fc 44 3d 94 87 73 3f
       0.0014197454 -0.09805167 0.048092272 0.9512875
0000b0 9d f8 74 3f b9 f9 7e 3d c5 76 5f 3f d1 e0 ac bb
       0.95691854 0.062249873 0.872906 -0.0052758236
0000c0 62 5c 34 bd c6 7e 78 3f cd b0 84 3c 12 8d 7e 3f
       -0.044033416 0.9706844 0.016197586 0.99434006
0000d0 b3 06 a8 bc 8d 1f 75 3f da dc 64 3f d7 49 62 3f
       -0.020511007 0.9575127 0.8939949 0.8839392
0000e0 6b dc 58 3f 6f 49 78 3f e3 67 56 3f 94 2a 45 bd
       0.8471133 0.9698705 0.8375227 -0.04813631
0000f0 e8 5d 57 bc 28 52 28 bc 11 50 7f 3f 75 80 86 3d
       -0.013144948 -0.010273494 0.99731547 0.0656747
000100 02 6e 62 3f d0 4a b0 bc 4a 47 59 3f 20 01 6a bd
       0.8844911 -0.021520048 0.84874403 -0.05712998
000110 62 55 67 3f e0 b6 a8 bc 5d ba 80 3f af 6b 5f 3f
       0.9036466 -0.020595014 1.0056874 0.8727369
000120 8b 93 71 3f 38 54 b7 bd c0 48 2a bd 97 a4 6c 3a
       0.9436576 -0.0895161 -0.041573286 0.00090272113
000130 1b 36 2a bd 1d cf 83 3f 9f c7 6e 3f 8e 39 82 3f
       -0.041555505 1.0297581 0.9327335 1.0173814
000140 bf 57 79 3f 32 e9 76 3f 2a 99 bc bd cb 74 7b 3f
       0.97399515 0.9644958 -0.09208901 0.98225087
000150 21 55 5d 3f 08 6d 83 3f 7c 57 7e 3f b7 08 3c bd
       0.8645802 1.0267649 0.9935224 -0.04590675
000160 72 f9 5d 3c c3 af 6f 3f 25 59 ae bd cb 95 80 ba
       0.013548242 0.93627566 -0.08513097 -0.0009810267
000170 07 bc 66 3f bc 81 76 3f e7 eb 61 3d d7 1e 51 bd
       0.90130657 0.9629171 0.055156615 -0.0510548
000180 fa 75 bd bd 01 e1 9f bd 4b 87 29 bb 34 e8 9c bc
       -0.09251018 -0.07806588 -0.0025867994 -0.019153692

net.4.weight f4 [11, 100]
000000 be ed 51 bd 29 b2 9f 3f 66 29 47 3d 17 ed 98 3f
       -0.05125212 1.2476245 0.048623465 1.1947354
000010 c2 bc 9f 3d 42 88 aa 3f 4d ab a1 3f 7b 9d 13 bc
       0.077996746 1.3322833 1.2630402 -0.009009714
000020 d0 ae a8 3f 81 83 88 3d 5f c2 a4 3f 94 51 9e 3f
       1.3178349 0.066657074 1.2871817 1.2368646
000030 3b 28 c6 3d 50 c5 a2 3f 45 88 a4 3f d7 70 af 3f
       0.09675642 1.2716465 1.2854086 1.3706311
000040 38 77 a7 3c 57 5d b0 3f ce 4d a2 3f 73 e6 58 bd
       0.02044259 1.3778485 1.2679994 -0.05295415
000050 b8 37 ab 3f 16 ce af 3f e1 24 b2 3f 9d 64 a9 3f
       1.3376379 1.3734767 1.3917505 1.323383
000060 12 b4 8d 3f ea 75 9f bd c0 f9 ae 3f 8f 6f af 3f
       1.1070578 -0.07786162 1.3669968 1.370592
000070 d5 c1 98 3f 0e 8b a2 3f 25 4a 93 3c 64 db a2 3f
       1.1934153 1.2698686 0.01797969 1.2723203
000080 89 82 ab 3f ca 56 42 bd 13 13 d5 bc a2 cb 99 3f
       1.3399211 -0.04744605 -0.026010072 1.2015269
000090 55 e4 a0 3f 11 aa 40 bd da c2 52 bd 7c f3 9a 3d
       1.2569681 -0.047037188 -0.051455356 0.07565972
0000a0 58 d7 4d bc 26 e5 80 bd 4d e0 1e bd 9b d6 a8 3f
       -0.012563549 -0.062937066 -0.03878813 1.3190492
0000b0 ff a6 9f 3f 83 fb d7 3d 26 cd a9 3f 81 6c 3d bd
       1.2472838 0.10546019 1.3265731 -0.046246056
0000c0 67 d7 7a bd 4c 8b 9f 3f 6b 0c 79 bd 88 fa ab 3f
       -0.06124058 1.2464385 -0.06080286 1.3435831
0000d0 03 2a 86 bd 1a 39 ac 3f a9 c5 9c 3f 0c 95 a8 3f
       -0.06550982 1.3454926 1.2247821 1.3170485
0000e0 78 b3 a1 3f bc a6 aa 3f db b1 9e 3f 90 22 a0 3d
       1.2632895 1.3332133 1.2398027 0.07819092
0000f0 d9 c0 95 3d cb 33 b7 3d 18 79 9f 3f 5c 5b 35 bd
       0.073121734 0.089454256 1.245883 -0.04427658
000100 ac 68 9f 3f 83 d4 d7 bc 80 b4 a0 3f 97 a8 35 bd
       1.2453818 -0.02634645 1.2555084 -0.044350233
000110 7b 6b 9a 3f 68 9d c7 bc 03 29 b1 3f f2 77 ae 3f
       1.206405 -0.02436705 1.3840641 1.3630354
000120 53 32 a0 3f f1 3f a8 3d 3a 1b 28 bc e4 8e df bb
       1.2515358 0.08215321 -0.010260398 -0.006822454
000130 39 ff ab bd ee 2d b0 3f 98 58 97 3f 9e 5e a8 3f
       -0.08398289 1.3764017 1.1823912 1.3153875
000140 93 8b 98 3f 5e 0c af 3f dd b6 bb bd 15 f5 aa 3f
       1.1917595 1.3675649 -0.09165738 1.3356043
000150 64 61 91 3f 5e bd a7 3f 09 f0 ab 3f 3f 1e b1 3d
       1.1357846 1.3104665 1.3432628 0.08648347
000160 5f 2a a1 3b 8a 64 b0 3f c9 ed 86 3d 36 ea bd 3d
       0.004918381 1.3780682 0.06588323 0.09273188
000170 a3 2c 9d 3f cb 10 a3 3f d0 cc a6 3c d6 16 8c bd
       1.2279247 1.27395 0.020361334 -0.06840293
000180 58 30 9a 3c cb 0d 83 3d 19 03 f1 3c 35 6f b8 bd
       0.01882188 0.06399115 0.029420422 -0.09005586
000190 aa 9a 13 bd c1 ea 88 3f b5 32 ab bd 98 1a 8b 3f
       -0.03603617 1.0696641 -0.08359281 1.0867491
0001a0 5a c6 08 bd 63 63 80 3f b1 ea 81 3f 99 05 9e bc
       -0.033392288 1.003033 1.0149747 -0.019289779
0001b0 05 8e 73 3f ee 1d 52 b9 63 d1 80 3f f8 09 8d 3f
       0.9513858 -0.0002003831 1.00639 1.1018667
0001c0 b0 b0 e1 3a ef 4d 83 3f 6e 94 84 3f 37 ba 8f 3f
       0.0017218795 1.0258158 1.0357797 1.1228703
0001d0 60 03 9e bd 43 f0 7e 3f 9e 1d 82 3f 69 59 b2 3d
       -0.077154875 0.9958536 1.0165288 0.0870846
0001e0 4f d9 81 3f 71 10 80 3f f0 03 7d 3f 5f 6a 6d 3f
       1.0144442 1.0005018 0.98834133 0.92740434
0001f0 fc 4a 2d 3f cb ed 97 bd d4 7b 88 3f 10 46 82 3f
       0.6769254 -0.07418402 1.0662789 1.0177631
000200 ce 59 6d 3f d1 8f 82 3f 76 d8 80 bc ec 02 89 3f
       0.92715156 1.0200139 -0.015728217 1.0704017
000210 3f ad 8c 3f 31 15 b3 3d 07 8a 36 3d 2b f6 8f 3f
       1.099037 0.08744276 0.044565227 1.1247
000220 a3 2d 8f 3f f4 b8 95 bc b8 9f af bd ce 8f 57 3a
       1.1185802 -0.01827667 -0.08575386 0.00082230277
000230 5f e3 9a 3d 3a da 5b 3d 6f c5 80 bc 7d a5 81 3f
       0.07562899 0.053674914 -0.015719144 1.0128628
000240 ce 67 8c 3f d4 88 8a 3d 46 68 8d 3f 6d 1a 55 3d
       1.0969179 0.06764379 1.1047447 0.052027155
000250 70 49 c6 bc f1 45 70 3f 8f 40 a1 3d 6a 5d 74 3f
       -0.02420494 0.9385672 0.07873642 0.9545504
000260 7c 73 56 bd 65 33 84 3f 7c 37 82 3f 3a de 71 3f
       -0.05235623 1.0328184 1.0173182 0.94479716
000270 09 79 85 3f 0a df 88 3f 3b 3a 65 3f 3a 98 6b bc
       1.0427562 1.0693066 0.8954198 -0.014379555
000280 e0 1d ad bc f2 f8 6b 3d 5d 2d 89 3f 81 7a 87 bd
       -0.02113241 0.05761046 1.0716969 -0.06615163
000290 ff 34 78 3f 81 b6 27 3b 14 4d 6b 3f a6 8d aa bd
       0.96955866 0.0025590959 0.91914487 -0.083277985
0002a0 27 fd 86 3f 98 2c ef bc 7a bd 6e 3f 07 f0 8c 3f
       1.0546006 -0.029196069 0.9325787 1.101075
0002b0 71 d6 76 3f ad 21 d7 bd a1 27 bd 3b c4 30 87 bd
       0.9642096 -0.1050447 0.0057725464 -0.06601098
0002c0 fb 27 c7 3d 80 f1 82 3f 96 7c 78 3f 37 82 88 3f
       0.097244225 1.022995 0.97065103 1.0664738
0002d0 13 4b 77 3f 96 6e 81 3f e2 74 6e 3d 8b 08 8f 3f
       0.9659893 1.0111873 0.058216937 1.1174482
0002e0 f9 95 5e 3f 42 37 8e 3f 49 4a 6e 3f fa 19 46 3d
       0.8694759 1.1110613 0.930821 0.048364617
0002f0 c9 35 85 bd 41 f7 82 3f 92 b5 84 bd 14 b6 d4 3d
       -0.06504399 1.0231706 -0.06479944 0.10386291
000300 5b e2 6b 3f 39 40 85 3f f4 14 ea 3d 3b 3a a7 bd
       0.92142266 1.0410224 0.11429778 -0.081654035
000310 ca 57 64 bd 62 bd 64 3d 07 f6 7f 3d 9a 9f 24 3d
       -0.055747785 0.055844672 0.06249049 0.04019127
000320 50 cd d2 bc 92 98 72 3f 07 75 c5 3d 40 7c 78 3f
       -0.025732666 0.94764054 0.09641462 0.9706459
000330 2f fe aa bd 6d 50 87 3f 56 ac 7f 3f f0 7e bd bd
       -0.08349263 1.0571419 0.9987234 -0.09252727
000340 1f d8 71 3f 43 fe 99 bd 6b a6 78 3f 37 b3 81 3f
       0.944704 -0.075192 0.97128934 1.0132817
000350 1e 00 ce bc 55 e2 86 3f ea 32 66 3f d0 10 8b 3f
       -0.02514654 1.0537821 0.8992144 1.0864506
000360 5b 9f b2 bd 77 62 69 3f 93 57 7e 3f 79 1b 9d 3d
       -0.08721801 0.9116587 0.9935238 0.076712556
000370 e5 0d 77 3f c8 3c 6b 3f aa fa 88 3f 4b 32 7b 3f
       0.96505576 0.9188962 1.0701497 0.98123616
000380 44 b7 31 3f 8f 52 88 bd 99 9c 82 3f 18 6e 7f 3f
       0.69420266 -0.06656372 1.020404 0.99777365
000390 22 db 86 3f 9e 3e 65 3f 18 8c 4b bc b0 c7 8a 3f
       1.0535624 0.8954867 -0.012423538 1.084219
0003a0 88 89 87 3f c0 75 06 bd e0 36 8e bc 7d 5d 88 3f
       1.0588846 -0.03282714 -0.01736015 1.065353
0003b0 c2 45 84 3f e7 a9 87 bd a2 2a 50 3d 16 5e e2 ba
       1.0333788 -0.06624203 0.050821908 -0.0017270471
0003c0 bf 4e bf 3d c1 f3 81 bd b0 dd e3 bc 5e 2f 8b 3f
       0.093411915 -0.063453205 -0.02781567 1.087383
0003d0 91 fb 76 3f 6e 15 a3 bd 36 b5 85 3f 4a 55 a1 3b
       0.9647761 -0.07963072 1.0445926 0.0049234973
0003e0 7c 84 54 3d 8c da 78 3f 65 d8 c6 3d 63 58 7a 3f
       0.05188416 0.97208476 0.09709243 0.9779112
0003f0 77 5f d1 3b 34 60 88 3f 2b 17 7b 3f 60 ee 65 3f
       0.006389554 1.0654359 0.98082227 0.89816856

net.4.bias f4 [11]
000000 b9 af da 3e 2c 66 81 3f 5a 3a 07 3f 2c 08 0e 3f
       0.4271219 1.0109305 0.5282341 0.5548122
000010 df 13 81 3e 40 c8 5f 3f 78 8a 90 3e b3 61 04 3f
       0.25210473 0.8741493 0.28230643 0.5171158
000020 94 4b 9f 3d b6 4d 87 3f 78 fa 5c 3e
       0.07778087 1.057059 0.21579921
