models/part3_1.pt (torch, 109207 bytes, 6 tensors)

net.0.weight f4 [100, 155]
00000000: 3df6 8e3d 8808 ee3d 3ffe d03d f07a 9fbb
00000010: c0e2 073c f06f c33b 16e7 393c e66c 783d
00000020: 2e78 363d 58fe 8f3d 6978 b73d 08ed 923d
00000030: 487d ffbb 6bdc 9e3e f4f5 7a3e 9546 2d3e
00000040: 41f2 a03d afcc ea3d dc20 203e d092 963c
00000050: d151 18bd 2669 5c3e c645 4abd 4cae 8a3d
00000060: 2da8 8f3e 3714 723e 1408 973e fd17 6e3e
00000070: d211 6a3d c056 fe3d 2420 d13c 00fe 9abd
00000080: 27ac 5d3e c210 523e c705 31bd a554 c63c
00000090: 7339 983c 5a2c 5c3d 7ac5 4d3d 6a1c 43bd
000000a0: 915c 25bd e34e f1bc 75ae 6cbd f0a2 093e
000000b0: 8d9c 50bd 696e 22bd 48a6 bf3c 828e 463d
000000c0: 664b bfbc 9aea a3bd c8fd 393c 9499 283d
000000d0: 00bf 953d 80ba f93b 19f3 983d 3916 85bd
000000e0: 775f 9d3d 3b72 54bd 4a19 5bbd 121d 6c3d
000000f0: 2672 973d 034d 4b3d 4870 66bd 6ee9 783d
00000100: a702 9c3d 1c3d c73c 5bb3 843d 51f2 6abd
00000110: 7745 64bc 605d 823d f2e9 393d f0ab 2fbd
00000120: 6a5a 513d a676 4c3d b94e 19bd 6dcb bf3d
00000130: f239 943d 52f3 0b3c 45bd 733c d17e 0a3d
00000140: 6b17 2e3d 264b 11bc aa6a 69bd 636d 0bbd
00000150: 5733 e03d 7f74 3bbd d31a c83c 8f24 543e
00000160: 2e86 603e eee2 9c3d b596 febc 705d 60bc
00000170: 6627 153e 1adc d8bc f757 9cbd a24e 18bd
00000180: 2c0b ab3d 58c9 4e3d e61b 913d 25b4 793d
00000190: d3b8 a2bc 8ab9 cd3d 83ef 53bd 9e3c c53c
000001a0: 1119 ec3c 4978 94bb aff4 a9bd 5f67 66bc
000001b0: 97b1 82bd bf83 17bd ffbf 09bd 96f0 8cbc
000001c0: aca3 bbbd 9303 423d 9dd0 62bd 387a 7f3b
000001d0: 75be 0b3d 540f c33d b193 753e ad3f 4b3e
000001e0: 956a 933d 585c de3c 1779 873d fc8f 283e
000001f0: cb0d 77be d996 413d b78f 273d 0b3b 493e
00000200: 7a96 1b3e 743b 823e 0018 3d3e 79cf 563e
00000210: 913e 673e e152 8f3d 5995 1538 ab27 9f3c
00000220: e38b 683d c6bb 2a3e 6a9e 873e dc7c 843e
00000230: c50d 903d a976 963e e65e 703e 0c8e 943e
00000240: 3833 2abc a7e7 8b3e d756 8d3e 82ca 8e3e
00000250: c906 293e e700 673e 93d0 713e 3241 8d3d
00000260: 6c8d ec3d 96e6 ae3d b786 053e 97c3 c73d
00000270: 13e0 223d ac7e bc3c 201b 8bbd ecc4 66bd
00000280: 571e 8cbd 49e4 8f3d d156 11bd bddc b3bb
00000290: 23e8 e33d 4135 a43d b219 733d 9ca2 57bd
000002a0: e1c2 9f3e c070 233e 18fe ff3d e236 5e3e
000002b0: 9f1e dc3d 372e 3f3d c137 853c eb42 843d
000002c0: ff60 963e 9c63 2fbd db13 ea3c f95f 433e
000002d0: 6b68 8a3e fe2f 813e b96c 873e 8a23 4a3d
000002e0: 788c eb3d 0a8d 0abd efa6 80bd c343 453e
000002f0: 0124 5d3e 7ed0 85bd 8d0c 71bb 8bec 9bbd
00000300: 0a25 69bd 3c58 66bd 1724 79bc 9662 ddbc
00000310: 708e 4b3c 461e 493d 44f3 2b3e 4c5d d73c
00000320: 8c51 823c d083 6abc 1664 5f3d 726d 3cbd
00000330: a2cd 6d3d c661 9ebd 0a8e 75bd 6391 fb3c
00000340: 2d81 07bd ea60 ed3c 62d4 a03d 9a43 163d
00000350: bf01 a13d 3146 08bd 571b 1dbd 2a79 ab3d
00000360: d11c 84bc 70b7 10bd 0069 a3bb a99c 943d
00000370: d757 34bd 92c2 383d bcd5 183d 97d1 493d
00000380: d885 613d f812 f3bc 3ec8 073d f9f4 1abd
00000390: eb57 eb3c 76df a13d 7e43 1b3e 71f3 8f3d
000003a0: 029d 0a3e d9ce 263c 7863 d53c 4968 af3d
000003b0: de88 28bb 2a5f bfbc 0731 9b3d 0fc7 463b
000003c0: 6c72 3aba 3ac7 fabc 4c78 643e a534 413e
000003d0: 0d1b cd3d e5ae a7bb fcbd 6d3d 416b 3a3d
000003e0: 800a 803d d980 82bd 6fc3 083c 8dbe d1ba
000003f0: 8885 09bd 5814 b23d 6928 b83c c44f 543d
0.0698056 0.11622721 0.102047436 -0.00486695 0.0082938075 0.0059642717 0.011346599 0.06065073
0.044548206 0.07030934 0.08958513 0.071741164 -0.007796917 0.3102754 0.24507886 0.16921456
0.07858706 0.114648215 0.15637535 0.018380553 -0.0371874 0.21524486 -0.049382947 0.06771526
0.28057995 0.23640524 0.2949835 0.23251338 0.0571459 0.1241889 0.025528021 -0.07567978
0.21647702 0.20514205 -0.0432184 0.024210284 0.018582081 0.053753234 0.050237156 -0.04763452
-0.04037148 -0.029456561 -0.057783563 0.13441062 -0.05093055 -0.039656077 0.023394719 0.04847575
-0.023351382 -0.08003731 0.01135201 0.04116209 0.07311821 0.0076211095 0.07468242 -0.06498379
0.07684224 -0.05186675 -0.053490914 0.05764491 0.07394819 0.04963399 -0.056259423 0.06076949
0.076176934 0.024321131 0.06479522 -0.057359997 -0.013932577 0.06365466 0.045389123 -0.04288858
0.051111616 0.04991784 -0.03742859 0.09364972 0.07237615 0.008541899 0.014876668 0.033812348
0.042502802 -0.008868014 -0.05698649 -0.034039866 0.10947292 -0.045765396 0.024426853 0.20717071
0.21926185 0.07660471 -0.031077722 -0.013694152 0.1456581 -0.02647214 -0.076339655 -0.037184365
0.0835174 0.050484985 0.07085399 0.060962815 -0.019863522 0.100451544 -0.051742088 0.024076756
0.028820546 -0.0045309407 -0.08298623 -0.0140627315 -0.06381529 -0.036990877 -0.033630367 -0.017204564
-0.09162077 0.04736669 -0.05537473 0.003898276 0.03411718 0.09524408 0.23982121 0.19848509
0.07198063 0.027143642 0.06614893 0.16461176 -0.24126355 0.047263 0.04090854 0.1965143
0.15194121 0.25435984 0.18466187 0.20977582 0.22582461 0.0699823 3.566346e-05 0.019428095
0.05677403 0.16673192 0.26488048 0.2587651 0.07033876 0.29387406 0.23473701 0.29014623
-0.010388188 0.27325174 0.27605316 0.27888876 0.16506495 0.22558938 0.23614721 0.06897201
0.115504116 0.085400745 0.13039671 0.09754103 0.039764475 0.02300962 -0.06792283 -0.056340143
-0.06841724 0.07025964 -0.035483185 -0.0054889605 0.11128261 0.0801797 0.059350677 -0.05264531
0.31203368 0.1596098 0.124996364 0.21700624 0.10748028 0.046674933 0.016261937 0.06458076
0.29370877 -0.042819604 0.028573921 0.1907958 0.2703279 0.25231928 0.26450136 0.0493503
0.11501402 -0.03382591 -0.0628184 0.1926413 0.21595766 -0.06533907 -0.0036781162 -0.07613476
-0.05692009 -0.05623649 -0.015206358 -0.027024549 0.012424096 0.049101137 0.16792017 0.026289605
0.015908025 -0.014313653 0.05453881 -0.046002813 0.058057435 -0.077334926 -0.059949912 0.030708974
-0.033082176 0.028976876 0.07853009 0.036685564 0.07861661 -0.033270065 -0.03835615 0.083727196
-0.016127022 -0.03533119 -0.004986882 0.07256443 -0.044029083 0.04510743 0.037313208 0.049272146
0.055059284 -0.029672131 0.03314995 -0.03783128 0.028728446 0.0790395 0.15162465 0.07028855
0.13536456 0.010181152 0.026048407 0.08564813 -0.0025716345 -0.023360807 0.075777106 0.003033105
-0.0007112387 -0.030612577 0.22311515 0.18867739 0.10014925 -0.0051172846 0.05804251 0.04551244
0.06252003 -0.06372232 0.008347376 -0.0016002223 -0.03357461 0.086952865 0.022480207 0.051833883

net.0.bias f4 [100]
00000000: 8d94 973e bcce b63e d166 983e 2276 963e
00000010: e5af aa3e 9916 91bd 7c0e b63e deae c33e
00000020: 03bb 75bd fb45 b23e c697 95bd da5d 9b3e
00000030: 8f42 903e ddae 7e3e 12be a73e 8da2 b73e
00000040: 154a 9f3e 7728 ad3e ebf9 35bd 50a9 bf3e
00000050: 6eec 82bd 7f54 983e 222e 983e 4359 733e
00000060: d45c c53e 9a34 c33e 3f38 b83e e32f 923e
00000070: 9ef0 8b3e 44a8 993e bdeb 913e a0dc a13e
00000080: c827 b13e 7550 c83e cfda bc3e 6724 87bd
00000090: 1fd8 c53e a59f 98bd dc24 a53e 8101 a53e
000000a0: 488d 9c3e 2d2f 913e c853 8f3e b6c8 b63e
000000b0: abb4 51bd 1148 a83e d8cb b13e 3f31 c23e
000000c0: 168f 9e3e 2a23 c13e 0dc5 6b3e bfbb 52bd
000000d0: 35f4 8ebd ca23 a33e 6c76 4bbd 0416 b93e
000000e0: a0a1 8e3e 7e1a a73e b4e2 c33e f71e a2bd
000000f0: 1a8e b43e c8d8 7e3e 00d6 b83e 58d3 903e
00000100: 8825 8dbd 5708 a83e 8a10 a63e ceb0 aa3e
00000110: 4342 b53e 111c 9d3e 2592 18bd 5674 ca3e
00000120: d527 953e 253e c03e 0550 bd3e 2454 a1bd
00000130: 5e4d 963e 98d5 a13e 52d3 83bd 0c7d aa3e
00000140: 8bfd 07bd dad5 28bd e0b1 be3e 93a4 9e3e
00000150: b9d1 be3e 2457 9b3e c654 953e c2e7 873e
00000160: 48c9 a53e b8a2 bf3e 31f1 9f3e 314e 893e
00000170: 6080 bd3e 6f96 9d3e c0d5 a03e 8b5b c73e
00000180: 79f6 c53e 3480 c93e 2ba6 95bd 9696 a03e
0.29605523 0.357046 0.29765943 0.29387003 0.33337322 -0.07084388 0.35557926 0.3821935
-0.0599928 0.34819016 -0.07304339 0.3034504 0.2817578 0.24871393 0.327622 0.35866204
0.31111208 0.33819935 -0.044427793 0.37433863 -0.06392752 0.29751965 0.29722697 0.2376452
0.38547385 0.3812607 0.35980412 0.2855216 0.27332014 0.3001119 0.28500167 0.31613636
0.34600663 0.39123884 0.36885688 -0.0659874 0.3864145 -0.07452325 0.32254684 0.3222771
0.3057654 0.28356305 0.27993608 0.35700005 -0.05119769 0.32867482 0.34725833 0.37928197
0.3096854 0.3772214 0.23024388 -0.05144858 -0.069801725 0.31863242 -0.049673483 0.3614961
0.27857685 0.326374 0.38258898 -0.07916062 0.35264665 0.24887383 0.3610077 0.28286242
-0.06891924 0.32818863 0.32434493 0.33338016 0.35402116 0.30685475 -0.03724875 0.39541882
0.29131952 0.37547413 0.36975113 -0.07877377 0.293559 0.31608272 -0.064367905 0.33298528
-0.03320078 -0.04121957 0.37245083 0.30984935 0.3726938 0.3033992 0.2916624 0.26544005
0.32380128 0.37428832 0.31238702 0.26817468 0.37012005 0.30778834 0.31413078 0.3893703
0.38664606 0.39355624 -0.07307085 0.31364888

net.2.weight f4 [100, 100]
00000000: b05e bdbd 0d58 aabd a085 83be 8706 b4bd
00000010: 1395 69be c720 4dbd 8ddd 60be 48ee 54be
00000020: 1819 80bc a149 21be 7d75 33bd 2d61 c1bd
00000030: 27b7 62be 37f1 acbd ff1e 81be 9fa0 0abe
00000040: 965c 66be 71af 62be 5438 c23c a330 38be
00000050: ed66 89bd 17c4 38be 38e3 7fbe d5fe 51be
00000060: 94ad c5bd d3f8 17be de50 4abe 7dd1 b4bd
00000070: c34b 27be ab34 c8bd 0eb2 06be 7158 1cbe
00000080: 6c20 4fbe 3c14 4ebe 1192 8cbd 5425 af3c
00000090: da2e 93bd d6c2 743d 6e16 38be ed1d 88be
000000a0: b747 f5bd d00c 3ebe 2a8a 14be e5ad 45be
000000b0: 3ded a03d bbd2 94bd 2b2c 61be 98be 38be
000000c0: d0a4 78be 96b1 dcbd 157d 72be d309 a5bd
000000d0: 73b6 95bd e77a 7bbe eb34 9e3d d9cd 4dbe
000000e0: d48b f2bd 6049 56be 44b2 43be 6067 e0bc
000000f0: 68c1 72be 39c6 16be 8e2e 49be 2261 15be
00000100: ca80 aebd 9aba 13be 3657 a4bd 8a89 49be
00000110: 6290 07be e7d2 88be a34c 27bd 5d91 8fbd
00000120: 2384 02be 39e5 f1bd 280d 08be 7844 a7bc
00000130: c82d 66be 9036 89bd 2c33 16bd a904 29be
00000140: 2836 9bbd 6bfc 9c3d 5f8b 45be 2b7a 42be
00000150: cb65 64be e901 14be 9d4f 7bbe 945e b2bd
00000160: e522 c5bd 35cd 71be ebfa 88be d0b3 08be
00000170: 5dfb 5ebe ed90 87be 6699 d1bd 7b7e 3bbe
00000180: 2851 0cbe 3c3b 15be 26d2 7fbd cbce 50be
00000190: 3edf 28bd 9788 24be 36f1 afbd bb91 b4bd
000001a0: 4938 f4bd 8b6a ca3d ed2d 28be a8d8 2abe
000001b0: e50f 94bd c955 b9bc 8d55 aebd 334c 95bc
000001c0: 1f6a b13c b857 c33c c4a7 3e3c d39c 73bd
000001d0: 9bc9 29be c5b9 56bd 72a4 283d 204d acbd
000001e0: ad7a b3bd e2e3 bc3a 6804 49bd aae3 a0bd
000001f0: c4a6 b8bd 7ece 2cbe 37f1 3e3c ff6d 33be
00000200: ca20 0fbe 2c07 8e3c a505 ccbd c364 cebc
00000210: 7b25 67bc 85db b9bd 6ee6 cabd 4aff 353d
00000220: 1190 cabd da48 293d 5ecf ccbd 9fc6 fabd
00000230: f3c9 0fbe 83b1 34be 5ac4 d9bd fe58 fdbd
00000240: 42a3 013d 89cd 92bd a3ef 12be 39d0 1bbe
00000250: 4634 b6bd 40f5 2fbd 5241 f4bd b54e 773c
00000260: aaf6 5bbd fb85 f6bd f09c 61bc 4896 19bd
00000270: 3aee 23be e4ef afbc 39c3 abbc 4f5c cabd
00000280: 1c5a 1abd 3635 73bd bbc8 1ebd 1db4 05be
00000290: 630e 813d abb8 0abe de03 f6bd 66f3 34bd
000002a0: 5c02 cebd 89ac 5fbc a8bc 3dbc b97c 21be
000002b0: 9ab8 1fbe d955 9abd 81dd 12be b914 b73d
000002c0: 809d 8f3c 3b8a 8ebc 8b44 9cbd d82c d0bd
000002d0: bb1a 973d 20d5 a63c 0d40 8fbd 76d2 abbd
000002e0: 4761 0bbe cbaa d7bd f237 80bc 62c1 b7bd
000002f0: 8c50 c7bd e433 f2bc a592 f6bd ab5f 2abe
00000300: 30e1 9c3b 988a 90bd 2c15 04bd 895f 03be
00000310: b97c fdbc 03f4 07be 0e8a c83d 4f34 d7bd
00000320: 7a0c 36bd 5d78 bb3b f235 c83d 5033 c83d
00000330: 59a3 2f3d 4173 8e3d de5c 39bc 62a2 b03b
00000340: 41a1 963d 918f 743c f4e2 ac3c 5e07 9d3d
00000350: 1b40 f13c 2d6f dbbc 85de f33c 8f10 7e3c
00000360: 4a52 133c 0709 f03d 77ae ae3d 4a1d 92bd
00000370: 2004 15bd ddb1 803c 9bd1 b73d 3c44 11bd
00000380: 5acf 513a 718d 27bc 9f24 1ebd 4c9a 80bd
00000390: 7389 4fbd d40c 2e3d 2543 973d 0a34 443c
000003a0: 042f e93d f8f5 bab9 843f bb3d a056 89bc
000003b0: d807 21bd 18dd 203c 3a76 8cbd 1dd2 833d
000003c0: 5e86 253d 3c72 883d 1521 983d d595 d03d
000003d0: 465b 86bd 993b 8cbd ecd1 de3c 3f34 e2bc
000003e0: 2a62 d53c e48e d13d 33cd 9a3c 272e 843c
000003f0: 3e61 aabd 7a99 c13c ed38 a4bd 56d0 12bc
-0.09246576 -0.083175756 -0.25687885 -0.087903075 -0.22810774 -0.050080087 -0.21959515 -0.20794022
-0.015636966 -0.15750743 -0.043813217 -0.09442363 -0.2214018 -0.084444456 -0.2521896 -0.13537835
-0.22496256 -0.22137238 0.0237085 -0.17987303 -0.06709085 -0.18043552 -0.24989021 -0.20507367
-0.09652248 -0.14841013 -0.19757411 -0.08829019 -0.16337495 -0.097756706 -0.1315386 -0.15268113
-0.20227212 -0.20124906 -0.068637975 0.021380104 -0.071866706 0.059756123 -0.17977306 -0.26585332
-0.11976569 -0.18559575 -0.1450583 -0.19304617 0.078577496 -0.07266756 -0.21989505 -0.18041456
-0.24281621 -0.10776059 -0.23680528 -0.080585144 -0.0731019 -0.24558602 0.07724937 -0.20098056
-0.11843076 -0.20926428 -0.19110972 -0.027393043 -0.23706591 -0.14724053 -0.19646665 -0.14587834
-0.08520658 -0.14426652 -0.08024447 -0.19681373 -0.13238671 -0.26723406 -0.04084457 -0.07010148
-0.12745719 -0.11811299 -0.13286269 -0.02041839 -0.22478402 -0.0669986 -0.036669895 -0.16505684
-0.07578689 0.076653324 -0.19291447 -0.18991916 -0.22304456 -0.14453854 -0.24542089 -0.087094456
-0.09625796 -0.23613437 -0.26753935 -0.13349843 -0.21775575 -0.26477757 -0.102343366 -0.18309967
-0.13702834 -0.14573377 -0.062456273 -0.20391385 -0.041228525 -0.1606773 -0.08590929 -0.088168584
-0.11924798 0.09883603 -0.1642377 -0.1668421 -0.07229594 -0.022623913 -0.08512411 -0.018224811
0.021657048 0.023845538 0.011636678 -0.05947573 -0.16580813 -0.052423257 0.041172452 -0.08413148
-0.08763633 0.0014411176 -0.049076468 -0.078559235 -0.09016183 -0.16875646 0.01165419 -0.17522429
-0.13977352 0.017337404 -0.09962014 -0.025194531 -0.014108057 -0.09075073 -0.09907232 0.044432916
-0.0989076 0.041329242 -0.1000049 -0.12244915 -0.14041881 -0.1764584 -0.10633154 -0.123704895
0.031649835 -0.07168109 -0.14349227 -0.1521615 -0.08896689 -0.042958498 -0.11926521 0.015094449
-0.053702034 -0.120372735 -0.013770327 -0.037496835 -0.16008845 -0.021476693 -0.020967113 -0.09880888
-0.03768359 -0.059376918 -0.03876565 -0.13056989 0.06301572 -0.13547008 -0.12012456 -0.044177435
-0.10059044 -0.013651975 -0.011580624 -0.15770234 -0.15597764 -0.075359054 -0.1434231 0.089394994
0.017531157 -0.017399898 -0.07630261 -0.10164803 0.07378145 0.020365298 -0.069946386 -0.083897516
-0.13611327 -0.10530623 -0.015651677 -0.08972432 -0.0973216 -0.029565759 -0.12039689 -0.16638057
0.0047875866 -0.07057685 -0.032246754 -0.12829413 -0.030943261 -0.13276677 0.09791957 -0.10508024
-0.044445492 0.0057211355 0.09775914 0.09775412 0.04288039 0.06955577 -0.011313645 0.0053904513
0.073549755 0.014926807 0.021104313 0.07667421 0.029449513 -0.026786411 0.029769192 0.015506878
0.008991787 0.11720472 0.0852937 -0.07134493 -0.036380887 0.015709812 0.08975526 -0.035465464
0.0008003615 -0.010226593 -0.038609143 -0.0627943 -0.05066819 0.042492703 0.07385854 0.011975298
0.11385921 -0.00035659946 0.09142974 -0.016764939 -0.03931412 0.009818338 -0.068584874 0.0643656
0.040411346 0.066624135 0.07428185 0.10184828 -0.06560378 -0.06847305 0.027199708 -0.027612804
0.026047785 0.10232332 0.018896675 0.016135288 -0.08319329 0.023632754 -0.0801867 -0.008960804

net.2.bias f4 [100]
00000000: 9cd5 f3bd 7a25 fa3b 7298 1ebd a525 bebd
00000010: ab17 efbd a5cc 1b3d 127f 3cbd c266 1abe
00000020: 13fe fdbd 7c4a 26be 3938 45bd 0890 a9bd
00000030: b355 06be 1096 8cbd abf3 0ebe a216 88bd
00000040: f787 58be ecde f1bd 690e 94bd 1e7d 64bd
00000050: 3a4e 3abe 99cd 173a e65a f0bd 5b94 b6bd
00000060: abf7 6cbe 6e28 b9bd 2add 77bd 57df 00bd
00000070: 0837 8dbd db31 febd f902 4dbe b15a 98bd
00000080: 3a40 1bbd b88e e0bd da5a ccbd e033 9abd
00000090: d76c b23b 1219 1bbe cad8 21be e548 5abe
000000a0: 924b edbc b9f4 5dbe 4379 81bd a03a 8fbd
000000b0: 8428 cfbd e828 4dbd 54c9 19bd c178 fabd
000000c0: f2fc 2dbe 8dc3 d6bd 14ac c1bd 2935 63bd
000000d0: 1142 13be 8a4e 91bc 4e6f 57be 4fe9 50be
000000e0: 72e0 03be 6d04 213b f871 43be 7478 39be
000000f0: ddba e5bd 20fc e7bd 1fd9 1d3d d6a1 0bbd
00000100: 2bcd dcbd 113c 14be 9944 3fbe e167 46be
00000110: b3f3 1abe 4169 1ebe 5b14 07bd da33 923e
00000120: 1879 01bd f8f2 62be 27e9 27be d097 02be
00000130: d9fa 37be d965 4cbd 3cc4 1fbe 32a4 9f3c
00000140: 7c41 85bd ebe5 76bd 66a5 74be a74e bdbd
00000150: edd4 30be 7ba4 25bd 5444 29bc 111f 40be
00000160: 6d45 f0bd 9614 0ebc 04cf 61be f101 edbd
00000170: 8a4d ffbd 030b bbbd a5ee 65bd a022 37be
00000180: 5e95 6dbe 29fd 56be 7cea 09be e5de 16be
-0.11905977 0.007633862 -0.038719602 -0.09284524 -0.11674436 0.03803696 -0.04601962 -0.15078261
-0.124019764 -0.16239351 -0.04814932 -0.08279425 -0.13118629 -0.0686456 -0.1396014 -0.06644942
-0.21145616 -0.11810097 -0.07229311 -0.055783384 -0.18193904 0.00057908293 -0.117360875 -0.08915015
-0.23141353 -0.090409145 -0.060513653 -0.031462993 -0.06895262 -0.12411853 -0.20020665 -0.07439173
-0.037903048 -0.109647214 -0.09978266 -0.075294256 0.0054451036 -0.15146282 -0.15805355 -0.2131687
-0.028966699 -0.21675386 -0.06321957 -0.06993604 -0.101151496 -0.05008784 -0.037545517 -0.12230063
-0.16991022 -0.10486517 -0.094566494 -0.05547062 -0.14380671 -0.017737646 -0.21038553 -0.204015
-0.12878588 0.0024569288 -0.19086444 -0.18112355 -0.11217282 -0.11327386 0.03853714 -0.034089886
-0.1078132 -0.14476039 -0.18678512 -0.19375564 -0.15132026 -0.15469839 -0.032978397 0.28555185
-0.031609625 -0.22162998 -0.16397534 -0.12753224 -0.17966785 -0.049901817 -0.15602201 0.019487474
-0.06506631 -0.06027786 -0.2389122 -0.09243517 -0.17268725 -0.040440064 -0.010331232 -0.18761851
-0.11731992 -0.0086719 -0.22051626 -0.11572636 -0.12465961 -0.0913296 -0.056135792 -0.17884302
-0.2320151 -0.2099501 -0.13468355 -0.14733465

net.4.weight f4 [11, 100]
00000000: d2c8 063d 45ad ea3d 7702 983e 7580 093e
00000010: 2500 253e b1e4 6c3e 6467 883d b184 a73d
00000020: cf8f 073e 62da 243e 706d a93d fb17 823d
00000030: 0ea8 3c3e 3f09 e83d b5a0 533e ed37 8e3e
00000040: d96c ec3d 9080 423e bfd2 903d df68 ce3d
00000050: cbad 163e 0033 7e3e db0d 513e fecf aa3e
00000060: ea7b 013e fc74 bd3b c502 3e3e 07dc 513e
00000070: 3588 4e3d a81d 353e c9fb cd3d 9a04 173e
00000080: 88aa 3b3e 2868 ba3d 9414 5e3d 5d88 873c
00000090: c763 373e 2877 493d c18a 323d 3d54 243e
000000a0: 06e0 3b3e 7cac c53c 995f 263d 4433 293e
000000b0: 1372 473d c291 373e 99f6 893e e666 373d
000000c0: b834 e13c 0721 6e3d fff3 a13c 75c0 403e
000000d0: ee84 bb3c 6b8b 5f3e 85f3 3e3d ada8 0a3e
000000e0: 1aa1 5f3e bf8e 623e a2de 363e af3c 2d3e
000000f0: 9471 4c3e c138 583e e0ae 363e 06dd ff3c
00000100: 4d1c 253e 2dd5 883d 7d56 f03d 624e 483d
00000110: 158a 0f3d 9cfc 8f3d 7872 613e 4475 173f
00000120: 5f42 0d3e ea5c 303e 1bf6 ac3d c1c8 a53d
00000130: ab05 933b 3ea6 3d3e 493d 6d3c aa7f 3b3e
00000140: 59ac 263d a93d 543e cb43 0a3a 09c0 123e
00000150: 7a80 1c3d 1f30 e83d 65ed 593e 17b2 363e
00000160: 74c4 bf3d d5af 883e 193b 293e d29a 323e
00000170: d27a 3d3e cdfd aa3d 5063 cd3d 0e74 f33c
00000180: 068a e73d f150 193e 30e5 ef3d d6b5 c43b
00000190: fa6d 443d c08b 463e dbdb 263e b914 923e
000001a0: e704 483d b414 213e dbb1 a13d feed 913d
000001b0: c23e d13c 1448 c03d b16c 783d 0cd1 3f3e
000001c0: b450 b63d d75a 003e 079c 5e3e 6cd6 913e
000001d0: 776e 903c 054c 873d 51c0 9b3d 11b8 753e
000001e0: 902c aa3d 806b 063e 467a 723d 1906 533e
000001f0: b471 7a3b e1b9 153c 1260 113e 2d42 df3d
00000200: 25fd 283d 6f1c 3e3e 5558 883d 0385 4e3e
00000210: 7800 4c3e 22ab 663e e0d1 fe3d 2070 483e
00000220: 5cbf 973e 0511 9f3d 2cc4 153c 18fd ae3d
00000230: 4a5e 8a3e 3ce2 0f3e b237 823d 200d ef3d
00000240: 89c0 1f3e 43ad 103e e786 9b3e b5ee 113e
00000250: c5b3 833d 1821 073c 30ae 223e 2562 603d
00000260: cc35 123d 3a22 263e 3ce9 c33d fa47 a03c
00000270: c2be 843e 3e64 5b3e 5fba d63d 064d 9c3d
00000280: 70ce d63d ac37 373e 6122 853e 6bbc 163c
00000290: 827e 143e 0593 c33d 0574 233d caeb 1f3c
000002a0: a113 0f3e 0eaa 853d 4a9e d63c a79b 153f
000002b0: 639f dd3d 64f5 773b 045f cd3d 379e b13c
000002c0: caf9 3d3e 4242 b63d 36c1 6f3d ff68 443e
000002d0: 2daa 913d 0298 dc3d 66cb 193e 1a87 3a3e
000002e0: 126f 213d 4622 303e bec5 683d 1b78 0f3e
000002f0: 1da0 cd3c 1f17 2d3e ce5b 0c3d d094 3d3e
00000300: e6f4 213e 3685 e03d dab8 463e 61ca 843c
00000310: 3fb4 1c3d 44a9 243e 571a 1a3e 1455 0b3e
00000320: 110e 6a3d 4c78 db3d c952 af3e 4776 523e
00000330: b082 24bb 607b 7d3e eafa c73d c69e 56bb
00000340: 5caa 583d 8284 903c 609b 783d 41e5 083e
00000350: 69c4 793d fcd4 403e c393 ef3d 5052 913e
00000360: 45d6 cc3b 75e1 883c f435 b73d c50e 6a3e
00000370: b65c 893d 6e87 af3d d96e 333e bccc 973e
00000380: 7fe2 823d 8b78 803c c617 063e fa4e fe3d
00000390: fc5d 4f3e b275 c53d f522 8a3d 9f3a 803e
000003a0: 9726 473e 87d6 d43d 4feb 7b3d 1b29 303e
000003b0: 92c2 7c3e b18d e83c 22d4 133e 0b16 a73d
000003c0: 240a 933e 24d0 b43c f6f2 4d3d e8cf 673e
000003d0: 37f5 733d 6f13 e9bb 3ae2 8e3e e68c c13d
000003e0: 5269 0e3e 61d4 9c3d 2d88 343e 8858 e93d
000003f0: 0b2f bf3d c960 6c3e 5376 c13d 75cf 053c
0.03290636 0.1145883 0.2968938 0.13427909 0.16113336 0.23134114 0.06660345 0.08179606
0.13238452 0.16098931 0.08272827 0.0635223 0.18423483 0.113298886 0.20666774 0.27777043
0.115441985 0.18994355 0.070714466 0.10078596 0.14714734 0.24824142 0.20415442 0.3336181
0.12644926 0.005781768 0.18555744 0.2049409 0.050422866 0.17687094 0.1005779 0.14747849
0.18326771 0.091018975 0.054218844 0.016544515 0.17909156 0.049185902 0.043589357 0.1604776
0.18347177 0.024130099 0.040618513 0.16523463 0.048692774 0.17926696 0.26945952 0.044775866
0.027490959 0.058136966 0.019769667 0.18823417 0.022890534 0.21830527 0.046618957 0.13540907
0.21838799 0.22124766 0.17858365 0.1691768 0.19965202 0.211154 0.17840147 0.031233322
0.16124077 0.06681285 0.11735246 0.048902877 0.035043795 0.07030603 0.22016323 0.5916331
0.1379485 0.17222944 0.084453784 0.080949314 0.0044867597 0.18520448 0.014479944 0.18310419
0.040691707 0.20726646 0.0005274384 0.14331068 0.038208462 0.11337303 0.21281965 0.17841373
0.09363642 0.2669665 0.1652645 0.17441872 0.18503883 0.0834919 0.10028708 0.029718425
0.11305623 0.14972283 0.11713636 0.006003122 0.047956444 0.19389248 0.16294806 0.28531435
0.0488328 0.15730554 0.07895251 0.071254715 0.02554262 0.09388748 0.06065053 0.18732089
0.08902112 0.12534653 0.21739207 0.28483903 0.017630799 0.066062964 0.07605041 0.23995997
0.08309281 0.13126945 0.05919864 0.20607795 0.0038214745 0.009138555 0.14196804 0.10901294
0.041257042 0.18565534 0.06657473 0.20167927 0.19922054 0.2252622 0.12442374 0.19574022
0.29638183 0.07766918 0.009141009 0.085443676 0.27025062 0.14051145 0.06358279 0.11672425
0.1560079 0.14128594 0.3037636 0.14251216 0.06430773 0.008247636 0.1588676 0.054781098
0.035695836 0.16223994 0.0956597 0.019565571 0.25926787 0.21424958 0.10484766 0.076318786
0.104885936 0.17892331 0.26002792 0.009200196 0.14501384 0.09549526 0.039905567 0.009760806
0.13972332 0.06526576 0.026198525 0.5844063 0.10821416 0.0037835473 0.100278884 0.021681888
0.18552318 0.088993564 0.05853387 0.19180678 0.071125366 0.10771181 0.15018997 0.182156
0.039412566 0.17200574 0.056829207 0.1401066 0.025100762 0.16903351 0.03426724 0.18513799
0.15816078 0.10962908 0.19406453 0.016209783 0.038257834 0.16080195 0.1504911 0.13606673
0.05714232 0.10716304 0.34242848 0.20552932 -0.002510231 0.24754095 0.09764655 -0.0032748445
0.052896842 0.01764131 0.060695052 0.13368703 0.060978327 0.18831247 0.11698105 0.28383112
0.006251129 0.016709069 0.089458376 0.22857197 0.06707136 0.08570753 0.17522754 0.29648387
0.06390857 0.01568248 0.13095006 0.12417407 0.20250696 0.09641589 0.06744949 0.25044724
0.19448315 0.1039248 0.061503705 0.1720318 0.24683598 0.028387876 0.14436391 0.08158501
0.28718674 0.022071905 0.050280534 0.22637904 0.059560027 -0.0071129124 0.27906972 0.09450702
0.13907364 0.076576956 0.17630072 0.11393839 0.093351446 0.23083796 0.09446397 0.008167137

net.4.bias f4 [11]
00000000: 6e30 ea3e 6566 083f dfcd d73e c050 f53e
00000010: 270d 093f 3f88 073f 9518 da3e d857 0a3f
00000020: cad8 d43e 7d33 043f 34e6 c23e
0.45740074 0.5328124 0.42149255 0.4791317 0.53535694 0.5294227 0.4259688 0.5404029
0.41571647 0.51641065 0.38066256
