models/part2_basic.pt (torch, 109239 bytes, 6 tensors)

fc1.weight f4 [100, 155]
-0.033617795 0.014812973 0.06395306 -0.00486695 0.0082938075 0.0059642717 -0.0010260898 0.048222866
0.043461606 -0.043017663 0.076696314 0.04621756 -0.012567975 0.06982368 0.004170048 0.050755944
-0.06820365 0.07209791 0.07571829 -0.060019575 -0.07189284 -0.023457395 -0.049382947 0.021459686
0.035577644 -0.010600459 0.056204453 0.0029969013 -0.023607556 -0.06857628 0.025528021 -0.07567978
-0.00029629082 0.011726911 -0.044984195 0.02413033 0.0156138 0.053753234 0.050237156 -0.06500268
-0.0595976 -0.029480033 -0.057783563 0.02518396 -0.052626103 -0.06132377 0.023394719 0.04847575
-0.023351382 -0.08003731 0.01135201 0.04116209 0.062745206 0.0076211095 0.055761807 -0.07181891
0.07684224 -0.05186675 -0.05482567 0.05764491 -0.017860208 0.049569465 -0.056259423 0.06076949
0.076176934 0.024321131 0.06479522 -0.057359997 -0.017736236 0.02444829 0.045389123 -0.04288858
0.051111616 -0.02644728 -0.042872414 0.01570853 -0.06397907 -0.07372044 0.026707428 0.02735861
0.030887669 -0.010533303 -0.058742434 -0.06452613 0.07685952 -0.06963392 0.02420846 0.06523123
0.06136103 -0.050645243 -0.025898892 -0.06422177 0.05038231 -0.07537751 -0.07394332 -0.053623237
0.06551828 0.05206365 0.053819135 0.06162999 -0.037460834 -0.044807985 -0.049344577 0.026502892
0.0312441 0.016667502 -0.061792992 0.007135423 -0.04262188 -0.015794849 -0.0124343475 0.003992835
-0.0704276 0.0685629 -0.03417849 0.02509697 0.055313423 0.03236567 0.05624096 0.045353953
0.058815014 0.016952604 0.051301364 -0.03492969 -0.029832598 0.038354117 0.021074863 -0.0030278736
-0.067825764 0.026189981 0.05202634 -0.00928364 0.018443987 0.035756893 -0.07933427 -0.013216114
-0.029796626 -0.07092944 0.049064144 0.07889126 0.012816151 0.04978365 -0.060014322 0.014042421
-0.010388188 -0.12337148 0.016007204 0.025337748 -0.0038833374 0.03400571 0.03783739 0.07285545
0.00465603 0.00286161 -0.0011502767 0.011086191 -0.052070398 -0.009881476 -0.06792283 -0.056340143
-0.06841724 0.05956674 -0.046160974 -0.0064821094 0.008587122 0.07094156 0.036453318 -0.05719991
0.078311965 -0.076087 0.01044541 0.07340476 0.06966465 -0.01861502 -0.053592354 0.035274666
0.06177091 -0.042819604 -0.012708088 -0.049199484 0.031182423 0.017434629 0.03963798 -0.027558297
-0.077595465 -0.03382591 -0.0628184 -0.019410998 0.029196834 -0.06682256 -0.0037492812 -0.078585535
-0.05692009 -0.05623649 -0.027348412 -0.04069643 0.012363493 0.049101137 0.060564958 0.025307626
-0.0005314946 -0.014313653 0.05453881 -0.046002813 0.058057435 -0.077334926 -0.059949912 0.021306537
-0.033082176 0.014985733 0.069984645 0.036685564 0.07861661 -0.034021907 -0.03835615 -0.010107081
-0.01617682 -0.03533119 -0.004986882 0.07256443 -0.044029083 0.04510743 0.037313208 0.04651676
0.02166935 -0.029672131 0.03314995 -0.03783128 -0.049211595 0.07508546 0.06658337 -0.058045823
0.065248445 0.016655562 0.020588692 0.07741947 -0.0042175353 -0.02554547 0.050427485 -0.020745907
-0.019279853 -0.032390196 0.079072244 0.038333986 -0.013009671 -0.001602456 0.0056201797 -0.047613356
0.022805985 -0.062340133 -0.0037442532 -0.015070432 -0.03279677 0.07428959 0.022494987 0.038694393
00000000: d0b2 09bd 1db2 723c d2f9 823d f07a 9fbb
00000010: c0e2 073c f06f c33b dc7d 86ba 5785 453d
00000020: cc04 323d 4a33 30bd f512 9d3d a04e 3d3d
00000030: e8e9 4dbc b8ff 8e3d e6a4 883b 77e5 4f3d
00000040: 5bae 8bbd 12a8 933d 3112 9b3d 16d7 75bd
00000050: 8e3c 93bd b929 c0bc c645 4abd 39cc af3c
00000060: ddb9 113d 8cad 2dbc a436 663d a967 443b
00000070: a264 c1bc b871 8cbd 2420 d13c 00fe 9abd
00000080: 7b57 9bb9 3b22 403c 5941 38bd f8ac c53c
00000090: 06d1 7f3c 5a2c 5c3d 7ac5 4d3d 2020 85bd
000000a0: 9d1c 74bd 1c80 f1bc 75ae 6cbd 984e ce3c
000000b0: 788e 57bd a22e 7bbd 48a6 bf3c 828e 463d
000000c0: 664b bfbc 9aea a3bd c8fd 393c 9499 283d
000000d0: 8f80 803d 80ba f93b 7e66 643d cb15 93bd
000000e0: 775f 9d3d 3b72 54bd e290 60bd 121d 6c3d
000000f0: 924f 92bc 5a09 4b3d 4870 66bd 6ee9 783d
00000100: a702 9c3d 1c3d c73c 5bb3 843d 51f2 6abd
00000110: 954b 91bc c847 c83c f2e9 393d f0ab 2fbd
00000120: 6a5a 513d f7a7 d8bc fc9a 2fbd 2daf 803c
00000130: 7507 83bd befa 96bd 89c9 da3c 2a1f e03c
00000140: 2308 fd3c e093 2cbc e89b 70bd 4726 84bd
00000150: 8668 9d3d 3b9c 8ebd d250 c63c f397 853d
00000160: b455 7b3d 6371 4fbd ea29 d4bc b486 83bd
00000170: ae5d 4e3d 865f 9abd 986f 97bd 0aa4 5bbd
00000180: 732e 863d b240 553d 7471 5c3d ba6f 7c3d
00000190: 8870 19bd 9488 37bd 8a1d 4abd 981c d93c
000001a0: a0f3 ff3c 498a 883c a61a 7dbd 44d0 e93b
000001b0: 4894 2ebd 3364 81bc 6fb9 4bbc 54d6 823b
000001c0: 583c 90bd b56a 8c3d bffe 0bbd 2998 cd3c
000001d0: 5490 623d dd91 043d ec5c 663d 11c5 393d
000001e0: 03e8 703d 30e0 8a3c 6121 523d 6f12 0fbd
000001f0: 7e63 f4bc 3519 1d3d 31a5 ac3c 4a6f 46bb
00000200: 3ce8 8abd 5f8c d63c 9219 553d 691a 18bc
00000210: d817 973c d275 123d 017a a2bd 6688 58bc
00000220: 0e18 f4bc 7443 91bd 7cf7 483d be91 a13d
00000230: d5fa 513c f1e9 4b3d 94d1 75bd 2f12 663c
00000240: 3833 2abc 30aa fcbd 8a21 833c 1c91 cf3c
00000250: 977f 7ebb 9249 0b3d 61fb 1a3d 3d35 953d
00000260: 9c91 983b d989 3b3b e2c4 96ba dba2 353c
00000270: c547 55bd eae5 21bc 201b 8bbd ecc4 66bd
00000280: 571e 8cbd 41fc 733d 4a13 3dbd e067 d4bb
00000290: 00b1 0c3c cf49 913d 1350 153d 744a 6abd
000002a0: 0662 a03d 80d3 9bbd 3a23 2b3c 3c55 963d
000002b0: 57ac 8e3d 877e 98bc a883 5bbd 2b7c 103d
000002c0: 7e03 7d3d 9c63 2fbd 9635 50bc 6685 49bd
000002d0: 4872 ff3c 11d3 8e3c 6f5b 223d f0c1 e1bc
000002e0: 5fea 9ebd 0a8d 0abd efa6 80bd d003 9fbc
000002f0: 332e ef3c 44da 88bd 80b6 75bb 74f1 a0bd
00000300: 0a25 69bd 3c58 66bd c709 e0bc 4db1 26bd
00000310: 4090 4a3c 461e 493d f612 783d f051 cf3c
00000320: 0054 0bba d083 6abc 1664 5f3d 726d 3cbd
00000330: a2cd 6d3d c661 9ebd 0a8e 75bd 0c8b ae3c
00000340: 2d81 07bd b886 753c 1c54 8f3d 9a43 163d
00000350: bf01 a13d 8e5a 0bbd 571b 1dbd 2c98 25bc
00000360: 4085 84bc 70b7 10bd 0069 a3bb a99c 943d
00000370: d757 34bd 92c2 383d bcd5 183d 5c88 3e3d
00000380: ec83 b13c f812 f3bc 3ec8 073d f9f4 1abd
00000390: 1992 49bd 68c6 993d dd5c 883d 75c1 6dbd
000003a0: faa0 853d 3f71 883c 9ea9 a83c 198e 9e3d
000003b0: 4033 8abb bc44 d1bc 0d8d 4e3d 52f3 a9bc
000003c0: c8f0 9dbc 95ab 04bd a1f0 a13d 1904 1d3d
000003d0: 8426 55bc 8009 d2ba 7c29 b83b 3906 43bd
000003e0: 9ed3 ba3c 5e58 7fbd 2562 75bb f9e9 76bc
000003f0: e855 06bd 2425 983d 6847 b83c 037e 1e3d

fc1.bias f4 [100]
-0.025661683 0.04606309 -0.025968159 -0.01225123 0.011929665 -0.07084311 0.03699385 0.07267357
-0.05999199 0.030719396 -0.07304368 -0.0031593496 -0.03656556 -0.06946428 0.035195258 0.050231636
0.010954232 0.027061962 -0.044427324 0.053076804 -0.06392851 -0.022069966 -0.028920414 -0.034653116
0.06612948 0.062170602 0.041285146 -0.030950468 -0.04948246 -0.022251094 -0.031362325 0.008953371
0.04053045 0.07533217 0.056285642 -0.06598793 0.06899601 -0.07452408 0.008885105 0.0095386375
-0.014286899 -0.024751145 -0.034639597 0.04605601 -0.051197287 0.015839225 0.02898505 0.061388236
0.0015458167 0.06918529 -0.07860468 -0.044383205 -0.069801025 -0.0023137687 -0.049673475 0.053608168
-0.03818389 0.0068281903 0.0679037 -0.079160675 0.03313372 -0.06842008 0.03892269 -0.021046417
-0.0689196 0.013235475 0.005864135 0.027942773 0.0481662 -0.008291455 -0.037248988 0.07850285
-0.024803717 0.06872203 0.053561125 -0.07877317 -0.023257961 0.005189943 -0.064369015 0.013731575
-0.03320092 -0.041219994 0.059783038 0.034532312 0.079936706 -0.01643034 -0.022845136 -0.05129913
0.009086402 0.06301906 -0.008791625 -0.027825393 0.051342405 0.002801491 0.011407954 0.07569341
0.07693026 0.076794825 -0.072559565 0.013640055
00000000: 7338 d2bc a7ac 3c3d 2dbb d4bc 62b9 48bc
00000010: a474 433c 3116 91bd dd86 173d e1d5 943d
00000020: 29ba 75bd 3ea7 fb3c ed97 95bd 170d 4fbb
00000030: c5c5 15bd 4a43 8ebd e728 103d b0bf 4d3d
00000040: 6179 333c 0cb1 dd3c 6df9 35bd 1067 593d
00000050: f3ec 82bd 13cc b4bc 81ea ecbc 6df0 0dbd
00000060: e56e 873d 9aa6 7e3d 9d1a 293d d68b fdbc
00000070: 1fae 4abd ed47 b6bc c875 00bd 29b1 123c
00000080: 4203 263d c147 9a3d c68b 663d ae24 87bd
00000090: c84d 8d3d 15a0 98bd d592 113c f247 1c3c
000000a0: 9913 6abc eac2 cabc 40e2 0dbd 3aa5 3c3d
000000b0: 3fb4 51bd 43c1 813c 0e72 ed3c 3b72 7b3d
000000c0: 009d ca3a 04b1 8d3d 7efb a0bd 2acb 35bd
000000d0: d7f3 8ebd 99a2 17bb 6a76 4bbd 3d94 5b3d
000000e0: b666 1cbd 03bf df3b 1811 8b3d fe1e a2bd
000000f0: 39b7 073d d41f 8cbd 666d 1f3d 8969 acbc
00000100: b825 8dbd 9bd9 583c ee27 c03b 3ee8 e43c
00000110: ec49 453d e2d8 07bc 6592 18bd 1ac6 a03d
00000120: 2a31 cbbc 23be 8c3d e962 5b3d d453 a1bd
00000130: 7b87 bebc 6610 aa3b e7d3 83bd 66fa 603c
00000140: b0fd 07bd 4cd6 28bd 0fdf 743d c171 0d3d
00000150: dbb5 a33d ec98 86bc b925 bbbc 091f 52bd
00000160: 22df 143c 2310 813d bf0a 10bc 14f2 e3bc
00000170: 6a4c 523d 3899 373b 6de8 3a3c 2605 9b3d
00000180: 9d8d 9d3d 9b46 9d3d 1c9a 94bd 8a7a 5f3c

fc2.weight f4 [100, 100]
0.023620065 -0.0135747045 -0.1014424 0.11895362 -0.105819546 -0.07483675 -0.049736306 -0.019026257
-0.08546013 0.024699837 -0.059068322 0.12502049 -0.032270774 0.1055648 -0.10194305 0.0070973467
-0.06488356 -0.14463426 0.003862258 -0.073944435 -0.12925616 -0.066487186 -0.15676823 -0.115491554
0.09463553 0.042657834 -0.08446573 0.069602825 0.013008797 0.024045397 0.047955688 0.05112739
-0.04413889 -0.03681104 0.12569049 -0.034147725 0.041605745 -0.011536028 -0.042418517 -0.13413714
0.11126739 0.014704309 0.06395088 -0.015807917 0.045586336 0.10098872 -0.059496973 0.011348549
-0.042623598 0.068778664 -0.09207232 -0.07940456 -0.117813915 -0.012235671 0.06251123 -0.07394926
0.0173253 -0.08173272 -0.044398874 -0.030194486 -0.018198907 -0.026024979 -0.018104857 -0.018013038
-0.09287071 0.03285748 0.11034104 -0.02372769 0.11348502 -0.16618821 -0.0933365 0.111573584
0.0901795 0.09297082 -0.03605486 0.0347474 -0.10980604 0.119133614 -0.072469056 0.08793962
-0.12056562 0.089577444 -0.02199722 0.06529501 -0.074531704 0.053838808 -0.050934236 0.13725829
0.078217804 -0.06583366 -0.17941901 -0.0549751 -0.018133536 -0.14496756 0.09221226 0.010975042
0.029631315 0.025616344 -0.042015806 0.025575247 0.03476616 -0.088295616 -0.013733104 -0.008798443
-0.05544423 0.09883603 -0.08861623 -0.085718 -0.07229594 0.056708775 -0.08512411 0.06070424
0.09706695 0.09385527 0.0931958 0.016243659 -0.08744035 0.024489418 0.041172452 -0.0075560957
-0.08763633 0.0754431 0.019269213 0.067362286 -0.011091962 -0.08938265 0.08516095 -0.09787241
-0.071441494 0.09136634 -0.028780796 0.054300793 0.061255462 -0.011743367 -0.020107985 0.044432916
-0.020292893 0.041329242 -0.031684957 -0.054861512 -0.06316425 -0.09940215 -0.030446723 -0.045684516
0.031649835 0.0008684024 -0.066149205 -0.072475016 -0.015017569 0.03604824 0.005883813 0.011640146
-0.053702034 -0.044953167 -0.013770327 0.041671418 -0.09174951 0.042508148 0.05617086 -0.09880888
0.04197032 0.015083812 0.0398129 -0.05551367 0.06301572 -0.057746865 -0.04350437 0.032186873
-0.021538459 0.06969649 -0.011580624 -0.07796389 -0.08333536 0.0051479116 -0.07792711 0.089394994
0.08693027 0.060201235 -0.07630261 -0.02298814 0.07378145 0.020365298 0.007867411 -0.0077591166
-0.054886486 -0.03181334 0.058290936 -0.019478478 -0.026792482 0.049282663 -0.048133817 -0.01483611
0.08307154 0.01431419 0.045551054 -0.049335457 0.048342176 -0.054176655 0.09789061 -0.027686097
-0.10376003 -0.0760062 0.06573299 0.10263575 -0.024791278 0.05639844 -0.029935215 0.008429472
0.036501642 0.013308704 0.0130025465 0.09187077 0.021359105 -0.049301885 0.0046289936 -0.020062935
-0.011796848 0.04936837 0.07458104 -0.1199137 -0.06936012 -0.043471947 0.012366887 -0.051793195
0.0034358138 -0.006494047 -0.09228856 -0.0914867 -0.07920311 -0.0068237707 0.05002464 0.016625129
0.08805189 -0.01372635 0.09495306 -0.046406344 -0.078785375 -0.028247489 -0.119126186 0.01501058
0.05906769 0.06633264 0.07566631 0.096871376 -0.083128616 -0.09173794 0.008377091 -0.025399098
0.017395858 0.0974899 -4.120916e-05 0.010910372 -0.106950656 0.036841378 -0.08804918 -0.041252136
00000000: de7e c13c 7068 5ebc 08c1 cfbd f59d f33d
00000010: ebb7 d8bd 0344 99bd 4cb8 4bbd f4dc 9bbc
00000020: b805 afbd 5057 ca3c a0f1 71bd 5f05 003e
00000030: 5c2e 04bd 5c32 d83d 85c7 d0bd dc90 e83b
00000040: ace1 84bd 011b 14be f01d 7d3b 2e70 97bd
00000050: ba5b 04be 6f2a 88bd da87 20be d686 ecbd
00000060: 46d0 c13d fbb9 2e3d 5efc acbd ed8b 8e3d
00000070: d922 553c dafa c43c 2f6d 443d f46a 513d
00000080: fbca 34bd 2cc7 16bd 02b5 003e 7cde 0bbd
00000090: c96a 2a3d 9c01 3dbc 0abf 2dbd 3f5b 09be
000000a0: 28e0 e33d 58ea 703c aef8 823d 9b7f 81bc
000000b0: bdb8 3a3d 2dd3 ce3d 19b3 73bd 44ef 393c
000000c0: 1596 2ebd d4db 8c3d 6a90 bcbd dc9e a2bd
000000d0: 6c48 f1bd 2078 48bc e305 803d b672 97bd
000000e0: caed 8d3c 7c63 a7bd 98db 35bd 6d5a f7bc
000000f0: e015 95bc 5632 d5bc a350 94bc 1490 93bc
00000100: 0033 bebd 9195 063d 7cfa e13d 9360 c2bc
00000110: d66a e83d 3e2d 2abe 3527 bfbd b180 e43d
00000120: 08b0 b83d 7c67 be3d 43ae 13bd 4a53 0e3d
00000130: fde1 e0bd 53fc f33d a86a 94bd b019 b43d
00000140: 1ceb f6bd 6174 b73d 8433 b4bc 64b9 853d
00000150: 14a4 98bd 1586 5c3d 6ba0 50bd 708d 0c3e
00000160: a830 a03d ccd3 86bd 9eb9 37be 922d 61bd
00000170: c88c 94bc 6072 14be c8d9 bc3d aad0 333c
00000180: 5fbd f23c 5ed9 d13c c418 2cbd 2e83 d13c
00000190: f666 0e3d 55d4 b4bd d000 61bc 5827 10bc
000001a0: 7d19 63bd 8b6a ca3d 6d7c b5bd eb8c afbd
000001b0: e50f 94bd 7647 683d 8d55 aebd 02a5 783d
000001c0: 09cb c63d 3137 c03d 71dd be3d 6c11 853c
000001d0: ed13 b3bd 089e c83c 72a4 283d 2099 f7bb
000001e0: ad7a b3bd e981 9a3d 78da 9d3c 3df5 893d
000001f0: 10bb 35bc 400e b7bd dd68 ae3d 5571 c8bd
00000200: eb4f 92bd 471e bb3d b4c5 ebbc 826a 5e3d
00000210: 02e7 7a3d 4067 40bc 80b9 a4bc 4aff 353d
00000220: 483d a6bc da48 293d 16c8 01bd 77b6 60bd
00000230: 425c 81bd 5b93 cbbd 686b f9bc b01f 3bbd
00000240: 42a3 013d 80a5 633a 3c79 87bd c86d 94bd
00000250: 400c 76bc 52a7 133d 00cd c03b 50b6 3e3c
00000260: aaf6 5bbd d020 38bd f09c 61bc a6af 2a3d
00000270: 2be7 bbbd 061d 2e3d 6a13 663d 4f5c cabd
00000280: 12e9 2b3d 1822 773c da12 233d 4d62 63bd
00000290: 630e 813d fa87 6cbd a331 32bd 62d6 033d
000002a0: 6c71 b0bc 09bd 8e3d a8bc 3dbc 88ab 9fbd
000002b0: bbab aabd d0af a83b 4098 9fbd b914 b73d
000002c0: 7f08 b23d 9295 763d 8b44 9cbd a051 bcbc
000002d0: bb1a 973d 20d5 a63c 50e6 003c 3040 febb
000002e0: a7d0 60bd b44e 02bd 7ac2 6e3d 5491 9fbc
000002f0: e87b dbbc 9edc 493d f727 45bd 2813 73bc
00000300: 6921 aa3d 1086 6a3c be93 3a3d fa13 4abd
00000310: 7202 463d 57e8 5dbd df7a c83d f4cd e2bc
00000320: 2380 d4bd 23a9 9bbd 059f 863d b132 d23d
00000330: 1417 cbbc 0d02 673d b23a f5bc c51b 0a3c
00000340: bf82 153d c00c 5a3c a208 553c be26 bc3d
00000350: 4af9 ae3c c6f0 49bd d0ae 973b 065b a4bc
00000360: 9147 41bc 7d36 4a3d f2bd 983d 5095 f5bd
00000370: ae0c 8ebd a40f 32bd 7c9e 4a3c 1a25 54bd
00000380: 642b 613b 04cc d4bb c901 bdbd 615d bbbd
00000390: 3d35 a2bd f099 dfbb a3e6 4c3d 6c31 883c
000003a0: 8d54 b43d 7ce4 60bc c076 c23d 9414 3ebd
000003b0: 3a5a a1bd 4767 e7bc 6ef8 f3bd f0ee 753c
000003c0: f6f0 713d 68d9 873d f0f6 9a3d 8064 c63d
000003d0: 563f aabd 1ae1 bbbd 1140 093c c511 d0bc
000003e0: c281 8e3c c9a8 c73d 00d8 2cb8 6bc1 323c
000003f0: f208 dbbd fce6 163d 2153 b4bd 00f8 28bd

fc2.bias f4 [100]
0.017314592 0.082703136 -0.051323984 -0.05456154 0.018353023 0.093755305 0.09358815 -0.018833196
-0.006228993 -0.020001508 0.097050734 0.015902355 0.007019557 0.025751324 -0.07565967 -0.0099431565
-0.080316804 0.030526018 0.069970496 0.016770735 -0.030470349 0.07408298 0.015538388 -0.08290002
-0.08544138 0.043924473 0.078033686 0.09106517 0.025498096 -0.06607407 -0.066546895 0.010330547
0.058431994 -0.0208277 0.03672466 0.06156529 0.04263445 -0.02507483 -0.020552814 -0.06318696
0.0014195002 -0.08692433 0.07021134 0.021230161 0.042453796 0.08193639 -0.026949514 0.009389801
-0.034973606 0.04784882 0.039218698 0.05693053 -0.0042626476 0.041419335 -0.05607262 -0.05896316
-0.083762966 0.05589234 -0.0931486 -0.040065892 -0.013144948 -0.010273888 0.077097595 0.09214172
-0.04335318 -0.0137328645 -0.08258067 -0.057130057 -0.034707665 -0.020594444 0.06856344 -0.022435317
0.02760536 -0.08000867 -0.036305666 0.011815167 -0.031532504 0.08953768 -0.011795068 0.09167039
0.046670157 0.042607114 -0.0920893 0.048954125 -0.07318666 0.09890837 0.07269553 -0.045906838
0.018663127 0.03179411 -0.08513364 0.01879175 -0.004905544 0.023798319 0.071729064 -0.051054873
-0.092510276 -0.06827292 0.007472992 -0.019153824
00000000: 55d7 8d3c 4360 a93d 1939 52bd ec7b 5fbd
00000010: 1459 963c c802 c03d 25ab bf3d 1348 9abc
00000020: 951c ccbb 34da a3bc 89c2 c63d a845 823c
00000030: 5004 e63b 71f4 d23c 75f3 9abd 9fe8 22bc
00000040: 237d a4bd b311 fa3c b14c 8f3d c862 893c
00000050: f49c f9bc d1b8 973d b994 7e3c 7cc7 a9bd
00000060: e4fb aebd 26ea 333d 20d0 9f3d 6080 ba3d
00000070: 62e1 d03c d851 87bd bd49 88bd 7441 293c
00000080: 6356 6f3d da9e aabc 996c 163d e32b 7c3d
00000090: 76a1 2e3d bb69 cdbc 605e a8bc 2a68 81bd
000000a0: 860e ba3a 6205 b2bd f7ca 8f3d e0ea ad3c
000000b0: 08e4 2d3d 44ce a73d 3ac5 dcbc aed7 193c
000000c0: 7c40 0fbd 20fd 433d c9a3 203d fd2f 693d
000000d0: aead 8bbb 52a7 293d 67ac 65bd 5b83 71bd
000000e0: eb8b abbd 5eef 643d b1c4 bebd 221c 24bd
000000f0: e85d 57bc cf53 28bc 58e5 9d3d ccb4 bc3d
00000100: 1b93 31bd cfff 60bc 0e20 a9bd 3501 6abd
00000110: a029 0ebd aeb5 a8bc fd6a 8c3d 45ca b7bc
00000120: a324 e23c 96db a3bd 40b5 14bd 6794 413c
00000130: 3a28 01bd 885f b73d 1a40 41bc afbd bb3d
00000140: 3529 3f3d cc84 2e3d 5199 bcbd 1f84 483d
00000150: e3e2 95bd 7990 ca3d 65e1 943d cf08 3cbd
00000160: 6ae3 983c 8a3a 023d 8c5a aebd 28f1 993c
00000170: b0be a0bb b1f4 c23c b0e6 923d ea1e 51bd
00000180: 0776 bdbd acd2 8bbd 00e0 f43b 7be8 9cbc

fc3.weight f4 [11, 100]
-0.4660198 -0.038091816 -0.19786382 -0.0644568 0.06790038 -0.24658304 -0.031308725 -0.016303197
0.023273438 -0.056892052 -0.046273954 -0.056417324 0.085214354 -0.019367121 -0.3250833 -0.17568344
-0.102196805 0.090037055 -0.5575791 -0.05295415 0.050654404 -0.7017062 0.0994877 0.09875424
-0.07402898 -0.34353995 0.08434743 0.012602039 -0.08917007 -0.38801077 -0.00086608256 -0.008569539
0.053872608 -0.04744605 -0.043050967 -0.10472204 -0.08801355 -0.053414065 -0.4849792 -0.15885502
-0.16506368 -0.5405281 -0.05826748 0.030896254 -0.6977745 -0.39464676 -0.2002252 -0.058723617
-0.07029738 -0.16726047 -0.08060113 -0.30573148 -0.07943994 0.05227671 -0.44200632 -0.42042664
0.021445155 0.045857318 -0.14513656 -0.25223807 0.073121734 0.08945427 -0.03028424 -0.2403825
-0.26545396 -0.075075746 -0.5116194 -0.044350233 -0.1307391 -0.024367044 0.0961637 0.08296832
-0.1029004 0.07264567 -0.32546508 -0.016209356 -0.09400584 -0.07813335 -0.5270215 0.027653292
-0.08625045 0.08253323 -0.091657355 -0.8355271 -0.34678897 -0.07235823 0.05977524 0.086483486
-0.13911727 0.08412028 -0.14488181 -1.0209104 0.07230931 -0.022256749 -0.24795641 -0.06840293
0.018821916 0.054198496 0.020877898 -0.17801759 -0.047294654 0.04212413 -0.08359281 0.08806717
-0.04418497 -0.020558499 -0.018714644 -0.026582956 -0.083017945 -0.006205559 -0.029242799 0.06777493
-0.009696327 -0.0067356825 0.045323797 0.099368535 -0.077154875 -0.033586666 -0.018494725 0.0870846
-0.01308427 -0.023891293 -0.04508077 -0.027031347 -0.09461846 -0.09162978 0.04106576 -0.0020867959
-0.09756348 0.008625463 -0.034574732 0.046566106 0.07038509 0.08744276 0.027407147 0.0976169
0.09328591 -0.024649523 -0.08575386 -0.007977389 0.07562899 0.04254762 -0.035060145 -0.016979791
0.06064827 0.0479422 0.07631076 0.039307542 -0.03326472 -0.08883207 0.058781274 -0.067148924
-0.06636238 -0.0027636513 -0.0017697439 -0.08255988 0.063806556 0.040057383 -0.02768822 -0.020680867
-0.02113241 0.05761046 0.052943535 -0.08862515 -0.028838381 -0.0052271634 -0.084635116 -0.083277985
0.026850052 -0.029196069 -0.0973105 0.07976297 -0.06614916 -0.09554688 0.0005038008 -0.07522549
0.08722127 -0.007989623 -0.048731197 0.03724999 -0.05522106 -0.016477108 0.058216937 0.08540363
-0.09232762 0.07484657 -0.09532368 0.048364617 -0.06854105 -0.012499191 -0.06479944 0.08533766
0.045836635 0.004209064 0.099017136 -0.081654035 -0.055747785 0.06553907 0.054483943 0.04019127
-0.036768995 -0.0436126 0.09641462 0.00910673 -0.09422097 0.0706309 0.0012819171 -0.099820435
-0.054630954 -0.08119978 -0.027852638 0.015275694 -0.036487363 0.05731052 -0.054148473 0.0992515
-0.08721699 -0.08166947 -0.0037569313 0.076712556 -0.027856126 -0.06841537 0.07211725 0.06397188
-0.033217028 -0.08378898 0.0312765 0.014226263 0.06469015 -0.079672985 -0.032420743 0.09632123
0.06671822 -0.03282714 -0.034229256 0.075201996 0.04454543 -0.072618574 0.05082255 -0.010526739
0.093411915 -0.07457959 -0.047053825 0.09372736 -0.034498706 -0.09913855 0.052253015 -0.007409793
0.042824365 -0.019257717 0.07749636 -0.0069054733 -0.0074191913 0.066815265 -0.0016995594 -0.09273716
00000000: 269a eebe 2a06 1cbd d09c 4abe ed01 84bd
00000010: 5b0f 8b3d 4480 7cbe 943d 00bd 488e 85bc
00000020: f0a7 be3c a407 69bd c289 3dbd da15 67bd
00000030: dd84 ae3d cca7 9ebc 5171 a6be 5ce6 33be
00000040: 8f4c d1bd 5965 b83d 81bd 0ebf 73e6 58bd
00000050: fe7a 4f3d 04a3 33bf 35c0 cb3d aa3f ca3d
00000060: 829c 97bd 78e4 afbe 58be ac3d c878 4e3c
00000070: cc9e b6bd 59a9 c6be d109 63ba 4067 0cbc
00000080: 86a9 5c3d ca56 42bd 3656 30bd 8278 d6bd
00000090: 7340 b4bd b5c8 5abd 324f f8be e4aa 22be
000000a0: 7406 29be 0d60 0abf e2a9 6ebd 241a fd3c
000000b0: 5aa1 32bf 240f cabe d607 4dbe 2d88 70bd
000000c0: 13f8 8fbd 5446 2bbe 3512 a5bd d688 9cbe
000000d0: 68b1 a2bd 1a20 563d a74e e2be 2942 d7be
000000e0: c0ad af3c e2d4 3b3d ae9e 14be 5925 81be
000000f0: d9c0 953d cd33 b73d a816 f8bc d526 76be
00000100: 95e9 87be 50c1 99bd 7df9 02bf 97a8 35bd
00000110: 78e0 05be 659d c7bc 79f1 c43d 4beb a93d
00000120: 72bd d2bd 41c7 943d 5ca3 a6be 7cc9 84bc
00000130: 2286 c0bd 6104 a0bd e2ea 06bf 2889 e23c
00000140: 13a4 b0bd 2f07 a93d dab6 bbbd 1be5 55bf
00000150: 538e b1be 8d30 94bd e2d6 743d 411e b13d
00000160: c274 0ebe 4147 ac3d e65b 14be 31ad 82bf
00000170: e716 943d c953 b6bc 49e8 7dbe d616 8cbd
00000180: 6b30 9a3c 3eff 5d3d 2008 ab3c 3e4a 36be
00000190: 0ab8 41bd 5a8a 2c3d b532 abbd 8f5c b43d
000001a0: 4dfb 34bd 4c6a a8bc 744f 99bc 80c4 d9bc
000001b0: 5005 aabd 0058 cbbb 988e efbc 95cd 8a3d
000001c0: 58dd 1ebc 00b7 dcbb 72a5 393d bb81 cb3d
000001d0: 6003 9ebd 2c92 09bd 4082 97bc 6959 b23d
000001e0: 685f 56bc acb7 c3bc 9da6 38bd d870 ddbc
000001f0: 53c7 c1bd 65a8 bbbd 9234 283d a0c2 08bb
00000200: 5dcf c7bd d051 0d3c 3c9e 0dbd 1abc 3e3d
00000210: 0f26 903d 3115 b33d f484 e03c 5feb c73d
00000220: af0c bf3d cced c9bc b89f afbd 98b3 02bc
00000230: 5fe3 9a3d 6a46 2e3d 3a9b 0fbd 3419 8bbc
00000240: 526a 783d 0a5f 443d d148 9c3d f200 213d
00000250: 9640 08bd 97ed b5bd a2c4 703d 6085 89bd
00000260: 00e9 87bd 601e 35bb c0f6 e7ba 2815 a9bd
00000270: 03ad 823d 3613 243d 68d2 e2bc ec6a a9bc
00000280: e01d adbc f2f8 6b3d 52db 583d 1a81 b5bd
00000290: 783e ecbc a048 abbb 2d55 adbd a68d aabd
000002a0: a4f4 db3c 982c efbc ba4a c7bd c55a a33d
000002b0: 3679 87bd 15ae c3bd 8011 043a d20f 9abd
000002c0: 11a1 b23d e8e6 02bc 5d9a 47bd 7293 183d
000002d0: 7a2f 62bd 00fb 86bc e274 6e3d 19e8 ae3d
000002e0: 4316 bdbd 2949 993d 1039 c3bd fa19 463d
000002f0: 405f 8cbd 68c9 4cbc 92b5 84bd 83c5 ae3d
00000300: 32bf 3b3d 30ec 893b 7fc9 ca3d 3b3a a7bd
00000310: ca57 64bd 5939 863d 8e2a 5f3d 9a9f 243d
00000320: 169b 16bd 20a3 32bd 0775 c53d 6534 153c
00000330: edf6 c0bd efa6 903d 0006 a83a a86e ccbd
00000340: b5c4 5fbd 124c a6bd 372b e4bc e846 7a3c
00000350: c673 15bd 70be 6a3d caca 5dbd 5f44 cb3d
00000360: d29e b2bd 5342 a7bd d936 76bb 791b 9d3d
00000370: 8832 e4bc 5c1d 8cbd 35b2 933d b003 833d
00000380: 940e 08bd 8f99 abbd ca1b 003d 4615 693c
00000390: 457c 843d 972b a3bd 9dcb 04bd 1144 c53d
000003a0: 90a3 883d c075 06bd fa33 0cbd 8103 9a3d
000003b0: 4575 363d 0cb9 94bd 4e2b 503d 5878 2cbc
000003c0: bf4e bf3d 2fbd 98bd 83bb 40bd 21f4 bf3d
000003d0: 844e 0dbd 2709 cbbd 4207 563d d9cd f2bb
000003e0: 9a68 2f3d 5cc2 9dbc 69b6 9e3d 4f47 e2bb
000003f0: b01c f3bb 71d6 883d c0c3 deba fbec bdbd

fc3.bias f4 [11]
-0.011014759 0.06815965 -0.044271134 0.010552253 0.06810159 0.060546193 -0.04306271 0.072666876
-0.049677417 0.0478207 -0.08813492
00000000: 3f77 34bc 4997 8b3d a655 35bd 5be3 2c3c
00000010: d978 8b3d 49ff 773d 8662 30bd 5fd2 943d
00000020: 8c7a 4bbd a3df 433d 1580 b4bd
