models/part1.pt (torch, 45703 bytes, 6 tensors)

net.0.weight f4 [50, 155]
00000000: 92d9 28c0 62eb 4cc0 3c4f 54c0 f07a 9fbb
00000010: c0e2 073c f06f c33b 8f4f 1cc0 412a f9bf
00000020: d8a5 9c3f 7ca4 66be 61bd 3ac0 e81a 1bc0
00000030: ba28 cfbf 1e19 333e 6775 1cbf d964 5fbf
00000040: 751e fabf 1caf 42c0 8670 2ac0 f4b7 4cc0
00000050: 50ed 60c0 1bf5 e23d c645 4abd 9d4b 76bf
00000060: f586 393e d04f 82bf 6831 55bf f546 113f
00000070: 7b1f a7bf 372e 4abf 2420 d13c 00fe 9abd
00000080: 9a40 3ebf 4ca1 e3bf 993f 943f 37c1 15c0
00000090: ba07 99be 5a2c 5c3d 7ac5 4d3d db41 5fc0
000000a0: e1df 57c0 5542 3e40 9436 70be 00f3 0d40
000000b0: aaee 6abe b599 473e 48a6 bf3c 828e 463d
000000c0: 664b bfbc 9aea a3bd c8fd 393c 9499 283d
000000d0: c140 d0bb 80ba f93b bb6b c83c 4bc8 05c0
000000e0: 775f 9d3d 3b72 54bd 462f 6dbe 121d 6c3d
000000f0: f3e4 a6bf 6bbd a9bf 4870 66bd 6ee9 783d
00000100: a702 9c3d 1c3d c73c 5bb3 843d 51f2 6abd
00000110: 01eb f9bf 2390 11be f2e9 393d f0ab 2fbd
00000120: 6a5a 513d 5a5c b2bf 8820 e7bf 7558 3ac0
00000130: 0b13 d1bf 939f 07c0 3f5d 00bf 0276 52c0
00000140: 1cd0 50c0 f654 11c0 ec7a e5bf ec8e 5dc0
00000150: bb33 f4bf 918f 0bc0 8e0a abbf 9939 8dbf
00000160: 62fd c4bf a0b9 eabf c386 b93e 5946 16c0
00000170: 5f0c 1ac0 b148 02c0 c705 583f 8799 39c0
00000180: e095 30c0 354e 663f e061 31c0 8bda 40be
00000190: a79c 37c0 417d 2fc0 67f6 1b3f 5844 6e3f
000001a0: 127b 6f3f 9672 3440 1b6d 2f40 6bd6 3340
000001b0: 31a7 3040 ba5e 3240 c995 3240 eda2 3340
000001c0: a2df 2e40 d5c4 3740 8731 3140 b1fc 3440
000001d0: c2eb 3640 e9df 8cbf 8653 1cc0 ed06 13c0
000001e0: 131b 48c0 9033 bfbf 28c7 a5bf 2d5d 85bf
000001f0: 311f 263f e4b7 e2be 6197 38c0 d147 81bf
00000200: ad44 30bf 0da6 d9bf ff55 ecbf da7f aabf
00000210: f74e dcbf 036f fcbe fbef 44c0 ad51 27c0
00000220: a1ef 73bf 1fe9 31bf 1cb9 d1bf 41b7 8ebf
00000230: 76ed 40c0 4b3c 1d3d e20d d4be 855d a4bd
00000240: 3833 2abc df0b a33b 9757 b63e 384a b93e
00000250: df72 09c0 e542 a63e 8e4b 9e3d bb7f 2ec0
00000260: 35b9 ce3d 49f4 853e ff79 f9bd 3a28 d23f
00000270: 2442 4e3f a408 5340 201b 8bbd ecc4 66bd
00000280: 571e 8cbd 296b 2140 226c 1a40 fa52 b13f
00000290: 0b64 da3f a122 1540 b6f9 2940 4f19 1440
000002a0: 8e51 39be 4dc9 ebbd 81e1 dc3e 42c0 b53f
000002b0: 190c 5240 e396 1440 be79 5b3f 0fb5 5240
000002c0: 64c7 73be 9c63 2fbd 91f5 0b3f 2d0d 88be
000002d0: b458 8c3d a054 9e3c 4ea4 19bf 0d49 ecbe
000002e0: 00b8 ecbd 0a8d 0abd efa6 80bd f1d3 a93d
000002f0: 9c36 9e3f fe35 d13c d2ec 3f3f a4b7 0e3f
00000300: 0a25 69bd 3c58 66bd 735e 6040 4829 6840
00000310: 7adf 59bf 9450 41be e125 a63f 26ae 59be
00000320: f10a 523f d083 6abc 1664 5f3d 726d 3cbd
00000330: a2cd 6d3d c661 9ebd 0a8e 75bd 0b45 b53f
00000340: 2d81 07bd 85e9 613f 8625 0640 9a43 163d
00000350: bf01 a13d 8937 8bbe 571b 1dbd b6e7 bd3f
00000360: a553 1d3f 70b7 10bd 0069 a3bb a99c 943d
00000370: d757 34bd 92c2 383d bcd5 183d 52ed 1040
00000380: 1b8e d03f f812 f3bc 3ec8 073d f9f4 1abd
00000390: 9150 523f 72a8 1340 da7c 3c40 115e 443f
000003a0: 845e c43f 7714 c3bf 5aed 2e40 ed50 0c40
000003b0: f332 b9be 4a52 fe3f 3df3 4640 bf48 b13f
000003c0: cb9c 133f 99e9 e13f 5b44 e73f b345 303f
000003d0: 2d32 b93f 0148 e9bd 625a 1740 e972 0e40
000003e0: ec6e e63f 68a0 87bf e66f 1440 a928 3340
000003f0: e882 03be 55bb 1b40 5b73 b03e 60fe 2d40
-2.6382794 -3.2018666 -3.317336 -0.00486695 0.0082938075 0.0059642717 -2.4423559 -1.946602
1.2238111 -0.22523683 -2.9178088 -2.4235172 -1.6184304 0.1749005 -0.6111664 -0.87263256
-1.9540545 -3.0419378 -2.663118 -3.1987276 -3.5144844 0.110819064 -0.049382947 -0.96209127
0.18117888 -1.0180607 -0.8327851 0.56748897 -1.3056482 -0.7897677 0.025528021 -0.07567978
-0.74317324 -1.7783599 1.1581908 -2.339918 -0.29888707 0.053753234 0.050237156 -3.4883945
-3.3730395 2.9727986 -0.2345832 2.2179565 -0.22942606 0.19492228 0.023394719 0.04847575
-0.023351382 -0.08003731 0.01135201 0.04116209 -0.0063553755 0.0076211095 0.024465432 -2.09035
0.07684224 -0.05186675 -0.23162565 0.05764491 -1.303862 -1.3260931 -0.056259423 0.06076949
0.076176934 0.024321131 0.06479522 -0.057359997 -1.9524843 -0.1421514 0.045389123 -0.04288858
0.051111616 -1.3934433 -1.8056803 -2.911649 -1.6333936 -2.1191146 -0.5014228 -3.2884526
-3.262702 -2.2708106 -1.7928138 -3.4618483 -1.9078287 -2.1806376 -1.3362596 -1.1033202
-1.5389826 -1.8337898 0.36235628 -2.3480437 -2.407005 -2.0356867 0.84383816 -2.8999956
-2.7591476 0.89963084 -2.7715988 -0.18833368 -2.8689363 -2.74202 0.60922855 0.93073034
0.93547165 2.8194938 2.7410343 2.809962 2.7602046 2.7870317 2.7903922 2.8068192
2.7323995 2.8713887 2.768648 2.827923 2.8581395 -1.1005832 -2.4425979 -2.2972977
-3.1266525 -1.4937611 -1.2951403 -1.041906 0.64891344 -0.44280922 -2.8842394 -1.0100042
-0.6885479 -1.70038 -1.8463744 -1.3320267 -1.7211598 -0.49303445 -3.0771472 -2.61436
-0.9528752 -0.6949634 -1.6384616 -1.1149675 -3.0144935 0.038387578 -0.41416842 -0.0802565
-0.010388188 0.0049757804 0.356137 0.36189437 -2.1476362 0.3247291 0.07729255 -2.726546
0.10093919 0.26162937 -0.12181472 1.6418526 0.8056967 3.2974024 -0.06792283 -0.056340143
-0.06841724 2.5221655 2.41285 1.3853447 1.7061781 2.3302386 2.6558661 2.3140447
-0.18097517 -0.115130045 0.43140796 1.4199297 3.2819884 2.3217094 0.8573264 3.292301
-0.2380653 -0.042819604 0.5467158 -0.26572552 0.06852856 0.019327462 -0.60016334 -0.46149483
-0.11558533 -0.03382591 -0.0628184 0.08292378 1.2360415 0.02553844 0.74970734 0.55748963
-0.05692009 -0.05623649 3.5057647 3.6275196 -0.85106623 -0.18878394 1.298031 -0.21257839
0.82047945 -0.014313653 0.05453881 -0.046002813 0.058057435 -0.077334926 -0.059949912 1.4161695
-0.033082176 0.8824695 2.0960402 0.036685564 0.07861661 -0.27190807 -0.03835615 1.4836338
0.61455756 -0.03533119 -0.004986882 0.07256443 -0.044029083 0.04510743 0.037313208 2.264485
1.6293367 -0.029672131 0.03314995 -0.03783128 0.82154185 2.307156 2.9451203 0.76706034
1.5341344 -1.524062 2.7332368 2.1924393 -0.36171684 1.9868863 3.108596 1.3850325
0.5766112 1.7649413 1.8067735 0.6885635 1.4468437 -0.11390687 2.3648915 2.2257636
1.8002601 -1.0595827 2.3193297 2.7993567 -0.12842906 2.4333088 0.3446301 2.7186508

net.0.bias f4 [50]
00000000: a3ef 31c0 fbde 6c40 b42f 973c e0a0 3240
00000010: f478 21bf 5c98 b6be 77e4 5440 4b91 14c0
00000020: 2ff0 983d 2472 e5bd 3733 40bf 7c74 2dbd
00000030: fbac bcbd 6eb2 b8bd 9887 693f e692 9bbd
00000040: 1140 793d b057 3abd 17ea 5340 8258 1fbd
00000050: 4371 b23f 0dff 653d 6751 dabd 7955 6f3d
00000060: 52dd 963b 721a ab3c 303c 0b3d e7ae 37bf
00000070: b47d 04be 9d1a 633a 29b0 073b e9fe 22c0
00000080: 61df c53d 1c07 9a3d 3459 3840 1a45 1fbf
00000090: 6b43 98bb 8c91 373e 254a eebf a3d9 9cbd
000000a0: 447a dc3c 79f9 aebf 3e3f 793f ee07 c9bd
000000b0: 2a3c 6c3d 3278 41bd 2d08 28be 0f7d 913d
000000c0: c02e 91bf 62b7 a13b
-2.7802513 3.7011096 0.018455364 2.791069 -0.63075185 -0.35663116 3.3264444 -2.321368
0.074676864 -0.11203411 -0.7507815 -0.042347416 -0.09212681 -0.09018408 0.91222525 -0.07596378
0.060852114 -0.04549378 3.3111627 -0.038902767 1.3940815 0.05615144 -0.106600575 0.058431122
0.00460402 0.020886634 0.033992946 -0.71751255 -0.12938577 0.00086633285 0.0020704365 -2.5468085
0.09661747 0.07520887 2.8804445 -0.62214816 -0.0046467087 0.17926615 -1.8616377 -0.076586984
0.02691377 -1.3669883 0.97362125 -0.098159656 0.057674564 -0.047233768 -0.16409369 0.07103931
-1.1342392 0.004935191

net.2.weight f4 [50, 50]
00000000: 6ec2 a93c 26a7 043d bb28 e3bd f57f 02bd
00000010: 8205 47bf cb01 90be 67c1 6dbb 2693 14bd
00000020: 9f70 f6bd 7854 bcbd a8dc 213d 65cb 0dbe
00000030: 25e0 bd3d 1ffc 8a3d aab1 a13f 12d5 f33d
00000040: 27d1 f73d 78f2 88bd 849e c73b cf43 9c3d
00000050: 6356 603f f63d 31bd 0ac6 a3bd 97f8 bebd
00000060: 6e77 fd3c 6971 65bb ccd5 703b da06 823e
00000070: 390b eebd 9b1b f43c fa08 c73c 2ef8 57be
00000080: 88c4 b23d 2e68 ad3d a9d5 1bbe 5b29 543d
00000090: ac9e b1bd 821b f1bd 9d8b 39be ca71 333d
000000a0: 1809 ccbc 09c7 87bd 1acf 57bd 1a6d 04bc
000000b0: 84dc 5a3d f210 eb3d 5b6c c9bd 35f9 74be
000000c0: bdda 083e 313c b83d 5fe0 f63d e78f 5dbe
000000d0: f430 273b 2eac e539 23cb 173c fdc3 023e
000000e0: 9abd bfbd 6f76 8abd f76d ba3d 471a ae3c
000000f0: 8fd2 f2bd c37d 45bd 56fe 9a3d 2b60 da3d
00000100: d364 c23d e287 b0bd a988 fabd e99d d83c
00000110: 50a4 923d e236 cd3d 8dea 223c d09b 883d
00000120: 37be d6bd 69e1 dd3c d42b dbbc 25ed 8ebc
00000130: 9a4d 5f3d 14d3 f3bd 929a 38bb 3630 92bd
00000140: 07c2 4a3d 4068 413e 1da6 d5bd 7726 e3bd
00000150: 3d84 ce3c 1696 f13d e28d d33d 0736 a63d
00000160: ce50 3a3c 3521 1e3c 7c66 a53c 8821 c3bc
00000170: 985b a53c 79ff e3bd ded4 de3d 8300 eabd
00000180: b570 a03d d070 bb3c a5d6 013e a462 f13c
00000190: d970 5abd f9c2 213e d030 8bbd dc68 3bbe
000001a0: f41c 43bd dead 413c 2b3d 85bb e64d 03be
000001b0: b848 ca3c 0478 083e aac3 003d 3d01 81bd
000001c0: 16f5 bebd 14a4 e93d d618 c8bd 90c9 6b3d
000001d0: 7864 003e 65b3 a53d b603 fe3c c2a4 aabc
000001e0: 26b6 5e3e b560 98bd 2785 693d 4526 aabc
000001f0: 165f 923d d6a9 b2bc 5108 b7bd 3913 d0bd
00000200: 28c7 b13d 6177 5f3d 73f8 babd 38ca 963c
00000210: a1e6 66bc 69d4 8bbc a299 41bd 1db2 af3d
00000220: 2d2c 363c d867 26bd 3ba4 00bc 3d9b 513d
00000230: de5f b0bc 625c f9bd 8278 b0bd 1bd1 373d
00000240: 8092 7b3c 4fc0 97bd 0f8d f43d 499c 283c
00000250: 7ab7 ecbd 1b1d bd3d f26a fbbe 3b70 7d3e
00000260: 62d5 c53e ef75 a33d 8a1b 023e 66b8 03bf
00000270: a52f 643e 8ff5 833d d6ab 5dbd d7dd 27be
00000280: aff4 a13d 99f8 b0bd 3041 0bbe 5f92 2abe
00000290: de14 0c3f 6913 3fbe 155f 843d 5912 9b3d
000002a0: 6a1d 883e 315b ef3d 886d d83d c35b 7ebe
000002b0: 2726 d53c 1f88 91bd 0e74 74bd bceb 8c3d
000002c0: 7b13 14bd b188 cdbe 648c 15bb fd09 c9bd
000002d0: 09cf 0abe a503 9cbd 8bbc 603e 06a2 d9bb
000002e0: 7a3d e43d 567e a5be 69c6 c9bd 2e75 4c3d
000002f0: 6d91 bdbe c00b cb3d 5809 9f3c 9830 f8bd
00000300: 89ee 34be ab30 5a3c 633e d6bd 4e00 06be
00000310: b800 d6bd ec0d 933d ca17 6cbe 6b20 e03d
00000320: 06b8 c63d 84f4 143c c36e debd 88df 0abe
00000330: 597c 08be fc68 933d b3d2 afbd 0402 4ebd
00000340: 21dc f9ba 2c6b f4bc 9a71 973a 8148 f8bd
00000350: c0a4 c83d f24f f6bd 14f1 b8bd e3f0 04be
00000360: 9b5e 7e3d 4537 bdbd b84c bfbc ce53 8d3d
00000370: 3dc6 8cbb 0b64 b03d 754c 243c 5913 39bd
00000380: 743c 05be 5bde 19be 1aa0 f93c 9a3a fdbb
00000390: 7523 e13d a018 20be dd34 413c 00e6 033d
000003a0: 60df 883d fb00 2b3d 43f1 86bc 308c 18be
000003b0: 890d 71bd 7302 263e d882 ccbd 2e5c c1bd
000003c0: 5301 e13d b2d3 91bc 1628 80bd 5e80 91bc
000003d0: 6c28 733d 54dc 8e3c cca7 b93d a3d9 34bc
000003e0: 09f0 83bd 8346 84bd 4920 a4bc 725e dcbd
000003f0: b270 b03d 9565 213d c50a e93c 8219 ce3d
0.020722594 0.032385968 -0.11091753 -0.03186031 -0.7774278 -0.28126368 -0.0036278607 -0.036273144
-0.120331995 -0.09195799 0.039517075 -0.1384712 0.09271268 0.067863695 1.2632344 0.11905874
0.121004395 -0.06686872 0.0060918946 0.07630121 0.87631816 -0.04327198 -0.07996757 -0.093247585
0.030940738 -0.0035010225 0.0036748527 0.25395852 -0.11623234 0.02979832 0.024296273 -0.21090767
0.087288916 0.08467136 -0.15218224 0.051797252 -0.086728424 -0.11772825 -0.18119664 0.04380969
-0.02490668 -0.0662976 -0.05268774 -0.008082652 0.053432956 0.114778414 -0.0983512 -0.2392319
0.13364692 0.089958556 0.12054514 -0.21636926 0.0025511356 0.00043806568 0.00926474 0.12770076
-0.093623355 -0.06760871 0.091030054 0.021252764 -0.11856567 -0.04821564 0.07568042 0.10662874
0.09491887 -0.086196676 -0.12233097 0.026442485 0.07160246 0.10020234 0.009943617 0.06670344
-0.10485499 0.027085023 -0.026754297 -0.017447064 0.054517366 -0.11905494 -0.0028168303 -0.07138102
0.049501445 0.18887424 -0.10432074 -0.11091321 0.02520954 0.11796205 0.103297964 0.08115774
0.011371804 0.009651472 0.02019047 -0.0238197 0.020185277 -0.11132712 0.10880445 -0.11425879
0.07833997 0.022880942 0.12679537 0.02946598 -0.053330276 0.15797032 -0.067964196 -0.1830172
-0.047635034 0.011821238 -0.0040661297 -0.12822685 0.024692878 0.13327032 0.0314366 -0.06299064
-0.0932409 0.114082485 -0.09770362 0.05756527 0.12538326 0.080908574 0.031007629 -0.020830516
0.21749172 -0.074403204 0.05701175 -0.020770201 0.071470425 -0.0218095 -0.08937133 -0.101599164
0.08680564 0.054557208 -0.09129419 0.018406972 -0.014093072 -0.017069058 -0.047265656 0.08578894
0.011118931 -0.040626377 -0.007851656 0.051173437 -0.021530088 -0.12175824 -0.08616735 0.044877153
0.015354753 -0.07409727 0.11940967 0.010291168 -0.11558433 0.09234067 -0.4910503 0.24749844
0.3863936 0.079814784 0.12705818 -0.51453245 0.222838 0.06443321 -0.054118954 -0.16393219
0.07907998 -0.08641166 -0.13599086 -0.16657399 0.5471934 -0.18659748 0.06463448 0.07571859
0.2658494 0.11687315 0.105677664 -0.24839692 0.026019169 -0.07106041 -0.05968099 0.068809
-0.03615139 -0.4014335 -0.0022819275 -0.09816358 -0.1355554 -0.07617883 0.21946923 -0.006641629
0.11144538 -0.3232295 -0.09852297 0.04991644 -0.37025014 0.099143505 0.019413635 -0.121186435
-0.17669119 0.013317267 -0.10461118 -0.13086054 -0.10449356 0.0718039 -0.2305595 0.10943683
0.097030684 0.0090915 -0.1086097 -0.13561833 -0.13328685 0.071977586 -0.085851096 -0.05029489
-0.0019062796 -0.02983626 0.0011554242 -0.12123204 0.097970486 -0.12026967 -0.09030357 -0.12982516
0.06210194 -0.092390575 -0.023352012 0.0690075 -0.004296093 0.08612832 0.010027994 -0.045184467
-0.13011342 -0.15026228 0.03047185 -0.007727933 0.10993091 -0.15634394 0.011792389 0.032201767
0.066832304 0.041748982 -0.016472464 -0.14897227 -0.0588508 0.16211872 -0.09985894 -0.0944141
0.10986581 -0.01780114 -0.06257646 -0.017761406 0.05936472 0.017439045 0.09065208 -0.011038217
-0.064422674 -0.064587615 -0.020034926 -0.107602015 0.08615245 0.039403517 0.028447518 0.10063459

net.2.bias f4 [50]
00000000: fd9d 903c 6529 253c 944c 38be 3134 3440
00000010: a32d ab3d d086 26be fa6f 6fbd e807 173d
00000020: 5d67 3bbe 5fc0 0a3e 206e 813d db8c e73c
00000030: 3edd 10c0 e78c d2bd 9fd1 1d40 369e 1d3f
00000040: 0eeb 033e 2040 4abd 1113 9a3c 8a57 c9bd
00000050: 9aee b63e ae56 26be e641 b7bd eadb 4a40
00000060: 5871 67bd 3fdb 113e e5e1 28bd 876a dabd
00000070: 5a5b 453e 4b39 303d 7dfb 25bc 0eb9 8a3d
00000080: 29db b0bc 7f63 193e 3d83 e33d 7c2f 3ebd
00000090: d4f0 ae3c 600b 93bf c405 9dbd 735e 95bc
000000a0: d613 573d 4dc6 823f ea72 e13d 6fc7 b83d
000000b0: 5f63 14be 7a60 b43d f32a 0d3e a6ba f8bc
000000c0: f683 913f 22a9 77bb
0.01765346 0.01008067 -0.17997962 2.8156855 0.08358314 -0.16262364 -0.0584564 0.036872774
-0.18301149 0.13549946 0.06319833 0.028265407 -2.2635036 -0.10280781 2.4659193 0.61569536
0.12882635 -0.04937756 0.01880792 -0.0983115 0.35728914 -0.16244003 -0.08948116 3.1696725
-0.056504577 0.14243792 -0.041231055 -0.1066485 0.19273129 0.04302339 -0.01013076 0.06773578
-0.021588879 0.14979361 0.11109016 -0.046432003 0.02135507 -1.1487846 -0.07667115 -0.018233513
0.05250915 1.0216767 0.11008246 0.09022414 -0.14491032 0.08807464 0.13785915 -0.030362438
1.1368396 -0.003779002

net.4.weight f4 [11, 50]
00000000: 3edc 9b3d aa90 18bc 287f 013e eee1 973d
00000010: 411e 70bd 0be9 9dbd 7d83 d7bd e776 f6bd
00000020: 532f fabd ecb3 7f3d 4992 853d 8d59 a1bd
00000030: e305 eb3c a2d5 ecbc e405 283e d54d 0e3e
00000040: de6a d63d 95e0 d3bd 5d0f 873d f830 03bd
00000050: 00be 6d3d f29a b4bb 4c1e 22bd 6efd e93d
00000060: d140 1f3d 1854 693d 2815 773d b73d e1bd
00000070: 5ad9 9fbd 8b70 93bd 703c b03d f99a f23d
00000080: 3b6c 8dbd 45df bf3c a1e9 6e3c a387 583c
00000090: 8a59 5c3d 28a2 cdbd 6f69 a33d f311 e7bc
000000a0: 2a64 313e 2953 c3bd 0352 12be 3a35 9a3d
000000b0: 573b b63d a8db a93d dd69 853d 57e7 fa3c
000000c0: 1e14 d23c 76fc 02bd 2f4c 2ebc e459 70bc
000000d0: 9555 b6bd 89a5 1f3e 760e 8bbb f404 13bd
000000e0: c7ce d4bd 49fe 913d 317e 3a3b f0f8 c53d
000000f0: 4e67 82bd fdde e23c 53d8 fcbc a356 753d
00000100: 3217 b43d 2e70 12be 4a11 b0bc d641 babd
00000110: 4964 b23d ed94 b7bc 3b12 f5bd 75a8 0cbd
00000120: 26e5 2ebd 7194 9a3d 24eb ae3c b08a f23d
00000130: 464b a43d d48c df3b 54bc c9bc 41cc a1bc
00000140: ccad b43c 1a10 fc3d 9eb4 d2bb b834 f2bd
00000150: dda5 f4bd d99f 213d a60d ec3d c6e5 4abe
00000160: 4113 6f3d 6682 bb3d ba2e 163e 956e 2f3e
00000170: 3f81 d0bd 3549 b03d adcc 0cbc 79cb b3bd
00000180: c0da b2bd 7039 adbd 98bd 013e c2d4 ee3d
00000190: bfb9 c13d 5f41 98bd e391 b03d 36f1 3e3e
000001a0: c900 173e 7be6 d2bd 1af7 d13d 0c97 02bc
000001b0: da41 803d 2a34 08be aec5 e9bc c7f8 9fbd
000001c0: 938a 313d bd04 493a 6186 793e 7917 113d
000001d0: 052a cb3d fd5e 2e3d 498a 54bd e58e bc3b
000001e0: 768e 573c b4cc 903b dba3 85bb 96cb 3d3e
000001f0: 889d e93c 1e45 e0bd 9178 81bd 894c 6ebd
00000200: 034b 463d eb22 d83d c770 d83d e347 073c
00000210: af97 9dbd c2a6 0dbc 2381 ee3c b2d3 63bc
00000220: d973 9e3d ee58 29be 72cf 78bd de2c acbc
00000230: 2d67 323d 57b5 7bbc 71a8 33bc 3fae f9bd
00000240: b1e9 1bbe 6e8c ed3d a118 323e 4c3c 24be
00000250: 1990 bdbd f3ca 833b 9612 bdbd 59db e3bd
00000260: 39cd c93c a8d1 1e3e 77b3 683d 15c9 8cbd
00000270: 5c34 61bc a54f 0dbd 7630 acbc dff3 00be
00000280: 27e2 03be a1fa 003e 71e2 3cbd 44c2 38bd
00000290: 4aa9 c63e 8421 d53b 2c78 41bd 1e06 4f3d
000002a0: d991 f03a 9610 0a3d 4735 183d cde2 283b
000002b0: 55f8 9a3d 7cd0 7b3e 6ba3 43bd bc95 17be
000002c0: ade3 20bd 6ae5 293e 4e59 fdbc 18ee f63c
000002d0: 51de 7ebc db66 003e 0a51 713d 21a9 413d
000002e0: 034b c1bd 84ff dd38 bd76 c23d 3bc9 83be
000002f0: 4308 20bc d628 bdbd ec8c d7bd 6520 0fb9
00000300: 82f4 60bd 52f5 913c 1e88 c9bd 3a6f 14be
00000310: b314 303e e224 18bd 44f2 aabc 8831 75bc
00000320: 33ab 0c3e 53a2 973d 4665 d53d cd15 a83e
00000330: 6146 873c ac77 133d ea08 893c e9a0 89bd
00000340: a9c5 f5bd 5ff1 203e 707b af3d 4aba ea3a
00000350: df8c 88bd eb88 ce3d 21a5 dd3d 3445 e5bc
00000360: 68cf 88bd 434f bebd 40b8 f2bd ac0a 3e3d
00000370: 7a7e 163d 145f 8a3d 3376 37bd af52 a13d
00000380: d85d 943d 6581 433d 56d7 033e fc9b 583d
00000390: adb7 4cbd 019e 7fbc 1a51 023e d5d8 aebd
000003a0: 2cd4 edbd 3fe5 6a3b e41d c3bc 170a 543d
000003b0: e44a a6bd c2ce 12bc 3cb6 cbbd 7da1 7d3d
000003c0: 8a57 ee3c 1abc bc3d 1b60 95bc 934f 983d
000003d0: da05 083e 8ce1 96bd 5a57 f3bd 6756 fcbb
000003e0: 2629 1f3d e2db d9bd e8a8 7d3d f22b 223c
000003f0: b5d2 a7bd 0904 6d3e 9e6f 5c3c 2f76 6a3d
0.07610367 -0.009311834 0.12646163 0.074161395 -0.058622602 -0.07710465 -0.10523126 -0.120343976
-0.12216058 0.062427446 0.06522042 -0.078784086 0.02868933 -0.028910462 0.16408497 0.13896878
0.10469602 -0.1034557 0.06594727 -0.032029122 0.058042526 -0.005511635 -0.039579675 0.11425291
0.038880173 0.056964964 0.06032291 -0.10998099 -0.078051284 -0.071992 0.086052775 0.11845965
-0.06905409 0.023421893 0.014582069 0.013215932 0.05379633 -0.100406945 0.07979094 -0.028206801
0.17323366 -0.09537346 -0.14289097 0.075296834 0.08898037 0.08293849 0.065143324 0.03062789
0.025644358 -0.031979047 -0.010638281 -0.014669869 -0.08903042 0.1559049 -0.0042436672 -0.035893396
-0.10391002 0.07128579 0.0028456564 0.09666622 -0.0636736 0.02769422 -0.03086487 0.059897076
0.08793487 -0.14300606 -0.021492619 -0.090945885 0.08710534 -0.02240988 -0.11966368 -0.03434034
-0.042699 0.07547844 0.021352358 0.11842859 0.0802217 0.006822208 -0.024625935 -0.019750716
0.022055529 0.12307759 -0.0064302227 -0.118264616 -0.119456984 0.039459083 0.11526041 -0.19814214
0.05836797 0.09155731 0.14666262 0.17132027 -0.10180902 0.08607713 -0.00859372 -0.08779044
-0.087331295 -0.08458221 0.1266998 0.11661674 0.094592564 -0.074343435 0.08621576 0.18646702
0.14746393 -0.10297867 0.10252209 -0.007970583 0.0626256 -0.13301149 -0.028536644 -0.078111224
0.043345045 0.00076682476 0.24367668 0.035422776 0.09920124 0.042571057 -0.05188969 0.005754339
0.013156524 0.0044189338 -0.004078371 0.18534693 0.0285175 -0.10950683 -0.06321824 -0.05817846
0.04841138 0.10553535 0.105683856 0.008256885 -0.07694947 -0.008645715 0.029114312 -0.013905453
0.0773694 -0.1653783 -0.06074471 -0.021017488 0.043555427 -0.015363059 -0.0109654525 -0.12191438
-0.15225865 0.115990505 0.17392208 -0.16038626 -0.09256 0.004021996 -0.092320606 -0.111258216
0.02463399 0.15509665 0.056811776 -0.06874291 -0.013745394 -0.034499783 -0.021019202 -0.1259303
-0.12879239 0.12595607 -0.04611439 -0.04510714 0.38801032 0.0065042395 -0.047233745 0.050542943
0.0018354013 0.033707224 0.037160184 0.002576995 0.07566897 0.24591249 -0.04776327 -0.14803213
-0.03927963 0.16591421 -0.030926373 0.030142829 -0.015555934 0.12539236 0.058915175 0.047280435
-0.094381355 0.00010585695 0.09495304 -0.25739464 -0.009767595 -0.092363045 -0.105249256 -0.0001364961
-0.05492068 0.017817173 -0.098404154 -0.14495555 0.17195396 -0.03714455 -0.020867474 -0.014965422
0.13737182 0.07404008 0.10419707 0.32829133 0.016513051 0.0360028 0.016727883 -0.06720144
-0.12000591 0.15717076 0.08568466 0.0017908302 -0.06667494 0.10084709 0.108225115 -0.0279871
-0.066801846 -0.09292462 -0.11851549 0.046396896 0.03674171 0.06756416 -0.044790458 0.07877099
0.07244462 0.047730822 0.12875113 0.052883133 -0.049979854 -0.015601636 0.1272625 -0.08537451
-0.11612734 0.0035842208 -0.023817964 0.051767435 -0.08119753 -0.008960428 -0.09946868 0.061921585
0.029094476 0.09215565 -0.018234303 0.074370526 0.13283482 -0.073672384 -0.11881895 -0.0077007296
0.0388576 -0.106376424 0.06192866 0.009898173 -0.08194486 0.2314607 0.013454346 0.057241615

net.4.bias f4 [11]
00000000: 18af d2bc e552 083e 0150 1fbc 668b 803e
00000010: 518b 3fbe ec4e f9bd d436 463e 126f 273e
00000020: bda0 1bbe 5091 cbbd b4cd 583d
-0.025718257 0.13312872 -0.009723664 0.25106353 -0.18705489 -0.12173256 0.19356853 0.16350964
-0.15198036 -0.099398255 0.05293055
