models/part1.pt (torch, 45703 bytes, 6 tensors)

net.0.weight f4 [50, 155]
0	0xbd0a7c0a	-0.0338097
1	0x3c703605	0.014661317
2	0x3d82d3cc	0.06388053
3	0xbb9f7af0	-0.00486695
4	0x3c07e2c0	0.0082938075
5	0x3bc36ff0	0.0059642717
6	0xba9025bb	-0.0010997573
7	0x3d453675	0.048147637
8	0x3d31faf5	0.043452222
9	0xbd305eba	-0.04305909
10	0x3d9ce34d	0.07660542
11	0x3d3cddd6	0.046109997
12	0xbc4e49e1	-0.012590856
13	0x3d8eba4e	0.069691285
14	0x3b85ef9d	0.004087402
15	0x3d4f3417	0.050586786
16	0xbd8c070c	-0.068372816
17	0x3d938071	0.07202233
18	0x3d9acc26	0.075584695
19	0xbd7650fa	-0.06013582
20	0xbd936210	-0.07196438
21	0xbcc15efb	-0.02360486
22	0xbd4a45c6	-0.049382947
23	0x3caf1fc6	0.021377455
24	0x3d1185d0	0.035528004
25	0xbc2c1f1e	-0.010505466
26	0x3d65f548	0.05614212
27	0x3b3f4e93	0.002919112
28	0xbcc0dbd0	-0.023542315
29	0xbd8c9c8c	-0.068657964
30	0x3cd12024	0.025528021
31	0xbd9afe00	-0.07567978
32	0xba01915b	-0.0004942619
33	0x3c3c9fb5	0.0115126865
34	0xbd385eb8	-0.045012206
35	0x3cc5acf8	0.02413033
36	0x3c7f56a3	0.015584621
37	0x3d5c2c5a	0.053753234
38	0x3d4dc57a	0.050237156
39	0xbd854aee	-0.06508432
40	0xbd747239	-0.059679244
41	0xbcf180ab	-0.029480299
42	0xbd6cae75	-0.057783563
43	0x3ccd97c7	0.025096787
44	0xbd578e78	-0.052626103
45	0xbd7b2ea3	-0.061323773
46	0x3cbfa648	0.023394719
47	0x3d468e82	0.04847575
48	0xbcbf4b66	-0.023351382
49	0xbda3ea9a	-0.08003731
50	0x3c39fdc8	0.01135201
51	0x3d289994	0.04116209
52	0x3d80808f	0.062745206
53	0x3bf9ba80	0.0076211095
54	0x3d6434d2	0.055714436
55	0xbd9315c7	-0.07181888
56	0x3d9d5f77	0.07684224
57	0xbd54723b	-0.05186675
58	0xbd6090e2	-0.05482567
59	0x3d6c1d12	0.05764491
60	0xbc92c52c	-0.017916285
61	0x3d4b095a	0.049569465
62	0xbd667048	-0.056259423
63	0x3d78e96e	0.06076949
64	0x3d9c02a7	0.076176934
65	0x3cc73d1c	0.024321131
66	0x3d84b35b	0.06479522
67	0xbd6af251	-0.057359997
68	0xbc914b62	-0.01773614
69	0x3cc847c8	0.02444829
70	0x3d39e9f2	0.045389123
71	0xbd2fabf0	-0.04288858
72	0x3d515a6a	0.051111616
73	0xbcd91bfe	-0.026502606
74	0xbd2fdbbc	-0.042934164
75	0x3c7fbf77	0.015609614
76	0xbd837568	-0.06418878
77	0xbd9734b5	-0.073831
78	0x3cdb3bd4	0.026761927
79	0x3cdf80b8	0.027283058
80	0x3cfc82f1	0.030824156
81	0xbc2ca4cb	-0.010537337
82	0xbd70dcbd	-0.058804262
83	0xbd8465e2	-0.06464745
84	0x3d9d21ec	0.07672486
85	0xbd8eccc9	-0.069726534
86	0x3cc61c19	0.02418332
87	0x3d85507f	0.06509494
88	0x3d7a6f52	0.06114132
89	0xbd500c97	-0.050793257
90	0xbcd40538	-0.025881395
91	0xbd83b0e9	-0.06430227
92	0x3d4dd315	0.05025013
93	0xbd9a8ac8	-0.07546002
94	0xbd975b96	-0.073905155
95	0xbd5bf22f	-0.05369776
96	0x3d86075d	0.06544373
97	0x3d5566e6	0.052100085
98	0x3d5c2363	0.053744685
99	0x3d7c966f	0.061666902
100	0xbd19bead	-0.03753536
101	0xbd37ff17	-0.044921007
102	0xbd49f756	-0.049308144
103	0x3cd968f1	0.026539298
104	0x3d001ffb	0.0312805
105	0x3c89405b	0.01675432
106	0xbd7cbfa5	-0.061706204
107	0x3beca7df	0.00722216
108	0xbd2e3947	-0.042535093
109	0xbc80ae21	-0.015708031
110	0xbc4a4db7	-0.01234763
111	0x3b85adef	0.0040795724
112	0xbd900ee2	-0.07034089
113	0x3d8c982b	0.06864961
114	0xbd0ba3be	-0.034091704
115	0x3cce4e3b	0.025183788
116	0x3d62eb55	0.05540021
117	0x3d043349	0.03227547
118	0x3d661afd	0.05617808
119	0x3d397600	0.04527855
120	0x3d709ee2	0.058745272
121	0x3c8aaf85	0.016929397
122	0x3d51d3d5	0.05122741
123	0xbd0f7941	-0.035027746
124	0xbd316711	-0.043311182
125	0x3d1cf596	0.038320147
126	0x3cabee6f	0.020987717
127	0xbb4cdd35	-0.003125978
128	0xbd8b4638	-0.068005025
129	0x3cd5057e	0.026003595
130	0x3d547a7a	0.051874615
131	0xbc193a37	-0.009352258
132	0x3c964359	0.01834266
133	0x3d122c09	0.035686526
134	0xbda299fc	-0.079395264
135	0xbc599036	-0.0132790115
136	0xbcf4a3f9	-0.029863345
137	0xbd283e3e	-0.041074984
138	0x3d48225f	0.048860904
139	0x3da30f9c	0.079619616
140	0x3c4ff7a4	0.0126933195
141	0x3d4ba150	0.049714386
142	0xbd75254b	-0.05985002
143	0x3c647e93	0.013946193
144	0xbc2a3338	-0.010388188
145	0xbd4befeb	-0.04978935
146	0x3c8553fd	0.0162754
147	0x3ccff396	0.025384706
148	0xbb866b59	-0.0041021523
149	0x3d0aae62	0.03385771
150	0x3d1d4369	0.038394365
151	0x3d955d56	0.07293193
152	0x3b92e8ec	0.004483333
153	0x3b3222ed	0.0027181462
154	0xbaae844a	-0.0013314572
155	0x3c3a3a16	0.011366388
156	0xbd542496	-0.051792704
157	0xbc1f69a8	-0.00972978
158	0xbd8b1b20	-0.06792283
159	0xbd66c4ec	-0.056340143
160	0xbd8c1e57	-0.06841724
161	0x3d751ea9	0.059843693
162	0xbd3bf4e2	-0.045887835
163	0xbbd20213	-0.0064089387
164	0x3c125656	0.008931717
165	0x3d91cbc7	0.071189456
166	0x3d168032	0.03674335
167	0xbd696dee	-0.056989603
168	0x3da1c6d5	0.07899252
169	0xbd9aefce	-0.0756527
170	0x3c2f84b8	0.010712795
171	0x3d96fcc2	0.073724285
172	0x3d8f03b9	0.06983132
173	0xbc968c9d	-0.018377597
174	0xbd5a9fc1	-0.05337501
175	0x3d111046	0.03541591
176	0x3d7f6059	0.062347744
177	0xbd2f639c	-0.042819604
178	0xbc4dcd00	-0.012561083
179	0xbd465390	-0.048419535
180	0x3cfec4f2	0.03109977
181	0x3c8f7958	0.017513916
182	0x3d24d900	0.04024601
183	0xbce000ae	-0.027344074
184	0xbd9e0926	-0.07716589
185	0xbd0a8d0a	-0.03382591
186	0xbd80a6ef	-0.0628184
187	0xbc9b28c3	-0.018940335
188	0x3cf21bba	0.029554237
189	0xbd88aaa6	-0.066731736
190	0xbb751cca	-0.0037401193
191	0xbda0a28b	-0.078435026
192	0xbd69250a	-0.05692009
193	0xbd66583c	-0.05623649
194	0xbcdeb8b7	-0.027187688
195	0xbd2605b0	-0.040532768
196	0x3c4abc69	0.012374022
197	0x3d491e46	0.049101137
198	0x3d7977e1	0.06090534
199	0x3ccf7d34	0.025328256
200	0xb9af1dc8	-0.0003340079
201	0xbc6a83d0	-0.014313653
202	0x3d5f6416	0.05453881
203	0xbd3c6d72	-0.046002813
204	0x3d6dcda2	0.058057435
205	0xbd9e61c6	-0.077334926
206	0xbd758e0a	-0.059949912
207	0x3cb0b663	0.021571344
208	0xbd07812d	-0.033082176
209	0x3c786186	0.01515997
210	0x3d8fc32a	0.070196465
211	0x3d16439a	0.036685564
212	0x3da101bf	0.07861661
213	0xbd0b39e2	-0.03399075
214	0xbd1d1b57	-0.03835615
215	0xbc24cfd6	-0.010059318
216	0xbc847c72	-0.016172621
217	0xbd10b770	-0.03533119
218	0xbba36900	-0.004986882
219	0x3d949ca9	0.07256443
220	0xbd3457d7	-0.044029083
221	0x3d38c292	0.04510743
222	0x3d18d5bc	0.037313208
223	0x3d3ef3e6	0.04661932
224	0x3cb2ebf9	0.021841036
225	0xbcf312f8	-0.029672131
226	0x3d07c83e	0.03314995
227	0xbd1af4f9	-0.03783128
228	0xbd499253	-0.04921181
229	0x3d99f77e	0.075179085
230	0x3d88c176	0.06677525
231	0xbd6c7bee	-0.057735376
232	0x3d85ff94	0.06542888
233	0x3c87a934	0.016560175
234	0x3caa78ed	0.020809615
235	0x3d9f2bcb	0.07772025
236	0xbb88f1a0	-0.0041791946
237	0xbcd0c289	-0.025483387
238	0x3d4fca6c	0.050730154
239	0xbca6fd17	-0.020384355
240	0xbc9b4c9e	-0.018957432
241	0xbd042af4	-0.032267526
242	0x3da292ea	0.07938178
243	0x3d1e6111	0.03866679
244	0xbc507101	-0.012722255
245	0xbaefd891	-0.0018298795
246	0x3bbc8971	0.005753689
247	0xbd41feef	-0.047362264
248	0x3cbbdfdb	0.022933891
249	0xbd7fdcaa	-0.0624663
250	0xbb6bed93	-0.003599976
251	0xbc746169	-0.0149158025
252	0xbd06a866	-0.03287544
253	0x3d9872ca	0.07443769
254	0x3cb809ed	0.02246567
255	0x3d1f1dc0	0.03884673

net.0.bias f4 [50]
0	0x3cb67a56	0.022275131
1	0x3d85091d	0.06495879
2	0x3d814fe7	0.06314068
3	0x3ce3dbb7	0.02781473
4	0x3bda77ed	0.0066671283
5	0x3d11f38f	0.035632666
6	0xbccda09c	-0.025100999
7	0x3d7bca19	0.061472032
8	0x3d2bace7	0.04191294
9	0xbda40585	-0.08008865
10	0x3d96f453	0.0737082
11	0x3b58f1ed	0.0033103183
12	0xbd7740db	-0.060364585
13	0xbcf7f325	-0.030267308
14	0x3da0bd11	0.078485616
15	0xbd8919cb	-0.06694373
16	0x3ca87fa2	0.020568673
17	0xbce10e67	-0.027472688
18	0xbd871d70	-0.06597412
19	0x3d0117c3	0.0315168
20	0x3d418f3a	0.047255732
21	0x3da0d18c	0.07852468
22	0xbd85e12d	-0.065370895
23	0x3d1efbe1	0.03881443
24	0x3d6c11e7	0.05763426
25	0xbb1ff6fe	-0.0024408693
26	0x3d7fc13d	0.062440146
27	0x3d972601	0.073802955
28	0xbd85c278	-0.065312326
29	0x3d236ddc	0.039899692
30	0x3ca057bb	0.019573083
31	0x3c0d42f6	0.008621922
32	0x3d70adf0	0.05875963
33	0x3b9cc8be	0.0047846725
34	0xbcf8d6f3	-0.030375933
35	0x3d8d7038	0.0690617
36	0x3d3cd3c9	0.04610041
37	0x3d1dc153	0.038514446
38	0xbcb1391c	-0.021633677
39	0xbd893623	-0.06699779
40	0xbc3eeebb	-0.0116535975
41	0xbc7e19a0	-0.015509039
42	0xbc807981	-0.015682938
43	0xbd29023d	-0.0412619
44	0x3d6a5df0	0.057218492
45	0xbc5e99e8	-0.013586499
46	0xbda12433	-0.078682326
47	0xbd52f13a	-0.051499583
48	0xbda2bd4e	-0.07946263
49	0x3d37fe35	0.044920165

net.2.weight f4 [50, 50]
0	0xbc825017	-0.01590733
1	0xbd92abe5	-0.071616925
2	0xbddd2aa7	-0.10799151
3	0x3d8e1ac4	0.06938699
4	0xbdfa0e8d	-0.122098066
5	0xbe033b42	-0.12815574
6	0xbc4dfbef	-0.012572273
7	0x3dade354	0.08490625
8	0xbde3c228	-0.11121017
9	0xbdbb81de	-0.091556296
10	0x3d3cae1d	0.046064485
11	0xbe0c2d27	-0.13689099
12	0x3dc164b9	0.094430394
13	0x3d9bc9fc	0.07606885
14	0x3d8e4d44	0.06948331
15	0x3df6b807	0.12046819
16	0x3dfc9316	0.12332742
17	0xbd84d54d	-0.064859964
18	0x3da39c8e	0.07988845
19	0x3d9f1b8a	0.077689245
20	0x3d8413fb	0.064491235
21	0xbd1c3623	-0.038137566
22	0xbd9eff36	-0.077635214
23	0xbdbb15a4	-0.09134987
24	0x3cfc7a53	0.030820047
25	0xbb5f3b91	-0.0034062604
26	0x3bf9e863	0.0076265796
27	0x3e02341d	0.12715192
28	0xbdeac00e	-0.11462413
29	0x3d07e428	0.03317657
30	0x3cd45cf7	0.025923235
31	0xbbbe1464	-0.0058007706
32	0x3dc0af13	0.09408393
33	0x3dbcf9a6	0.09227304
34	0xbdc20ce8	-0.09475118
35	0x3cd1d3dc	0.025613718
36	0xbdad5862	-0.08464123
37	0xbd9f383a	-0.07774396
38	0xbdf18e95	-0.117947735
39	0x3d57f7e4	0.05272664
40	0xbc6556ce	-0.013997747
41	0xbdb7032f	-0.08936154
42	0xbce22e22	-0.027609888
43	0xbc2668e0	-0.01015684
44	0x3d5cc789	0.05390123
45	0x3df72045	0.12066702
46	0xbdc04ee8	-0.0939005
47	0xbc10cb80	-0.008837581
48	0x3e0c2bbf	0.13688563
49	0x3dbff1b5	0.09372274
50	0x3d84db73	0.06487169
51	0xbd303909	-0.043023143
52	0x3cc628e2	0.024189416
53	0x3c15defa	0.0091474
54	0x3b011320	0.0019695237
55	0x3dbc1450	0.09183562
56	0xbd460668	-0.048345953
57	0xbd10ad67	-0.03532162
58	0x3dc8f120	0.09811616
59	0x3d1300ac	0.035889313
60	0xbe09fce5	-0.13475378
61	0xbce6ff61	-0.028197946
62	0x3dc27808	0.094955504
63	0x3dae8dc3	0.08523133
64	0x3dc0575c	0.093916625
65	0xbda9e868	-0.08296281
66	0xbdd95b93	-0.106131695
67	0x3d373400	0.044727325
68	0x3dde44a2	0.108529344
69	0x3debd98e	0.11516105
70	0x3d5cbd9a	0.053891756
71	0x3daa0ad2	0.08302845
72	0xbdc84b74	-0.097800165
73	0x3d095f24	0.033538
74	0xbc766b1b	-0.015040184
75	0xbb05e6cd	-0.0020431757
76	0x3d87d6a1	0.06632734
77	0xbdd9eb00	-0.10640526
78	0x3c5afc6a	0.013365844
79	0xbd4cc708	-0.0499945
80	0x3d906962	0.0705135
81	0xbe01caac	-0.1267497
82	0xbda0b72a	-0.07847436
83	0xbdcfc976	-0.101458475
84	0x3dd7f352	0.105444565
85	0x3db34cba	0.08754869
86	0x3def3a47	0.116810374
87	0x3e0e852a	0.13917986
88	0x3d2f9d5b	0.042874675
89	0x3c93b948	0.018032685
90	0x3d1fec4c	0.03904371
91	0x3cb60bed	0.022222484
92	0x3c868423	0.01642043
93	0xbddb253a	-0.1070046
94	0x3ddde44f	0.10834562
95	0xbdc4c800	-0.096084595
96	0x3dca0b60	0.09865451
97	0x3d84dfc4	0.064879924
98	0x3d162c80	0.036663532
99	0x3d5718d6	0.05251392
100	0x3cfe42e8	0.031037763
101	0xbd8e1d7c	-0.069392174
102	0xbd9a0179	-0.07519812
103	0xbd9333af	-0.07187592
104	0xbdae5b94	-0.08513561
105	0x3d83f754	0.064436585
106	0x3c2c6630	0.01052241
107	0xbabecf00	-0.001455754
108	0x3d1b1404	0.037860885
109	0x3e05c317	0.13062702
110	0xbc3385c0	-0.010957181
111	0xbd8b108c	-0.067902654
112	0xbdd2121c	-0.1025736
113	0x3def4d1a	0.11684628
114	0xbdffec7d	-0.124962784
115	0x3d8d5662	0.06901242
116	0x3dfd7a4e	0.123768434
117	0x3d9ab4ac	0.07553992
118	0xba8f0780	-0.0010912269
119	0xbc9672e0	-0.018365324
120	0x3db7839a	0.08960648
121	0xbd9a01bf	-0.07519864
122	0x3d4cc6d4	0.049994305
123	0xbd330948	-0.043710023
124	0x3d98991e	0.0745108
125	0xbd003eb4	-0.0313098
126	0xbdc14a0e	-0.09437953
127	0xbd5d3208	-0.05400279
128	0x3daa5400	0.08316803
129	0x3d5364f0	0.051609933
130	0xbdcc7e4a	-0.09985025
131	0xbdbc5593	-0.091960095
132	0xbcedc23c	-0.029023282
133	0xbc5d6000	-0.013511658
134	0xbd22dd4c	-0.039761826
135	0x3dc2baf4	0.09508315
136	0x3c20d7d0	0.009817079
137	0xbd1ac262	-0.037783034
138	0xbc04f270	-0.008114442
139	0x3d849f9a	0.06475754
140	0xbdcb1e0e	-0.09917842
141	0xbe0e4ce2	-0.13896516
142	0xbde8abcc	-0.11360893
143	0x3d7eae9c	0.06217824
144	0x3c7b9280	0.015354753
145	0xbe0186d5	-0.1264909
146	0x3decb93a	0.11558767
147	0x3d9b21f6	0.07574837
148	0xbe071f0c	-0.13195437
149	0x3db1f610	0.08689511
150	0xbbaa06c1	-0.0051887934
151	0x3c4a1f41	0.012336553
152	0x3deec2fd	0.11658285
153	0x3de0f260	0.10983729
154	0x3cfe1dd2	0.031020079
155	0xbd89772f	-0.067121856
156	0x3dda1f22	0.10650469
157	0x3df1ba94	0.11803165
158	0xbca73f51	-0.020415934
159	0xbde6ce8e	-0.11269866
160	0x3e082af8	0.13297641
161	0xbd787c79	-0.06066558
162	0xbdac1484	-0.084023505
163	0xbe083c8f	-0.13304351
164	0x3d6bdf39	0.05758593
165	0x3d5ed919	0.05440626
166	0xbd776b3d	-0.060405005
167	0xbe0bddc1	-0.13658811
168	0x3dcac2f4	0.099004656
169	0x3c149bff	0.0090703955
170	0x3e01088e	0.1260092
171	0xbc51098c	-0.012758624
172	0x3e02d7b0	0.12777591
173	0xbd111de9	-0.035428915
174	0xbd857a54	-0.06517473
175	0x3daa404f	0.08313047
176	0x3d12771c	0.035758123
177	0x3e02882d	0.1274726
178	0x3c32a06d	0.010902506
179	0xbddcbc25	-0.10778073
180	0xbdcc424e	-0.09973584
181	0xbd002a3a	-0.03129027
182	0xbca9ccf9	-0.020727621
183	0xbd9def19	-0.0771162
184	0x3df6a0c5	0.12042383
185	0xbd9d264b	-0.076733194
186	0x3c637ff7	0.01388549
187	0x3da671fa	0.08127208
188	0x3cefe0a8	0.02928193
189	0x3becf100	0.007230878
190	0x3d63b656	0.05559381
191	0xbd9544f2	-0.07288541
192	0xbe0eec0e	-0.13957235
193	0x3d2be029	0.041961823
194	0xbdd54bcd	-0.104148485
195	0xbdf7efd5	-0.12106291
196	0xbdd3f6c6	-0.10349803
197	0x3dea6f5a	0.1144702
198	0xbdc25bdf	-0.09490179
199	0x3de28582	0.11060621
200	0x3dbfd78a	0.09367283
201	0x3cc4c8c3	0.024021512
202	0xbdaafc5d	-0.08348916
203	0xbe03ca39	-0.1287011
204	0xbde068e9	-0.1095751
205	0x3dba0499	0.09082908
206	0xbdbf7da3	-0.09350135
207	0xbc9a907b	-0.018867722
208	0x3cb82536	0.022478681
209	0xbc8c6b8c	-0.017141126
210	0x3cff83f3	0.031190848
211	0xbde5c33b	-0.11218878
212	0x3dece0a8	0.11566287
213	0xbdd1e3c7	-0.10248523
214	0xbdaa3936	-0.08311693
215	0xbdf175ec	-0.1179007
216	0x3dbb91a2	0.09158637
217	0xbd9057b7	-0.0704798
218	0xbd456d6a	-0.04820005
219	0x3d971841	0.07377673
220	0xbc77fe9e	-0.015136389
221	0x3dee0b46	0.11623244
222	0x3d304eb6	0.043043815
223	0xbc4c412b	-0.012466709
224	0xbdc3600c	-0.09539804
225	0xbe0a9ac7	-0.13535605
226	0x3d1e6f03	0.038680088
227	0x3c29e700	0.010370016
228	0x3e039977	0.12851511
229	0xbe059964	-0.13046795
230	0x3ce4e77d	0.027942413
231	0x3d55c521	0.05218995
232	0x3d9ed117	0.077547245
233	0x3d8bb41d	0.06821463
234	0xbc2beedb	-0.010493959
235	0xbe0a5e1d	-0.13512464
236	0xbce9ddbc	-0.028548114
237	0x3e0e9788	0.13924992
238	0xbdd9b3fd	-0.10630033
239	0xbdc15c2e	-0.0944141
240	0x3e0347e0	0.12820387
241	0xbc1e4047	-0.00965888
242	0xbd43c212	-0.0477925
243	0x3c81d5a9	0.015848951
244	0x3d7140cf	0.058899697
245	0x3c481a48	0.012213297
246	0x3de91f9e	0.113829836
247	0xbb033880	-0.002002269
248	0xbd73b00e	-0.05949407
249	0xbd8849bd	-0.066546895
250	0xbc328950	-0.010896996
251	0xbce24e5c	-0.027625255
252	0x3dc3d692	0.095624104
253	0x3d870bf8	0.0659408
254	0x3ddf1c76	0.108941
255	0x3de2f14e	0.110811815

net.2.bias f4 [50]
0	0x3cd43bd9	0.025907444
1	0x3e0cad82	0.13738063
2	0xbdfde460	-0.12397075
3	0x3df81ede	0.121152624
4	0x3d94d355	0.07266871
5	0xbe088eab	-0.13335674
6	0xbd5f326c	-0.054491445
7	0x3d474ec1	0.04865909
8	0xbdda03a4	-0.10645226
9	0x3e07ea9f	0.13273095
10	0xbd59ec06	-0.053203605
11	0x3d5c1b13	0.053736757
12	0x3cdbca73	0.026829934
13	0xbd6180e4	-0.05505456
14	0xbe0848a5	-0.13308962
15	0x3c296dd0	0.010341123
16	0xbdeca8b8	-0.11555618
17	0xbcffc1d3	-0.031220352
18	0x3cf1e0b3	0.02952609
19	0xbd4ad766	-0.049521826
20	0x3da659a8	0.08122569
21	0xbe021b82	-0.12705806
22	0xbde4a580	-0.11164379
23	0x3d9b342c	0.0757831
24	0xbd96d53f	-0.07364892
25	0x3ded22e1	0.11578918
26	0xbcea5400	-0.028604507
27	0xbccbae58	-0.024863407
28	0x3e09967b	0.1343631
29	0xbc844802	-0.016147617
30	0xbde83995	-0.11339108
31	0xbd714ed0	-0.058913052
32	0x3d325e7e	0.043547146
33	0x3dc44ed0	0.09585345
34	0x3df52ccf	0.11971437
35	0xbd54a718	-0.051917166
36	0x3cae5c80	0.021284342
37	0x3dd21254	0.10257402
38	0xbd6cfaba	-0.0578563
39	0x3c229d3f	0.009925186
40	0xbd8c5d1a	-0.06853695
41	0x3ca8ee7e	0.020621534
42	0x3e0c61cf	0.13709186
43	0x3df5b0ad	0.11996589
44	0xbdbe7aef	-0.093007915
45	0x3d8e77a5	0.06956414
46	0x3e07bf45	0.13256557
47	0xbccd1928	-0.02503641
48	0x3d4f87fb	0.05066679
49	0xbe020b43	-0.12699609

net.4.weight f4 [11, 50]
0	0x3da1e33e	0.07904671
1	0xbcd53143	-0.026024466
2	0x3e050263	0.12989192
3	0x3dcbd16f	0.09952056
4	0xbda58cb7	-0.0808348
5	0xbd801470	-0.06253898
6	0xbde3bf1f	-0.11120438
7	0xbe05489e	-0.13015983
8	0xbe03630b	-0.1283075
9	0x3d8d27f2	0.068923846
10	0x3dc01066	0.09378128
11	0xbdb6d1ad	-0.08926711
12	0x3dcba777	0.09944051
13	0xbd35ba46	-0.044367097
14	0x3d2cd528	0.04219547
15	0x3df297c2	0.11845352
16	0x3de0b66a	0.10972293
17	0xbde63b3a	-0.11241765
18	0x3d65eafe	0.05613231
19	0xbd917929	-0.071031876
20	0xbdf7bd77	-0.120966844
21	0xbbcd56a0	-0.00626643
22	0xbd01bb6a	-0.031672873
23	0x3cf70ebe	0.030158397
24	0x3c82b0c8	0.015953436
25	0x3da89ba7	0.08232813
26	0x3d956688	0.07294947
27	0xbe015bdc	-0.12632698
28	0xbdfc2965	-0.12312583
29	0xbdb6198d	-0.08891592
30	0x3d952686	0.072827384
31	0x3e05bcd5	0.13060315
32	0xbda898a8	-0.08232242
33	0x3cdced21	0.02696854
34	0x3c0908cd	0.008363915
35	0x3d582d4c	0.052777573
36	0x3d61af08	0.055098563
37	0x3cb85afe	0.022504326
38	0x3dc0ae22	0.09408213
39	0xbd3e9fba	-0.046539046
40	0x3e0a3eff	0.13500594
41	0xbb66e10e	-0.0035229358
42	0xbe02bf17	-0.12768207
43	0x3d8e1881	0.069382675
44	0x3dcbe762	0.09956242
45	0x3dc32315	0.09528176
46	0x3c833460	0.016016185
47	0x3d43fb28	0.047846943
48	0x3d35b596	0.044362627
49	0xbd77560a	-0.060384788
50	0xbba9f32b	-0.0051864586
51	0x3b796742	0.0038055931
52	0xbda05f13	-0.07830634
53	0xbd562c62	-0.05228842
54	0xbd64df83	-0.05587722
55	0xbcbe2a00	-0.023213387
56	0xbdbe939a	-0.093054965
57	0x3da8edc3	0.082484744
58	0xbb69c0c0	-0.0035667866
59	0x3ddfbc05	0.10924534
60	0xbdb9f083	-0.09079077
61	0x3d22c39a	0.03973732
62	0xbd3c1663	-0.045919787
63	0x3d99754a	0.07493074
64	0xbd67a12e	-0.056550197
65	0xbd8fa423	-0.070137285
66	0x3c382c20	0.011240989
67	0xbda57b68	-0.080801785
68	0x3dc8d1cb	0.0980564
69	0xbbae93c0	-0.0053276718
70	0x3da34d94	0.07973781
71	0xbd29fbcc	-0.041499898
72	0xbd0e983a	-0.034813143
73	0xbe087868	-0.13327181
74	0x3d21e050	0.03952056
75	0x3d477c51	0.04870254
76	0x3dbe273c	0.09284827
77	0x3c9d3aba	0.019193042
78	0xbc55f2b1	-0.01305835
79	0xbc98093f	-0.018559096
80	0x3d6c3de8	0.057676226
81	0x3e0a8387	0.13526736
82	0x3c1c9519	0.009557032
83	0xbdf364e8	-0.11884481
84	0xbe00c538	-0.12575233
85	0x3d5dc640	0.054144144
86	0x3e01695d	0.12637849
87	0xbd9822af	-0.0742849
88	0x3d91fe46	0.07128577
89	0x3df35e79	0.118832536
90	0x3dfd82d2	0.123784676
91	0x3db8f84b	0.09031733
92	0xbdbaf992	-0.09129633
93	0x3dcc21d8	0.09967393
94	0x3ba2d680	0.004969418
95	0xbdacea01	-0.0844307
96	0xbe0f42b6	-0.13990292
97	0xbd63781e	-0.055534475
98	0x3df1e9fd	0.11812208
99	0x3e10b1ed	0.14130373
100	0x3dd5b84e	0.10435544
101	0xbdcbc370	-0.09949386
102	0x3da70b1e	0.08156417
103	0x3da111b4	0.07864705
104	0x3e03307d	0.12811466
105	0xbdaa7102	-0.08322336
106	0x3defe62a	0.11713822
107	0xbc9397bf	-0.018016694
108	0x3d676940	0.05649686
109	0xbdf69d88	-0.120417655
110	0xbcb385bc	-0.021914355
111	0xbdb656d8	-0.08903283
112	0xbd22d7a8	-0.039756447
113	0xbc703750	-0.014661625
114	0xbd4f88ee	-0.050667696
115	0x3d808216	0.06274812
116	0x3e063241	0.13105108
117	0x3d07b8ea	0.033135332
118	0xbd7d90c3	-0.061905634
119	0xbd013804	-0.03154756
120	0xbd315201	-0.043291096
121	0x3c2bdcb0	0.010489628
122	0xbc4e2f50	-0.012584522
123	0x3daa5418	0.08316821
124	0x3c3158d0	0.010824397
125	0xbe015f51	-0.12634017
126	0xbd4f3938	-0.050591677
127	0xbd8b5dc0	-0.06804991
128	0x3d4d6962	0.05014933
129	0x3e0243dd	0.127212
130	0x3deb630e	0.114935026
131	0x3d091b04	0.03347303
132	0xbdba0a13	-0.09083953
133	0xbb8f6195	-0.0043756464
134	0x3cb8c327	0.022553993
135	0x3b3a5d40	0.002843693
136	0x3da0b022	0.07846095
137	0x3d8ccc95	0.068749584
138	0xbd31f8c0	-0.043450117
139	0xbd54bb79	-0.0519366
140	0x3c86c820	0.016452849
141	0x3c65bb05	0.01402164
142	0x3b5b75b4	0.0033486905
143	0xbe0b20f8	-0.13586795
144	0xbe07dfad	-0.1326892
145	0x3e02cd90	0.12773728
146	0x3e0dcd3d	0.13847823
147	0xbdfde00b	-0.123962484
148	0xbdc9f142	-0.098604694
149	0xbca86a10	-0.020558387
150	0xbda2f8f8	-0.07957643
151	0xbe0d7bb6	-0.13816723
152	0x3d334518	0.043767065
153	0xbdb8545c	-0.09000465
154	0x3d3bb6e7	0.045828726
155	0xbdbb177e	-0.0913534
156	0xbbf1f380	-0.007383764
157	0xbd360629	-0.04443947
158	0xbcdb52a8	-0.026772812
159	0xbd78e8e9	-0.060768995
160	0xbdf2ba5f	-0.11851954
161	0x3deb8597	0.115000896
162	0xbc3959b5	-0.011312892
163	0xbd9bfa3c	-0.07616088
164	0x3e074285	0.13208969
165	0x3c93e2a0	0.0180524
166	0xbd087c5c	-0.033321723
167	0x3d298715	0.04138859
168	0xbc060288	-0.008179314
169	0x3d114338	0.035464495
170	0x3df428ac	0.1192182
171	0x3d55f39c	0.052234277
172	0x3dcc27c0	0.09968519
173	0x3d9a1b41	0.075247295
174	0xbd6948f4	-0.05695434
175	0xbc36d8e4	-0.011160109
176	0xbcda5790	-0.026653081
177	0x3e107008	0.14105237
178	0xbd5985c7	-0.053106096
179	0x3dcff776	0.10154621
180	0xbd27b434	-0.04094334
181	0x3df239a6	0.11827402
182	0x3d78f96f	0.060784753
183	0x3da09b1e	0.07842086
184	0xbdce29ef	-0.10066592
185	0xbb8938c0	-0.0041876733
186	0x3e077f0f	0.13232063
187	0xbde51275	-0.11185161
188	0xbcfd4150	-0.030914932
189	0xbe0e4961	-0.1389518
190	0xbe05d41c	-0.13069195
191	0x3dd68546	0.10474639
192	0xbdaa1284	-0.08304313
193	0x3c647c06	0.013945585
194	0xbdf6eff1	-0.12057484
195	0xbdda5ced	-0.106622554
196	0x3e0339cd	0.12815018
197	0x3ce29f08	0.027663723
198	0xbd1cf757	-0.03832182
199	0xbd19ac4c	-0.03751783
200	0x3e0c37ff	0.13693236
201	0x3dcf568c	0.101239294
202	0x3dcd04e8	0.100107014
203	0x3e02c041	0.12768652
204	0x3bbedc5f	0.00582461
205	0x3caccd60	0.021094024
206	0x3c078fa0	0.008273989
207	0xbd6596ff	-0.056052204
208	0xbdfb675e	-0.12275575
209	0x3e01bcf9	0.12669744
210	0x3df05b3a	0.1173615
211	0x3c60f391	0.013729946
212	0xbd4be27e	-0.049776547
213	0x3dfba6ca	0.12287672
214	0xbd80c544	-0.062876254
215	0xbbaffea0	-0.00537093
216	0xbd469b98	-0.04848823
217	0xbda85fd7	-0.08221405
218	0xbddbe0c4	-0.1073623
219	0x3e0d5443	0.13801675
220	0x3dff3b78	0.12462515
221	0x3d8e5e28	0.06951553
222	0xbd54da3c	-0.051965937
223	0xbd3b455d	-0.045720447
224	0x3da9b63a	0.0828671
225	0x3ddc9138	0.10769886
226	0x3e10c54d	0.14137764
227	0x3d884892	0.06654467
228	0xbd5a9cd3	-0.053372215
229	0xbd7bbcb3	-0.061459254
230	0x3e09f445	0.13472088
231	0xbdcc3e99	-0.09972877
232	0xbdf2d613	-0.11857238
233	0xbc692a0e	-0.014231218
234	0xbcb99b55	-0.022657076
235	0x3d903682	0.070416465
236	0xbdc3e1e0	-0.095645666
237	0xbd01f82e	-0.031730823
238	0xbde00822	-0.10939051
239	0x3dc69117	0.096956424
240	0x3d039ba8	0.032130867
241	0xbd8fb27b	-0.07016464
242	0xbd19e0e8	-0.037568003
243	0x3db77e05	0.08959583
244	0x3de5ac1e	0.112144694
245	0xbe04b5a3	-0.12959914
246	0xbda77aaa	-0.08177693
247	0x3cc6eb80	0.024282217
248	0x3d149fcb	0.036285203
249	0xbdb79ce8	-0.08965474
250	0x3d5f2054	0.05447419
251	0x3beb102e	0.0071735596
252	0xbda0c4e3	-0.07850053
253	0xbddc92c7	-0.10770183
254	0xba6e5f97	-0.00090932235
255	0x3d34a2ac	0.04410045

net.4.bias f4 [11]
0	0xbd91e5f4	-0.07123938
1	0x3d96c58f	0.073619
2	0xbdb982e7	-0.09058171
3	0x3ddfcf25	0.109281816
4	0xbdfed927	-0.12443762
5	0xbe0c9ea2	-0.13732389
6	0x3e0e9da9	0.1392733
7	0x3d9f2cee	0.077722415
8	0x3bb248e1	0.0054408167
9	0xbddf05fb	-0.108898126
10	0x3db38930	0.08766401
