models/part2_basic.pt (torch, 109239 bytes, 6 tensors)

fc1.weight f4 [100, 155]
0	0xbd09b248	-0.033617288
1	0x3c72bb80	0.014815211
2	0x3d82fa55	0.06395403
3	0xbb9f7af0	-0.00486695
4	0x3c07e2c0	0.0082938075
5	0x3bc36ff0	0.0059642717
6	0xba867d80	-0.0010260791
7	0x3d45855a	0.048222877
8	0x3d3204cc	0.043461606
9	0xbd30334a	-0.043017663
10	0x3d9d12fb	0.07669636
11	0x3d3d4eb6	0.046217643
12	0xbc4de9e8	-0.012567975
13	0x3d8f383d	0.069931485
14	0x3b8d8732	0.004319095
15	0x3d4fe62a	0.05075661
16	0xbd8bacdd	-0.068200804
17	0x3d93a895	0.07209889
18	0x3d9b126b	0.07571872
19	0xbd75d4ed	-0.060017515
20	0xbd933c0d	-0.07189188
21	0xbcbf802c	-0.023376547
22	0xbd4a45c6	-0.049382947
23	0x3cafce00	0.021460533
24	0x3d127357	0.035754528
25	0xbc27c5c4	-0.010240022
26	0x3d66dc49	0.056362424
27	0x3b478ee4	0.003045016
28	0xbcc164a2	-0.023607556
29	0xbd8c6964	-0.06856039
30	0x3cd12024	0.025528021
31	0xbd9afe00	-0.07567978
32	0xb9905828	-0.00027531502
33	0x3c4057e1	0.011739702
34	0xbd38414e	-0.044984154
35	0x3cc5acf8	0.02413033
36	0x3c7fd130	0.015613839
37	0x3d5c2c5a	0.053753234
38	0x3d4dc57a	0.050237156
39	0xbd852018	-0.06500262
40	0xbd741c6e	-0.059597425
41	0xbcf1801c	-0.029480033
42	0xbd6cae75	-0.057783563
43	0x3cce4ea5	0.025183985
44	0xbd578e78	-0.052626103
45	0xbd7b2ea2	-0.06132377
46	0x3cbfa648	0.023394719
47	0x3d468e82	0.04847575
48	0xbcbf4b66	-0.023351382
49	0xbda3ea9a	-0.08003731
50	0x3c39fdc8	0.01135201
51	0x3d289994	0.04116209
52	0x3d80808f	0.062745206
53	0x3bf9ba80	0.0076211095
54	0x3d64667e	0.055761807
55	0xbd9315c7	-0.07181888
56	0x3d9d5f77	0.07684224
57	0xbd54723b	-0.05186675
58	0xbd6090e2	-0.05482567
59	0x3d6c1d12	0.05764491
60	0xbc923700	-0.017848492
61	0x3d4b095a	0.049569465
62	0xbd667048	-0.056259423
63	0x3d78e96e	0.06076949
64	0x3d9c02a7	0.076176934
65	0x3cc73d1c	0.024321131
66	0x3d84b35b	0.06479522
67	0xbd6af251	-0.057359997
68	0xbc914b58	-0.017736122
69	0x3cc847c8	0.02444829
70	0x3d39e9f2	0.045389123
71	0xbd2fabf0	-0.04288858
72	0x3d515a6a	0.051111616
73	0xbcd88f76	-0.026435595
74	0xbd2f9acd	-0.04287224
75	0x3c80b678	0.015712008
76	0xbd830664	-0.06397703
77	0xbd96fa2c	-0.07371935
78	0x3cdac96c	0.026707374
79	0x3ce01f30	0.027358621
80	0x3cfd0838	0.030887708
81	0xbc2c93e0	-0.010533303
82	0xbd709bbc	-0.05874227
83	0xbd8425fc	-0.064525574
84	0x3d9d68bf	0.07685994
85	0xbd8e9c02	-0.0696335
86	0x3cc650d8	0.024208471
87	0x3d859a67	0.065235905
88	0x3d7b58ce	0.061363988
89	0xbd4f6f5e	-0.050643317
90	0xbcd429ea	-0.025898892
91	0xbd8385c8	-0.06422001
92	0x3d4e5ee2	0.050383456
93	0xbd9a5f64	-0.075377256
94	0xbd976f98	-0.07394332
95	0xbd5ba3d0	-0.05362302
96	0x3d862e8f	0.06551849
97	0x3d5540b2	0.05206365
98	0x3d5c71ae	0.05381935
99	0x3d7c6fba	0.06162999
100	0xbd19704e	-0.037460618
101	0xbd377a89	-0.044794593
102	0xbd4a1d8a	-0.049344577
103	0x3cd91c98	0.026502892
104	0x3cfff3a0	0.0312441
105	0x3c8889d4	0.016667284
106	0xbd7d1ae0	-0.061793208
107	0x3be9ce70	0.007135205
108	0xbd2e9482	-0.042622097
109	0xbc8164a8	-0.015795067
110	0xbc4bba58	-0.0124345645
111	0x3b82d480	0.003992617
112	0xbd903c74	-0.070427805
113	0x3d8c6a99	0.068562694
114	0xbd0bfef9	-0.034178708
115	0x3ccd97b4	0.025096752
116	0x3d62901a	0.055313207
117	0x3d049394	0.032367304
118	0x3d66677a	0.056251027
119	0x3d39c7aa	0.04535643
120	0x3d70e80e	0.058815055
121	0x3c8ae030	0.016952604
122	0x3d52218a	0.051301517
123	0xbd0f01bd	-0.034913767
124	0xbd314c2c	-0.043285534
125	0x3d1d193e	0.03835415
126	0x3caca608	0.021075264
127	0xbb456925	-0.0030122485
128	0xbd8ac201	-0.067752846
129	0x3cd70134	0.02624569
130	0x3d551c26	0.052028798
131	0xbc18031e	-0.009278087
132	0x3c972694	0.018451013
133	0x3d1276ba	0.035757758
134	0xbda274c1	-0.07932425
135	0xbc5884c0	-0.013215244
136	0xbcf4180d	-0.029796625
137	0xbd281d45	-0.04104354
138	0x3d4915c0	0.049093008
139	0x3da31959	0.07963819
140	0x3c51fae0	0.012816161
141	0x3d4cc085	0.04998829
142	0xbd7633f7	-0.06010815
143	0x3c6525fb	0.013986106
144	0xbc2a3338	-0.010388188
145	0xbd442da4	-0.04789509
146	0x3c86f802	0.016475681
147	0x3cd17ba4	0.025571652
148	0xbb7e40c3	-0.0038795925
149	0x3d0bacac	0.03410022
150	0x3d1df1e7	0.038560774
151	0x3d953531	0.07285536
152	0x3b989290	0.0046561435
153	0x3b3b8bc0	0.0028617233
154	0xba96b010	-0.0011496563
155	0x3c359c87	0.011084682
156	0xbd555428	-0.05208221
157	0xbc21fc18	-0.009886764
158	0xbd8b1b20	-0.06792283
159	0xbd66c4ec	-0.056340143
160	0xbd8c1e57	-0.06841724
161	0x3d73fc36	0.0595667
162	0xbd3d1355	-0.046161015
163	0xbbd467e0	-0.0064821094
164	0x3c0cb100	0.008587122
165	0x3d9149dd	0.070941664
166	0x3d15500e	0.0364533
167	0xbd6a4a74	-0.05719991
168	0x3da0e27a	0.07855697
169	0xbd9bd1dc	-0.07608387
170	0x3c2b1aa7	0.010443366
171	0x3d964d8f	0.07339012
172	0x3d8ea991	0.06965936
173	0xbc9881be	-0.018616553
174	0xbd5b8fa2	-0.053603776
175	0x3d1076aa	0.035269417
176	0x3d7d96a1	0.06191123
177	0xbd2f639c	-0.042819604
178	0xbc503ea8	-0.012710251
179	0xbd4820a4	-0.048859254
180	0x3cfb4dc1	0.030676724
181	0x3c8c02f1	0.017091246
182	0x3d230eef	0.039809164
183	0xbce1c204	-0.027558334
184	0xbd9ecbb1	-0.07753695
185	0xbd0a8d0a	-0.03382591
186	0xbd80a6ef	-0.0628184
187	0xbc9e833d	-0.019349689
188	0x3cef2857	0.02919404
189	0xbd88da30	-0.06682241
190	0xbb75b680	-0.0037492812
191	0xbda0f160	-0.07858539
192	0xbd69250a	-0.05692009
193	0xbd66583c	-0.05623649
194	0xbce009d6	-0.02734844
195	0xbd26b242	-0.040697344
196	0x3c4a9040	0.012363493
197	0x3d491e46	0.049101137
198	0x3d7812b1	0.0605647
199	0x3ccf51f0	0.025307626
200	0xba0b5435	-0.0005314977
201	0xbc6a83d0	-0.014313653
202	0x3d5f6416	0.05453881
203	0xbd3c6d72	-0.046002813
204	0x3d6dcda2	0.058057435
205	0xbd9e61c6	-0.077334926
206	0xbd758e0a	-0.059949912
207	0x3cae8b0c	0.021306537
208	0xbd07812d	-0.033082176
209	0x3c7586b8	0.014985733
210	0x3d8f540b	0.06998452
211	0x3d16439a	0.036685564
212	0x3da101bf	0.07861661
213	0xbd0b5a8e	-0.034021907
214	0xbd1d1b57	-0.03835615
215	0xbc2717f0	-0.010198578
216	0xbc848540	-0.01617682
217	0xbd10b770	-0.03533119
218	0xbba36900	-0.004986882
219	0x3d949ca9	0.07256443
220	0xbd3457d7	-0.044029083
221	0x3d38c292	0.04510743
222	0x3d18d5bc	0.037313208
223	0x3d3e876e	0.046515875
224	0x3cb183ec	0.02166935
225	0xbcf312f8	-0.029672131
226	0x3d07c83e	0.03314995
227	0xbd1af4f9	-0.03783128
228	0xbd49f1ed	-0.049302984
229	0x3d99c5ed	0.075084545
230	0x3d8859f7	0.066577844
231	0xbd6dc499	-0.05804882
232	0x3d859d79	0.06524176
233	0x3c887138	0.01665555
234	0x3ca8a988	0.020588651
235	0x3d9e8e2d	0.07741962
236	0xbb8a3340	-0.0042175353
237	0xbcd1465e	-0.025546249
238	0x3d4e898e	0.05042415
239	0xbca9f846	-0.020748269
240	0xbc9df5bc	-0.019282214
241	0xbd04aba0	-0.032390237
242	0x3da1ea3c	0.07906005
243	0x3d1cfc59	0.038326595
244	0xbc5556d0	-0.013021186
245	0xbad20980	-0.001602456
246	0x3bb834ff	0.005621552
247	0xbd430787	-0.0476146
248	0x3cbad254	0.02280537
249	0xbd7f585e	-0.062340133
250	0xbb756f01	-0.0037450197
251	0xbc76ed30	-0.015071198
252	0xbd0655e8	-0.03279677
253	0x3d9824bd	0.07428882
254	0x3cb84768	0.022494987
255	0x3d1e7d36	0.03869363

fc1.bias f4 [100]
0	0xbcca62fe	-0.024705406
1	0x3d2b7330	0.0418579
2	0xbccbe7fb	-0.02489089
3	0xbc5d898d	-0.013521564
4	0x3c4a593c	0.012350377
5	0xbd934504	-0.07190898
6	0x3d2a0210	0.041505873
7	0x3d99bb4f	0.075064294
8	0xbd7a667b	-0.06113289
9	0x3d039d55	0.032132465
10	0xbd9b6f3b	-0.07589575
11	0x3b6d13aa	0.003617505
12	0xbd0a76c5	-0.033804674
13	0xbd885d75	-0.066584505
14	0x3d018dc6	0.031629346
15	0x3d6cf9c0	0.057855368
16	0x3ca36b1f	0.01994854
17	0x3d02891c	0.03186904
18	0xbd29d1df	-0.041459914
19	0x3d535b3e	0.051600687
20	0xbd839988	-0.06425768
21	0xbcac4983	-0.021031147
22	0xbd0f1889	-0.034935508
23	0xbd07ba82	-0.033136852
24	0x3d857fc7	0.06518512
25	0x3d791e38	0.060819834
26	0x3d211ab2	0.0393321
27	0xbd12e747	-0.035865095
28	0xbd3f799d	-0.04674684
29	0xbcc6edc9	-0.024283307
30	0xbd15b2f0	-0.0365476
31	0x3c041cbc	0.008063491
32	0x3d1863e3	0.037204634
33	0x3d9069f7	0.07051461
34	0x3d608916	0.054818235
35	0xbd846a30	-0.06465566
36	0x3d92dc4d	0.07170925
37	0xbda3782c	-0.07981905
38	0x3bba1e40	0.0056798756
39	0x3bba62bd	0.00568804
40	0xbc77c09e	-0.015121607
41	0xbcce14f9	-0.025156485
42	0xbd000657	-0.031256046
43	0x3d297658	0.041372627
44	0xbd4aca02	-0.049509056
45	0x3c783e98	0.015151642
46	0x3cdbfaa0	0.026852906
47	0x3d6a6c97	0.057232466
48	0x3a9d7205	0.001201213
49	0x3d8a63c7	0.06757312
50	0xbda664ce	-0.08124696
51	0xbd42960d	-0.04750638
52	0xbd8c1ec5	-0.06841806
53	0xbbf4c308	-0.0074695386
54	0xbd59216b	-0.053010385
55	0x3d606cd3	0.054791283
56	0xbd1cdcf8	-0.03829667
57	0x3a3a0281	0.000709571
58	0x3d845e9c	0.06463358
59	0xbda3af8e	-0.07992469
60	0x3cfd6859	0.030933546
61	0xbd8d47a5	-0.06898431
62	0x3d3b725d	0.045763362
63	0xbc984069	-0.0185854
64	0xbd8f4d61	-0.06997181
65	0x3c3a1a1a	0.011358762
66	0x3c2a121b	0.010380293
67	0x3cd914cd	0.026499176
68	0x3d4ba0f5	0.049714047
69	0xbc1a93dd	-0.009434667
70	0xbd2141ca	-0.039369382
71	0x3da1320e	0.07870875
72	0xbcc88977	-0.02447961
73	0x3d8cb298	0.068700016
74	0x3d54295e	0.051797263
75	0xbd973316	-0.07382791
76	0xbcbb9a81	-0.022900822
77	0x3bc78712	0.0060890997
78	0xbd812d1d	-0.06307433
79	0x3c9a8005	0.018859873
80	0xbd020234	-0.031740382
81	0xbd2f358f	-0.042775687
82	0x3d6b071b	0.057379823
83	0x3d25bd90	0.040463984
84	0x3da6e945	0.081499614
85	0xbc4d95a4	-0.012547884
86	0xbc9a6cba	-0.018850673
87	0xbd3f4098	-0.04669246
88	0x3bb7ca0f	0.005608804
89	0x3d846461	0.06464458
90	0xbc6d33c9	-0.014477679
91	0xbcf249c2	-0.029576186
92	0x3d52fe0c	0.05151181
93	0x3bc92892	0.0061388696
94	0x3c4dcc25	0.012560879
95	0x3d9766a6	0.073926255
96	0x3d9d7292	0.07687868
97	0x3da4b98c	0.08043203
98	0xbd940704	-0.072279006
99	0x3c811566	0.015757274

fc2.weight f4 [100, 100]
0	0x3da6a723	0.081373475
1	0x3db58745	0.08863691
2	0xbdb187ea	-0.08668502
3	0x3d96cb4d	0.07362995
4	0xbd3cd4b4	-0.046101287
5	0xbd4c9732	-0.04994888
6	0xbd66ff44	-0.056395784
7	0xbd5a99dc	-0.053369388
8	0xbc7e5ea1	-0.015525491
9	0xbafa2b47	-0.0019086384
10	0xbd333a5c	-0.043756828
11	0x3d837a6d	0.06419835
12	0xbd6b44fd	-0.05743884
13	0x3db66c9a	0.08907433
14	0xbdb8d0ee	-0.09024225
15	0x3d0720eb	0.032990377
16	0xbd7ae737	-0.06125566
17	0xbd6362f7	-0.055514302
18	0x3cc2ec55	0.023794333
19	0xbc99479f	-0.01871091
20	0xbd8916a5	-0.06693772
21	0xbbbcc30b	-0.0057605556
22	0xbd935afc	-0.07195088
23	0xbd733046	-0.05937221
24	0x3d71bf34	0.059020236
25	0x3bc74164	0.006080793
26	0xbce71b98	-0.0282114
27	0x3da40bcd	0.08010063
28	0x3c4af296	0.012386939
29	0x3d945acf	0.07243883
30	0x3d29de82	0.041471966
31	0x3c043621	0.008069546
32	0xbd16e6b0	-0.036841094
33	0xbd344377	-0.044009652
34	0x3db2f8fc	0.08738896
35	0x3cb0393a	0.021511663
36	0x3dae7802	0.085189834
37	0x3d75aa07	0.059976604
38	0xbbb92d5d	-0.0056511597
39	0xbdbc849d	-0.092049815
40	0x3d24d8ae	0.040245704
41	0xbcb68cf4	-0.022284009
42	0x3ca3ab13	0.019979035
43	0xbd157907	-0.036492374
44	0x3da12011	0.07867444
45	0x3dc51521	0.09623171
46	0xbd73283b	-0.05936454
47	0xbcc42c81	-0.023947002
48	0xbd9892ff	-0.07449912
49	0x3d46130e	0.048358016
50	0xbd9406bb	-0.07227846
51	0xbd9e3836	-0.07725565
52	0xbd9573c8	-0.07297474
53	0xbda54d10	-0.08071339
54	0x3d9e4f12	0.07729925
55	0xbd30b75a	-0.043143608
56	0x3d7dbbfe	0.06194686
57	0xbce1f6d8	-0.027583525
58	0xbcf70d0e	-0.030157592
59	0xbcdf99ad	-0.027294958
60	0xbda67c60	-0.081291914
61	0x3cec9f06	0.028884422
62	0xbd24fe4f	-0.04028159
63	0x3cf5fba7	0.030027224
64	0xbdae56f3	-0.08512678
65	0x3c801086	0.015632879
66	0x3da62a8b	0.08113583
67	0xbcfb7d87	-0.030699505
68	0x3cad1f2a	0.021133024
69	0xbdca06d4	-0.098645836
70	0xbd26de90	-0.040739596
71	0x3da955b3	0.08268299
72	0x3d2274c2	0.03966213
73	0x3d153854	0.03643067
74	0x3d31cc51	0.043407742
75	0xbca72ebe	-0.02040803
76	0xbd2d1c31	-0.042263214
77	0x3dc09de9	0.09405119
78	0xbd157da4	-0.036496773
79	0xbc051b11	-0.008124129
80	0xbd9b1715	-0.07572762
81	0x3d9d146d	0.076699115
82	0xbd061032	-0.03273029
83	0xbd192e01	-0.03739739
84	0xbd7ef95c	-0.062249526
85	0x3cbe1800	0.023204803
86	0xbd9eb980	-0.07750225
87	0x3db06288	0.08612543
88	0x3d96923c	0.07352111
89	0xbd9c1d8b	-0.076228224
90	0xbdbb9b49	-0.09160478
91	0x3cd6ffc6	0.02624501
92	0xbd74007d	-0.05957078
93	0xbdcaf710	-0.09910405
94	0x3d808230	0.06274831
95	0xbccece24	-0.02524478
96	0x3ca86e83	0.020560509
97	0x3c2e0575	0.010621418
98	0xbd7f9991	-0.06240231
99	0xbd49222f	-0.049104866
100	0x3d0be6b3	0.03415556
101	0xbdb51bd2	-0.08843197
102	0xbc677cb7	-0.014128855
103	0xbc09975a	-0.008397901
104	0xbd650c3e	-0.05591988
105	0x3dc8b616	0.09800355
106	0xbdb4ed38	-0.088343084
107	0xbdad9db2	-0.084773436
108	0xbd95ad04	-0.07308391
109	0x3d6b467c	0.057440266
110	0xbdaf9d97	-0.0857498
111	0x3d7b3f46	0.06133964
112	0x3dc713c2	0.097205654
113	0x3dbfdc41	0.09368182
114	0x3dbf187c	0.09330842
115	0x3c85a2d4	0.016312994
116	0xbdb290ed	-0.08719049
117	0x3cc6b2ee	0.024255242
118	0x3d25fd65	0.04052486
119	0xbbefca32	-0.0073178047
120	0xbdb59e99	-0.08868141
121	0x3d992848	0.07478386
122	0x3c9739de	0.01846021
123	0x3d88f2c9	0.066869326
124	0xbc2a6908	-0.010401018
125	0xbdb54455	-0.08850924
126	0x3dae58ee	0.08513056
127	0xbdc8ebb3	-0.09810581
128	0xbd92e88d	-0.07173262
129	0x3dba0619	0.09083194
130	0xbcedd846	-0.029033791
131	0x3d602fca	0.054733075
132	0x3d7b6914	0.061379507
133	0xbc377849	-0.011198112
134	0xbc9dac5a	-0.019247223
135	0x3d31904a	0.043350495
136	0xbca14250	-0.01968494
137	0x3d244949	0.040108953
138	0xbd022887	-0.03177693
139	0xbd625804	-0.05525972
140	0xbd808cc1	-0.06276847
141	0xbdcb2b0c	-0.0992032
142	0xbcf89a56	-0.03034703
143	0xbd393dba	-0.045224883
144	0x3cfdd502	0.03098536
145	0x3a80d354	0.0009828606
146	0xbd86e76e	-0.065871105
147	0xbd92feb6	-0.071774885
148	0xbc73c3d4	-0.014878232
149	0x3d1610bd	0.036637057
150	0x3b9d039c	0.00479169
151	0x3c3723de	0.011177985
152	0xbd5f48a7	-0.054512646
153	0xbd379057	-0.044815388
154	0xbc678af1	-0.014132247
155	0x3d2cf18f	0.042222556
156	0xbdbd0b6b	-0.092306934
157	0x3d2beb18	0.04197225
158	0x3d6702e3	0.056399237
159	0xbdcbc1b1	-0.09949053
160	0x3d2f13e2	0.04274357
161	0x3c6aa219	0.014320874
162	0x3d25c058	0.040466636
163	0xbd64b7dd	-0.05583941
164	0x3d802366	0.06256752
165	0xbd6b0455	-0.05737718
166	0xbd307356	-0.043078743
167	0x3d044855	0.032295544
168	0xbca9d9cc	-0.020733736
169	0x3d8db792	0.06919779
170	0xbc4b275c	-0.012399521
171	0xbd9d8333	-0.0769104
172	0xbdaa7b5c	-0.0832431
173	0x3bc9d3b4	0.00615927
174	0xbd9fd94b	-0.07805117
175	0x3db6f2b7	0.08933013
176	0x3db07c2c	0.08617434
177	0x3d78060f	0.060552653
178	0xbd9e1d84	-0.077204734
179	0xbcb66f49	-0.022269862
180	0x3d95ebed	0.0732039
181	0x3ca3f6f6	0.020015221
182	0x3c080021	0.008300812
183	0xbbe0a79c	-0.006855918
184	0xbd5ebd26	-0.054379605
185	0xbd01e64c	-0.03171377
186	0x3d6f712b	0.058457535
187	0xbca03277	-0.019555314
188	0xbcdb5dc4	-0.02677811
189	0x3d4bc454	0.04974778
190	0xbd47a505	-0.04874136
191	0xbc802ef0	-0.015647382
192	0x3dab6cef	0.08370387
193	0x3c6540b5	0.013992478
194	0x3d3bb540	0.04582715
195	0xbd477f19	-0.048705194
196	0x3d489a4c	0.048975274
197	0xbd5b3db3	-0.053525638
198	0x3dc80080	0.0976572
199	0xbcdeb086	-0.027183782
200	0xbd957d25	-0.0729926
201	0xbcb11e78	-0.021620974
202	0x3d96db33	0.07366028
203	0x3da0b019	0.07846088
204	0x3be7b4b0	0.0070711
205	0x3d8e7341	0.06955577
206	0xbd08a9b4	-0.033364967
207	0xbc21d098	-0.009876393
208	0x3d96a141	0.073549755
209	0xba8e4f40	-0.0010857359
210	0x3cace2f4	0.021104313
211	0x3d739e82	0.059477337
212	0x3bfd7450	0.007734813
213	0xbd6ea4ed	-0.058262754
214	0x3c318200	0.010834217
215	0xbbc571d0	-0.0060255304
216	0xbc226ff0	-0.009914383
217	0x3dc62877	0.09675687
218	0x3daeae77	0.0852937
219	0xbdb98328	-0.09058219
220	0xbd150420	-0.036380887
221	0xbc344e70	-0.011005029
222	0x3d6c1b42	0.057643183
223	0xbcb3a1e8	-0.021927789
224	0xbc7bd240	-0.015369952
225	0xbcd44f0c	-0.025916599
226	0xbd7f2ec7	-0.06230047
227	0xbdafef8f	-0.08590614
228	0xbda2c34b	-0.079474054
229	0x3c9b7600	0.018977165
230	0x3d3ef486	0.046619914
231	0xbbd24980	-0.0064174533
232	0x3dbc91f3	0.09207525
233	0xbc8e56b4	-0.017375328
234	0x3d989329	0.074499436
235	0xbc8956a0	-0.016764939
236	0xbd63be2d	-0.055601288
237	0x3c20dd18	0.009818338
238	0xbdcc2a37	-0.09968989
239	0x3d19829e	0.037478082
240	0x3cad8760	0.021182716
241	0x3d3ede92	0.04659898
242	0x3d55a7ae	0.052161865
243	0x3dafdd91	0.08587182
244	0xbd865b46	-0.06560378
245	0xbdc0f66f	-0.094220035
246	0x3c0b92e8	0.008518912
247	0xbd34db90	-0.044154704
248	0x3a03d980	0.00050296634
249	0x3db172a1	0.08664442
250	0x3c2e1558	0.010625206
251	0x3c44e068	0.012016393
252	0xbdaa613e	-0.08319329
253	0x3a094280	0.00052360445
254	0xbda438ed	-0.0801867
255	0xbccd0368	-0.025026038

fc2.bias f4 [100]
0	0x3c82e862	0.01597995
1	0x3dbade5b	0.09124442
2	0xbd523a2a	-0.051325
3	0xbd5f7b56	-0.05456098
4	0x3ca3bc05	0.019987116
5	0x3dbab929	0.09117348
6	0x3db8b5d1	0.09019054
7	0xbc8910b6	-0.016731601
8	0xbb5a3f8f	-0.0033302044
9	0xbca3d634	-0.019999601
10	0x3ddd8ec5	0.10818247
11	0x3c749420	0.014927894
12	0x3c0aa298	0.008461617
13	0x3cdb81e5	0.026795337
14	0xbd9af353	-0.07565942
15	0xbcbe3456	-0.023218315
16	0xbda47d2b	-0.080316864
17	0x3d0eb1c9	0.034837518
18	0x3da15b78	0.078787744
19	0x3c8962c8	0.016770735
20	0xbceb413e	-0.028717633
21	0x3dba9105	0.091096915
22	0x3c7e65f5	0.015527238
23	0xbda9c762	-0.082899824
24	0xbdaefb2b	-0.08544
25	0x3d488d95	0.04896315
26	0x3d8c10ec	0.06839165
27	0x3dad10ba	0.08450456
28	0x3d0377a2	0.032096513
29	0xbd8751be	-0.06607388
30	0xbd88496e	-0.066546306
31	0x3bc9d160	0.0061589926
32	0x3d670dc9	0.05640963
33	0xbcaaa018	-0.020828292
34	0x3d33ffa5	0.043944973
35	0x3d7a0846	0.061043046
36	0x3d34eb08	0.044169456
37	0xbccc6eff	-0.02495527
38	0xbcd1fa9b	-0.025632193
39	0xbd8166ed	-0.0631846
40	0x3aba16c0	0.0014197454
41	0xbdb20550	-0.086924195
42	0x3d8cf3ef	0.06882464
43	0x3cadf693	0.02123574
44	0x3cc9a8fd	0.024616713
45	0x3da440cf	0.08020174
46	0xbcde1f49	-0.027114527
47	0x3c19d780	0.009389758
48	0xbd0f407c	-0.034973606
49	0x3d478b89	0.048717055
50	0x3ccd3c5d	0.025053198
51	0x3d75f663	0.060049426
52	0xbb0e5a2d	-0.002172123
53	0x3d29a752	0.041419335
54	0xbd65aeea	-0.056075014
55	0xbd3905f5	-0.045171697
56	0xbdab8beb	-0.083762966
57	0x3d553ba1	0.05205882
58	0xbdbec52a	-0.0931495
59	0xbd157b02	-0.036494263
60	0xbc575de8	-0.013144948
61	0xbc285228	-0.010273494
62	0x3dba4b18	0.09096354
63	0x3dd48797	0.10377424
64	0xbd31947a	-0.04335449
65	0xbc6103a8	-0.013733782
66	0xbda7d12f	-0.081941955
67	0xbd6a0120	-0.05712998
68	0xbd0e2a94	-0.034708574
69	0xbca8b6e0	-0.020595014
70	0x3d90d1ac	0.07071242
71	0xbcb7d7d6	-0.022441786
72	0x3d10b102	0.035325058
73	0xbda3db88	-0.08000857
74	0xbd2b6196	-0.041841112
75	0x3c62fcab	0.013854186
76	0xbd01283a	-0.031532504
77	0x3dbaa7d8	0.09114045
78	0xbbd48ec4	-0.0064867456
79	0x3ddb98af	0.107224815
80	0x3d303066	0.043014906
81	0x3d1564ac	0.03647296
82	0xbdbc992a	-0.09208901
83	0x3d887cc1	0.0666442
84	0xbd914ce7	-0.07094746
85	0x3dc0caa4	0.09413651
86	0x3d8ee534	0.06977311
87	0xbd3c08b7	-0.04590675
88	0x3ccf2bf5	0.025289515
89	0x3d02d651	0.03194267
90	0xbdae5925	-0.08513097
91	0x3d000b4e	0.03126078
92	0xbba0beb0	-0.004905544
93	0x3cb9b556	0.022669476
94	0x3d9b6f94	0.07589641
95	0xbd511ed7	-0.0510548
96	0xbdbd75fa	-0.09251018
97	0xbd8bd2cd	-0.068273164
98	0x3bcb7223	0.0062086745
99	0xbcb58f61	-0.022163095

fc3.weight f4 [11, 100]
0	0xbd814949	-0.06312806
1	0xbd1c2269	-0.038118754
2	0x3d472966	0.048623465
3	0xbd8401dc	-0.06445667
4	0x3d8b35d1	0.06797374
5	0x3d5388ee	0.05164426
6	0xbcffec14	-0.0312405
7	0xbc842a0f	-0.016133336
8	0x3cc1473b	0.023593536
9	0x3d786e22	0.060651906
10	0xbbf98a4b	-0.0076153628
11	0xbd66f54f	-0.05638629
12	0x3dae9006	0.08523564
13	0xbc9e44d8	-0.019319937
14	0x3d08f2c2	0.033434637
15	0x3dba10ea	0.09085257
16	0x3ca77738	0.02044259
17	0x3db8e23f	0.09027528
18	0xbccba975	-0.024861077
19	0xbd58e673	-0.05295415
20	0x3d5093e5	0.050922293
21	0x3dba88de	0.091081366
22	0x3dcbc031	0.09948767
23	0x3dca3fa9	0.098754235
24	0x3ce3e8d4	0.027820982
25	0xbdc443b5	-0.095832266
26	0x3dad7c35	0.08470956
27	0x3dbf3a7d	0.09337328
28	0xbdb5bda2	-0.0887406
29	0xbab3f4c0	-0.0013729557
30	0xba630d80	-0.00086613744
31	0xbc07ae37	-0.008281282
32	0x3d5db541	0.054127935
33	0xbd4256ca	-0.04744605
34	0xbd2fdd2f	-0.042935546
35	0xbda8901d	-0.082306124
36	0xbcd45d8f	-0.025923518
37	0xbd59f39e	-0.053210847
38	0xbd52d895	-0.05147608
39	0x3d88edeb	0.06686004
40	0xbc4dd758	-0.012563549
41	0xbd97af0d	-0.07406435
42	0xbd6f3cf9	-0.058407757
43	0x3cfd1b33	0.030896759
44	0xbd435961	-0.04769266
45	0x3dae4386	0.08508973
46	0x3d25149b	0.040302854
47	0xbd708830	-0.05872363
48	0xbd8ff813	-0.07029738
49	0xbd219357	-0.039447155
50	0xbda5178c	-0.08061132
51	0x3d856e78	0.06515211
52	0xbda27a95	-0.07933537
53	0x3d56201a	0.05227671
54	0xbd513a63	-0.051081073
55	0x3d05ab27	0.032633927
56	0x3cafadc0	0.021445155
57	0x3d3c0c1c	0.045909986
58	0x3d3a2e2a	0.04545418
59	0x3d92f61e	0.071758494
60	0x3d95c0d9	0.073121734
61	0x3db733cb	0.089454256
62	0xbcf79c60	-0.030225933
63	0xbd89e35a	-0.06732817
64	0xbc6258c0	-0.013815105
65	0xbd0bcebc	-0.034132704
66	0xbbffdd84	-0.007808389
67	0xbd35a897	-0.044350233
68	0xbda02bb3	-0.07820835
69	0xbcc79d68	-0.02436705
70	0x3dc490ed	0.09597955
71	0x3da9eb43	0.08296826
72	0xbd19e55f	-0.03757226
73	0x3d94c741	0.07264567
74	0xbc81f4c0	-0.015863776
75	0xbc827a77	-0.015927536
76	0xbdc08622	-0.09400584
77	0x3db2b325	0.08725575
78	0xbdbf7838	-0.09349102
79	0x3cdfa620	0.027300894
80	0xbdb0359b	-0.086039744
81	0x3da96375	0.08270923
82	0xbdbbb6dd	-0.09165738
83	0x3d37c9b6	0.0448701
84	0xbdc0d5c5	-0.09415773
85	0x3c80a42e	0.015703287
86	0x3d73d53a	0.05952952
87	0x3db11e3f	0.08648347
88	0xb92a9d29	-0.0001627101
89	0x3dac72b1	0.08420313
90	0x3d86edc9	0.06588323
91	0x3d96052f	0.073252074
92	0x3d9416e7	0.07230931
93	0xbcb59d0e	-0.022169616
94	0x3b90d7f7	0.0044202763
95	0xbd8c16d6	-0.06840293
96	0x3c9a3058	0.01882188
97	0x3d5dff3e	0.054198496
98	0x3cab0dc4	0.020880587
99	0xbdb86f45	-0.09005598
100	0xbd3e513a	-0.046464182
101	0x3d2abcfd	0.04168414
102	0xbdab32b5	-0.08359281
103	0x3db45ca3	0.088067316
104	0xbd359c1d	-0.044338334
105	0xbca43503	-0.02004481
106	0xbca19a70	-0.019726962
107	0xbcdd1af7	-0.026990397
108	0xbdab9c90	-0.08379471
109	0xbbcb5800	-0.006205559
110	0xbcefec86	-0.029287588
111	0x3d8aa9d8	0.067706764
112	0xbc1f30f2	-0.009716259
113	0xbbdd83ab	-0.006760081
114	0x3d39a572	0.045323797
115	0x3dcb1d1a	0.0991766
116	0xbd9e0360	-0.077154875
117	0xbd0c1aec	-0.034205362
118	0xbc8fcc69	-0.017553525
119	0x3db25969	0.0870846
120	0xbc6299d6	-0.013830623
121	0xbcba0e38	-0.022711858
122	0xbd38a689	-0.045080695
123	0xbcdd70d8	-0.027031347
124	0xbdc1c753	-0.09461846
125	0xbdbad2c0	-0.091222286
126	0x3d242121	0.040070657
127	0xbb50533c	-0.0031787893
128	0xbdca36e3	-0.0987375
129	0x3c0d51d0	0.008625463
130	0xbd0d9e3c	-0.034574732
131	0x3d3be5c1	0.045873407
132	0x3d8f0f5e	0.06985353
133	0x3db31531	0.08744276
134	0x3cdd7c9a	0.027036954
135	0x3dc9a557	0.09845989
136	0x3dbf9eee	0.09356485
137	0xbcce3b69	-0.025174813
138	0xbdaf8aa8	-0.085713685
139	0xbc02b398	-0.007977389
140	0x3d9ae35f	0.07562899
141	0x3d2e466a	0.04254762
142	0xbd108db6	-0.035291396
143	0xbc8b1819	-0.016979264
144	0x3d7dacb6	0.061932288
145	0x3d4635df	0.04839122
146	0x3d9c4750	0.07630789
147	0x3d2100f2	0.039307542
148	0xbd084096	-0.03326472
149	0xbdb6fdef	-0.08935153
150	0x3d705026	0.058670186
151	0xbd88fc9f	-0.06688809
152	0xbd8874c4	-0.06662896
153	0xbb351e60	-0.0027636513
154	0xbae7f6c0	-0.0017697439
155	0xbda83eb9	-0.082150884
156	0x3d82ad03	0.063806556
157	0x3d2227dd	0.039588798
158	0xbce2d268	-0.02768822
159	0xbca66af9	-0.02031468
160	0xbcad1de0	-0.02113241
161	0x3d6bf8f2	0.05761046
162	0x3d563403	0.052295696
163	0xbdb5561d	-0.088543154
164	0xbcec3e78	-0.028838381
165	0xbbab48a0	-0.0052271634
166	0xbdad09de	-0.08449148
167	0xbdaa8da6	-0.083277985
168	0x3cdbf4a4	0.026850052
169	0xbcef2c98	-0.029196069
170	0xbdc7579c	-0.09733507
171	0x3da35ad2	0.07976307
172	0xbd886e55	-0.06661669
173	0xbdc3ae15	-0.09554688
174	0x3a623ad3	0.00086299813
175	0xbd9b912f	-0.07596051
176	0x3db2a111	0.08722127
177	0xbc01fe4c	-0.007934164
178	0xbd4746e7	-0.048651602
179	0x3d19de19	0.037565324
180	0xbd65958e	-0.05605083
181	0xbc8c2295	-0.017106334
182	0x3d6e74e2	0.058216937
183	0x3db19431	0.086708434
184	0xbdbd2f34	-0.09237519
185	0x3d990947	0.07472473
186	0xbdc2644b	-0.094917856
187	0x3d4619fa	0.048364617
188	0xbd8ce68c	-0.06879911
189	0xbc513961	-0.012770028
190	0xbd84b592	-0.06479944
191	0x3db18da3	0.08669593
192	0x3d3bbf32	0.045836635
193	0x3b8438b8	0.0040350817
194	0x3dcc909c	0.099885195
195	0xbda73a3b	-0.081654035
196	0xbd6457ca	-0.055747785
197	0x3d863959	0.06553907
198	0x3d5f1891	0.054466788
199	0x3d24a284	0.04019405
200	0xbd2187db	-0.039436202
201	0xbd3cd7bb	-0.046104174
202	0x3dc57507	0.09641462
203	0x3c153209	0.009106168
204	0xbdc12d77	-0.094325
205	0x3d87b74d	0.06626759
206	0xbb343efa	-0.0027503357
207	0xbdccf793	-0.100081585
208	0xbd61e6d1	-0.055151764
209	0xbda64c12	-0.08119978
210	0xbcff190a	-0.03113987
211	0x3c798007	0.015228278
212	0xbd158ac6	-0.036509298
213	0x3d6a8a56	0.057260834
214	0xbd5dcaca	-0.054148473
215	0x3dc84a0a	0.09779747
216	0xbdb29f5b	-0.08721801
217	0xbda8b2c1	-0.082372196
218	0xbc0989b5	-0.008394648
219	0x3d9d1b79	0.076712556
220	0xbce7de17	-0.028304143
221	0xbd9866bc	-0.0744147
222	0x3d93b1b1	0.07211626
223	0x3d830381	0.06397153
224	0xbd080e94	-0.033217028
225	0xbdb44b8c	-0.08803472
226	0x3cf5763e	0.029963609
227	0x3bfd8d0a	0.0077377604
228	0x3d81dd9c	0.06341097
229	0xbda32c0d	-0.079673864
230	0xbd04cdaa	-0.0324227
231	0x3dc4390c	0.09581193
232	0x3d87d517	0.066324405
233	0xbd0675c0	-0.03282714
234	0xbd0fb879	-0.035088036
235	0x3d96145d	0.07328103
236	0x3d2c0552	0.04199726
237	0xbd956a0d	-0.07295618
238	0x3d4ff470	0.050770223
239	0xbc2c7858	-0.010526739
240	0x3dbf4ebf	0.093411915
241	0xbd98bda8	-0.07458049
242	0xbd4bda70	-0.049768865
243	0x3dbff421	0.09372736
244	0xbd17c933	-0.037057113
245	0xbdd465c2	-0.10370971
246	0x3d560653	0.052252125
247	0xbbf2d1a0	-0.007410243
248	0x3d2f689a	0.042824365
249	0xbcc2d813	-0.023784673
250	0x3d9cb9b6	0.07652609
251	0xbc529ed7	-0.012855253
252	0xbbf89d44	-0.007587107
253	0x3d88d671	0.066815265
254	0xbadecd80	-0.00169985
255	0xbdc0f007	-0.094207816

fc3.bias f4 [11]
0	0xbc7d6277	-0.01546537
1	0x3d8d2a52	0.068928376
2	0xbdb63811	-0.088974126
3	0x3bca0f09	0.006166343
4	0x3d39c9f0	0.0453586
5	0x3e4df8a7	0.20114385
6	0xbd6e748c	-0.058216617
7	0x3d810d62	0.06301381
8	0xbdde0f3e	-0.10842751
9	0x3dad609c	0.084656924
10	0xbdda1b90	-0.106497884
