models/part1.pt (torch, 45703 bytes, 6 tensors)

net.0.weight f4 [50, 155]
00000000: 48b2 09bd 80bb 723c 55fa 823d f07a 9fbb
00000010: c0e2 073c f06f c33b 807d 86ba 5a85 453d
00000020: cc04 323d 4a33 30bd fb12 9d3d b64e 3d3d
00000030: e8e9 4dbc 1138 8f3d d08d 8d3b 2ae6 4f3d
00000040: ddac 8bbd 95a8 933d 6b12 9b3d edd4 75bd
00000050: 0d3c 93bd b281 bfbc c645 4abd 00ce af3c
00000060: b472 123d d0ad 27bc 06dd 663d a078 473b
00000070: a264 c1bc 6d69 8cbd 2420 d13c 00fe 9abd
00000080: 0002 90b9 b85a 403c 4e41 38bd f8ac c53c
00000090: 30d1 7f3c 5a2c 5c3d 7ac5 4d3d 1820 85bd
000000a0: 6e1c 74bd 1c80 f1bc 75ae 6cbd 984e ce3c
000000b0: 788e 57bd a22e 7bbd 48a6 bf3c 828e 463d
000000c0: 664b bfbc 9aea a3bd c8fd 393c 9499 283d
000000d0: 8f80 803d 80ba f93b 7e66 643d c715 93bd
000000e0: 775f 9d3d 3b72 54bd e290 60bd 121d 6c3d
000000f0: 0037 92bc 5a09 4b3d 4870 66bd 6ee9 783d
00000100: a702 9c3d 1c3d c73c 5bb3 843d 51f2 6abd
00000110: 584b 91bc c847 c83c f2e9 393d f0ab 2fbd
00000120: 6a5a 513d 768f d8bc cd9a 2fbd 78b6 803c
00000130: 6406 83bd 2cfa 96bd 6cc9 da3c 301f e03c
00000140: 3808 fd3c e093 2cbc bc9b 70bd fc25 84bd
00000150: bf68 9d3d 029c 8ebd d850 c63c 679a 853d
00000160: ce58 7b3d 5e6f 4fbd ea29 d4bc c885 83bd
00000170: e25e 4e3d 645f 9abd 986f 97bd d0a3 5bbd
00000180: 8f2e 863d b240 553d ae71 5c3d ba6f 7c3d
00000190: 4e70 19bd 757a 37bd 8a1d 4abd 981c d93c
000001a0: a0f3 ff3c d489 883c e01a 7dbd 70ce e93b
000001b0: 8294 2ebd a864 81bc 58ba 4bbc 80d4 823b
000001c0: 743c 90bd 996a 8c3d f9fe 0bbd b497 cd3c
000001d0: 1a90 623d 9493 043d 7a67 663d aac7 393d
000001e0: 0ee8 703d 30e0 8a3c 8a21 523d d801 0fbd
000001f0: 7547 31bd 3e19 1d3d 08a6 ac3c e065 45bb
00000200: b2c1 8abd 7c02 d73c 261c 553d 00f0 17bc
00000210: 342b 973c ba76 123d c174 a2bd c084 58bc
00000220: 0e18 f4bc 4228 28bd 3216 493d 5919 a33d
00000230: e0fa 513c 6ec3 4c3d 0214 74bd f8d7 673c
00000240: 3833 2abc c8e9 4abd e4ea 863c 1475 d13c
00000250: e03f 7ebb 0ab5 0b3d 88f4 1d3d 3135 953d
00000260: 9092 983b c08b 3b3b 00b0 96ba 889c 353c
00000270: 2854 55bd 18fc 21bc 201b 8bbd ecc4 66bd
00000280: 571e 8cbd 36fc 733d 5513 3dbd e067 d4bb
00000290: 00b1 0c3c dd49 913d 0e50 153d 744a 6abd
000002a0: 8de4 a03d c1cf 9bbd 481a 2b3c cb4d 963d
000002b0: 91a9 8e3d be81 98bc a28f 5bbd aa76 103d
000002c0: d69c 7d3d 9c63 2fbd a83e 50bc cb14 48bd
000002d0: e447 fb3c 040e 8c3c 1e15 233d f0c1 e1bc
000002e0: fbca 9ebd 0a8d 0abd efa6 80bd 9284 9ebc
000002f0: 3821 ef3c 30da 88bd 80b6 75bb 60f1 a0bd
00000300: 0a25 69bd 3c58 66bd d609 e0bc 42b2 26bd
00000310: 4090 4a3c 461e 493d f612 783d f051 cf3c
00000320: 0054 0bba d083 6abc 1664 5f3d 726d 3cbd
00000330: a2cd 6d3d c661 9ebd 0a8e 75bd 0c8b ae3c
00000340: 2d81 07bd b886 753c 0b54 8f3d 9a43 163d
00000350: bf01 a13d 8e5a 0bbd 571b 1dbd 0018 27bc
00000360: 4085 84bc 70b7 10bd 0069 a3bb a99c 943d
00000370: d757 34bd 92c2 383d bcd5 183d 6e87 3e3d
00000380: ec83 b13c f812 f3bc 3ec8 073d f9f4 1abd
00000390: edf1 49bd edc5 993d f759 883d b6c4 6dbd
000003a0: 799d 853d 3871 883c 88a9 a83c 2d8e 9e3d
000003b0: 4033 8abb 5e46 d1bc 8e89 4e3d 46f8 a9bc
000003c0: bcf5 9dbc a0ab 04bd 33ea a13d 34fc 1c3d
000003d0: 5856 55bc 8009 d2ba 0035 b83b 7b07 43bd
000003e0: 54d2 ba3c 5e58 7fbd 006f 75bb 30ed 76bc
000003f0: e855 06bd bd24 983d 6847 b83c 367d 1e3d
-0.033617288 0.014815211 0.06395403 -0.00486695 0.0082938075 0.0059642717 -0.0010260791 0.048222877
0.043461606 -0.043017663 0.07669636 0.046217643 -0.012567975 0.06993116 0.004319884 0.05075661
-0.068200804 0.07209889 0.07571872 -0.060017515 -0.07189188 -0.023377273 -0.049382947 0.021460533
0.03575392 -0.010234311 0.056363128 0.0030436888 -0.023607556 -0.06856046 0.025528021 -0.07567978
-0.0002746731 0.011740379 -0.044984154 0.02413033 0.015613839 0.053753234 0.050237156 -0.06500262
-0.059597425 -0.029480033 -0.057783563 0.02518396 -0.052626103 -0.06132377 0.023394719 0.04847575
-0.023351382 -0.08003731 0.01135201 0.04116209 0.062745206 0.0076211095 0.055761807 -0.07181888
0.07684224 -0.05186675 -0.05482567 0.05764491 -0.017848492 0.049569465 -0.056259423 0.06076949
0.076176934 0.024321131 0.06479522 -0.057359997 -0.017736122 0.02444829 0.045389123 -0.04288858
0.051111616 -0.026435595 -0.04287224 0.015712008 -0.06397703 -0.07371935 0.026707374 0.027358621
0.030887708 -0.010533303 -0.05874227 -0.064525574 0.07685994 -0.0696335 0.024208471 0.065235905
0.061363988 -0.050643317 -0.025898892 -0.06422001 0.050383456 -0.075377256 -0.07394332 -0.05362302
0.06551849 0.05206365 0.05381935 0.06162999 -0.037460618 -0.04479452 -0.049344577 0.026502892
0.0312441 0.016667284 -0.061793208 0.007135205 -0.042622097 -0.015795067 -0.0124345645 0.003992617
-0.070427805 0.068562694 -0.034178708 0.025096752 0.055313207 0.032367304 0.056251027 0.04535643
0.058815055 0.016952604 0.051301517 -0.034913868 -0.043281037 0.03835415 0.021075264 -0.0030120537
-0.06775226 0.026246302 0.052028798 -0.009273529 0.018453218 0.035757758 -0.07932425 -0.013215244
-0.029796626 -0.041054018 0.049093433 0.07963819 0.012816161 0.049991064 -0.059589393 0.014150612
-0.010388188 -0.049539357 0.016469426 0.025568523 -0.0038795397 0.0341082 0.03856328 0.07285536
0.0046561435 0.0028617233 -0.0011496544 0.011084683 -0.05208221 -0.009886764 -0.06792283 -0.056340143
-0.06841724 0.0595667 -0.046161015 -0.0064821094 0.008587122 0.070941664 0.0364533 -0.05719991
0.078560926 -0.07607985 0.010443278 0.073390566 0.06965936 -0.018616553 -0.053603776 0.035269417
0.06191715 -0.042819604 -0.012710251 -0.048847955 0.030673929 0.017096527 0.03981506 -0.027558297
-0.07753559 -0.03382591 -0.0628184 -0.019350324 0.029190645 -0.06682241 -0.0037492812 -0.07858539
-0.05692009 -0.05623649 -0.02734844 -0.040697344 0.012363493 0.049101137 0.060564958 0.025307626
-0.0005314946 -0.014313653 0.05453881 -0.046002813 0.058057435 -0.077334926 -0.059949912 0.021306537
-0.033082176 0.014985733 0.06998452 0.036685564 0.07861661 -0.034021907 -0.03835615 -0.010198593
-0.01617682 -0.03533119 -0.004986882 0.07256443 -0.044029083 0.04510743 0.037313208 0.046515875
0.02166935 -0.029672131 0.03314995 -0.03783128 -0.049302984 0.075084545 0.066577844 -0.058048926
0.06524176 0.01665555 0.020588651 0.07741962 -0.0042175353 -0.025546249 0.05042415 -0.020748269
-0.019282214 -0.032390237 0.07905998 0.038326457 -0.013021074 -0.001602456 0.0056215525 -0.047614556
0.02280537 -0.062340133 -0.0037450194 -0.015071198 -0.03279677 0.07428882 0.022494987 0.03869363

net.0.bias f4 [50]
00000000: b12b 3d3e d939 663e 3834 633e 70cd 3c3e
00000010: 6263 14bc 3e4e 133e d08a cdbc 3d2c 113e
00000020: d8c1 283e 8505 a4bd bde5 703e 57b2 06bc
00000030: 6ac1 78bd 78c9 fbbc 80d3 703e b656 89bd
00000040: 24cd 393e 464e ddbc 701d 87bd 702e 463e
00000050: 6de9 543e 6da1 073e 4b32 86bd fb1f 203e
00000060: c85b 613e e072 01bb 0853 633e a9d0 6d3e
00000070: 1d38 85bd ed23 253e d5cc 3ebc 0642 21bc
00000080: 7d7e 613e 7c42 2e3e f60d f5bc 9028 673e
00000090: a30d 4d3e 779e 393e c426 b1bc 2336 89bd
000000a0: 6076 37bc 0082 76bc b84f 84bc c1e6 27bd
000000b0: a6df 603e 40f0 5abc 3324 a1bd 3af1 52bd
000000c0: 4ebd a2bd 3371 4d3e
0.18473698 0.22483005 0.22187889 0.18437743 -0.009056898 0.14385316 -0.025090605 0.14177032
0.16480196 -0.08008865 0.23525138 -0.0082212305 -0.06073133 -0.030735716 0.23518181 -0.06705992
0.18144661 -0.027014863 -0.06597412 0.19353652 0.2079217 0.13245173 -0.06552561 0.156372
0.22007668 -0.0019752309 0.22199643 0.23224129 -0.065048434 0.16126986 -0.011645515 -0.009842401
0.22020908 0.1701755 -0.029913884 0.22574067 0.20024733 0.18126856 -0.02162493 -0.06699779
-0.011197656 -0.015045643 -0.016151294 -0.04099155 0.21960315 -0.013362944 -0.078682326 -0.051499583
-0.07946263 0.20062713

net.2.weight f4 [50, 50]
00000000: 6971 153e d9b1 a33d b2a0 323d f356 693e
00000010: 4c1f debd f92f f83c 10c8 50bc aff1 6b3e
00000020: 2bfb 433d de81 bbbd 174a 493e 1ae8 01be
00000030: 1071 c03d b0d3 9a3d 9835 603e fe88 f63d
00000040: f379 913e abc5 85bd 8e9c a33d 1a18 713e
00000050: b70b 603e aed4 c13d e360 9fbd a820 8b3d
00000060: 5c4e 3c3e 00ed 7dbb 0140 233e e7fa 8d3e
00000070: 6854 ebbd f510 453e d0b5 4b3d e225 1e3c
00000080: 1245 7c3e 3ca7 843e 8fff c2bd ce73 343e
00000090: 84ce 933d 0667 a73d 45fa f1bd e4f7 573d
000000a0: f0ff 6cbc 94f6 b7bd 2408 e6bc f0db 2abc
000000b0: 5b90 533e 5278 f63d e84e c0bd 80cb 10bc
000000c0: bf2b 0c3e dd23 7e3e b33b 483e ee1c aa3d
000000d0: 06d5 193e 94b5 0d3e 3090 28bc 3005 613e
000000e0: ee52 45bd 6b56 b83d 9c69 673e ac00 133d
000000f0: 5153 15bc 6256 1abd ac64 c33d fc81 af3d
00000100: 8449 603e f0ba a9bd 6e98 c63c cc02 393d
00000110: a244 de3d 54e5 793e c575 393e 47f2 4f3e
00000120: 6aee c7bd 3f96 253e 7e39 e53d 8006 cfba
00000130: 381c 453e 5dcf 9b3c c082 5f3c af1d 9f3d
00000140: 5e77 6b3d ec3f 0fbe f806 443d 4329 043d
00000150: 5ce4 d83d c544 5a3e 0fee 7a3e 9111 893e
00000160: 9877 303d 48b9 933c ccd2 213d e0d7 b93c
00000170: 9056 8a3c e299 dabd 3f8d 703e 9622 c4bd
00000180: 600b ca3d c4df 843d 802c 163d 9c2c 383e
00000190: e842 fe3c 7c1d 8ebd 7901 9abd af33 93bd
000001a0: 945b aebd 54f7 833d 3066 2c3c 00cf beba
000001b0: 0414 1b3d 17c3 053e c085 33bc 8c10 8bbd
000001c0: 1c12 d2bd 1a4d ef3d 7dec ffbd 6256 8d3d
000001d0: 4e7a fd3d acb4 9a3d 8007 8fba e072 96bc
000001e0: 9a83 b73d bf01 9abd d4c6 4c3d 4809 33bd
000001f0: 1e99 983d b43e 00bd 0e4a c1bd 0832 5dbd
00000200: 0054 aa3d f064 533d 4a7e ccbd 9355 bcbd
00000210: 3cc2 edbc 0060 5dbc 4cdd 22bd f4ba c23d
00000220: d0d7 203c 62c2 1abd 70f2 04bc 9a9f 843d
00000230: 0e1e cbbd e24c 0ebe ccab e8bd 9cae 7e3d
00000240: 8092 7b3c d586 01be 3ab9 ec3d f621 9b3d
00000250: 0c1f 07be 10f6 b13d 448e 1d3e fe47 273e
00000260: a200 893e 0f4c 883e 2c93 373d 1e95 b93d
00000270: 1ed1 d93d 0f04 883e a6c1 0c3e 8ece e6bd
00000280: c2f6 903e dc25 4fbd 9307 adbd 7bba 08be
00000290: 69e7 533e e87d 5e3d eb30 c83d 4156 0cbe
000002a0: f4c2 ca3d 26cf 283e d9e8 8e3e d9ff fd3d
000002b0: 17af 023e e033 fb3d aa55 b23d f04c a93d
000002c0: a16c 3f3e a302 8e3e 2024 2e3c b2dd 4d3d
000002d0: 99f4 99bd 9e0d 7fbc 5df4 053e 3536 af3d
000002e0: fead f53d 828e 963d f932 2d3e 4785 743e
000002f0: 7044 ee3c 00f1 ec3b 48cd 613d 8d38 96bd
00000300: 086a 0fbe c8cc 2a3d 39ac 433d ee92 f8bd
00000310: c6f6 d3bd 5a6f ea3d df5b c2bd 1d16 873e
00000320: 4405 5b3e bf38 0b3e 4a2b ea3c 358a 39bc
00000330: cd14 fbbd a97c 4b3e 4f21 bfbd 61a4 a03d
00000340: 229c 093e 8c6b 8cbc 64ca 113e c9d0 f9bd
00000350: d2d2 ed3d 93ef d0bd bd34 df3c ac46 f1bd
00000360: f01c 583e b468 8fbd 6a6d 45bd ad57 433e
00000370: 5eff ca3d 2600 533e b815 313d f263 cb3d
00000380: d0e5 8e3c c01a 0abe 9374 1a3e dd75 f83d
00000390: 6be2 033e 5139 97bc 3686 093c f002 1b3d
000003a0: 45bc 423e de7d 453e 2059 24bc 1ceb c3bc
000003b0: 643a b33d 605d 833e 8846 d9bd 2e5c c1bd
000003c0: 23c6 033e 40a4 16bc a0d7 41bd 1008 843c
000003d0: 10f4 2f3e b04c 4d3c 9e1f e93d 8038 03bb
000003e0: 0eb0 73bd 59b5 423d 5089 32bc 5c4e e2bc
000003f0: 92d6 c33d f80b 873d 761c df3d 4ef1 e23d
0.14594044 0.07992906 0.043610282 0.22787075 -0.10845813 0.030296313 -0.012743011 0.23041414
0.047846954 -0.091556296 0.1965717 -0.12686196 0.09396565 0.075599074 0.21895444 0.12037848
0.28413352 -0.06531843 0.07988845 0.2354435 0.21879469 0.094643936 -0.077821516 0.06793338
0.18389267 -0.0038746 0.15942384 0.27730486 -0.114907086 0.1924475 0.049733937 0.009652587
0.24635723 0.2590884 -0.095214 0.17622301 0.07217124 0.08173947 -0.11815313 0.05272664
-0.014465317 -0.08982578 -0.028080054 -0.010428414 0.20660536 0.12034668 -0.0939005 -0.008837581
0.13688563 0.24818368 0.19554023 0.08306299 0.15022668 0.13838798 -0.010288283 0.21974635
-0.04817479 0.09000858 0.2259888 0.035889313 -0.009114102 -0.037680037 0.09540686 0.085697144
0.21903044 -0.082876086 0.024242606 0.045168683 0.108529344 0.24403888 0.18111332 0.20307265
-0.09762271 0.16170596 0.111926064 -0.0015794784 0.19249046 0.019019777 0.013642013 0.077693336
0.057486884 -0.13989228 0.04785821 0.032265913 0.10590431 0.21315296 0.24504875 0.26771215
0.043082803 0.018032685 0.039507672 0.022685945 0.01688698 -0.10673882 0.23491381 -0.09576909
0.09865451 0.064879924 0.036663532 0.17985767 0.031037763 -0.069392174 -0.07519812 -0.07187592
-0.08513561 0.064436585 0.01052241 -0.001455754 0.037860885 0.13062702 -0.010957181 -0.067902654
-0.1025736 0.11684628 -0.124962784 0.06901242 0.123768434 0.07553992 -0.0010912269 -0.018365324
0.08960648 -0.07519864 0.049994305 -0.043710023 0.0745108 -0.0313098 -0.09437953 -0.05400279
0.08316803 0.051609933 -0.09985025 -0.091960095 -0.029023282 -0.013511658 -0.039761826 0.09508315
0.009817079 -0.037783034 -0.008114442 0.06475754 -0.09917842 -0.13896516 -0.11360893 0.06217824
0.015354753 -0.1264909 0.11558767 0.07574837 -0.13195437 0.08689511 0.15386301 0.16336057
0.26758295 0.26620528 0.04481809 0.09061645 0.10635589 0.26565596 0.13745746 -0.11269866
0.2831326 -0.050573215 -0.0844871 -0.13352387 0.20693745 0.054319292 0.09774955 -0.13704778
0.099004656 0.16485271 0.27912024 0.12402315 0.12762104 0.12265754 0.087077454 0.08266628
0.18693782 0.27736387 0.01062873 0.050260253 -0.075173564 -0.015567211 0.13081498 0.08555261
0.11996077 0.073514 0.16913976 0.23878966 0.029085368 0.007230878 0.055127412 -0.07335005
-0.14005291 0.0416992 0.047771666 -0.121373996 -0.10349803 0.1144702 -0.09490179 0.2638406
0.21388727 0.13595866 0.028585095 -0.011324455 -0.12259827 0.19871773 -0.09332525 0.07843853
0.13438466 -0.017141126 0.14237362 -0.12198026 0.116124764 -0.10201945 0.027246827 -0.11781058
0.21104789 -0.070023924 -0.04820005 0.19076414 0.09911989 0.20605525 0.043233603 0.099311724
0.017443568 -0.13486767 0.15083532 0.12131856 0.1287934 -0.018459948 0.008393815 0.0378446
0.19017132 0.19286296 -0.010031015 -0.02391582 0.087513715 0.25657177 -0.10609156 -0.0944141
0.12868552 -0.009194434 -0.047324777 0.016117126 0.17182946 0.012530491 0.113829836 -0.002002269
-0.05949407 0.047536228 -0.010896996 -0.027625255 0.095624104 0.0659408 0.108941 0.110811815

net.2.bias f4 [50]
00000000: 828b 233e 1836 833e 60e4 fdbd d645 843e
00000010: 36d2 2e3e ab8e 08be 6c32 5fbd c0d5 ac3c
00000020: a403 dabd 9958 8e3e e38d 0c3d 59d8 173d
00000030: df16 8b3c e480 61bd a548 08be d06d 293c
00000040: b8a8 ecbd c1b3 3abd 0148 363e 66d7 4abd
00000050: 475b 5f3e 821b 02be 80a5 e4bd 1d93 5c3e
00000060: 3fd5 96bd 4a31 853e 0054 eabc 4930 013e
00000070: 2f5f dc3d c39d d2bc 9539 e8bd d04e 71bd
00000080: 21e0 363e 3769 723e 6fb0 8b3e 18a7 54bd
00000090: a881 aa3c 2402 7b3e bafa 6cbd 007b 1c3e
000000a0: 1a5d 8cbd 3a98 233e 52c3 d53d 6688 823e
000000b0: ef7a bebd 2ee1 5d3e f1cd 2d3e b67d 09bd
000000c0: 97b0 423e 430b 02be
0.15971187 0.25627208 -0.12397075 0.2583453 0.17072377 -0.13335674 -0.054491445 0.021098018
-0.10645226 0.2780197 0.034315 0.03707156 0.01697868 -0.05505456 -0.13308962 0.010341123
-0.11555618 -0.045581583 0.17800905 -0.049521826 0.21812163 -0.12705806 -0.11164379 0.21540494
-0.07364892 0.26014167 -0.028604507 0.12616076 0.10760342 -0.025709992 -0.11339108 -0.058913052
0.17858936 0.23672949 0.27283046 -0.051917166 0.020813778 0.24512535 -0.0578563 0.15281296
-0.06853695 0.15976039 0.10437645 0.2549469 -0.093007915 0.2166793 0.16973092 -0.033567153
0.19012676 -0.12699609

net.4.weight f4 [11, 50]
00000000: 124f 763e 426b fd3d 6302 053e 3ac5 7d3e
00000010: 3c6a 8f3d 7014 80bd 1fbf e3bd 10a6 dbbd
00000020: 0b63 03be 34cd 5e3e 8b87 4a3e 14a8 99bd
00000030: a56d dd3d 46ba 35bd 28d5 2c3d c297 f23d
00000040: 6ab6 e03d a7a7 d2bd db70 633e 2979 91bd
00000050: bbd6 043d a056 cdbb 6abb 01bd 9770 3e3e
00000060: c8b0 823c 188e 723e 8866 953d 324f 363d
00000070: 0946 2fbd ddf6 a0bd 8626 953d d5bc 053e
00000080: 92be a63d a509 3b3e a5f4 293e 4c2d 583d
00000090: 78bf 5f3d c95d 383e 22ae c03d b5a0 ed3d
000000a0: ff3e 0a3e 99db 243e ce39 cebd 1366 603e
000000b0: 62e7 cb3d ff49 823e 3d4e 013e e6e2 663d
000000c0: 0c22 533e 0a56 77bd 5984 003e b6a0 fb3d
000000d0: 135f a0bd 4645 8c3d 6a0c 4c3d 002a bebc
000000e0: 9a93 bebd ef1a d83d c0c0 69bb 0257 6a3e
000000f0: e501 1ebd 338c 5b3d 28c6 19bd 4a75 993d
00000100: 2ea1 67bd 23a4 8fbd 202c 383c 1a9a 92bd
00000110: fdfa 6c3e c093 aebb edf5 503e ccfb 29bd
00000120: 3a98 0ebd 747c c6bb 50e0 213d b3e9 303e
00000130: 3c27 be3d 2d0c 213e 3c46 0f3d 5bc4 36bc
00000140: e83d 6c3d 8783 0a3e 211b 0f3e 118c b63b
00000150: 8e6f ae3a 40c6 5d3d 6de9 003e 0f89 573d
00000160: 46fe 913d 3054 7f3e d282 fd3d 0bc3 633e
00000170: 7454 83bd 866a 623e 80d6 a23b 4500 373d
00000180: c84c 8ebd bd95 40bd 70fc 7e3e edb1 103e
00000190: 9c4f 853e 3f26 3b3d 1e0b a73d 8faa 633e
000001a0: 0bd3 893e 0271 aabd 2ae6 ef3d a554 a03b
000001b0: 4069 673d 92f7 c53c d1f1 933d c98e 99bd
000001c0: 552b ffbc 5037 70bc ee88 4fbd 1682 803d
000001d0: 4132 063e 5884 2e3d 3095 ca3d 0438 01bd
000001e0: 375c d73d b0dc 2b3c 502f 4ebc 5109 703e
000001f0: d058 313c 5cc6 c43c 3839 4fbd a375 c63d
00000200: 611c fa3d 176e 0b3e 0e63 eb3d 041b 093d
00000210: 0fd1 893d 6be7 153e aa0a 333e 405d 3a3b
00000220: deb9 9f3d 8954 623e c0f8 31bd d03d d63d
00000230: 20c8 863c 969c 313e d620 f93c 7259 1f3c
00000240: addf 07be fe11 903e 5705 773e 696d ecbd
00000250: c7cb 713d 106a a8bc 4010 cd3d acd0 f83c
00000260: 1845 333d e3e4 9a3d d36b 623e 7e17 bbbd
00000270: 80f3 f1bb c1d3 aebc a852 dbbc 5e53 d73d
00000280: 7415 763c ae5f 043e 8286 2bbb 3cfa 9bbd
00000290: 8542 073e a0e2 933c 5c7c 08bd aa01 513d
000002a0: a8b3 343e 3843 113d cd29 943e 9cf3 553d
000002b0: c027 cc3d 4bd7 7e3e f448 69bd c94d 253e
000002c0: 9057 dabc cd0a a93e 9820 2f3d 5dfb e43d
000002d0: 34b4 27bd a639 f23d a5b2 793e 3eb4 813e
000002e0: 42b9 9b3d c038 89bb 8bfe 063e 4850 843d
000002f0: 5041 fdbc 10cd 293d 1cd4 05be 463f 933e
00000300: 678c 64bd 14f4 383e f1ef f6bd 33d9 913d
00000310: 09d6 883e 8d37 143d f0e1 103e 4cac 19bd
00000320: 5ae8 8a3e 8f22 653e e804 cd3d 6586 803e
00000330: 270c f03d 60cd ac3c a08f 073c 0841 08bd
00000340: 5e67 fbbd 5d64 803e 696d 303e 54bb e33c
00000350: 7045 28bd caa6 fb3d 44c5 80bd a0fe afbb
00000360: 989b 46bd b4f0 94bd aef2 fe3c 4354 0d3e
00000370: 3131 813e 285e 8e3d 3cda 54bd 0812 ad3d
00000380: 3ab6 a93d 23c2 713e 4dc5 103e d4e2 553e
00000390: e1ec 643b feee 53bd 45f4 093e 993e ccbd
000003a0: 6455 843c 7f95 e93d f34b dc3d 8236 903d
000003b0: acd8 c4bd 61db c93d 2208 e0bd 2284 6d3e
000003c0: a89b 033d fd11 893d e7fa 2ebc 0c14 5c3e
000003d0: 1eac e53d 5623 2a3b 1975 26bc ff5a 063d
000003e0: 0220 303e e89c b7bd f4fb 653e 0d41 293e
000003f0: e3c4 a0bd b501 493d 4232 243e aca2 343d
0.240536 0.123739734 0.12989192 0.24782267 0.070026845 -0.06253898 -0.11120438 -0.10725033
-0.1283075 0.21757966 0.19778268 -0.075027615 0.10811929 -0.044367097 0.04219547 0.11845352
0.10972293 -0.102858834 0.2221102 -0.071031876 0.032431345 -0.00626643 -0.031672873 0.18597637
0.015953436 0.23687017 0.07294947 0.04450912 -0.0427914 -0.078595854 0.072827384 0.13060315
0.08141817 0.18265398 0.1659723 0.052777573 0.05462596 0.18004526 0.09408213 0.11602918
0.13500594 0.16099395 -0.10069619 0.21913938 0.09956242 0.2544708 0.12627502 0.05636873
0.20618457 -0.060384788 0.12550487 0.122865126 -0.07830634 0.0684915 0.049816526 -0.023213387
-0.093054965 0.10552012 -0.0035667866 0.22884753 -0.038576026 0.0536005 -0.037542492 0.07493074
-0.056550197 -0.070137285 0.011240989 -0.07158299 0.2314262 -0.0053276718 0.20406313 -0.041499898
-0.034813143 -0.0060573164 0.03952056 0.17276649 0.09284827 0.15727301 0.03497909 -0.011155213
0.057676226 0.13526736 0.13975193 0.0055708964 0.0013308392 0.054144144 0.12589045 0.052620944
0.07128577 0.24934459 0.123784676 0.22242372 -0.064125925 0.22110948 0.004969418 0.04467799
-0.069482386 -0.0470178 0.24900985 0.14130373 0.260373 0.04569077 0.08156417 0.22233032
0.26918826 -0.08322336 0.11713822 0.004892903 0.05649686 0.024165902 0.07223857 -0.07497937
-0.031148592 -0.014661625 -0.050667696 0.06274812 0.13105108 0.04260668 0.098917365 -0.03154756
0.105156355 0.010489628 -0.012584522 0.23441054 0.010824397 0.024020366 -0.050591677 0.09690406
0.12212444 0.13616215 0.114935026 0.03347303 0.06729328 0.1463906 0.17484537 0.002843693
0.07799123 0.2210256 -0.043450117 0.104610085 0.016452849 0.17344889 0.030411165 0.009725915
-0.1326892 0.28138727 0.2412313 -0.11544306 0.059032228 -0.020558387 0.10012865 0.03037294
0.043767065 0.07563188 0.22111444 -0.0913534 -0.007383764 -0.021341207 -0.026772812 0.10513948
0.015019763 0.12927124 -0.0026172702 -0.07616088 0.13208969 0.0180524 -0.033321723 0.051026978
0.17646658 0.035464495 0.2893814 0.052234277 0.09968519 0.24886815 -0.05695434 0.16142954
-0.026653081 0.33016053 0.042755693 0.11180756 -0.04094334 0.11827402 0.24384554 0.25332826
0.076036945 -0.0041876733 0.13183038 0.06460625 -0.030914932 0.04145533 -0.13069195 0.2875921
-0.05579796 0.18061858 -0.12057484 0.071215056 0.26725796 0.03618579 0.14148688 -0.03751783
0.27130395 0.22376464 0.100107014 0.25102535 0.11721068 0.021094024 0.008273989 -0.033265144
-0.12275575 0.2507657 0.17229237 0.027799286 -0.041081846 0.12287672 -0.062876254 -0.00537093
-0.04848823 -0.07272473 0.031121578 0.13801675 0.25232843 0.06951553 -0.051965937 0.08450705
0.0828671 0.23609214 0.14137764 0.2088731 0.003493123 -0.051741593 0.13472088 -0.09972877
0.016153999 0.11405467 0.10756674 0.070416465 -0.096116394 0.09856296 -0.10939051 0.23194936
0.032130867 0.06692884 -0.010679937 0.21492022 0.112144694 0.0025961003 -0.010159754 0.032801624
0.1719971 -0.08965474 0.22459394 0.16528721 -0.07850053 0.049073894 0.16034797 0.04410045

net.4.bias f4 [11]
00000000: 3b80 243d 5874 2f3e 76c0 a73c ac0e 6b3e
00000010: 635b c7bc a9b8 b1bc 6cae 773e 67cf 353e
00000020: c9b3 c13d 4ccd 9a3c 5284 433e
0.040161353 0.17134225 0.020477515 0.22954816 -0.024335569 -0.021694498 0.2418763 0.17754899
0.094581194 0.018896721 0.19093445
