models/part1.pt (torch, 109191 bytes, 6 tensors)

net.0.weight f4 [100, 155]
000000 ff 61 f3 bc e3 0f 8e 3c b5 70 86 3d f0 7a 9f bb
       -0.029709814 0.01734156 0.06564466 -0.00486695
000010 c0 e2 07 3c f0 6f c3 3b 0e 80 60 3a 1e a2 4d 3d
       0.0082938075 0.0059642717 0.00085640035 0.050203435
000020 f6 06 36 3d 4a 33 30 bd 4d 90 a3 3d 7c b0 4b 3d
       0.044440232 -0.043017663 0.079865076 0.049728855
000030 41 4e 35 bc c3 a3 9b 3d f4 4f 26 3c d2 79 5c 3d
       -0.0110660205 0.075995944 0.010150898 0.053827114
000040 5e fb 84 bd 3b 5f 97 3d 90 c1 a0 3d 6e 75 6d bd
       -0.06493257 0.07391211 0.07849419 -0.057973318
000050 d8 d1 8f bd 61 36 8f bc c6 45 4a bd 0d eb bf 3c
       -0.070224464 -0.017481985 -0.049382947 0.02342751
000060 52 51 2a 3d b7 68 74 bb a6 ad 7c 3d e2 36 d5 3b
       0.04158146 -0.003729386 0.06168904 0.0065067867
000070 a2 64 c1 bc dd ea 86 bd 24 20 d1 3c 00 fe 9a bd
       -0.023607556 -0.06587765 0.025528021 -0.07567978
000080 21 09 a9 3b 41 e0 88 3c 93 12 31 bd f8 ac c5 3c
       0.005158559 0.016708495 -0.043230604 0.02413033
000090 a4 ff 8e 3c 5a 2c 5c 3d 7a c5 4d 3d c3 95 81 bd
       0.017455883 0.053753234 0.050237156 -0.06327393
0000a0 e1 b2 6c bd 6b 03 f0 bc 75 ae 6c bd d8 4e e1 3c
       -0.05778778 -0.029298505 -0.057783563 0.027503416
0000b0 78 8e 57 bd a2 2e 7b bd 48 a6 bf 3c 82 8e 46 3d
       -0.052626103 -0.06132377 0.023394719 0.04847575
0000c0 66 4b bf bc 9a ea a3 bd c8 fd 39 3c 94 99 28 3d
       -0.023351382 -0.08003731 0.01135201 0.04116209
0000d0 8f 80 80 3d 80 ba f9 3b 7e 66 64 3d c7 15 93 bd
       0.062745206 0.0076211095 0.055761807 -0.07181888
0000e0 77 5f 9d 3d 3b 72 54 bd e2 90 60 bd 12 1d 6c 3d
       0.07684224 -0.05186675 -0.05482567 0.05764491
0000f0 7c 9d 88 bc 5a 09 4b 3d 48 70 66 bd 6e e9 78 3d
       -0.016676657 0.049569465 -0.056259423 0.06076949
000100 a7 02 9c 3d 1c 3d c7 3c 5b b3 84 3d 51 f2 6a bd
       0.076176934 0.024321131 0.06479522 -0.057359997
000110 4b 1c 91 bc c8 47 c8 3c f2 e9 39 3d f0 ab 2f bd
       -0.017713686 0.02444829 0.045389123 -0.04288858
000120 6a 5a 51 3d f2 f5 ce bc b5 14 28 bd 7a 3f 93 3c
       0.051111616 -0.02526376 -0.041035373 0.017974604
000130 57 a3 76 bd 35 a8 8e bd a4 17 d0 3c 00 f0 f1 3c
       -0.060214367 -0.06965677 0.025401898 0.029533386
000140 dc 09 0a 3d ba 70 27 bc 3b c3 65 bd 13 c7 78 bd
       0.03370081 -0.010219747 -0.05609439 -0.060736727
000150 18 22 a6 3d 0e 77 88 bd 14 24 d1 3c c0 0e 8c 3d
       0.081119716 -0.06663333 0.025529899 0.06838751
000160 1e c2 86 3d 5e 8d 3d bd b5 5c dc bc 7e 9e 7f bd
       0.06579994 -0.046277396 -0.026899675 -0.06240701
000170 a9 fe 58 3d d5 40 95 bd 25 da 9a bd b1 c5 53 bd
       0.052977238 -0.07287756 -0.07561139 -0.051702205
000180 db 03 8a 3d b5 31 4e 3d cd 4f 64 3d bd 60 75 3d
       0.067390166 0.050340373 0.055740166 0.05990671
000190 2f 92 11 bd f4 a5 2c bd 87 2c 51 bd 26 d2 ca 3c
       -0.035539802 -0.042150453 -0.051067855 0.02475841
0001a0 2e a9 f1 3c 14 1d 6f 3c 44 97 82 bd 83 67 a5 3b
       0.029499616 0.014594335 -0.06376508 0.00504774
0001b0 43 d9 36 bd a8 48 92 bc ee d3 6d bc e7 82 f9 3a
       -0.04464079 -0.01785691 -0.01451586 0.0019036204
0001c0 33 3a 94 bd da 6c 88 3d ba 43 14 bd b4 b3 bc 3c
       -0.07237663 0.06661387 -0.0361974 0.023034908
0001d0 59 4b 5a 3d c5 cc 0c 3d c7 8a 6d 3d 91 fd 40 3d
       0.053294513 0.03437497 0.057993677 0.04711682
0001e0 86 13 7c 3d 08 87 96 3c ff 1c 5e 3d 24 21 03 bd
       0.061542057 0.018374935 0.05422687 -0.032014027
0001f0 79 2f 2e bd 3d 9b 23 3d c6 66 c7 3c ac 66 ab b8
       -0.042525742 0.03994297 0.024340998 -8.1730395e-05
000200 03 4f 7c bd 8c 8f 03 3d c3 ac 61 3d 6d a5 f0 bb
       -0.06159879 0.03211932 0.0550964 -0.007343939
000210 ab 53 ab 3c 58 76 19 3d 91 0d 9f bd 7f e1 3e bc
       0.02091392 0.037466377 -0.077662595 -0.011650442
000220 59 73 e9 bc 95 0d 25 bd 99 06 5f 3d d9 ec a4 3d
       -0.028497385 -0.040296156 0.05444965 0.080529876
000230 68 8b 8a 3c e6 65 68 3d f2 8e 5b bd 7c 53 99 3c
       0.016912177 0.056737803 -0.05360312 0.018716566
000240 38 33 2a bc db ea 35 bd a2 01 a5 3c 01 5a ed 3c
       -0.010388188 -0.04441343 0.02014238 0.028973581
000250 db 34 e0 39 a8 2c 20 3d 77 57 28 3d d0 55 91 3d
       0.0004276399 0.039105088 0.041099038 0.070964456
000260 a4 fc 11 3c 15 f6 c8 3b 8f 82 39 3b 31 de b8 3b
       0.008910332 0.006132851 0.0028306579 0.0056417217
000270 94 12 66 bd 3c a6 3f bc 20 1b 8b bd ec c4 66 bd
       -0.05617006 -0.011697348 -0.06792283 -0.056340143
000280 57 1e 8c bd cb f4 68 3d 54 d8 48 bd e5 be 00 bc
       -0.06841724 0.056874078 -0.04903443 -0.007858013
000290 83 c2 d5 3b 95 ce 88 3d c0 bc 02 3d 16 bc 71 bd
       0.0065234317 0.066800274 0.031918287 -0.059017263
0002a0 ba a4 91 3d f6 dc a9 bd d6 a8 8a 3b c7 86 89 3d
       0.07111497 -0.08294098 0.0042315526 0.0671516
0002b0 ef 12 8b 3d 07 36 b6 bc 7f aa 68 bd a9 6f 09 3d
       0.06790721 -0.02224256 -0.056803223 0.033553753
0002c0 ff b9 61 3d 9c 63 2f bd d4 1e 6f bc d9 f2 63 bd
       0.05510902 -0.042819604 -0.014594752 -0.05565152
0002d0 3e 9b b8 3c 96 66 34 3c 6e 74 14 3d fa b1 e3 bc
       0.022534963 0.0110107865 0.03624385 -0.027794827
0002e0 b7 a1 a4 bd 0a 8d 0a bd ef a6 80 bd b1 f2 d2 bc
       -0.08038657 -0.03382591 -0.0628184 -0.02575049
0002f0 a6 90 b6 3c 14 0b 8d bd 05 df 75 bb e2 43 a5 bd
       0.02228577 -0.068868786 -0.0037516963 -0.08069588
000300 0a 25 69 bd 3c 58 66 bd da ac f0 bc c7 ba 2e bd
       -0.05692009 -0.05623649 -0.029379297 -0.042658594
000310 45 c0 45 3c 46 1e 49 3d 6b 9f 6e 3d f0 51 cf 3c
       0.012069766 0.049101137 0.0582575 0.025307626
000320 22 be 8d ba d0 83 6a bc 16 64 5f 3d 72 6d 3c bd
       -0.001081411 -0.014313653 0.05453881 -0.046002813
000330 a2 cd 6d 3d c6 61 9e bd 0a 8e 75 bd 0c 8b ae 3c
       0.058057435 -0.077334926 -0.059949912 0.021306537
000340 2d 81 07 bd 9b f2 51 3c 0b 54 8f 3d 9a 43 16 3d
       -0.033082176 0.012814189 0.06998452 0.036685564
000350 bf 01 a1 3d 8e 5a 0b bd 57 1b 1d bd cc 07 44 bc
       0.07861661 -0.034021907 -0.03835615 -0.01196475
000360 40 85 84 bc 70 b7 10 bd 00 69 a3 bb a9 9c 94 3d
       -0.01617682 -0.03533119 -0.004986882 0.07256443
000370 d7 57 34 bd 92 c2 38 3d bc d5 18 3d 5c bc 3d 3d
       -0.044029083 0.04510743 0.037313208 0.04632221
000380 ec 83 b1 3c f8 12 f3 bc 3e c8 07 3d f9 f4 1a bd
       0.02166935 -0.029672131 0.03314995 -0.03783128
000390 e7 d9 4e bd 99 2e 96 3d b4 21 84 3d 13 a5 82 bd
       -0.050500777 0.073331065 0.06451741 -0.06379142
0003a0 ab 4d 7e 3d 6d 59 96 3c 3e 8f 92 3c 07 15 97 3d
       0.06208579 0.018353188 0.017890569 0.073770575
0003b0 38 02 83 bb 19 9c e8 bc 79 d7 3c 3d f0 a0 d3 bc
       -0.003998067 -0.028394746 0.04610393 -0.025833577
0003c0 50 21 b7 bc cd 7f 0c bd 02 30 9b 3d 40 34 01 3d
       -0.022354752 -0.034301568 0.07577516 0.03154397
0003d0 d5 53 8c bc 2c bf c3 39 8d 7e 6e 3b 81 86 4f bd
       -0.017129818 0.00037335732 0.0036391348 -0.050665382
0003e0 2b 80 a9 3c 3f e3 70 bd 6c 2c bb bb d5 a7 8b bc
       0.020690998 -0.05881047 -0.0057120826 -0.017047802
0003f0 be 94 ef bc ab 3a 94 3d e0 45 d5 3c 7c 73 16 3d
       -0.02924573 0.072377525 0.026034296 0.03673123

net.0.bias f4 [100]
000000 a7 66 98 bc 9a 95 12 3d 5c 6c 98 bb 52 d8 20 bc
       -0.018603636 0.035787202 -0.0046515893 -0.0098172
000010 dd 72 18 3c 99 16 91 bd 1f ab 70 3d 0d d0 d1 3d
       0.009304729 -0.07084388 0.058756944 0.10244761
000020 03 bb 75 bd ed be 77 3d c6 97 95 bd 6e c7 1f 3c
       -0.0599928 0.060484815 -0.07304339 0.009752138
000030 1e 0f e3 bb 5a 42 85 bd 79 5d a3 3c 60 fc a0 3d
       -0.0069292923 -0.06506796 0.019942032 0.07860637
000040 73 ff cc 3c 45 71 00 3d eb f9 35 bd 00 61 a9 3d
       0.025024151 0.031358022 -0.044427793 0.082704544
000050 6e ec 82 bd 99 05 b6 bb 3b f4 0e bd 91 dd d0 bc
       -0.06392752 -0.0055548665 -0.034900885 -0.025496276
000060 9f 7a bf 3d 71 8e b3 3d 2b 48 8f 3d 5c ab e8 bc
       0.0934956 0.08767403 0.06996187 -0.028402023
000070 d2 e8 b7 bc 71 8b da bc a5 f8 a8 bb f6 6e ec 3c
       -0.022449885 -0.026677819 -0.005156594 0.028861504
000080 cf aa 8f 3d 10 2c d5 3d e6 d0 7e 3d 67 24 87 bd
       0.07015001 0.10408795 0.06221094 -0.0659874
000090 ac d2 c1 3d a5 9f 98 bd c7 b1 13 3d 8c df ee 3c
       0.094640106 -0.07452325 0.036058214 0.02915933
0000a0 71 2b ca 3b fc 2f 36 bd a6 9d b3 bb ff 05 9b 3d
       0.0061697294 -0.044479355 -0.0054814396 0.07569503
0000b0 ab b4 51 bd 82 57 3a 3d 13 f3 6f 3d 77 8d ba 3d
       -0.05119769 0.04549361 0.058581423 0.091090135
0000c0 76 e4 a1 3c 30 59 ca 3d 38 3c 9d bd 92 dc 4b bd
       0.019762259 0.098802924 -0.076775014 -0.0497709
0000d0 35 f4 8e bd 2d 76 db 3c 6c 76 4b bd 5b d2 aa 3d
       -0.069801725 0.026789749 -0.049673483 0.08340903
0000e0 76 9f e8 bc 3c 0f a2 3c 29 e0 c7 3d f7 1e a2 bd
       -0.02839635 0.019782655 0.09759552 -0.07916062
0000f0 6c 5c 63 3d 28 20 2d bd 76 91 8c 3d f0 68 3a bb
       0.055508062 -0.042266995 0.06863682 -0.0028443895
000100 88 25 8d bd ef ec 2f 3d f5 4b c0 3c 23 84 d8 3c
       -0.06891924 0.042950567 0.02347372 0.026430195
000110 0a 18 8b 3d 4f a1 8a bb 25 92 18 bd 26 31 dd 3d
       0.067916945 -0.0042306553 -0.03724875 0.1080039
000120 63 4f 53 b9 7d 56 a4 3d 92 bb 3c 3d 24 54 a1 bd
       -0.00020152102 0.08024309 0.04607732 -0.07877377
000130 d5 df 36 3b be 7d 0e 3d 52 d3 83 bd 8c 11 1c 3d
       0.002790441 0.034787886 -0.064367905 0.03810267
000140 8b fd 07 bd da d5 28 bd 63 38 92 3d d7 11 44 3d
       -0.03320078 -0.04121957 0.07139661 0.047868576
000150 5d 31 b7 3d 75 b0 da ba 9f 80 87 3b 5f 31 5f bd
       0.08944962 -0.0016684668 0.004135206 -0.054490443
000160 61 3e ed 3c fc 84 bd 3d 25 bf 8c 3c 1f 8c bc bc
       0.028960409 0.092538804 0.017180989 -0.023016034
000170 97 c5 9c 3d 6f 03 c0 3b b4 ab 13 3d 15 9c d6 3d
       0.07654875 0.0058597843 0.03605242 0.10478989
000180 bf 1d bf 3d 18 57 c8 3d ac 7b 95 bd 65 8e 31 3d
       0.093318455 0.09782237 -0.07298979 0.04334869

net.2.weight f4 [100, 100]
000000 c0 f2 a5 3d 5b e6 b3 3d 2e df b7 bd ec 9f 8d 3d
       0.081029415 0.08784171 -0.08978115 0.06915268
000010 71 7a 3d bd c7 20 4d bd f1 78 79 bd c6 1b 6d bd
       -0.046259347 -0.050080087 -0.060906354 -0.057887815
000020 18 19 80 bc 0b 97 d6 bb 7d 75 33 bd 49 e2 73 3d
       -0.015636966 -0.0065487674 -0.043813217 0.059541974
000030 ec 9d 7e bd 00 fd b5 3d 15 65 c1 bd 70 73 f4 3c
       -0.062162325 0.088861465 -0.09443108 0.029840201
000040 c3 33 86 bd 9c 0c 70 bd 54 38 c2 3c f4 4e bf bc
       -0.065528415 -0.058605775 0.0237085 -0.023353077
000050 ed 66 89 bd 84 07 11 bc ef fe 94 bd 5a ab 73 bd
       -0.06709085 -0.0088518895 -0.07275187 -0.059489585
000060 fe 9c 5e 3d a4 4e bc 3a 6f 81 00 bd 4e b0 a3 3d
       0.05434894 0.0014366698 -0.031373437 0.07992612
000070 df 9b 19 3c c8 f7 8d 3d 69 e9 1c 3d cf 17 67 3b
       0.0093755415 0.06932026 0.038308535 0.0035261994
000080 d3 47 2a bd 68 64 47 bd 45 b7 a9 3d 54 25 af 3c
       -0.041572403 -0.04867974 0.08286909 0.021380104
000090 d8 ee a4 3d d6 c2 74 3d 38 ca 08 bc 14 19 c1 bd
       0.08053368 0.059756123 -0.008348994 -0.094286114
0000a0 92 ef 11 3d 78 62 d9 bc fe 24 7e 3c f6 a5 28 bd
       0.035628863 -0.026536211 0.015511749 -0.041173898
0000b0 3d ed a0 3d 31 4a bb 3d 47 46 83 bd 5b bd e9 bc
       0.078577496 0.0914501 -0.06409889 -0.028532675
0000c0 b0 9c a1 bd 07 db 32 3d be 82 94 bd 72 bf 9f bd
       -0.07891214 0.043665912 -0.072514996 -0.07800187
0000d0 73 b6 95 bd ce b3 ae bd eb 34 9e 3d 20 d6 43 bd
       -0.0731019 -0.08530389 0.07724937 -0.047811627
0000e0 ba d1 74 3d 94 16 eb bc de 8e 0e bd 60 67 e0 bc
       0.059770323 -0.02869729 -0.034804218 -0.027393043
0000f0 8e bb af bd 63 74 d3 3c 6a 38 38 bd d1 41 e2 3c
       -0.08580695 0.025812333 -0.044975676 0.027619274
000100 ca 80 ae bd d2 cc 32 3c be c1 9c 3d 79 83 0b bd
       -0.08520658 0.010913091 0.07654141 -0.03406093
000110 06 20 88 3c ca 2f ca bd a3 4c 27 bd b9 ec 9f 3d
       0.016616832 -0.09872396 -0.04084457 0.07808823
000120 47 40 0f 3d 2f a2 02 3d 9a fa 29 3d 78 44 a7 bc
       0.03497341 0.03189295 0.041498758 -0.02041839
000130 f2 5a 36 bd 1b 19 b7 3d 2c 33 16 bd 4f cd 4f bc
       -0.044520326 0.08940335 -0.036669895 -0.012683227
000140 28 36 9b bd 6b fc 9c 3d 88 05 19 bd c8 ed 2b bd
       -0.07578689 0.076653324 -0.03735879 -0.041974813
000150 59 f2 88 bd 48 7a 9b 3c 37 45 a8 bd 5f 63 af 3d
       -0.06686849 0.018979207 -0.08216327 0.085638754
000160 02 cb 8f 3d 17 84 a5 bd ee b7 c1 bd 3a 64 d5 3c
       0.070211425 -0.08081835 -0.0945891 0.026048768
000170 9a 5d 83 bd e9 89 cb bd 00 ab 6d 3d 2f de f4 bc
       -0.064143375 -0.09938414 0.058024406 -0.029891102
000180 28 8b 82 3c 5a 22 c3 3b 67 3b 80 bd 5a 69 5c bd
       0.015935495 0.0059550228 -0.0626133 -0.05381141
000190 c7 95 28 3d af a2 a1 bd ab f2 4c 3c ee b3 a5 3c
       0.041158464 -0.078923576 0.012509028 0.020227399
0001a0 c7 d1 53 bd 8b 6a ca 3d 3f 19 73 bd 83 49 66 bd
       -0.05171373 0.09883603 -0.05935025 -0.05622245
0001b0 e5 0f 94 bd 30 e2 b0 3d 8d 55 ae bd 50 fa b8 3d
       -0.07229594 0.08636892 -0.08512411 0.09032118
0001c0 c7 c4 01 3e d2 ae c7 3d b6 bb de 3d 2f 26 35 3d
       0.12672721 0.09750141 0.10875647 0.044225868
0001d0 7d 7e 73 bd 27 b4 4f 3d 72 a4 28 3d 8c 16 b1 3c
       -0.0594468 0.050708916 0.041172452 0.021617197
0001e0 ad 7a b3 bd 71 47 d0 3d 8d 15 d5 3c 4e 87 9c 3d
       -0.08763633 0.10169876 0.026011253 0.07642995
0001f0 12 12 98 3c d0 b5 74 bd 31 84 e7 3d a5 27 c3 bd
       0.018563304 -0.059743702 0.113045104 -0.09529046
000200 47 e0 37 bd b3 9f f0 3d ad b8 01 bb f5 db aa 3d
       -0.044891622 0.1174921 -0.0019793913 0.08342735
000210 69 ce b9 3d 7f 11 93 3c 8f 67 14 3c 4a ff 35 3d
       0.09072573 0.017952679 0.009057893 0.044432916
000220 36 a6 16 3c da 48 29 3d 4a 0a 78 bb 90 64 ef bc
       0.009194901 0.041329242 -0.003784793 -0.029222757
000230 fa 19 0b bd fa 1c a4 bd c1 db a5 ba b9 e2 82 bc
       -0.03396032 -0.08013339 -0.0012653993 -0.01597725
000240 42 a3 01 3d ba d0 fa 3c 90 43 15 bd c9 12 30 bd
       0.031649835 0.030617107 -0.036441386 -0.042986665
000250 06 5d 66 3c 2a 55 86 3d fa f7 1f 3c 8f c8 85 3c
       0.014060264 0.065592125 0.009763712 0.016330985
000260 aa f6 5b bd 2a 7c 81 bc f0 9c 61 bc 4a 18 92 3d
       -0.053702034 -0.015806276 -0.013770327 0.07133539
000270 04 4a 8a bd eb d4 5a 3d ef c8 ae 3d 4f 5c ca bd
       -0.067523986 0.05342571 0.08534419 -0.09880888
000280 9b e9 91 3d ea 88 28 3d b8 21 8e 3d 99 db f0 bc
       0.07124635 0.041146196 0.06940025 -0.029401587
000290 63 0e 81 3d d3 bd e6 bc b0 75 69 bc 92 d8 6f 3d
       0.06301572 -0.028166687 -0.01424925 0.058556147
0002a0 9b 17 f9 3b fc c8 94 3d a8 bc 3d bc f3 d2 45 bd
       0.007601691 0.07264897 -0.011580624 -0.04829688
0002b0 f5 bf 5c bd f0 19 0e 3d b7 3b 93 bd b9 14 b7 3d
       -0.053894002 0.034692705 -0.07189124 0.089394994
0002c0 c8 c6 e6 3d 36 10 b8 3d 8b 44 9c bd d2 c3 d1 3b
       0.11268383 0.08987467 -0.07630261 0.0064015174
0002d0 bb 1a 97 3d 20 d5 a6 3c db b0 19 3d 1a 69 b3 3c
       0.07378145 0.020365298 0.03752218 0.021900702
0002e0 2e 91 d0 bc 78 4a 33 bb c3 29 b3 3d 4e f4 87 bc
       -0.025459852 -0.002735762 0.087482 -0.016595986
0002f0 57 7d e7 3a ee e4 a0 3d b0 8e b4 bc b4 7e 1d bc
       0.0017661256 0.07856165 -0.022040695 -0.009612728
000300 6b 90 e6 3d dc e5 b8 3c 71 0f 9a 3d 8d c0 a0 bc
       0.11258014 0.022570543 0.075224765 -0.019623065
000310 20 bb 9f 3d aa c5 c8 bc c3 5f c9 3d f9 8c 00 3b
       0.07799363 -0.024508316 0.09832718 0.0019615276
000320 25 7d 95 bd 78 1e b1 bc 33 db 96 3d 19 b0 a0 3d
       -0.0729926 -0.021620974 0.07366028 0.07846088
000330 b0 b4 e7 3b 41 73 8e 3d b4 a9 08 bd 98 d0 21 bc
       0.0070711 0.06955577 -0.033364967 -0.009876393
000340 41 a1 96 3d 40 4f 8e ba f4 e2 ac 3c 82 9e 73 3d
       0.073549755 -0.0010857359 0.021104313 0.059477337
000350 50 74 fd 3b ed a4 6e bd 00 82 31 3c d0 71 c5 bb
       0.007734813 -0.058262754 0.010834217 -0.0060255304
000360 f0 6f 22 bc 77 28 c6 3d 77 ae ae 3d 28 83 b9 bd
       -0.009914383 0.09675687 0.0852937 -0.09058219
000370 20 04 15 bd 70 4e 34 bc 42 1b 6c 3d e8 a1 b3 bc
       -0.036380887 -0.011005029 0.057643183 -0.021927789
000380 40 d2 7b bc 0c 4f d4 bc c7 2e 7f bd 8f ef af bd
       -0.015369952 -0.025916599 -0.06230047 -0.08590614
000390 4b c3 a2 bd 00 76 9b 3c 86 f4 3e 3d 80 49 d2 bb
       -0.079474054 0.018977165 0.046619914 -0.0064174533
0003a0 f3 91 bc 3d b4 56 8e bc 29 93 98 3d a0 56 89 bc
       0.09207525 -0.017375328 0.074499436 -0.016764939
0003b0 2d be 63 bd 18 dd 20 3c 37 2a cc bd 9e 82 19 3d
       -0.055601288 0.009818338 -0.09968989 0.037478082
0003c0 60 87 ad 3c 92 de 3e 3d ae a7 55 3d 91 dd af 3d
       0.021182716 0.04659898 0.052161865 0.08587182
0003d0 46 5b 86 bd 6f f6 c0 bd e8 92 0b 3c 90 db 34 bd
       -0.06560378 -0.094220035 0.008518912 -0.044154704
0003e0 80 d9 03 3a a1 72 b1 3d 58 15 2e 3c 68 e0 44 3c
       0.00050296634 0.08664442 0.010625206 0.012016393
0003f0 3e 61 aa bd 80 42 09 3a ed 38 a4 bd 68 03 cd bc
       -0.08319329 0.00052360445 -0.0801867 -0.025026038

net.2.bias f4 [100]
000000 c5 cf 4d 3c fa f4 e5 3d 2a 3a 52 bd a7 c1 5d bd
       0.012561743 0.11228366 -0.051325 -0.05413976
000010 fe d3 52 3c 35 87 fc 3d d4 57 d0 3d 21 9c 9c bc
       0.012867926 0.12330476 0.10173002 -0.019117417
000020 69 8b ac 3c 55 4e 07 3c 5a 07 fb 3d c4 5b 37 3d
       0.02106257 0.008258422 0.122572616 0.04476525
000030 27 6b 92 39 1f d5 62 3d 53 f3 9a bd 6b 63 a0 3c
       0.00027927125 0.05537903 -0.07565942 0.019578656
000040 2b 7d a4 bd 58 02 4c 3d 91 f5 b4 3d c8 62 89 3c
       -0.080316864 0.049806923 0.088359006 0.016770735
000050 99 ad 29 bb 4f 40 d4 3d 73 f0 32 3d 62 c7 a9 bd
       -0.0025890826 0.103638284 0.04368634 -0.082899824
000060 2b fb ae bd 43 3f f9 3c b6 9b da 3d 76 e8 f5 3d
       -0.08544 0.030425673 0.10674231 0.12007229
000070 26 91 61 3d 39 fe 67 bd 00 d9 89 bd d9 2b 23 3d
       0.055070065 -0.05663893 -0.067308426 0.03983674
000080 4f 00 b4 3d 18 a0 aa bc cf c8 d5 3c 4c 2e b6 3d
       0.08789121 -0.020828292 0.02609673 0.08895549
000090 f4 b8 93 3d 68 ad e8 bc d4 5a a8 bc ed 66 81 bd
       0.072130114 -0.028402999 -0.020551123 -0.0631846
0000a0 c0 16 ba 3a 50 05 b2 bd 4d 6a 59 3d f1 76 49 3d
       0.0014197454 -0.086924195 0.053079892 0.049185697
0000b0 db 76 7f 3d 8f c3 8e 3d 12 51 30 3b 01 c4 a6 3a
       0.06236921 0.069708936 0.002690379 0.0012723209
0000c0 7c 40 0f bd 7b 3b 95 3d b2 58 b8 3c 37 e5 b0 3d
       -0.034973606 0.072867356 0.02250323 0.08637469
0000d0 92 8d 8b bc 5d e9 90 3d 9f cb 14 bd 08 dd ff bc
       -0.01703528 0.070757605 -0.036327 -0.031233326
0000e0 eb 8b ab bd 17 fa ae 3d 2a c5 be bd a7 38 39 bd
       -0.083762966 0.085437946 -0.0931495 -0.045220044
0000f0 e8 5d 57 bc 28 52 28 bc ef 69 da 3d 82 86 98 3d
       -0.013144948 -0.010273494 0.106647365 0.0744753
000100 47 9a cd bc db 55 6d bc cb 20 a9 bd 20 01 6a bd
       -0.02509798 -0.014485802 -0.08258208 -0.05712998
000110 22 09 f1 bb e0 b6 a8 bc 4b ce c8 3d 30 83 dc 3b
       -0.007355825 -0.020595014 0.09804972 0.006729506
000120 80 2f 6a 3d 88 db a3 bd 4d 7d 1b bd 94 63 c0 3c
       0.057174206 -0.08000857 -0.037961293 0.023484983
000130 3a 28 01 bd 7a 3f ca 3d e7 96 89 3c 43 47 f8 3d
       -0.031532504 0.098753884 0.016795589 0.12122967
000140 62 0a 9c 3d c2 8a 93 3d 2a 99 bc bd 91 b5 82 3d
       0.07619168 0.072042 -0.09208901 0.06382287
000150 7e e4 95 bd 79 ba dd 3d 55 4d d1 3d b7 08 3c bd
       -0.07318972 0.108265825 0.10219828 -0.04590675
000160 e1 2d 92 3c 12 2f 7b 3d 25 59 ae bd 89 5b b6 3b
       0.017844142 0.061324187 -0.08513097 0.005565111
000170 8a 57 9e bb 4b 49 49 3d 4d c5 81 3d d7 1e 51 bd
       -0.004832213 0.049142163 0.0633646 -0.0510548
000180 fa 75 bd bd cd d2 8b bd 8b 94 06 3c 34 e8 9c bc
       -0.09251018 -0.068273164 0.008214126 -0.019153692

net.4.weight f4 [11, 100]
000000 ed 89 6c bd bc ea 0a bc 66 29 47 3d 91 3d 83 bd
       -0.057748724 -0.008478817 0.048623465 -0.06408227
000010 40 7a 95 3d e8 b2 a7 3d c6 98 ff ba 4d bb 83 bc
       0.07298708 0.081884205 -0.0019500486 -0.016080523
000020 04 27 50 3d 00 cc b8 3d d9 76 b6 3c 4e a0 dd bc
       0.05081846 0.09023285 0.022273468 -0.027053978
000030 ea 4b bb 3d ef d3 29 3c c2 f2 08 3d e4 f6 f6 3d
       0.09145339 0.01036547 0.033434637 0.120588094
000040 38 77 a7 3c a3 e7 f4 3d e5 e9 b6 3b 73 e6 58 bd
       0.02044259 0.11958244 0.0055820816 -0.05295415
000050 20 08 a3 3d 0a 77 f9 3d 37 90 03 3e a9 3f ca 3d
       0.07960534 0.12180908 0.12847982 0.098754235
000060 d4 e8 e3 3c 4c 6a a8 bd e9 52 e9 3d c8 eb fb 3d
       0.027820982 -0.082233995 0.11392767 0.12300831
000070 fb e6 73 bd 5c e1 ed 3b 52 32 ce b8 86 75 ac 3c
       -0.059546452 0.007259531 -9.832218e-05 0.021052133
000080 c1 11 ab 3d ca 56 42 bd fb d0 f6 bc 3f 9c 55 bd
       0.08352996 -0.04744605 -0.030128947 -0.05215096
000090 48 2c 86 3b b9 d2 4f bd da c2 52 bd eb ed 88 3d
       0.004094634 -0.05073807 -0.051455356 0.06686004
0000a0 58 d7 4d bc 0d af 97 bd d4 e2 29 bd 1a 21 71 3d
       -0.012563549 -0.07406435 -0.041476086 0.05886946
0000b0 33 2a 8e bc 5d 25 ca 3d 7a 8e 8f 3d 56 f7 51 bd
       -0.017354107 0.09870408 0.07009597 -0.05126127
0000c0 13 f8 8f bd ef 51 1e bc 7e ab 83 bd ea 5d c3 3d
       -0.07029738 -0.009663089 -0.06429194 0.09539397
0000d0 82 8b 88 bd 98 3d a7 3d 9e ad e7 bc a1 7c 80 3d
       -0.06667234 0.08166045 -0.02828103 0.06273771
0000e0 c0 ad af 3c 0a 92 9a 3d 2a 2e 3a 3d 0a c9 9b 3d
       0.021445155 0.07547386 0.04545418 0.076067045
0000f0 d9 c0 95 3d cb 33 b7 3d 86 fc 3d ba 53 40 4b bd
       0.073121734 0.089454256 -0.0007247407 -0.04962189
000100 02 16 85 3b ea eb 08 bd e0 41 fd bb 97 a8 35 bd
       0.0040614614 -0.03342811 -0.0077288 -0.044350233
000110 37 4a 50 bd 68 9d c7 bc 80 cd 00 3e d6 c8 e5 3d
       -0.050852027 -0.02436705 0.12578392 0.11219947
000120 6f 95 03 bc 41 c7 94 3d 22 b4 68 bc 86 99 14 3c
       -0.008031233 0.07264567 -0.014203103 0.009069806
000130 22 86 c0 bd 6d 90 f0 3d 32 28 82 bd 53 a3 6a 3d
       -0.09400584 0.11746297 -0.06355323 0.057284664
000140 1b 20 68 bd 50 bc e5 3d dd b6 bb bd 3c 6d 9b 3d
       -0.056671243 0.112175584 -0.09165738 0.07589194
000150 b7 d9 c0 bd aa 62 3a 3d 57 ff b6 3d 3f 1e b1 3d
       -0.09416526 0.04550425 0.08935421 0.08648347
000160 15 de 0f 3a d8 ed e8 3d c9 ed 86 3d 51 99 c8 3d
       0.000548811 0.1137349 0.06588323 0.09794868
000170 ab 33 94 3d 17 88 42 3b a2 c8 57 3c d6 16 8c bd
       0.072364174 0.0029683167 0.013170393 -0.06840293
000180 58 30 9a 3c 3e ff 5d 3d ac ba 09 3d 35 6f b8 bd
       0.01882188 0.054198496 0.03362529 -0.09005586
000190 47 da 2e bd 1a b8 91 3d b5 32 ab bd 08 21 b5 3d
       -0.042688634 0.07115193 -0.08359281 0.08844191
0001a0 ac e3 21 bd a4 ae 0a 3c 0f cb 24 3c 70 f1 d7 bc
       -0.039523765 0.008464489 0.010058179 -0.026360244
0001b0 11 58 6c bd c9 98 ba 3c e1 e3 72 b9 42 0c c5 3d
       -0.057701174 0.022777932 -0.0002316381 0.096214786
0001c0 cb a3 b9 bb 05 25 b7 3c 72 a5 39 3d 94 85 03 3e
       -0.0056652776 0.02235652 0.045323797 0.12843925
0001d0 60 03 9e bd bf ab 96 bb af fc 2b 3c 69 59 b2 3d
       -0.077154875 -0.0045981104 0.010497256 0.0870846
0001e0 48 79 71 3c 0e da a7 3b 54 7b 8d bc d8 70 dd bc
       0.014738388 0.0051224297 -0.017270721 -0.027031347
0001f0 53 c7 c1 bd 27 13 a2 bd 85 8b 8f 3d cf 33 dc 3c
       -0.09461846 -0.07913809 0.07009033 0.026880173
000200 57 4f 8c bd 90 a1 8a 3c a8 f5 0d bd 26 da 9a 3d
       -0.068510704 0.016922742 -0.034658104 0.0756114
000210 4a ba cb 3d 31 15 b3 3d c8 77 22 3d 83 b0 01 3e
       0.09947641 0.08744276 0.039665014 0.1266499
000220 4b 89 fa 3d d4 00 b2 bc b8 9f af bd 98 b3 02 bc
       0.12233218 -0.02172891 -0.08575386 -0.007977389
000230 5f e3 9a 3d 6a 46 2e 3d 4a ef a0 bc dc ec 24 3c
       0.07562899 0.04254762 -0.019645352 0.010066237
000240 99 66 b7 3d fe 92 78 3d 0b 1c d8 3d d5 2f 3f 3d
       0.08955116 0.060687058 0.10552224 0.046676476
000250 96 40 08 bd 2e 09 75 bd 21 51 99 3d 47 31 1c bd
       -0.03326472 -0.059823208 0.07486177 -0.038132932
000260 63 68 60 bd f1 8c d4 3c d6 f7 a8 3c 58 b9 5a bd
       -0.05478705 0.025946112 0.02062599 -0.053399414
000270 03 ad 82 3d 0b 84 8d 3d 68 d2 e2 bc 5e 82 90 bc
       0.063806556 0.06909951 -0.02768822 -0.017640289
000280 e0 1d ad bc f2 f8 6b 3d a5 c3 a7 3d ef 5e 93 bd
       -0.02113241 0.05761046 0.08191613 -0.071958415
000290 a6 90 3c bc b9 24 98 bb 2d 55 ad bd a6 8d aa bd
       -0.011509096 -0.0046430496 -0.084635116 -0.083277985
0002a0 dc fa 5a 3d 98 2c ef bc c6 cc 8b bd 02 1f de 3d
       0.053461894 -0.029196069 -0.06826167 0.10845758
0002b0 77 19 18 bd 15 ae c3 bd fb 61 d5 3a c9 78 61 bd
       -0.03713366 -0.09554688 0.0016279811 -0.05504683
0002c0 11 a1 b2 3d 5f a4 ab 3c db 41 a1 bc 52 c0 87 3d
       0.08722127 0.020952402 -0.019684723 0.06628479
0002d0 e6 a8 d6 bc 50 63 4e 3c e2 74 6e 3d 93 31 ea 3d
       -0.026203584 0.01259692 0.058216937 0.11435237
0002e0 43 16 bd bd e1 92 d4 3d 31 d1 87 bd fa 19 46 3d
       -0.09232762 0.103795774 -0.06631697 0.048364617
0002f0 98 e7 8a bd cb ac 87 3c 92 b5 84 bd e0 49 de 3d
       -0.06782454 0.016561886 -0.06479944 0.10853934
000300 77 f9 3b 3d 63 59 e5 3c eb 00 db 3d 3b 3a a7 bd
       0.045892205 0.027996724 0.106935345 -0.081654035
000310 ca 57 64 bd 59 39 86 3d 51 4f 88 3d 9a 9f 24 3d
       -0.055747785 0.06553907 0.066557534 0.04019127
000320 06 44 03 bd c2 d3 6c bc 07 75 c5 3d 1d 6f 1b 3c
       -0.032047294 -0.014454784 0.09641462 0.009486941
000330 69 11 b7 bd 83 5b cc 3d 70 4a f7 3c 9f fb cb bd
       -0.089388676 0.09978392 0.030186862 -0.09960102
000340 e2 a2 e7 bc 50 88 55 bd 7d b3 a8 3a 82 5d 34 3d
       -0.02827591 -0.05213195 0.0012870874 0.04403449
000350 61 a0 f8 bc 01 47 b1 3d ca ca 5d bd 17 8b 03 3e
       -0.030349912 0.08656121 -0.054148473 0.12846027
000360 5b 9f b2 bd d6 3d 57 bd 5d ad cf 3c 79 1b 9d 3d
       -0.08721801 -0.052549206 0.02535122 0.076712556
000370 d1 a0 ca 39 8c df 20 bd ae 7c cd 3d 81 03 83 3d
       0.0003864826 -0.03927569 0.100335464 0.06397153
000380 94 0e 08 bd 61 93 91 bd 49 87 77 3d 98 70 31 3d
       -0.033217028 -0.071081884 0.060431752 0.04332027
000390 c6 42 c0 3d ca 09 92 bd 3b 0f 03 bd f1 81 00 3e
       0.09387736 -0.07130773 -0.031996947 0.12549569
0003a0 96 7a c4 3d c0 75 06 bd e7 01 b4 bc fc bb d5 3d
       0.09593694 -0.03282714 -0.021973563 0.10436246
0003b0 76 fb 96 3d d6 7e 8f bd a2 2a 50 3d 58 78 2c bc
       0.07372181 -0.07006614 0.050821908 -0.010526739
0003c0 bf 4e bf 3d a8 bd 98 bd 06 ab fd bc 01 ea f7 3d
       0.093411915 -0.07458049 -0.03096534 0.121051796
0003d0 53 1d b4 bb 33 da b0 bd eb 10 a7 3d d3 d7 8d b8
       -0.00549666 -0.08635368 0.08157524 -6.763604e-05
0003e0 9a 68 2f 3d 09 df 21 3c c6 a4 bf 3d b3 31 b6 3c
       0.042824365 0.009879836 0.093576 0.022240495
0003f0 5a b9 96 3b d0 cd c3 3d 55 d9 a9 3c 97 f5 81 bd
       0.0045997323 0.0956074 0.020733515 -0.06345671

net.4.bias f4 [11]
000000 bf 92 97 3c 43 cb c6 3d c8 90 79 bc 2a 44 24 3d
       0.018502591 0.09706738 -0.015232272 0.04010407
000010 98 5c c7 3d 52 4d b8 3d 0e bf 5d bc 79 e7 d0 3d
       0.09734458 0.08999123 -0.0135343205 0.102004
000020 6d 96 a9 bc 5a 4e 9e 3d cf 67 70 bd
       -0.020701611 0.07729788 -0.05869275
