models/part1.pt (torch, 45703 bytes, 6 tensors)

net.0.weight f4 [50, 155]
000000 48 b2 09 bd 80 bb 72 3c 55 fa 82 3d f0 7a 9f bb
       -0.033617288 0.014815211 0.06395403 -0.00486695
000010 c0 e2 07 3c f0 6f c3 3b 80 7d 86 ba 5a 85 45 3d
       0.0082938075 0.0059642717 -0.0010260791 0.048222877
000020 35 03 32 3d 4a 33 30 bd fb 12 9d 3d b6 4e 3d 3d
       0.04346009 -0.043017663 0.07669636 0.046217643
000030 e8 e9 4d bc 11 38 8f 3d d0 8d 8d 3b 2a e6 4f 3d
       -0.012567975 0.06993116 0.004319884 0.05075661
000040 dd ac 8b bd 95 a8 93 3d 6b 12 9b 3d ed d4 75 bd
       -0.068200804 0.07209889 0.07571872 -0.060017515
000050 0d 3c 93 bd b2 81 bf bc c6 45 4a bd 00 ce af 3c
       -0.07189188 -0.023377273 -0.049382947 0.021460533
000060 b4 72 12 3d d0 ad 27 bc 06 dd 66 3d a0 78 47 3b
       0.03575392 -0.010234311 0.056363128 0.0030436888
000070 a2 64 c1 bc 6d 69 8c bd 24 20 d1 3c 00 fe 9a bd
       -0.023607556 -0.06856046 0.025528021 -0.07567978
000080 00 02 90 b9 b8 5a 40 3c eb 19 38 bd f9 49 c6 3c
       -0.0002746731 0.011740379 -0.044946592 0.024205195
000090 36 40 80 3c 5a 2c 5c 3d 7a c5 4d 3d df 1e 85 bd
       0.015655618 0.053753234 0.050237156 -0.06500029
0000a0 72 a7 73 bd 5b 80 f0 bc 82 63 80 bd 98 4e ce 3c
       -0.05948586 -0.02935808 -0.062689796 0.02518396
0000b0 78 8e 57 bd a2 2e 7b bd 48 a6 bf 3c 82 8e 46 3d
       -0.052626103 -0.06132377 0.023394719 0.04847575
0000c0 66 4b bf bc 9a ea a3 bd c8 fd 39 3c 94 99 28 3d
       -0.023351382 -0.08003731 0.01135201 0.04116209
0000d0 8f 80 80 3d 80 ba f9 3b 7e 66 64 3d c7 15 93 bd
       0.062745206 0.0076211095 0.055761807 -0.07181888
0000e0 77 5f 9d 3d 3b 72 54 bd e2 90 60 bd 12 1d 6c 3d
       0.07684224 -0.05186675 -0.05482567 0.05764491
0000f0 00 37 92 bc ae 40 28 3d 48 70 66 bd 6e e9 78 3d
       -0.017848492 0.04107731 -0.056259423 0.06076949
000100 a7 02 9c 3d 1c 3d c7 3c 5b b3 84 3d 51 f2 6a bd
       0.076176934 0.024321131 0.06479522 -0.057359997
000110 2a d5 91 bc c8 47 c8 3c f2 e9 39 3d f0 ab 2f bd
       -0.01780184 0.02444829 0.045389123 -0.04288858
000120 6a 5a 51 3d 76 8f d8 bc 80 b5 2f bd 78 b6 80 3c
       0.051111616 -0.026435595 -0.0428977 0.015712008
000130 64 06 83 bd 2c fa 96 bd 86 67 db 3c 30 1f e0 3c
       -0.06397703 -0.07371935 0.026782762 0.027358621
000140 38 08 fd 3c 08 40 2b bc 1a e6 70 bd fc 25 84 bd
       0.030887708 -0.010452278 -0.058813192 -0.064525574
000150 bf 68 9d 3d 02 9c 8e bd 7d 72 c7 3c 67 9a 85 3d
       0.07685994 -0.0696335 0.024346584 0.065235905
000160 ce 58 7b 3d 5e 6f 4f bd e9 44 d5 bc c8 85 83 bd
       0.061363988 -0.050643317 -0.026033835 -0.06422001
000170 e2 5e 4e 3d 64 5f 9a bd ce 7a 97 bd 0c 33 5b bd
       0.050383456 -0.075377256 -0.0739647 -0.05351548
000180 5b 56 86 3d 13 84 54 3d 9d c1 5c 3d 78 b6 7c 3d
       0.0655944 0.05188377 0.05389558 0.061697453
000190 b8 27 19 bd 75 7a 37 bd eb cf 4a bd 40 33 db 3c
       -0.037391394 -0.04479452 -0.049514692 0.026757836
0001a0 7e 8d fe 3c 2c 02 88 3c b6 5e 7d bd d7 ac e7 3b
       0.031073328 0.016602598 -0.0618579 0.0070701647
0001b0 58 d8 2e bd 59 ec 81 bc 20 cb 4c bc c9 b2 80 3b
       -0.04268679 -0.01585977 -0.012499601 0.003927563
0001c0 30 5e 90 bd dd 48 8c 3d cf 42 0c bd 0c 10 cd 3c
       -0.07049215 0.06849835 -0.0342434 0.025032066
0001d0 44 4c 62 3d 94 93 04 3d 7a 67 66 3d aa c7 39 3d
       0.055248514 0.032367304 0.056251027 0.04535643
0001e0 0e e8 70 3d 30 e0 8a 3c 8a 21 52 3d d8 01 0f bd
       0.058815055 0.016952604 0.051301517 -0.034913868
0001f0 75 47 31 bd 3e 19 1d 3d 08 a6 ac 3c e0 65 45 bb
       -0.043281037 0.03835415 0.021075264 -0.0030120537
000200 b2 c1 8a bd 7c 02 d7 3c 26 1c 55 3d 00 f0 17 bc
       -0.06775226 0.026246302 0.052028798 -0.009273529
000210 34 2b 97 3c ba 76 12 3d c1 74 a2 bd c0 84 58 bc
       0.018453218 0.035757758 -0.07932425 -0.013215244
000220 0e 18 f4 bc 42 28 28 bd 32 16 49 3d 59 19 a3 3d
       -0.029796626 -0.041054018 0.049093433 0.07963819
000230 e0 fa 51 3c 6e c3 4c 3d 02 14 74 bd f8 d7 67 3c
       0.012816161 0.049991064 -0.059589393 0.014150612
000240 38 33 2a bc c8 e9 4a bd e4 ea 86 3c 14 75 d1 3c
       -0.010388188 -0.049539357 0.016469426 0.025568523
000250 e0 3f 7e bb 0a b5 0b 3d 88 f4 1d 3d 8b 56 95 3d
       -0.0038795397 0.0341082 0.03856328 0.072918974
000260 90 92 98 3b c0 8b 3b 3b 00 b0 96 ba 88 9c 35 3c
       0.0046561435 0.0028617233 -0.0011496544 0.011084683
000270 28 54 55 bd 18 fc 21 bc 20 1b 8b bd ec c4 66 bd
       -0.05208221 -0.009886764 -0.06792283 -0.056340143
000280 57 1e 8c bd 36 fc 73 3d 55 13 3d bd e0 67 d4 bb
       -0.06841724 0.0595667 -0.046161015 -0.0064821094
000290 00 b1 0c 3c dd 49 91 3d 0e 50 15 3d 74 4a 6a bd
       0.008587122 0.070941664 0.0364533 -0.05719991
0002a0 8d e4 a0 3d c1 cf 9b bd 48 1a 2b 3c cb 4d 96 3d
       0.078560926 -0.07607985 0.010443278 0.073390566
0002b0 91 a9 8e 3d be 81 98 bc a2 8f 5b bd aa 76 10 3d
       0.06965936 -0.018616553 -0.053603776 0.035269417
0002c0 d6 9c 7d 3d 9c 63 2f bd a8 3e 50 bc cb 14 48 bd
       0.06191715 -0.042819604 -0.012710251 -0.048847955
0002d0 e4 47 fb 3c 04 0e 8c 3c 1e 15 23 3d f0 c1 e1 bc
       0.030673929 0.017096527 0.03981506 -0.027558297
0002e0 fb ca 9e bd 0a 8d 0a bd ef a6 80 bd 92 84 9e bc
       -0.07753559 -0.03382591 -0.0628184 -0.019350324
0002f0 38 21 ef 3c 30 da 88 bd 80 b6 75 bb 60 f1 a0 bd
       0.029190645 -0.06682241 -0.0037492812 -0.07858539
000300 0a 25 69 bd 3c 58 66 bd d6 09 e0 bc 42 b2 26 bd
       -0.05692009 -0.05623649 -0.02734844 -0.040697344
000310 40 90 4a 3c 46 1e 49 3d f6 12 78 3d f0 51 cf 3c
       0.012363493 0.049101137 0.060564958 0.025307626
000320 00 54 0b ba d0 83 6a bc 16 64 5f 3d 72 6d 3c bd
       -0.0005314946 -0.014313653 0.05453881 -0.046002813
000330 a2 cd 6d 3d c6 61 9e bd 0a 8e 75 bd 0c 8b ae 3c
       0.058057435 -0.077334926 -0.059949912 0.021306537
000340 2d 81 07 bd b8 86 75 3c 0b 54 8f 3d 9a 43 16 3d
       -0.033082176 0.014985733 0.06998452 0.036685564
000350 bf 01 a1 3d 8e 5a 0b bd 57 1b 1d bd 00 18 27 bc
       0.07861661 -0.034021907 -0.03835615 -0.010198593
000360 40 85 84 bc 70 b7 10 bd 00 69 a3 bb a9 9c 94 3d
       -0.01617682 -0.03533119 -0.004986882 0.07256443
000370 d7 57 34 bd 92 c2 38 3d bc d5 18 3d 6e 87 3e 3d
       -0.044029083 0.04510743 0.037313208 0.046515875
000380 ec 83 b1 3c f8 12 f3 bc 3e c8 07 3d f9 f4 1a bd
       0.02166935 -0.029672131 0.03314995 -0.03783128
000390 ed f1 49 bd ed c5 99 3d f7 59 88 3d b6 c4 6d bd
       -0.049302984 0.075084545 0.066577844 -0.058048926
0003a0 79 9d 85 3d 38 71 88 3c 88 a9 a8 3c 2d 8e 9e 3d
       0.06524176 0.01665555 0.020588651 0.07741962
0003b0 40 33 8a bb 5e 46 d1 bc 8e 89 4e 3d 46 f8 a9 bc
       -0.0042175353 -0.025546249 0.05042415 -0.020748269
0003c0 bc f5 9d bc a0 ab 04 bd 33 ea a1 3d 34 fc 1c 3d
       -0.019282214 -0.032390237 0.07905998 0.038326457
0003d0 58 56 55 bc 80 09 d2 ba 00 35 b8 3b 7b 07 43 bd
       -0.013021074 -0.001602456 0.0056215525 -0.047614556
0003e0 54 d2 ba 3c 5e 58 7f bd 00 6f 75 bb 30 ed 76 bc
       0.02280537 -0.062340133 -0.0037450194 -0.015071198
0003f0 e8 55 06 bd bd 24 98 3d 68 47 b8 3c 36 7d 1e 3d
       -0.03279677 0.07428882 0.022494987 0.03869363

net.0.bias f4 [50]
000000 07 77 b9 3c 13 14 84 3d a9 57 e8 3d 4b b2 be 3d
       0.022639764 0.06449141 0.11344845 0.093113504
000010 3c ea 1e 3b 06 0d e5 3c 59 25 b0 bc 48 9b 5e 3d
       0.0024248501 0.027960312 -0.021502184 0.054347306
000020 1f fe b6 3d 3e 68 b3 bd 17 57 a8 3d 18 0e 2f 3c
       0.089351885 -0.08760117 0.08219736 0.010684513
000030 be 49 9e 3b 7c d3 12 bd ae 39 9f 3d 52 7c 95 bd
       0.004830568 -0.03584622 0.077746734 -0.07299103
000040 5c 37 9d 3d 37 f0 0f bd 98 57 6a bd 0e e9 bc 3d
       0.076765746 -0.035141196 -0.057212442 0.09224139
000050 6d a9 23 3d 0f 86 8f 3d 6e 80 91 bd 65 b7 8d 3c
       0.0399565 0.070079915 -0.07104574 0.017299363
000060 ee 22 6a 3d 00 9b 0e 3d c6 6e fd 3d 97 da 06 3e
       0.057162218 0.03481579 0.12374644 0.13169323
000070 1d 38 85 bd f9 06 52 3d 8e eb 62 3c 5d 7b d2 39
       -0.065048434 0.05127618 0.013850106 0.00040146234
000080 0c 16 5e 3d a9 80 85 3d e8 6c b7 bc f0 ce 80 3d
       0.054220244 0.065186806 -0.022390798 0.0628947
000090 6b d8 2c 3d 58 53 c9 3d 41 72 21 3d ba 05 93 bd
       0.04219858 0.0983035 0.0394156 -0.07178827
0000a0 41 81 38 3d f2 fe 94 bc a5 08 37 3c 67 e2 a6 3c
       0.04504514 -0.018187974 0.011171495 0.020371629
0000b0 ae 2d f1 3d d2 5c 74 bc 4f 16 ae bd 39 78 30 bd
       0.11776291 -0.014914708 -0.08500349 -0.043083403
0000c0 b6 07 88 bd b1 58 bf 3d
       -0.06642096 0.093430884

net.2.weight f4 [50, 50]
000000 b4 f4 9b bc 11 a0 93 bd dc 07 57 bd c9 ae 0e 3e
       -0.019037582 -0.072082646 -0.05249773 0.13933863
000010 70 fd 00 be 2b dd fa bd 64 5b 81 bc 40 39 c4 3d
       -0.12596679 -0.12249216 -0.015790649 0.09581232
000020 7a 32 5b bd 7f 88 c1 bd 71 89 2e 3d 0b ba 0f be
       -0.053514935 -0.09449863 0.042611543 -0.14035814
000030 87 96 1e 3e 68 d4 94 3d 8c 66 87 3d 28 b5 f0 3d
       0.15487109 0.07267076 0.06611356 0.11753303
000040 6f 8e 3d 3e 78 cd 8b bd 61 87 9d 3d f3 20 0e 3e
       0.18511365 -0.068262994 0.07691837 0.13879757
000050 a4 39 7a 3d f9 38 08 bd be 62 a5 bd df 85 8c bd
       0.061090127 -0.03325746 -0.08075474 -0.068614714
000060 b0 9e f8 3c d7 9e 7f 3d 01 68 9d 3d b1 fe 3f 3e
       0.030349106 0.06240734 0.07685853 0.18749501
000070 68 54 eb bd 3d aa f1 3c 24 80 b8 3c 0c 8e 16 bc
       -0.114907086 0.029500121 0.02252204 -0.00918914
000080 f3 c3 b9 3d e2 14 20 3e 11 18 c9 bd 71 1d b6 3c
       0.090705775 0.15632966 -0.098190434 0.022230836
000090 4c 71 a7 bd 1b 92 22 bc ef f4 53 bd 71 0f 4c 3d
       -0.081759065 -0.00992253 -0.05174726 0.049819414
0000a0 4a af 3a 3d 3c 11 b3 bd 0e 70 83 3c 0d 9a 5f 3d
       0.045577325 -0.087435216 0.016044643 0.054590274
0000b0 d6 c9 ef 3d ef b4 f8 3d 14 2b c6 bd 04 7f 41 bc
       0.11708419 0.12143885 -0.09676185 -0.011810068
0000c0 8f 20 09 3e a6 9a 1b 3e 6c 2a 70 3d 52 54 2e bd
       0.13391326 0.15195712 0.058634207 -0.042560883
0000d0 a9 76 42 bc 55 10 25 bd 41 f7 58 bb 4e 3a b2 3d
       -0.011869111 -0.04029878 -0.003310636 0.08702527
0000e0 30 0a 62 bd 4f 66 2e bd c7 4c 81 3d 30 be f0 3c
       -0.055185497 -0.042578038 0.06313472 0.029387563
0000f0 91 a2 10 be 64 e5 0d bd f8 6b 5d 3d f8 2b a2 3d
       -0.14124514 -0.034642592 0.054058045 0.079185426
000100 9a c1 b3 3d 4e 8b b5 bd 92 75 1a be ed 78 1e 3d
       0.08777161 -0.08864461 -0.15083912 0.038689543
000110 04 fd cf 3d eb b1 93 3d 66 e9 43 3d 10 57 a1 3d
       0.10155681 0.072116695 0.047830008 0.07877934
000120 0d 4f d5 bd 58 eb 77 3c b0 c7 6e bc 56 93 2a bd
       -0.10415468 0.015131794 -0.014573976 -0.041644417
000130 f8 47 7f 3c c2 a9 18 be c0 82 5f 3c 44 ab 72 bd
       0.0155811235 -0.14908507 0.013642013 -0.059245363
000140 82 fa 83 3d 92 ba 07 be 90 fc ac bd 8a 79 16 be
       0.06444265 -0.13254765 -0.0844661 -0.14694801
000150 48 aa ca 3d 9d 29 a7 3d bf 67 e3 3d dd 4e bd 3d
       0.0989576 0.08162234 0.11103772 0.092435576
000160 98 4a 7a bb 96 54 3f 3c 06 61 e0 ba e9 3b aa 3c
       -0.0038191434 0.011677882 -0.0017118759 0.02078052
000170 b4 34 5a 3b 9b 16 1d be 53 5a 80 3d 72 5a c6 bd
       0.0033295574 -0.15340655 0.06267228 -0.0968522
000180 d6 53 be 3d d7 4a 6d 3d 58 22 f3 3c 97 69 6e 3c
       0.09293334 0.0579327 0.029679462 0.014551542
000190 5b d2 ff 3c 7c 1d 8e bd 79 01 9a bd af 33 93 bd
       0.031228235 -0.069392174 -0.07519812 -0.07187592
0001a0 ca cf a8 bd 54 f7 83 3d 35 15 32 3c 00 cf be ba
       -0.082427576 0.064436585 0.010869314 -0.001455754
0001b0 04 14 1b 3d c5 3e 06 3e 51 48 2f bc 7a 7b 8a bd
       0.037860885 0.13109882 -0.010698394 -0.067618325
0001c0 1c 12 d2 bd 56 34 f0 3d 90 3d ff bd 70 e7 8e 3d
       -0.1025736 0.11728732 -0.12462914 0.06977737
0001d0 4e 7a fd 3d 15 b5 9b 3d c1 c5 60 ba e0 72 96 bc
       0.123768434 0.07602898 -0.00085743895 -0.018365324
0001e0 37 76 b8 3d bf 01 9a bd 47 91 4e 3d 48 09 33 bd
       0.09006923 -0.07519864 0.050431516 -0.043710023
0001f0 1e 99 98 3d b4 3e 00 bd 0e 4a c1 bd 08 32 5d bd
       0.0745108 -0.0313098 -0.09437953 -0.05400279
000200 00 54 aa 3d d7 10 50 3d 40 9a cb bd f8 27 bb bd
       0.08316803 0.05079731 -0.0994153 -0.09138483
000210 7c 0c ea bc 00 60 5d bc cd c9 21 bd 50 be c3 3d
       -0.028570406 -0.013511658 -0.039499093 0.095577836
000220 d0 d7 20 3c 62 c2 1a bd 70 f2 04 bc 88 a1 85 3d
       0.009817079 -0.037783034 -0.008114442 0.0652495
000230 0e 1e cb bd e2 4c 0e be cc ab e8 bd 9c ae 7e 3d
       -0.09917842 -0.13896516 -0.11360893 0.06217824
000240 80 92 7b 3c d5 86 01 be ac 64 ee 3d 89 a7 9b 3d
       0.015354753 -0.1264909 0.116402954 0.07600314
000250 a9 e1 06 be 10 f6 b1 3d b3 4b 05 bc 90 ae 42 3c
       -0.1317202 0.08689511 -0.008135724 0.011882439
000260 0b 0e 29 3e 57 03 34 3e 8a 43 ec 3c c9 7d 80 bd
       0.16509263 0.17579399 0.028840799 -0.062739916
000270 33 0c d4 3d a3 67 ff 3d ff 57 ea 3c 94 8f ed bd
       0.10353889 0.12470939 0.028606413 -0.11599651
000280 84 d5 04 3e ff dd 82 bd 6e 9a ed bc c4 68 0b be
       0.12972075 -0.06389999 -0.029004302 -0.13614184
000290 a9 14 5f 3d 26 b4 54 3d 2f 2a 06 bb b4 4d 0f be
       0.054463062 0.051929615 -0.002047192 -0.13994485
0002a0 4f 9a c3 3d de 29 88 3d f8 5d fa 3d bb 29 0e bc
       0.095509164 0.066486105 0.12224954 -0.0086769415
0002b0 bd cc ff 3d bd 12 97 bc e8 6f 86 bd 5e 54 10 3e
       0.124902226 -0.018441552 -0.06564313 0.14094684
0002c0 52 fa cf 3d b7 d0 3c 3e 20 24 2e 3c 49 11 e7 bd
       0.10155167 0.18438993 0.01062873 -0.11282594
0002d0 ec e2 d2 bd cb 2c 0f bd 35 d2 c2 bc 6f 2a 8c bc
       -0.10297188 -0.034954827 -0.023781875 -0.017110078
0002e0 b2 f6 ef 3d c2 da a3 bd 5f 73 c4 3a 47 0c 15 3e
       0.11716975 -0.08000709 0.0014987997 0.14555465
0002f0 52 b5 b9 3d 25 e6 94 3b 7c 1f e2 3d f9 50 92 bd
       0.09067787 0.004544037 0.110411614 -0.071443506
000300 df 2d d3 bd 25 41 d2 3d 7f d0 34 bd 09 68 f6 bd
       -0.103114836 0.102663316 -0.04414415 -0.12031562
000310 af 18 d9 bd 08 e7 e3 3d 54 1b c8 bd 01 1b 26 3e
       -0.10600411 0.1112805 -0.097708374 0.16221239
000320 72 e2 ac 3d 80 90 c8 3c eb a6 ca bd 24 fd 1f be
       0.084416285 0.024482965 -0.09895118 -0.15623909
000330 98 5a e0 bd 79 d9 b3 3d 09 29 e1 bd b6 de b2 bc
       -0.109547794 0.08781714 -0.10994155 -0.021834712
000340 dd 93 19 3c 8c 6b 8c bc 69 e5 4a 3c 8c 36 02 be
       0.009373632 -0.017141126 0.012383797 -0.1271612
000350 f9 ec c5 3d 36 a5 e2 bd 7f e1 c2 bd 62 7e f1 bd
       0.096643396 -0.11066668 -0.09515666 -0.11791684
000360 62 20 94 3d e3 03 91 bd 15 89 6d bd a9 24 58 3d
       0.07232739 -0.070808195 -0.05799206 0.052769337
000370 d0 6d 70 bc 84 c5 ee 3d 84 5c 30 3d 27 b5 ad bc
       -0.014674619 0.11658767 0.04305698 -0.021204544
000380 56 6d c2 bd ab 7e 17 be f5 53 5b 3c 8b ca 0d bc
       -0.094935104 -0.14794414 0.013386716 -0.008654247
000390 6b e2 03 3e b3 b3 0e be c8 88 e6 3c c0 ac 57 3d
       0.1287934 -0.13935737 0.028141394 0.05265498
0003a0 ff 5b 87 3d e3 db 3b 3d 46 cc d1 bc 42 e4 09 be
       0.06609344 0.045863997 -0.0256101 -0.1346598
0003b0 58 c7 fc bc e5 a7 e3 3d 18 76 06 be 33 5d c7 bd
       -0.030856773 0.11116008 -0.13130987 -0.09734573
0003c0 6f 59 e1 3d ab 4e 18 bc 74 2d 49 bd 19 8c 10 bc
       0.11003386 -0.0092961 -0.049115613 -0.008822464
0003d0 00 06 13 3d b0 4c 4d 3c 67 a6 e7 3d 74 d4 d7 bc
       0.035894394 0.012530491 0.113110356 -0.026346423
0003e0 63 93 9b bd b0 be ac bd 90 09 d7 bc 5c 4e e2 bc
       -0.07596471 -0.08434808 -0.026249677 -0.027625255
0003f0 0f 8e a3 3d 73 5b 47 3d 76 1c df 3d 4e f1 e2 3d
       0.0798608 0.048671197 0.108941 0.110811815

net.2.bias f4 [50]
000000 df 70 b7 3c 7f 21 06 3e a6 17 fd bd 07 85 f1 3d
       0.022392688 0.13098715 -0.12358026 0.11792951
000010 76 e9 76 3d 1d c1 16 be 6c 32 5f bd 19 54 27 3d
       0.06028124 -0.14722104 -0.054491445 0.040851686
000020 a4 03 da bd 19 7f 00 3e f9 fa 25 bd f1 0f 29 3d
       -0.10645226 0.12548484 -0.04052255 0.04127497
000030 b0 e3 8f 3c 2b e3 7e bd 3f 5c 09 be 8d 0a 9c 3d
       0.017564625 -0.062228363 -0.13414095 0.076192
000040 b2 aa ae bd ea 0b bb bc 05 85 2d 3d 86 b5 68 bd
       -0.08528651 -0.02283283 0.042363185 -0.05681374
000050 9d 2d 9c 3d 82 1b 02 be dc 33 d4 bd 7d 76 de 3d
       0.076258875 -0.12705806 -0.10361454 0.108624436
000060 3f d5 96 bd 65 b7 09 3e 64 49 9c bb 13 19 53 bc
       -0.07364892 0.13448866 -0.004769491 -0.012884396
000070 02 56 0e 3e cb 0d 0d bc c4 2c f7 bd 6b 18 70 bd
       0.13899997 -0.0086092455 -0.12069085 -0.058617037
000080 bd 41 49 3d ce 3a d7 3d e0 55 22 3e a1 5e 6b bd
       0.04913496 0.10509263 0.15853071 -0.057463292
000090 e6 5f 84 3c 64 fe d2 3d e6 35 78 bd 57 1e 6c 3b
       0.01615901 0.103024274 -0.060598277 0.0036028826
0000a0 1a 5d 8c bd a0 a2 20 3d 2c 89 08 3e a1 b1 e5 3d
       -0.06853695 0.03921759 0.13333577 0.11215521
0000b0 bb 0b cd bd e9 4e 96 3d 0b f9 fe 3d 45 39 80 bc
       -0.10012003 0.0733927 0.12449845 -0.015652308
0000c0 e8 eb 2f 3d 67 ea eb bd
       0.042949587 -0.11519318

net.4.weight f4 [11, 50]
000000 1d e4 97 3d ef 0e 00 bd b9 eb fe 3d 27 6c ca 3d
       0.07416556 -0.03126424 0.12447304 0.0988391
000010 17 40 88 bd f4 c9 66 bd 1f bf e3 bd 00 dd 09 be
       -0.06652849 -0.05634494 -0.11120438 -0.13463211
000020 0b 63 03 be 38 92 83 3d 92 82 df 3d 88 23 c1 bd
       -0.1283075 0.064243734 0.10913576 -0.09430605
000030 51 1a da 3d 5b 9d 45 bd 58 f6 2f 3d 47 d0 45 3e
       0.10649551 -0.04824577 0.04295954 0.19317733
000040 7f 1b 15 3e 89 d2 f2 bd ed 45 88 3d f0 3b 9b bd
       0.1456127 -0.11856563 0.06653962 -0.075797915
000050 a1 69 fb bd a0 56 cd bb a0 4e 24 bd 55 eb 87 3d
       -0.122760065 -0.00626643 -0.040114045 0.06636683
000060 c8 b0 82 3c 05 5f cb 3d 1e e1 cf 3d bf 26 09 be
       0.015953436 0.09930233 0.101503596 -0.13393687
000070 fc ce 03 be 84 04 c8 bd 13 af 8a 3d e4 f9 05 3e
       -0.12871927 -0.09766486 0.06771674 0.13083607
000080 46 1a b5 bd f9 f0 98 3c 1a 59 5a 3d 12 46 45 3d
       -0.08842902 0.018669592 0.05330763 0.048162527
000090 54 21 4b 3d c0 83 b4 3c c3 8c c4 3d 5b 2a 54 bd
       0.04959233 0.02203548 0.09597161 -0.051798206
0000a0 ff 3e 0a 3e e0 7c aa 3c 0c 5d 00 be a7 85 83 3d
       0.13500594 0.020811498 -0.12535495 0.064219765
0000b0 8e 8d c2 3d 5e 01 b7 3d 54 15 b3 3c bc cc 2d 3d
       0.09499656 0.08935808 0.021860756 0.042431578
0000c0 9f e6 21 3d 39 82 1b bd 93 f5 47 bc 4f b8 55 bb
       0.039526578 -0.037965987 -0.012204546 -0.0032611077
0000d0 78 26 af bd a6 55 59 bd ef 22 1d bd bb fa 84 bc
       -0.08552259 -0.053060196 -0.038363393 -0.016232839
0000e0 9a 93 be bd ad 03 9f 3d c0 c0 69 bb c9 09 d4 3d
       -0.093054965 0.07764373 -0.0035667866 0.10353429
0000f0 ab ad 9a bd 15 94 0a 3d 20 34 1f bd bb 50 90 3d
       -0.07552656 0.03383263 -0.03886807 0.07046648
000100 b2 69 64 bd 29 a0 85 3b ba aa 41 3d 2a 69 b8 bd
       -0.05576486 0.0040779305 0.04728196 -0.090044335
000110 cc f9 dd 3d 6d ab 37 bc fe 9f 9f 3d cc fb 29 bd
       0.108386606 -0.011210305 0.07794188 -0.041499898
000120 dd ef 43 bd 89 e4 c7 bd 50 e0 21 3d 8a 39 85 3d
       -0.047836173 -0.097603865 0.03952056 0.06505115
000130 d6 6a f6 3d cd 21 d7 3b fa f4 a9 bc 8c ce 00 bd
       0.12032096 0.0065653087 -0.020746697 -0.03144698
000140 e2 ae 4e 3d 65 a1 0a 3e 58 c0 26 3a 87 26 07 be
       0.05045975 0.1353813 0.0006361059 -0.13198291
000150 13 2b a6 bd 87 6e 43 3d a9 6b f3 3d e0 15 99 bd
       -0.081136845 0.04771283 0.11885769 -0.074748755
000160 a6 a0 94 3d ed b8 e4 3d d2 82 fd 3d e1 57 bc 3d
       0.07257204 0.11168084 0.123784676 0.09196449
000170 73 5c b6 bd 69 09 be 3d e6 27 92 ba dd 35 be bd
       -0.08904352 0.092791386 -0.0011150807 -0.09287617
000180 15 59 09 be 78 1b 82 bd 94 bf e5 3d a7 ad 14 3e
       -0.13412888 -0.063528955 0.11218181 0.14519368
000190 4e 18 df 3d ce cc c1 bd 61 4e b3 3d 47 73 a3 3d
       0.108933076 -0.094628915 0.08755184 0.07980972
0001a0 fd d2 13 3e 0e 06 9c bd 2a e6 ef 3d 7d bd 6b bc
       0.14435954 -0.07618342 0.11713822 -0.014388439
0001b0 40 69 67 3d 2c 50 ee bd 3b 19 c8 bb d8 5c ad bd
       0.05649686 -0.11636385 -0.0061065233 -0.08464974
0001c0 a9 1f 06 bd 1e ff 2d bc 1e 3b 4c bd d3 d2 0d 3e
       -0.032745037 -0.010619907 -0.049861066 0.13849954
0001d0 8f 7a 2b 3e f1 8d 22 3d 79 02 51 bd 3c 95 d8 bc
       0.16745971 0.039686147 -0.05102775 -0.026438348
0001e0 d4 e0 2d bd b0 dc 2b 3c c4 3e 26 bb 00 bb f4 3d
       -0.04245074 0.010489628 -0.0025367 0.1194973
0001f0 d0 58 31 3c 42 00 e0 bd fa 47 b4 bc c3 15 5e bd
       0.010824397 -0.10937549 -0.022006977 -0.054219972
000200 a4 2b 63 3d 53 c9 0b 3e 69 31 f7 3d 17 fd 09 3d
       0.05546154 0.13651018 0.12069971 0.03368863
000210 fe 97 ad bd 68 0d 99 3b 33 0f 8b 3d 2f 32 03 3c
       -0.08476256 0.0046707876 0.067900084 0.00800757
000220 a9 4d ab 3d b6 d9 8b 3d 66 c0 2a bd 03 b0 40 bd
       0.08364422 0.068286344 -0.04168739 -0.047042858
000230 20 c8 86 3c f1 66 07 3d ef d3 b9 3b b6 48 06 be
       0.016452849 0.033057157 0.0056710164 -0.13113675
000240 e9 ba 02 be dd b5 08 3e cb 97 13 3e 7d 1e f1 bd
       -0.12766613 0.13350625 0.14413373 -0.11773393
000250 8f 4a c1 bd ca 4e 7e bc fd 02 98 bd ac d6 07 be
       -0.09438049 -0.015521714 -0.07422445 -0.13265485
000260 69 89 4e 3d 7c d7 b5 bd 1b 98 78 3d d9 3b ac bd
       0.050424013 -0.08878991 0.060691934 -0.084098525
000270 80 f3 f1 bb aa 33 26 bd a8 52 db bc c3 90 66 bd
       -0.007383764 -0.040576614 -0.026772812 -0.0562904
000280 7a 31 d2 bd be 47 f5 3d e3 9e 8b bb 07 18 93 bd
       -0.10263343 0.11976574 -0.004260884 -0.07182317
000290 e8 18 08 3e ac 1a c1 3d ab 1f 79 3b 99 9c 48 3d
       0.13290751 0.094289154 0.003801326 0.04897747
0002a0 f3 5f 34 3b 48 12 28 3d 34 f3 f5 3d 9c f3 55 3d
       0.002752301 0.04103306 0.12009278 0.052234277
0002b0 34 9b e3 3d e9 47 e5 3d f4 48 69 bd 2f 11 c1 3b
       0.11113587 0.111953564 -0.05695434 0.005891941
0002c0 28 fe 04 3b d2 1a 20 3e fa b5 40 bd 23 9b e5 3d
       0.002029309 0.15635231 -0.047048546 0.112112306
0002d0 ca fe 0c bd c9 b3 f2 3d b1 e0 8a 3d d7 3e b6 3d
       -0.034422673 0.118506975 0.06781138 0.088987045
0002e0 41 34 5f bd e1 b3 d8 3a 9a 85 0d 3e ad 03 e6 bd
       -0.054493193 0.00165331 0.13820496 -0.1123117
0002f0 f1 e5 ed bc 0a 95 08 be 1c d4 05 be 39 82 07 3e
       -0.029040309 -0.13338104 -0.13069195 0.1323327
000300 46 40 a5 bd 23 6b 9e 3c 73 75 eb bd 2e b4 cc bd
       -0.080689 0.019338196 -0.11497011 -0.09995304
000310 2a 34 09 3e 59 7b 0e 3d ba ce 09 bd 5d ae 5b bc
       0.13398805 0.034785602 -0.033644415 -0.013408271
000320 48 5c 04 3e ae aa bf 3d f7 fc bc 3d ac e6 01 3e
       0.12925828 0.093587264 0.09227937 0.1268565
000330 c7 77 a4 3c f0 12 e5 3c a0 8f 07 3c 3f 2d 7a bd
       0.020076646 0.027963132 0.008273989 -0.061078306
000340 5e 67 fb bd 10 fb f6 3d af dd 07 3e 6d cf f4 3b
       -0.12275575 0.12059605 0.1326816 0.007471016
000350 97 c4 2f bd 9b 0d f2 3d 74 2b 7e bd 5c b2 8c 3d
       -0.042912092 0.11819001 -0.06205316 0.06869957
000360 12 63 46 bc df 03 bd bd 69 b2 c6 bd b3 dd 06 3e
       -0.012108581 -0.09229254 -0.09701998 0.13170509
000370 48 9b fb 3d 28 5e 8e 3d 21 ff 86 bd ec ac 2c bc
       0.12285477 0.06951553 -0.06591631 -0.010539275
000380 3a b6 a9 3d 84 db fd 3d 22 04 2d 3e e4 77 59 3d
       0.0828671 0.12395385 0.16896108 0.053092852
000390 20 cb 7c bd dc 26 9a bd c2 e2 01 3e 75 c4 cb bd
       -0.061717153 -0.07526943 0.12684157 -0.099495806
0003a0 1c 5c 03 be 32 d6 e7 bc 2e 4e b2 3c 47 d3 81 3d
       -0.12828106 -0.028300378 0.021765795 0.06339126
0003b0 d3 91 d4 bd 16 e4 03 bd 43 11 dc bd 8a ad b6 3d
       -0.10379376 -0.03219994 -0.1074548 0.08919819
0003c0 a8 9b 03 3d 5a 5c 8c bd 95 3d 10 bd 67 3e a8 3d
       0.032130867 -0.06853552 -0.03521498 0.08215027
0003d0 4b 2b d8 3d 0f 25 0e be 7e de 9b bd 58 81 7e 3c
       0.105551325 -0.13881324 -0.076107964 0.015533768
0003e0 d2 4d f5 3c 55 b5 af bd 0e e5 47 3d 8d df 9d 3a
       0.029944334 -0.08579508 0.048802428 0.0012044773
0003f0 39 7d ad bd 3a 15 de bd db 99 66 3c bb 49 52 3d
       -0.0847115 -0.108438924 0.014074768 0.051339846

net.4.bias f4 [11]
000000 04 c0 9d bd f2 34 86 3d 18 17 ae bd 7c e8 ec 3d
       -0.0770264 0.06553067 -0.085004985 0.115677804
000010 fa 6d 08 be 3d 7e 13 be 7a 3d 1a 3e c0 7e 79 3d
       -0.13323203 -0.14403625 0.15062514 0.060911894
000020 d9 18 f8 b9 0b ce cb bd 40 9d a4 3d
       -0.0004732076 -0.09951409 0.080378056
