models/part2_advanced.pt (torch, 109391 bytes, 6 tensors)

net.0.weight f4 [100, 155]
00000000: 3a1b 73bf 54f2 44bf 835d 11bf f07a 9fbb
00000010: c0e2 073c f06f c33b 4e0a 233e 614f 3e3e
00000020: 4028 d6be bd75 883f 3f5a 08be 51cd 1dbf
00000030: 6cc8 56bf f7cf 073e 5fd9 2a3c a8c5 2e3f
00000040: d004 343f ac2a 31bf bfae 47bf 0dc0 68bf
00000050: f01a 32bf ebe2 42be c645 4abd 0608 9dbe
00000060: 8665 b4bc 72ef e03e dd72 203e 7579 49bd
00000070: acab d8bf d121 a8bf 2420 d13c 00fe 9abd
00000080: 0526 bbbc a5d9 42be 1594 f9be d95b 40bd
00000090: 35f6 19bf 5a2c 5c3d 7ac5 4d3d 2521 53bf
000000a0: 88df 50bf eafd e0bd a913 6cbd f9aa 88bf
000000b0: 50ba e53d 09bc a93f 48a6 bf3c 828e 463d
000000c0: 664b bfbc 9aea a3bd c8fd 393c 9499 283d
000000d0: 0e74 8dbf 80ba f93b 73fb 223f 87b4 acbe
000000e0: 775f 9d3d 3b72 54bd e938 2b3e 121d 6c3d
000000f0: c906 b6be baad d93d 4870 66bd 6ee9 783d
00000100: a702 9c3d 1c3d c73c 5bb3 843d 51f2 6abd
00000110: 2d41 44be c440 88bf f2e9 393d f0ab 2fbd
00000120: 6a5a 513d db4f 46be dee8 5fbf 6f9f 36bf
00000130: 2dba f13d df53 0dbf ccd9 c83e 1e05 86bc
00000140: a408 a7bd ca60 0bbe f238 64bf 70a7 45bf
00000150: d6e7 7e3d bf7b 40bf 4a38 5bbf a02d e83e
00000160: 67c0 1a3f 0234 4dbf 4b64 cabe 56a9 5ebf
00000170: 837e 51bf a7af febe 033b d6be 3f29 88bf
00000180: 956a 76bf ffbc a9be c382 76bf 85e8 b4be
00000190: 145d 88bf 32db 50bf 5c97 c2be e22a 9dbe
000001a0: 75a7 9abe cd30 623f c71a 4e3f 1bc0 5f3f
000001b0: 2c03 533f 55e1 593f 90bd 5a3f 27f2 5e3f
000001c0: e5e4 4b3f c879 6f3f 882c 553f 3e59 643f
000001d0: 7a15 6c3f 7fb0 b1be 026c 26be 23b8 443f
000001e0: e3de 03bf 2144 79bf 77af 66bf 4cfb 83bf
000001f0: 516f 01bf 66dd 0ebf 52a2 ddbe dccb 7fbf
00000200: 721a 1dbe 8321 26be 5bd2 11be ad4e a93e
00000210: 25f8 d53e 8620 c7be cd86 863f 91ed c9be
00000220: b258 17bf f4da 083f a8e2 88be 0c6b 123f
00000230: a981 40bf d031 1d3e 53be aebd 05f2 8b3f
00000240: 3833 2abc 6011 f13e 2356 93be a20e 8fbe
00000250: 98d8 8bbe eb00 7cbe 5210 56bf febe 3e3f
00000260: 2bfe 963f 6546 923e c36e 0d3f f099 52bf
00000270: 3d60 12bf 76d1 a03e 201b 8bbd ecc4 66bd
00000280: 571e 8cbd e01d 7d3f 7982 643f 904e 393f
00000290: 6ec8 4a3f 959d 033f 8fe5 d23f a8ef b13f
000002a0: bc3b 7e3e 098d 063e b606 2f3f c12b 663f
000002b0: 84de 1a3f 237d 4ebf f0c9 43bf c408 803e
000002c0: 22b7 493e 9c63 2fbd ddcd 02bf 60b1 133e
000002d0: 4f62 3f3d a24f 5fbd c8fa 5cbf a9e1 e93f
000002e0: 8c26 d33f 0a8d 0abd efa6 80bd 932f b23e
000002f0: 8761 a6be a410 f83e 951c 333e d8c5 513f
00000300: 0a25 69bd 3c58 66bd 0c3e 1d3d daea e73b
00000310: ce88 3f3d ae9f 483d ca3e cb3f f402 a0be
00000320: 4e32 babf d083 6abc 1664 5f3d 726d 3cbd
00000330: a2cd 6d3d c661 9ebd 0a8e 75bd 775e 0640
00000340: 2d81 07bd dadd 7dbd f3f8 b13f 9a43 163d
00000350: bf01 a13d 1baf ffbe 571b 1dbd 4900 8c3e
00000360: 44a0 eebd 70b7 10bd 0069 a3bb a99c 943d
00000370: d757 34bd 92c2 383d bcd5 183d 3bc4 823e
00000380: a08e 813e f812 f3bc 3ec8 073d f9f4 1abd
00000390: b6b2 b5bd 6f2e 653f 15ef 0fbf 0737 153e
000003a0: b339 923d 513c 7e3f a20c 4c3f e369 9a3f
000003b0: c2f5 683f 5150 953f 9c56 af3f a611 613f
000003c0: a9da 8a3f e58e d93f 9598 083f 23e4 173f
000003d0: cf0d 193f e1b0 013f 2e23 76bf a0bc 51bf
000003e0: f332 83be 06b5 f7bd 0e59 383e 43d4 503e
000003f0: ebd9 85bd a359 903e 472c b03d 6034 823e
-0.9496342 -0.76932263 -0.5678331 -0.00486695 0.0082938075 0.0059642717 0.159219 0.18584968
-0.41827583 1.0660931 -0.13315676 -0.6164141 -0.8389957 0.13262926 0.010427802 0.6827035
0.70319843 -0.6920574 -0.78001016 -0.90918046 -0.69572353 -0.19031875 -0.049382947 -0.30670184
-0.022021066 0.43932682 0.15668817 -0.049188096 -1.692739 -1.313532 0.025528021 -0.07567978
-0.022845278 -0.19028337 -0.4874579 -0.046962593 -0.6014131 0.053753234 0.050237156 -0.8247245
-0.8159108 -0.1098593 -0.057635937 -1.0677177 0.11217177 1.3260509 0.023394719 0.04847575
-0.023351382 -0.08003731 0.01135201 0.04116209 -1.1051042 0.0076211095 0.6366493 -0.3373148
0.07684224 -0.05186675 0.16720928 0.05764491 -0.35552052 0.10628839 -0.056259423 0.06076949
0.076176934 0.024321131 0.06479522 -0.057359997 -0.19165488 -1.0644765 0.045389123 -0.04288858
0.051111616 -0.193664 -0.874647 -0.71337026 0.11803088 -0.552061 0.39228666 -0.016359862
-0.08155945 -0.13611141 -0.8914939 -0.77208614 0.062232815 -0.7518882 -0.85632765 0.4534731
0.6044983 -0.8015748 -0.39529642 -0.86977136 -0.81833667 -0.49743387 -0.41841897 -1.0637587
-0.9625638 -0.33152005 -0.96293277 -0.35333648 -1.0653405 -0.81584466 -0.38006103 -0.3069678
-0.30205885 0.88355714 0.8050961 0.87402505 0.82426715 0.85109454 0.854455 0.87088245
0.7964614 0.935452 0.83271074 0.8919867 0.9222027 -0.34704968 -0.16252139 0.7684347
-0.51511973 -0.9736958 -0.9011149 -1.0311065 -0.5056048 -0.5580658 -0.43287903 -0.9992044
-0.1534212 -0.16223721 -0.142404 0.33067837 0.41790882 -0.38892 1.0509888 -0.3943906
-0.59119713 0.53459096 -0.26735425 0.5719459 -0.75197846 0.15351033 -0.08532395 1.0933233
-0.010388188 0.4708357 -0.28776655 -0.2794085 -0.27313685 -0.24609725 -0.8361865 0.7451018
1.1796316 0.28569332 0.55247134 -0.8226614 -0.571781 0.31409806 -0.06792283 -0.056340143
-0.06841724 0.9887371 0.89261585 0.723855 0.7921208 0.51412326 1.6476306 1.3901262
0.24827474 0.13139738 0.68369615 0.89910513 0.6049578 -0.80659693 -0.7648001 0.25006688
0.19698766 -0.042819604 -0.5109537 0.14423132 0.046724614 -0.054519303 -0.8632016 1.8271991
1.6496139 -0.03382591 -0.0628184 0.3480192 -0.32496282 0.48450196 0.17491372 0.8194251
-0.05692009 -0.05623649 0.03838925 0.007077557 0.046761326 0.048980407 1.5878537 -0.31252253
-1.4546602 -0.014313653 0.05453881 -0.046002813 0.058057435 -0.077334926 -0.059949912 2.0995157
-0.033082176 -0.061979152 1.3904098 0.036685564 0.07861661 -0.49938282 -0.03835615 0.27343968
-0.11651662 -0.03533119 -0.004986882 0.07256443 -0.044029083 0.04510743 0.037313208 0.25540337
0.25304127 -0.029672131 0.03314995 -0.03783128 -0.08871977 0.8952398 -0.56224185 0.14571773
0.071399115 0.99310786 0.79706776 1.2063564 0.90999997 1.1665136 1.3698306 0.87917554
1.084798 1.6996733 0.5335782 0.59332484 0.59786695 0.5066052 -0.9614743 -0.81928444
-0.2562481 -0.12095074 0.18002722 0.20393471 -0.06535705 0.28193387 0.08602195 0.25430584

net.0.bias f4 [100]
00000000: f73f d13e a37f 723e 2af8 1c3e a945 303e
00000010: e2d2 cb3e 9916 91bd e09a fd3d c645 413e
00000020: 03bb 75bd f61e ea3d c697 95bd ab34 b63d
00000030: 3bad 903d b58d 98bd 9ff7 293e a760 523e
00000040: ea2f 033e f558 623e ebf9 35bd cd29 703e
00000050: 6eec 82bd 614b 883e e3e6 cf3e 2ab5 a33e
00000060: 6e20 493e 73cc 183e 97d6 7d3e 2be5 a23e
00000070: c505 b93d 1eb5 4b3e c6ce 033e dbb3 6e3e
00000080: 7b0a 113e c1c9 293e 5447 9f3d 6724 87bd
00000090: 6ceb 493e a59f 98bd dcfb 1a3e 0802 f5bb
000000a0: 97ef 443e 657e 313e 21a4 343e d0e0 0e3e
000000b0: abb4 51bd af7a 323e 4e5a 123e ae77 6f3e
000000c0: e85d 163e 65b7 0b3e 2b6b abbd f440 db3e
000000d0: 35f4 8ebd 940c 7b3e 6c76 4bbd 7491 293e
000000e0: 129c ff3d 38b8 c03e d541 823e f71e a2bd
000000f0: c86b 9e3e f856 0a3e 28d7 1a3e 83e4 103e
00000100: 8825 8dbd 9d13 143e 03fd 523e 3e44 183e
00000110: 637d 0d3e bdd8 a43e 2592 18bd a3c0 413e
00000120: 5c89 973d f74c 583e e9e9 463e 2454 a1bd
00000130: fd5e 323e 44b2 f43d 52d3 83bd be71 0e3e
00000140: 8bfd 07bd dad5 28bd 5e71 453e 6480 aa3d
00000150: 2509 2c3e f9da 353e 428a 4b3e 448f 67bd
00000160: 48e8 4ebb 2aad a53e 56c1 923e fc84 1dbd
00000170: 32fe 1d3e eeb1 3c3e d2a4 013e 52a4 3a3e
00000180: b692 3b3e be5c 2a3e 6bc0 a1bd 5f75 2a3e
0.40869114 0.23681502 0.15329042 0.17214073 0.39809328 -0.07084388 0.12383056 0.18874273
-0.0599928 0.114316866 -0.07304339 0.08896764 0.07064291 -0.074489035 0.16598366 0.20544682
0.12811247 0.22104247 -0.044427793 0.23453446 -0.06392752 0.2662001 0.4060584 0.31974155
0.19641277 0.14921741 0.24788891 0.31815466 0.090343036 0.1989331 0.12871847 0.23310797
0.14164154 0.1658087 0.07777277 -0.0659874 0.19718713 -0.07452325 0.15135139 -0.007477049
0.19232021 0.17333372 0.17640735 0.13952947 -0.05119769 0.17429613 0.14292261 0.23385498
0.1468426 0.13644178 -0.0837005 0.42822993 -0.069801725 0.24516517 -0.049673483 0.16559392
0.1248094 0.37640548 0.2544085 -0.07916062 0.30941606 0.13509738 0.15121138 0.1414967
-0.06891924 0.14460607 0.20604329 0.14869782 0.13817362 0.32196608 -0.03724875 0.18921141
0.07399246 0.2112311 0.19425167 -0.07877377 0.17419048 0.11948064 -0.064367905 0.13910577
-0.03320078 -0.04121957 0.19281527 0.0832527 0.16800363 0.17759313 0.1987696 -0.056533113
-0.0031571556 0.32358676 0.2866313 -0.038456902 0.15428999 0.1842725 0.1266053 0.18226746
0.18317685 0.16636941 -0.07898029 0.16646336

net.2.weight f4 [100, 100]
00000000: cafe b0be ca1e adbe a2cb 43be 87f3 6cbe
00000010: ba8d 7dbe c720 4dbd f043 ccbe 8d43 b0be
00000020: 1819 80bc ccd9 94be 7d75 33bd 8961 81be
00000030: d90d c8be c5f8 b63d ae56 e5be 0fa1 16be
00000040: 0aac cabe a127 07be 5438 c23c 3b1d 20be
00000050: ed66 89bd d909 86bd 100d d9be 4b6e 87be
00000060: 57fb 83be 546c 93be 53e1 80be f2a3 57bc
00000070: 8da0 69be 6cc7 cfbd ebe7 85be bc32 adbe
00000080: 1023 afbe 01ee abbe 3332 4ebe 5425 af3c
00000090: 4064 88be d6c2 743d d178 bdbe feaf 94bd
000000a0: 0186 9abe 03e4 c8be e932 b0be 02f1 c3be
000000b0: 3ded a03d 545e a4be a61a d2be 3a5e a9be
000000c0: 4d9c cdbe a0df 53be 8037 9ebd 10ea 00bf
000000d0: 73b6 95bd e43d f7be eb34 9e3d 680e bfbe
000000e0: e457 f4bd a1e1 cdbe 989b 72be 6067 e0bc
000000f0: 4c3c e5be dd46 f8bd d40b b4be f2fb 40be
00000100: ca80 aebd 0c67 b3be c9e6 80be e7ef b7be
00000110: cdb1 8dbe 72a7 53be a34c 27bd 7d9f 68be
00000120: cddb 9dbe cced 87be a830 afbe 7844 a7bc
00000130: 221d 04be 6c61 9abe 2c33 16bd bd94 a3be
00000140: 2836 9bbd 6bfc 9c3d 2d56 bfbe 8440 85be
00000150: 0507 b4be 6f79 a5be c7b4 e6be f577 a43d
00000160: 9918 8f3d aee0 d9be 2a63 9fbe 6999 813c
00000170: 9f50 bebe 2fa4 0dbf 72f5 7abe f2bb b8be
00000180: 1839 9bbe 82ef 81be d532 85bd f571 dfbe
00000190: 9072 e8be 13b6 0bbf c0ce 0ebe 33c3 a3be
000001a0: 17d9 19bf 8b6a ca3d 2cb0 cbbe 2b73 c7be
000001b0: e50f 94bd c15c 47be 8d55 aebd 61b6 5ebe
000001c0: 85f1 1bbe e65c c03d 5e5d 22be 6c2f 36be
000001d0: 5990 a2be fe80 afbd 72a4 283d e5bf bcbe
000001e0: ad7a b3bd 0bd7 eabd 3cff 0fbf f435 ebbe
000001f0: cb7d 8fbe e2ab aebe 3751 f7bd f11b 0fbf
00000200: d754 a9be d633 d7bd 5010 abbe 7eda 98be
00000210: 79fe 1bbe 5d54 71be fc91 bdbe 4aff 353d
00000220: 0376 91be da48 293d a6ca a9be b601 3abd
00000230: 389a debe 4887 fabe 8975 d0be 84e8 aabe
00000240: 42a3 013d e2f0 a3be 19d1 b8be 1a3d d1be
00000250: be32 aabe badf 2abe 8ca3 2f3c 559c 1dbf
00000260: aaf6 5bbd 64b8 04bf f09c 61bc 1f98 6dbe
00000270: 8c11 b2be 490d 38bf 066d 96be 4f5c cabd
00000280: 4ce6 c7be 2ac3 08be 7219 59be f94e a2be
00000290: 630e 813d 6116 afbe 53a5 d2be 51ee 4dbe
000002a0: dcf8 b2be 40ef b0be a8bc 3dbc c854 b0be
000002b0: 3907 fcbe a80d aabe 9b96 a6be b914 b73d
000002c0: 99ae 55be b886 93be 8b44 9cbd 7559 abbe
000002d0: bb1a 973d 20d5 a63c 7f80 90be c82e 55be
000002e0: c9c6 9dbe e949 c5be 986b 9bbe 8a7d 06bd
000002f0: 49d4 8bbc deb3 abbe fd61 afbe 3005 30bc
00000300: 4db9 59be 17ef 5d3d 2320 45be f2a5 adbe
00000310: 005e 74be faf2 8cbe 44ca c23d 4356 cbbe
00000320: beb4 30bf 467d 89be 4bb6 373c bd84 aebd
00000330: 5ec6 56bf 4173 8e3d 6565 0cbe 001d 20be
00000340: 41a1 963d c495 9dbd f4e2 ac3c fcf4 4abd
00000350: baef f7bc df69 71bd f45c 17bd 56ff 99bd
00000360: 79e8 8fbd a2d5 603d 77ae ae3d b5c4 33be
00000370: 2004 15bd 8d0f 16be 0b8f 50bf 8d8f 62bf
00000380: e0f6 f2bd 479e eebd d859 38be 18e0 80bf
00000390: 4ebb 3ebe aa41 d5bd 6b5e babd 8ac5 50be
000003a0: 702c 293d 4a08 6dbd 6cbd b7bd a056 89bc
000003b0: add6 1fbe 18dd 203c 891e 17be 5d12 633d
000003c0: 794b 10be fc68 15be b8d8 11be ab45 c3bc
000003d0: 465b 86bd c321 5bbe f6ac c1bd a2f7 61be
000003e0: c931 20be 1d71 523d 93c9 7c3c fb98 febe
000003f0: 3e61 aabd ce9b 67be ed38 a4bd 3728 e8bd
-0.3456939 -0.33812553 -0.19120649 -0.23139773 -0.24761096 -0.050080087 -0.39895582 -0.34426537
-0.015636966 -0.29072416 -0.043813217 -0.25269726 -0.39073065 0.08934168 -0.44792694 -0.14709876
-0.3958438 -0.13198711 0.0237085 -0.1563615 -0.06709085 -0.06544847 -0.42392778 -0.26451334
-0.25777695 -0.28793585 -0.2517191 -0.013161646 -0.22815152 -0.101454586 -0.26153502 -0.3382777
-0.34206438 -0.3358002 -0.20136337 0.021380104 -0.26638985 0.059756123 -0.37006238 -0.0726013
-0.30180362 -0.3923646 -0.3441384 -0.38269812 0.078577496 -0.32103217 -0.41035956 -0.33079702
-0.4015831 -0.20690775 -0.077254295 -0.5035715 -0.0731019 -0.48289406 0.07724937 -0.3731568
-0.11930826 -0.40211204 -0.23692167 -0.027393043 -0.44772565 -0.12122891 -0.35165274 -0.1884611
-0.08520658 -0.35039556 -0.25176075 -0.35925218 -0.27674714 -0.20669344 -0.04084457 -0.2271709
-0.30831757 -0.26548612 -0.3421681 -0.02041839 -0.12901738 -0.30152452 -0.036669895 -0.31949416
-0.07578689 0.076653324 -0.37370434 -0.26025784 -0.35161605 -0.3231921 -0.45059797 0.080306925
0.069871135 -0.4255423 -0.31130344 0.015820222 -0.37170884 -0.5532865 -0.24507692 -0.3608089
-0.30316997 -0.25378042 -0.06503836 -0.4364163 -0.45399904 -0.545747 -0.13946056 -0.31984863
-0.6009688 0.09883603 -0.39782846 -0.38955054 -0.07229594 -0.19468977 -0.08512411 -0.2174926
-0.15228851 0.09392719 -0.1585593 -0.17791528 -0.31750754 -0.08569525 0.041172452 -0.36865154
-0.08763633 -0.114667974 -0.5624883 -0.459396 -0.2802566 -0.3411551 -0.120760374 -0.5590201
-0.3307254 -0.10507934 -0.33410883 -0.29854196 -0.15233792 -0.23567338 -0.3702544 0.044432916
-0.28410348 0.041329242 -0.3316242 -0.045411788 -0.43477035 -0.48931336 -0.40714672 -0.3338052
0.031649835 -0.32019717 -0.3609703 -0.4086693 -0.33241838 -0.16686907 0.010720145 -0.6156667
-0.053702034 -0.5184386 -0.013770327 -0.23202561 -0.34779012 -0.7189527 -0.29380053 -0.09880888
-0.3904289 -0.13355699 -0.21201113 -0.31700876 0.06301572 -0.3419676 -0.41141757 -0.20110442
-0.3495549 -0.34557533 -0.011580624 -0.34439683 -0.4922426 -0.33213544 -0.32536778 0.089394994
-0.20867385 -0.2881372 -0.07630261 -0.33466688 0.07378145 0.020365298 -0.28223035 -0.20818627
-0.30815724 -0.3853295 -0.30355525 -0.032834567 -0.017068999 -0.33535665 -0.34254447 -0.010743424
-0.21262093 0.054183092 -0.1925054 -0.3391567 -0.23863983 -0.27529126 0.09511235 -0.3971425
-0.6902579 -0.2685339 0.011212896 -0.085214116 -0.83896434 0.06955577 -0.13710554 -0.15636063
0.073549755 -0.07694581 0.021104313 -0.04955004 -0.030265678 -0.058938857 -0.03695388 -0.075194046
-0.070267625 0.054891236 0.0852937 -0.17555507 -0.036380887 -0.1465437 -0.81468266 -0.8850029
-0.11863494 -0.11651283 -0.18003023 -1.0068388 -0.18626139 -0.10412915 -0.0910004 -0.20387855
0.041302145 -0.057869233 -0.08971676 -0.016764939 -0.15609236 0.009818338 -0.14757742 0.055437434
-0.1409129 -0.1459083 -0.14242828 -0.023836931 -0.06560378 -0.21399598 -0.09456818 -0.2206712
-0.15643992 0.051377404 0.015428918 -0.4972609 -0.08319329 -0.22618029 -0.0801867 -0.113357954

net.2.bias f4 [100]
00000000: 0dd6 3ebe 77f7 27be 4dd3 3bbe 0c58 8cbe
00000010: c566 11be f0ff 18be 3854 06be eed2 2fbe
00000020: 45a9 87bd acb1 6ebe 3780 fbbd 711e ccbd
00000030: 4393 3ebe 06e1 343e 17ce 60be 1e09 16be
00000040: 0441 5ebe 165e 30be ad7c 23be c3d2 20be
00000050: 81c7 9bbe 3cf2 78bd c4b3 143e f4d6 73be
00000060: bc95 7cbe f33c 9bbd 870b 683e d38b babd
00000070: e2ef eebd 218d 66be b8d1 92be 6435 66be
00000080: 60cf 943e 0cfc 67be 2399 2cbe 29ba 243e
00000090: a8d3 b0bd 9446 8bbe 63b5 95be 6025 aebe
000000a0: a757 7cbd 844e c0be 0745 3ebe bc46 66be
000000b0: 932e 91bd c4c8 17be a052 8abe 3bb3 5dbe
000000c0: 8ad2 a2be dc5d a13e afea 1abd 0736 00be
000000d0: 84d8 35be 61ed 5abe 92b8 8cbe bc27 3cbe
000000e0: f865 e4bd 9fd1 5dbd b554 64be 7086 86be
000000f0: 42a3 8cbe b24a 09be 45b4 82bc 5ee3 a1bc
00000100: 0c02 84be 81bf 9abe 3888 94be 7740 82be
00000110: baa2 91be f12b 90be e11c fdbd 92ec ff3e
00000120: 7e60 0abe 655b 54be bc76 99be ac74 0ebe
00000130: 1e01 753e ffe1 bdbd 9e7a 72be 0e2e 2dbd
00000140: 288a 10bd 91a5 19be 4625 933e 3abc a63e
00000150: 2a40 2dbe b03d 0a3e 52dd a7bd ecc2 4e3e
00000160: 1bf9 04be 6de2 65be fd18 c3be 732d 3bbe
00000170: 2cd5 b7bd dc7f c3bd 82e2 ffbd 4a8a 99be
00000180: 6ebb 64be 1ebf 41be 728b 82be 5b4e 88be
-0.18636341 -0.16402994 -0.18342324 -0.27410924 -0.1419936 -0.14941382 -0.13118064 -0.17170307
-0.066240825 -0.23309964 -0.122803144 -0.09966744 -0.18610863 0.17663965 -0.21953617 -0.14651915
-0.21704489 -0.17223391 -0.15965529 -0.15705399 -0.30425647 -0.060777888 0.145217 -0.23812467
-0.24666494 -0.075799845 0.22660647 -0.091087006 -0.11666848 -0.22514774 -0.28675628 -0.22481304
0.29064465 -0.22654742 -0.16855292 0.1608664 -0.0863412 -0.27202284 -0.2923995 -0.3401289
-0.06160703 -0.37559903 -0.1858102 -0.2248792 -0.070889615 -0.1482268 -0.27016163 -0.21650402
-0.31801254 0.31516922 -0.037821468 -0.1252061 -0.17758375 -0.21379615 -0.27484566 -0.18374532
-0.111522615 -0.05415499 -0.22297938 -0.26274443 -0.27468306 -0.134074 -0.0159551 -0.019761737
-0.25782812 -0.3022423 -0.29010177 -0.25439808 -0.28444463 -0.28158525 -0.12359024 0.49985176
-0.13513371 -0.20737989 -0.299734 -0.13911694 0.23926207 -0.09271621 -0.23679587 -0.04228025
-0.035288006 -0.15004565 0.28739375 0.3256548 -0.16919008 0.13500094 -0.081965104 0.20191544
-0.12985651 -0.22449656 -0.38105002 -0.18279056 -0.08976206 -0.095458716 -0.12494375 -0.2998832
-0.22337124 -0.18920562 -0.25497013 -0.2662228

net.4.weight f4 [11, 100]
00000000: 0cf1 4dbd 1af2 7d3c 63d0 eb3d 1840 4dbe
00000010: c679 e53d 8eca 8e3d 1edf 8cbd 2e00 4f3d
00000020: 1099 5a3e dc36 c03d 1b57 4f3d 2c20 24bd
00000030: e2a8 123e f3f1 bd3e 739c cb3d e9e6 2fbd
00000040: 73f4 e73d 3581 103e 51a9 9cbd a8ff 9ebe
00000050: c470 103e e9c4 4d3e 7197 c83e f5c2 253e
00000060: fa11 a83d cb29 9d3d 0f17 aebe 3c0a 233e
00000070: a03d 9c3b 3516 b43d 679c 50bb 890e 2fbe
00000080: 3592 a0be 187a 37be 1fdd 8c3c a45e ffbe
00000090: bc30 9fbe ca79 acbd e8d8 8cbd 7cb5 a73c
000000a0: 79d8 94be 8bd4 d6bd 331e 22bd 3542 e53c
000000b0: eeb7 68bb 862c f83d 9abb 38bd effd 85bd
000000c0: 2538 01bd 5e0d 003f d35a fcbe 227b 083e
000000d0: 18ef d53c a428 7f3d 2f6f 8bbd dea0 e23d
000000e0: 4e0b 1b3e 9094 25be a786 e83d 2051 e63d
000000f0: 011d e53c 0e3b 0a3e d9d1 ab3d 484e 11bd
00000100: 5391 f3bd edba b6bc a63d 8c3d d76b 08bd
00000110: 8ee9 dbbd c315 5f3d 4a06 fc3d 20e2 47bd
00000120: 60f6 343c e75f 363e 69b9 f4bd d81e 413d
00000130: 4166 1abd c961 043e e0cd b8bd 6b52 653e
00000140: 29da ee3d 385d 2a3e 56d1 b8bd 7ee1 113f
00000150: 6dd4 9bbb c8f2 babe 5259 273e 1c61 bebe
00000160: 3f8f 9e3d 5a8d eb3d 9e5c b23d 848f 0c3d
00000170: 9dcb edbd b85a 92be d729 8dbc 7d4e 5bbd
00000180: 4703 e53d 1153 8fbd 5592 bebd 6396 0dbe
00000190: 0374 8dbd 6d1f 2fbb bc45 18be d570 3e3e
000001a0: 3bd8 4fbd 1ed2 2bbb 65ab 2a3d ae9d 86bd
000001b0: adbc e2be 3125 e9bc e8c9 8dbd cc99 1d3e
000001c0: 5a92 a0bd 9262 ab3e 3c18 1dbd 055d e63e
000001d0: 6c37 53be 669e 96bd 465b 823d b571 b73e
000001e0: 96f5 04be a40d 6abd fe53 1d3d e9eb c4bd
000001f0: f6ad 1bbe 18a7 a9be 2a86 713f a088 81bd
00000200: c8e3 61be 7e52 e8bd 0d12 653c 119f 4a3e
00000210: 592b cf3e 7bea 753e 59bf dfbc c8c8 db3e
00000220: b4d6 ab3e 8890 e63b cfb7 31bc fd9c 553d
00000230: ad44 d33e 9f9a be3d 6ab7 2dbd cd1b ac3b
00000240: 8389 af3e 73f5 9d3c 8d59 303e 0a10 f53d
00000250: b921 adbd 5d3e ffbf 7b18 b13e a994 17be
00000260: 0de5 4fbe cddf 0dbc a6d2 8b3d db9d 2bbe
00000270: 9100 4e3e 102c 9c3e 7a6b c4bd 0040 41bd
00000280: 79cd dc3c d7c0 143e 7a9e eb3d a998 38bd
00000290: db08 423d 12df 963b 8517 43be 7949 a3bd
000002a0: 6fba 7d3d ac07 0dbe d295 f1bd 7bab 683f
000002b0: 1b09 04be d5ae 6abe b949 f53d f4ea 0dbe
000002c0: bb88 173d 3279 2e3d 9d9f 79bd b8f6 583d
000002d0: b098 bdbe 352b 03be 6362 46be d887 953e
000002e0: 3617 4dbe 5aea c23e a72c 6bbe 7af1 2e3f
000002f0: 92dc 20be 9e52 2ebd 972c 1bbd 7e6f 3b3e
00000300: dc80 e43e 15b1 5b3e dbfa 823e 7e6f bbbd
00000310: cc12 07bd 680f c53e 9e27 2c3e 107d fc3d
00000320: 3be5 d1bc de7e 96bd 35c8 8e3d 7947 8c3d
00000330: a359 e8bd 4cf1 973d 323b 2b3c 24ef 02be
00000340: c466 26be eb0b b1bd e5d3 5dbd 5bf7 d5bc
00000350: 8e73 80bd 7c07 d5be 6922 a6bd d728 8a3e
00000360: e155 06be fb03 cbbd 4dd1 b83c 0fe0 693e
00000370: cb78 94bd 9a2c fcbd 8f4a 85be e774 193d
00000380: ce67 3dbd 6ac1 16be cb95 8c3e d4b0 09bc
00000390: 37ec c93c fc7a 04be 13e5 05bd 7d9f 573e
000003a0: 14c6 db3e 5e0b 163d d125 80bd da31 b63e
000003b0: 7950 4c3e 1b47 45bd 850d 073e 6743 b23c
000003c0: 6844 a03e a2b3 45bd 6a2e 3ebd 0c4a d63d
000003d0: 34fb ca3c b4b2 e2bd 92df b83d a050 b0bc
000003e0: d777 0b3d b2bb 4a3d fd8e d33e d763 08bd
000003f0: e2d8 4ebd 2392 943d 9023 a039 5baa fdbd
-0.05027871 0.015499616 0.11514356 -0.20043981 0.11204867 0.06972228 -0.06878494 0.05053728
0.21347451 0.093854636 0.05062018 -0.040069744 0.14322236 0.37098655 0.0994195 -0.042944822
0.11325922 0.14111789 -0.07649482 -0.31054425 0.14105517 0.20094647 0.3917804 0.16187651
0.08206554 0.07673987 -0.34001967 0.15921873 0.0047680885 0.08793298 -0.0031831504 -0.17095388
-0.31361547 -0.17917669 0.017195283 -0.49876893 -0.3109187 -0.08421667 -0.06877309 0.02047228
-0.29071406 -0.10489758 -0.03957958 0.027985672 -0.0035510021 0.12117867 -0.045100786 -0.065425746
-0.031547684 0.50020397 -0.49288043 0.13328221 0.026114985 0.062294617 -0.06808316 0.11065839
0.15141031 -0.16169953 0.11353808 0.11245942 0.027967932 0.1349909 0.08389635 -0.035475045
-0.11892953 -0.02230593 0.06847696 -0.03330597 -0.107379064 0.054464113 0.12305887 -0.048799634
0.0110450685 0.17810021 -0.11949427 0.047148556 -0.037695173 0.12927927 -0.090236425 0.22394721
0.116627045 0.16637123 -0.09024303 0.569847 -0.0047555477 -0.36513352 0.16342667 -0.37183464
0.07742166 0.1150157 0.087090716 0.034316555 -0.11611102 -0.28584838 -0.017231865 -0.05354165
0.11182266 -0.069982655 -0.09305254 -0.13826899 -0.06906893 -0.0026721612 -0.14870352 0.1859773
-0.050743323 -0.002621777 0.04166736 -0.06573044 -0.44284573 -0.028460117 -0.06923276 0.153907
-0.07840414 0.3347364 -0.03835319 0.44992843 -0.2062661 -0.07354431 0.06365065 0.3582894
-0.12984309 -0.057141915 0.03841018 -0.09615309 -0.1520308 -0.33135295 0.94345343 -0.06324887
-0.22059548 -0.11343859 0.013981354 0.19787242 0.4046276 0.24015228 -0.027312921 0.4292662
0.33562243 0.0070362724 -0.010847046 0.05215167 0.41263333 0.093068354 -0.042411245 0.0052523375
0.342846 0.019282078 0.17221661 0.1196595 -0.08453698 -1.9940907 0.3458899 -0.14802803
-0.2030222 -0.008659315 0.068272874 -0.16759436 0.20117404 0.30502367 -0.09590812 -0.047180176
0.026953446 0.14526688 0.115048364 -0.045067463 0.047371726 0.004604229 -0.1905194 -0.07972998
0.061945375 -0.13772458 -0.11796154 0.9088666 -0.12894098 -0.22918256 0.11976952 -0.13859159
0.03699563 0.04259605 -0.060943235 0.052969664 -0.37030554 -0.12809451 -0.19373469 0.29205203
-0.20028386 0.3806942 -0.22966252 0.68337214 -0.15709141 -0.04255926 -0.03788432 0.1830425
0.44629562 0.2145427 0.25582013 -0.09152125 -0.03297691 0.38488317 0.16811988 0.12328541
-0.025622 -0.07348417 0.0697178 0.0684957 -0.11345222 0.074190706 0.010451125 -0.12786537
-0.1625014 -0.08644851 -0.054157156 -0.026118925 -0.0627204 -0.41607273 -0.08112032 0.26984283
-0.13118698 -0.099128686 0.02256074 0.22839378 -0.07249602 -0.123131946 -0.26033446 0.037465002
-0.046241574 -0.14722219 0.27458033 -0.0084039755 0.024648769 -0.1293754 -0.032689165 0.21056934
0.4292456 0.036631934 -0.06257213 0.3558491 0.19952573 -0.048163515 0.13188751 0.021760656
0.3130219 -0.048267014 -0.046430983 0.10463342 0.024777986 -0.11069241 0.09027018 -0.02152282
0.034049835 0.049495406 0.4132003 -0.03329834 -0.050499804 0.07254436 0.00030544074 -0.12386008

net.4.bias f4 [11]
00000000: 987b 103e 4e70 8abe dfdb 24be cf3c 183e
00000010: 8e23 d13c 9a0e a33e ff15 7f3d 5f97 fd3d
00000020: 76a2 32be 20d1 4b3e b421 b03c
0.14109647 -0.27038807 -0.16099499 0.14866947 0.02552965 0.31847078 0.062276836 0.12382387
-0.17444786 0.19903994 0.021500446
