models/part1.pt (torch, 109191 bytes, 6 tensors)

net.0.weight f4 [100, 155]
00000000: 48b2 09bd 80bb 723c 55fa 823d f07a 9fbb
00000010: c0e2 073c f06f c33b 807d 86ba 5a85 453d
00000020: cc04 323d 4a33 30bd fb12 9d3d b64e 3d3d
00000030: e8e9 4dbc 1138 8f3d d08d 8d3b 2ae6 4f3d
00000040: ddac 8bbd 95a8 933d 6b12 9b3d edd4 75bd
00000050: 0d3c 93bd b281 bfbc c645 4abd 00ce af3c
00000060: b472 123d d0ad 27bc 06dd 663d a078 473b
00000070: a264 c1bc 6d69 8cbd 2420 d13c 00fe 9abd
00000080: 0002 90b9 b85a 403c 4e41 38bd f8ac c53c
00000090: 30d1 7f3c 5a2c 5c3d 7ac5 4d3d 1820 85bd
000000a0: 6e1c 74bd 1c80 f1bc 75ae 6cbd 984e ce3c
000000b0: 788e 57bd a22e 7bbd 48a6 bf3c 828e 463d
000000c0: 664b bfbc 9aea a3bd c8fd 393c 9499 283d
000000d0: 8f80 803d 80ba f93b 7e66 643d c715 93bd
000000e0: 775f 9d3d 3b72 54bd e290 60bd 121d 6c3d
000000f0: 0037 92bc 5a09 4b3d 4870 66bd 6ee9 783d
00000100: a702 9c3d 1c3d c73c 5bb3 843d 51f2 6abd
00000110: 584b 91bc c847 c83c f2e9 393d f0ab 2fbd
00000120: 6a5a 513d 768f d8bc cd9a 2fbd 78b6 803c
00000130: 6406 83bd 2cfa 96bd 6cc9 da3c 301f e03c
00000140: 3808 fd3c e093 2cbc bc9b 70bd fc25 84bd
00000150: bf68 9d3d 029c 8ebd d850 c63c 679a 853d
00000160: ce58 7b3d 5e6f 4fbd ea29 d4bc c885 83bd
00000170: e25e 4e3d 645f 9abd 986f 97bd d0a3 5bbd
00000180: 8f2e 863d b240 553d ae71 5c3d ba6f 7c3d
00000190: 4e70 19bd 757a 37bd 8a1d 4abd 981c d93c
000001a0: a0f3 ff3c d489 883c e01a 7dbd 70ce e93b
000001b0: 8294 2ebd a864 81bc 58ba 4bbc 80d4 823b
000001c0: 743c 90bd 996a 8c3d f9fe 0bbd b497 cd3c
000001d0: 1a90 623d 9493 043d 7a67 663d aac7 393d
000001e0: 0ee8 703d 30e0 8a3c 8a21 523d d801 0fbd
000001f0: 7547 31bd 3e19 1d3d 08a6 ac3c e065 45bb
00000200: b2c1 8abd 7c02 d73c 261c 553d 00f0 17bc
00000210: 342b 973c ba76 123d c174 a2bd c084 58bc
00000220: 0e18 f4bc 4228 28bd 3216 493d 5919 a33d
00000230: e0fa 513c 6ec3 4c3d 0214 74bd f8d7 673c
00000240: 3833 2abc c8e9 4abd e4ea 863c 1475 d13c
00000250: e03f 7ebb 0ab5 0b3d 88f4 1d3d 3135 953d
00000260: 9092 983b c08b 3b3b 00b0 96ba b9ee 84c0
00000270: 0773 b5c0 8ebd b3c0 201b 8bbd ecc4 66bd
00000280: 571e 8cbd 6a8f bac0 c219 c2c0 6b09 3bc0
00000290: a343 2e41 12fc b3c0 1571 c5c0 af44 9cc0
000002a0: 7467 4c3f 9d35 1f40 01f2 6dc0 7a5d 8bc0
000002b0: 89e1 b3c0 3b7c 61c0 97ff 96c0 a6ee b3c0
000002c0: a09f 463f 9c63 2fbd 35df 46c0 58be bd3f
000002d0: c395 3340 366d 9d40 6685 1dbf e3ab 4cc0
000002e0: 1107 3c40 0a8d 0abd efa6 80bd 17da 0f40
000002f0: 3447 d2bf b213 1ac0 2ac7 01c1 04ee 0bc0
00000300: 0a25 69bd 3c58 66bd 9aac afc0 9b51 bdc0
00000310: 289b d4c0 86cb ca3f 3201 98bf f00f b23f
00000320: 484a 8dbd d083 6abc 1664 5f3d 726d 3cbd
00000330: a2cd 6d3d c661 9ebd 0a8e 75bd abe0 2b41
00000340: 2d81 07bd d44b f13e 73fd c2c0 9a43 163d
00000350: bf01 a13d dfa4 b8bf 571b 1dbd 5940 76c0
00000360: 5dd1 c83f 70b7 10bd 0069 a3bb a99c 943d
00000370: d757 34bd 92c2 383d bcd5 183d 9349 aec0
00000380: c72e 1bc0 f812 f3bc 3ec8 073d f9f4 1abd
00000390: 04a6 b0bf 44ce e9c0 693c 69c0 8b59 87c0
000003a0: a9f3 00c0 1248 11c0 ccf9 d0c0 2184 223f
000003b0: 60b9 97bf 454d e9c0 0fb4 cbc0 66bc 19c0
000003c0: 5de0 08c0 d14c efc0 08d3 7fc0 a7af 07c0
000003d0: c2fe b3bf ae75 efc0 8430 2dc0 6768 aac0
000003e0: 80e8 35bf b4c2 8d3f 7911 c3c0 eb5a c2c0
000003f0: a1a8 a5be b275 bfc0 3c88 963e e384 c2c0
-0.033617288 0.014815211 0.06395403 -0.00486695 0.0082938075 0.0059642717 -0.0010260791 0.048222877
0.043461606 -0.043017663 0.07669636 0.046217643 -0.012567975 0.06993116 0.004319884 0.05075661
-0.068200804 0.07209889 0.07571872 -0.060017515 -0.07189188 -0.023377273 -0.049382947 0.021460533
0.03575392 -0.010234311 0.056363128 0.0030436888 -0.023607556 -0.06856046 0.025528021 -0.07567978
-0.0002746731 0.011740379 -0.044984154 0.02413033 0.015613839 0.053753234 0.050237156 -0.06500262
-0.059597425 -0.029480033 -0.057783563 0.02518396 -0.052626103 -0.06132377 0.023394719 0.04847575
-0.023351382 -0.08003731 0.01135201 0.04116209 0.062745206 0.0076211095 0.055761807 -0.07181888
0.07684224 -0.05186675 -0.05482567 0.05764491 -0.017848492 0.049569465 -0.056259423 0.06076949
0.076176934 0.024321131 0.06479522 -0.057359997 -0.017736122 0.02444829 0.045389123 -0.04288858
0.051111616 -0.026435595 -0.04287224 0.015712008 -0.06397703 -0.07371935 0.026707374 0.027358621
0.030887708 -0.010533303 -0.05874227 -0.064525574 0.07685994 -0.0696335 0.024208471 0.065235905
0.061363988 -0.050643317 -0.025898892 -0.06422001 0.050383456 -0.075377256 -0.07394332 -0.05362302
0.06551849 0.05206365 0.05381935 0.06162999 -0.037460618 -0.04479452 -0.049344577 0.026502892
0.0312441 0.016667284 -0.061793208 0.007135205 -0.042622097 -0.015795067 -0.0124345645 0.003992617
-0.070427805 0.068562694 -0.034178708 0.025096752 0.055313207 0.032367304 0.056251027 0.04535643
0.058815055 0.016952604 0.051301517 -0.034913868 -0.043281037 0.03835415 0.021075264 -0.0030120537
-0.06775226 0.026246302 0.052028798 -0.009273529 0.018453218 0.035757758 -0.07932425 -0.013215244
-0.029796626 -0.041054018 0.049093433 0.07963819 0.012816161 0.049991064 -0.059589393 0.014150612
-0.010388188 -0.049539357 0.016469426 0.025568523 -0.0038795397 0.0341082 0.03856328 0.07285536
0.0046561435 0.0028617233 -0.0011496544 -4.154141 -5.6702914 -5.616889 -0.06792283 -0.056340143
-0.06841724 -5.8300066 -6.0656443 -2.9224498 10.891513 -5.6245203 -6.170054 -4.883384
0.79845357 2.4876473 -3.7178957 -4.3551607 -5.621281 -3.5232074 -4.7187 -5.622882
0.7758732 -0.042819604 -3.1073735 1.4823713 2.8060157 4.9195814 -0.61531675 -3.1979911
2.9379313 -0.03382591 -0.0628184 2.2476861 -1.642798 -2.407452 -8.111124 -2.1864023
-0.05692009 -0.05623649 -5.4898195 -5.9162116 -6.64394 1.584336 -1.1875365 1.3911114
-0.06898934 -0.014313653 0.05453881 -0.046002813 0.058057435 -0.077334926 -0.059949912 10.742351
-0.033082176 0.47128165 -6.0934386 0.036685564 0.07861661 -1.4425315 -0.03835615 -3.8476775
1.5688893 -0.03533119 -0.004986882 0.07256443 -0.044029083 0.04510743 0.037313208 -5.446481
-2.42473 -0.029672131 0.03314995 -0.03783128 -1.3800664 -7.306429 -3.6443121 -4.2296805
-2.0148718 -2.2700238 -6.530493 0.6348286 -1.1853447 -7.2906823 -6.36573 -2.402124
-2.138694 -7.478127 -3.9972553 -2.120096 -1.4062121 -7.483115 -2.7060862 -5.3252444
-0.7105789 1.1075044 -6.095883 -6.0735984 -0.32355216 -5.983117 0.29400814 -6.0787215

net.0.bias f4 [100]
00000000: fe37 d2bc c4c9 843f f0c9 873f 8780 853f
00000010: 5b4f 693f 9916 91bd 0baa 8c3f 1c74 943f
00000020: 03bb 75bd 8684 8f3f c697 95bd 10d2 883f
00000030: 6649 863f 4c43 8ebd 2e52 2f3c 9bb5 903f
00000040: 8240 893f 1f9b 8a3f ebf9 35bd b5e7 913f
00000050: 6eec 82bd 979e 853f a2fc 32bd 9d0f 7c3f
00000060: 49ac 913f 58d8 903f b414 913f ee8b fdbc
00000070: 2a1a 843f e457 843f 22f1 873f ba9b 8a3f
00000080: 927c 903f e9f1 933f 2126 8d3f 6724 87bd
00000090: 3979 933f a59f 98bd 7ca6 8c3f 85bd 8a3f
000000a0: c4ef 873f 60d5 823f 89b6 873f a020 923f
000000b0: abb4 51bd 7115 8d3f 313f 8f3f 74dd 923f
000000c0: e74e 813f 7933 933f b7fb a0bd cdcb 35bd
000000d0: 35f4 8ebd 1c93 8b3f 6c76 4bbd a0e8 913f
000000e0: 39b7 5cbd 8592 8a3f 7dd1 933f f71e a2bd
000000f0: 016c 8d3f 8df1 813f 31c5 903f 94b8 863f
00000100: 8825 8dbd d0bd 8b3f 3174 893f 6445 8b3f
00000110: 78f1 903f 90f6 6b3f 2592 18bd 5a3d 953f
00000120: fd12 20bd fa5b 903f c61a 893f 2454 a1bd
00000130: 72f7 873f f4b9 8b3f 52d3 83bd 1cc6 893f
00000140: 8bfd 07bd dad5 28bd db1b 8f3f 7a55 8d3f
00000150: 2005 913f 8f72 0bbd d235 863f 3320 52bd
00000160: 7f8c 893f ce79 923f 3d00 8a3f a0f2 e3bc
00000170: d29a 903f 03c2 863f 7180 8d3f ed50 933f
00000180: 42ee 923f c343 953f f299 94bd 44c8 8c3f
-0.025661465 1.0374074 1.0608501 1.0429848 0.9113671 -0.07084388 1.0989393 1.1597934
-0.0599928 1.1212318 -0.07304339 1.0689106 1.049115 -0.069464296 0.0107007455 1.1305422
1.0722811 1.0828589 -0.044427793 1.1398836 -0.06392752 1.0439023 -0.04369796 0.98461324
1.1380702 1.1316023 1.1334443 -0.030950513 1.0320485 1.0339322 1.0620463 1.0828774
1.1288016 1.15582 1.1027261 -0.0659874 1.1521369 -0.07452325 1.0988307 1.0839087
1.0620046 1.0221367 1.060258 1.1416206 -0.05119769 1.1022168 1.119116 1.1473832
1.0102204 1.1500083 -0.07860511 -0.044383813 -0.069801725 1.0904269 -0.049673483 1.1399117
-0.053885672 1.0825964 1.1548306 -0.07916062 1.1048585 1.015184 1.1310178 1.0525079
-0.06891924 1.0917301 1.0738584 1.0880551 1.132369 0.921731 -0.03724875 1.1659348
-0.03908061 1.1278069 1.0711296 -0.07877377 1.0622389 1.0916123 -0.064367905 1.0763583
-0.03320078 -0.04121957 1.1180376 1.104171 1.1329689 -0.0340448 1.0485175 -0.05130024
1.0746001 1.1443422 1.0781323 -0.027825654 1.1297247 1.0527958 1.1054822 1.1509072
1.147896 1.1661304 -0.07255925 1.0998616

net.2.weight f4 [100, 100]
00000000: a984 a63d 1e46 a93d a40d c6bd f604 8b3d
00000010: 1740 3dbd c720 4dbd c98b 87bd 0217 86bd
00000020: 1819 80bc c272 7ebc 7d75 33bd 8be0 4e3d
00000030: cc85 91bd 6972 b63d c52e d5bd 603f ba3c
00000040: 5f46 94bd 1b3e 86bd 5438 c23c 13eb 01bd
00000050: ed66 89bd 6b7b 81bc 709f 93bd cd9a 73bd
00000060: 1b0f 393d a95a febb 9499 1ebd 83fc a33d
00000070: 5fae 843b 486f 7f3d 6b4d 013d 991d b0b9
00000080: 34ff 4dbd e7e6 6cbd 69b8 9a3d 5425 af3c
00000090: 9070 923d d6c2 743d 2747 81bc 0aef d0bd
000000a0: b4de 013d ac06 dcbc b6b9 773c d108 4ebd
000000b0: 3ded a03d bfb2 a83d 45dc 95bd e480 14bd
000000c0: 1088 aabd c8db 0d3d 4d64 94bd fb5b 9ebd
000000d0: 73b6 95bd 1b96 b8bd eb34 9e3d cb31 69bd
000000e0: 2b80 5a3d c8f2 09bd 93ba 30bd 6067 e0bc
000000f0: 2612 b9bd c179 a03c 90aa 5dbd 5bc2 a33c
00000100: ca80 aebd eebd e23a a380 943d af52 28bd
00000110: 1ba6 433c ca2f cabd a34c 27bd 2a42 8d3d
00000120: c1cc 0b3d a14b bf3c ee24 093d 7844 a7bc
00000130: 245a 50bd 12c0 a73d 2c33 16bd 02ed 95bc
00000140: 2836 9bbd 6bfc 9c3d 00c5 3ebd 3717 50bd
00000150: c24e 9bbd fabb a23c b3bd a7bd 7d69 b03d
00000160: 8c34 893d 588b b0bd 8cea cfbd ac0f d63c
00000170: 01dd 93bd 0f04 cbbd 4428 483d 23cf 1fbd
00000180: d33b e03b f498 54bb 57a5 7fbd 18f5 80bd
00000190: f666 0e3d 5aaa a13f dd0c ad3f 9321 aa3f
000001a0: a022 a33f 8b6a ca3d 2946 a13f efa5 9a3f
000001b0: e50f 94bd cb37 ad3f 8d55 aebd d193 b03f
000001c0: df55 b73f 3137 c03d 2982 f53d 5c30 ae3f
000001d0: 887c a13f f6a9 b33f 72a4 283d 687b a83f
000001e0: ad7a b3bd d759 bd3f 0ce1 c23c ccc6 b33f
000001f0: 968f a73f 5ccd 9c3f 0a23 b63f 5571 c8bd
00000200: a85e a53f 776b be3f 12f9 a93f 0529 b03f
00000210: 70e4 b23f 41a2 a73f 46a5 a63f 4aff 353d
00000220: 0e6b a53f da48 293d 4a4e a83f 0849 a93f
00000230: 5d15 a23f 64d1 9e3f 36ee a53f bc01 a23f
00000240: 42a3 013d 3e49 aa3f b019 a13f f349 9d3f
00000250: 05f3 a73f f380 ac3f 00cd c03b 50b6 3e3c
00000260: aaf6 5bbd 52fa a33f f09c 61bc 9544 ad3f
00000270: ceb7 9fbd 55ea b33f 455c b13f 4f5c cabd
00000280: 89a6 ac3f d988 b33f 96ae ac3f e0b1 a93f
00000290: 630e 813d 2982 a13f 0d12 a53f 3747 b23f
000002a0: 8f5a a33f 3192 af3f a8bc 3dbc 20eb 9a3f
000002b0: e760 88bd fede a73f ea1b a33f b914 b73d
000002c0: ebb5 bc3f 918a b03f 8b44 9cbd 5f13 a63f
000002d0: bb1a 973d 20d5 a63c 4c1f ad3f abfd a63f
000002e0: d168 a43f cb50 69bc 8639 b33f 5491 9fbc
000002f0: 06b1 a83f 6190 ae3f e807 aa3f 2813 73bc
00000300: 11fd b23f 8723 af3f aff4 ae3f 758f a23f
00000310: f50c b03f 1714 a13f df7a c83d b415 a53f
00000320: 257d 95bd 781e b1bc 33db 963d 19b0 a03d
00000330: b0b4 e73b 4173 8e3d b4a9 08bd 98d0 21bc
00000340: 41a1 963d 404f 8eba f4e2 ac3c 829e 733d
00000350: 5074 fd3b eda4 6ebd 0082 313c d071 c5bb
00000360: f06f 22bc 7728 c63d 77ae ae3d 2883 b9bd
00000370: 2004 15bd 704e 34bc 421b 6c3d e8a1 b3bc
00000380: 40d2 7bbc 0c4f d4bc c72e 7fbd 8fef afbd
00000390: 4bc3 a2bd 0076 9b3c 86f4 3e3d 8049 d2bb
000003a0: f391 bc3d b456 8ebc 2993 983d a056 89bc
000003b0: 2dbe 63bd 18dd 203c 372a ccbd 9e82 193d
000003c0: 6087 ad3c 92de 3e3d aea7 553d 91dd af3d
000003d0: 465b 86bd 6ff6 c0bd e892 0b3c 90db 34bd
000003e0: 80d9 033a a172 b13d 5815 2e3c 68e0 443c
000003f0: 3e61 aabd 8042 093a ed38 a4bd 6803 cdbc
0.08130772 0.08265327 -0.096705705 0.067880556 -0.0462037 -0.050080087 -0.06618459 -0.06547357
-0.015636966 -0.01553029 -0.043813217 0.05050711 -0.07105598 0.08908541 -0.10409311 0.022735298
-0.07239985 -0.065548144 0.0237085 -0.031718325 -0.06709085 -0.01580592 -0.07208145 -0.0594738
0.04518042 -0.0077622724 -0.038720682 0.08007147 0.004049107 0.062361985 0.031567972 -0.00033591388
-0.05029221 -0.057837393 0.07554705 0.021380104 0.07150376 0.059756123 -0.015780998 -0.10201843
0.031706527 -0.02685865 0.0151199605 -0.050301377 0.078577496 0.08237218 -0.07317404 -0.036255732
-0.08326733 0.034633428 -0.07245693 -0.07732388 -0.0731019 -0.09013005 0.07724937 -0.056932252
0.053344887 -0.0336788 -0.04314668 -0.027393043 -0.09036665 0.019589307 -0.05411774 0.019990137
-0.08520658 0.0017299035 0.07251098 -0.04109448 0.011941458 -0.09872396 -0.04084457 0.068973854
0.034130815 0.023351492 0.033482485 -0.02041839 -0.050867215 0.081909314 -0.036669895 -0.01830149
-0.07578689 0.076653324 -0.046574593 -0.05080339 -0.07583381 0.019865025 -0.08190479 0.0861387
0.06699476 -0.08620328 -0.10152158 0.02613052 -0.072198875 -0.099128835 0.048866525 -0.0390159
0.006843069 -0.00324398 -0.06241354 -0.06296748 0.03476616 1.2630112 1.351955 1.3291496
1.2744942 0.09883603 1.2599536 1.2081889 -0.07229594 1.3532652 -0.08512411 1.379511
1.4323081 0.09385527 0.11987717 1.3608508 1.2616129 1.4036243 0.041172452 1.3162661
-0.08763633 1.4793042 0.023788951 1.4045043 1.3090694 1.2250171 1.4229443 -0.09787241
1.2919512 1.4876546 1.3279135 1.3762518 1.3975964 1.3096391 1.3019187 0.044432916
1.2923295 0.041329242 1.3148892 1.3225412 1.266277 1.2407651 1.2963321 1.2656779
0.031649835 1.3303602 1.2585964 1.2288193 1.3121039 1.3476852 0.005883813 0.011640146
-0.053702034 1.2810767 -0.013770327 1.3536555 -0.0779873 1.4055887 1.3856283 -0.09880888
1.3488322 1.4026138 1.3490779 1.3257408 0.06301572 1.2617847 1.2896134 1.3927983
1.2762011 1.3716489 -0.011580624 1.2103004 -0.06659108 1.3114927 1.2742894 0.089394994
1.4743017 1.3792287 -0.07630261 1.2974662 0.07378145 0.020365298 1.3525176 1.3046163
1.2844487 -0.014240454 1.400193 -0.019478478 1.3179023 1.3637811 1.3283663 -0.01483611
1.398348 1.3682717 1.3668422 1.270003 1.3753954 1.2584256 0.09789061 1.2897248
-0.0729926 -0.021620974 0.07366028 0.07846088 0.0070711 0.06955577 -0.033364967 -0.009876393
0.073549755 -0.0010857359 0.021104313 0.059477337 0.007734813 -0.058262754 0.010834217 -0.0060255304
-0.009914383 0.09675687 0.0852937 -0.09058219 -0.036380887 -0.011005029 0.057643183 -0.021927789
-0.015369952 -0.025916599 -0.06230047 -0.08590614 -0.079474054 0.018977165 0.046619914 -0.0064174533
0.09207525 -0.017375328 0.074499436 -0.016764939 -0.055601288 0.009818338 -0.09968989 0.037478082
0.021182716 0.04659898 0.052161865 0.08587182 -0.06560378 -0.094220035 0.008518912 -0.044154704
0.00050296634 0.08664442 0.010625206 0.012016393 -0.08319329 0.00052360445 -0.0801867 -0.025026038

net.2.bias f4 [100]
00000000: b242 5f3b b3a0 613f 2a3a 52bd 58ff 433f
00000010: af2e 0b3c 6cd4 6e3f 44a6 643f 827f e1bc
00000020: b949 373f f5a6 2bbd 3c6b 723f 7e07 733f
00000030: e05a babb cbfe 5d3f dcaa 363f f8e7 493f
00000040: 2b7d a4bd 1ac0 5e3f 0f62 763f c862 893c
00000050: ef08 3a3f 1362 6a3f 7299 403f 6b5d 393f
00000060: faa5 bfbd 6c1d c23c bd99 693f 0b53 6a3f
00000070: 773e 543f 2243 373f 59f5 a8bd 286d 573f
00000080: 961c 723f 18a0 aabc b08c 9f3c 1535 6c3f
00000090: 2310 5d3f 7be1 15bd d45a a8bc dabe 93bd
000000a0: c016 ba3a 5be3 cabd b853 403d 3c87 5c3f
000000b0: 69d4 4f3f db24 823d a455 423f 1072 bdbb
000000c0: abd0 3abd 2b89 523f 63b5 8c3c 333b 633f
000000d0: cb44 a2bc ff7e 5b3f 4350 513f a691 493f
000000e0: c19b 4c3f 40fa 5f3f 1524 3e3f f120 40bd
000000f0: e85d 57bc 2852 28bc ba88 703f f3e1 853d
00000100: 9e97 493f bc4d afbc fdaa 323f 2001 6abd
00000110: c883 503f e0b6 a8bc de67 6b3f 2cff 413f
00000120: 5763 583f cf91 b8bd 4e22 2bbd a8b0 d53a
00000130: 18d8 25bd 2731 803f f68f 593f c893 6e3f
00000140: 527d 513f 083d 513f 2a99 bcbd 0b88 6b3f
00000150: cccc 3f3f 7e5b 763f 093f 5c3f b708 3cbd
00000160: 77c2 5d3c 27cc 503f 2559 aebd 1f48 c0ba
00000170: b375 483f 46d1 5f3f eb7b 643d d71e 51bd
00000180: fa75 bdbd a2b1 a2bd 2a9d 94bb 34e8 9cbc
0.0034066853 0.8813583 -0.051325 0.765615 0.008495017 0.9329288 0.893162 -0.02752662
0.71596867 -0.04190727 0.94694877 0.9493331 -0.0056871027 0.8671691 0.7135446 0.7886958
-0.080316864 0.87011874 0.96243376 0.016770735 0.7266988 0.915559 0.7523414 0.7240817
-0.093578294 0.02369567 0.9125021 0.91532964 0.82907814 0.7158681 -0.08249921 0.84150934
0.9457487 -0.020828292 0.019476265 0.92268497 0.8635275 -0.036591988 -0.020551123 -0.072141364
0.0014197454 -0.09906646 0.04695484 0.8614385 0.8118349 0.06354686 0.7591193 -0.0057814196
-0.045609158 0.8224055 0.017176336 0.88762206 -0.019808194 0.85740656 0.81763095 0.78737867
0.7992516 0.87491226 0.74273807 -0.046906415 -0.013144948 -0.010273494 0.9395863 0.06537237
0.78746974 -0.021399371 0.6979216 -0.05712998 0.8145108 -0.020595014 0.91955364 0.75779986
0.8452658 -0.09012186 -0.041780762 0.0016303258 -0.040489286 1.0015 0.8498529 0.93194246
0.8183185 0.8173375 -0.09208901 0.9200446 0.7492187 0.96233356 0.86033684 -0.04590675
0.013535134 0.8156151 -0.08513097 -0.0014669931 0.78304595 0.874287 0.05578224 -0.0510548
-0.09251018 -0.07944037 -0.004535337 -0.019153692

net.4.weight f4 [11, 100]
00000000: a105 56bd 46a5 a63f 6629 473d 0d60 9d3f
00000010: 9427 a03d bd14 b13f 015c a83f 655d f9bb
00000020: 29f2 af3f 3382 883d 4a53 ab3f 34db a43f
00000030: a2cc c03d 18ac a93f 15d5 ab3f 8818 b63f
00000040: 3877 a73c 7103 b73f 1433 a83f 73e6 58bd
00000050: f647 b23f a853 b63f 2bae b93f 27d5 ad3f
00000060: 0f4a 133d d982 a1bd 5dff b53f 1b8c b63f
00000070: 3db2 9f3f 6500 a83f 6c27 b83c a69c a93f
00000080: d32f b23f ca56 42bd 3d98 d7bc 7d50 a03f
00000090: 2f6b a73f 539c 2bbd dac2 52bd 7c45 9b3d
000000a0: 58d7 4dbc 7da3 7dbd 26e5 1ebd b69c af3f
000000b0: 433f a63f 8d3e d63d d895 b03f eb79 40bd
000000c0: 4460 74bd 1f06 a63f 1326 7cbd dd8a b23f
000000d0: 5fb4 87bd abc4 b23f b856 a33f d349 af3f
000000e0: fbda a73f 967a b13f 0fb2 a23f 2366 a03d
000000f0: d9c0 953d cb33 b73d e019 a63f 6ab2 35bd
00000100: 596d a53f 93d1 d8bc f37e a73f 97a8 35bd
00000110: 0796 a03f 689d c7bc c5e1 b73f 5629 b53f
00000120: b109 a73f 887d a93d 9db4 24bc 1b2d b5bb
00000130: 362e aebd d382 b63f 3608 9e3f aa18 af3f
00000140: 0591 9f3f deed b53f ddb6 bbbd 268a b13f
00000150: 385d 963f d12c ae3f 15ca b23f 3f1e b13d
00000160: fc98 a13b 12f2 b63f c9ed 863d 06c4 bc3d
00000170: 4747 a43f e90e aa3f d9a5 983c d616 8cbd
00000180: 5830 9a3c 72de 853d 3e5c fc3c 356f b8bd
00000190: ab54 0dbd 2fbc 8d3f b532 abbd 6e9e 8d3f
000001a0: ba19 0dbd f1f3 853f b5c8 863f 968d 92bc
000001b0: c470 7a3f 47f5 5bb9 cfd6 853f 6970 923f
000001c0: 1787 d23a 3d80 883f 5517 8a3f f8ef 943f
000001d0: 6003 9ebd af84 843f 5bfb 873f 6959 b23d
000001e0: 1908 863f 2c81 853f 419b 823f 995f 703f
000001f0: 841c b1bd d7f3 96bd d178 8d3f 566f 873f
00000200: 28db 763f 9a0e 863f 5861 2fbc 3e0d 8e3f
00000210: 8526 923f 3115 b33d a3c3 3b3d a799 953f
00000220: b174 943f 10f9 13bd b89f afbd b45e 803a
00000230: 5fe3 9a3d 8302 603d a7cc 6fbc cb7f 863f
00000240: e9bf 913f 1a5f 8b3d d875 923f c8be 593d
00000250: c460 b9bc 8644 793f 3d56 a23d 1d33 7f3f
00000260: ef56 55bd a376 893f 1b3f 873f 9b11 7d3f
00000270: c5f8 893f aae9 8d3f 63d4 683f 8c3e 4cbc
00000280: e01d adbc f2f8 6b3d ca59 8e3f 8014 86bd
00000290: 9562 803f 19ce 1f3b d5ec 753f a68d aabd
000002a0: 5bcc 8b3f 982c efbc c65d 793f 7089 913f
000002b0: 6f5a 803f cef7 aebd dbf4 c33b 5acb 84bd
000002c0: 6367 a03d a2f1 883f 5294 813f 449a 8d3f
000002d0: 205c 803f 836b 863f e274 6e3d 91cd 943f
000002e0: 7dcf 633f 0be0 933f e856 783f fa19 463d
000002f0: 4e1d 82bd af0a 883f 92b5 84bd 4ece d63d
00000300: 359e 763f 9106 8a3f 510d ec3d 3b3a a7bd
00000310: ca57 64bd dabc 5e3d 203b 843d 9a9f 243d
00000320: c366 d0bc dd5f 7c3f 0775 c53d 8a90 7d3f
00000330: d42c aebd 3265 8c3f c891 843f f1a0 babd
00000340: ea86 7a3f afdb 99bd 6e26 813f 0ca7 863f
00000350: 58a6 d7bc 05f4 8b3f f382 713f 5e04 903f
00000360: 5b9f b2bd 700a 733f 4f1c 843f 791b 9d3d
00000370: d432 803f e044 753f 41d2 8d3f d404 803f
00000380: de71 cdbc fa42 89bd 539c 873f a3c2 843f
00000390: c9b1 8b3f 9f56 6c3f 5672 0bbc a7a7 8f3f
000003a0: e59f 8c3f c075 06bd 6d95 8bbc 9378 8d3f
000003b0: b735 893f 0f3c acbd a22a 503d d1cb cdba
000003c0: bf4e bf3d 0ec0 7fbd 0b34 e3bc 60fd 8f3f
000003d0: ac89 803f ab4c a4bd 83ab 8a3f 24c5 ad3b
000003e0: 7ef8 5a3d 6fea 803f 9a2f c63d a728 823f
000003f0: 727c c93b 714f 8d3f 1564 823f cc3f 703f
-0.052251462 1.3019187 0.048623465 1.2294937 0.07820049 1.3834454 1.3153077 -0.0076100104
1.3745776 0.066654585 1.3384793 1.2879395 0.094140306 1.3255644 1.3424402 1.4226236
0.02044259 1.4297925 1.3140588 -0.05295415 1.3928211 1.424428 1.4506277 1.3580674
0.0359593 -0.07886285 1.4218556 1.4261507 1.2476269 1.312512 0.022479735 1.325093
1.3920845 -0.04744605 -0.02631771 1.2524563 1.3079585 -0.04189713 -0.051455356 0.075816125
-0.012563549 -0.061923493 -0.03879275 1.3719699 1.2988056 0.10461149 1.3795729 -0.04699127
-0.05966212 1.2970618 -0.061559748 1.3948628 -0.066262 1.3966268 1.276084 1.3694404
1.3113703 1.3865535 1.2710589 0.07831981 0.073121734 0.089454256 1.2976646 -0.044359602
1.2923995 -0.02646712 1.3085617 -0.044350233 1.2545785 -0.02436705 1.4365774 1.415324
1.3049833 0.08275896 -0.010052827 -0.0055290586 -0.08504908 1.4258674 1.2346256 1.3679402
1.2466131 1.4213216 -0.09165738 1.3870285 1.1747198 1.3607427 1.396792 0.08648347
0.0049315672 1.4292624 0.06588323 0.09217076 1.2834252 1.32858 0.01863377 -0.06840293
0.01882188 0.06536569 0.030805703 -0.09005586 -0.034504574 1.1073054 -0.08359281 1.1063974
-0.034448363 1.046507 1.0530001 -0.017889779 0.97828317 -0.0002097684 1.0456179 1.1440555
0.0016061988 1.0664135 1.078837 1.1635733 -0.077154875 1.0352992 1.0623583 0.0870846
1.0471221 1.0430045 1.020363 0.9389587 -0.08648017 -0.073707275 1.1052495 1.0580852
0.96428156 1.0473206 -0.010704361 1.1097791 1.1418005 0.08744276 0.04584087 1.1687516
1.1598111 -0.036126196 -0.08575386 0.0009793849 0.07562899 0.054689895 -0.014636195 1.0507749
1.1386691 0.068052486 1.1442213 0.05316046 -0.02262915 0.97370183 0.07926605 0.9968737
-0.05208486 1.073933 1.0566133 0.9885499 1.0779043 1.1086934 0.90949076 -0.012466084
-0.02113241 0.05761046 1.1121151 -0.06546879 1.0030085 0.0024384318 0.960645 -0.083277985
1.0921739 -0.029196069 0.9740871 1.1370068 1.0027598 -0.08543359 0.005980117 -0.06484099
0.078322195 1.069874 1.0123389 1.1062703 1.0028114 1.050156 0.058216937 1.1625234
0.88988477 1.1552747 0.9700761 0.048364617 -0.06353246 1.062826 -0.06479944 0.10488568
0.96335155 1.0783254 0.115259774 -0.081654035 -0.055747785 0.05437932 0.0645659 0.04019127
-0.025439626 0.98583776 0.09641462 0.99048674 -0.08504644 1.0968382 1.0356989 -0.091127284
0.9786211 -0.075126044 1.0089853 1.0519729 -0.026324436 1.0933844 0.9434044 1.1251333
-0.08721801 0.949378 1.0321139 0.076712556 1.0015512 0.9580822 1.1079789 1.0001473
-0.02507871 -0.06702228 1.0594581 1.0371898 1.0913631 0.92319673 -0.0085111465 1.1223038
1.0986296 -0.03282714 -0.017039025 1.1052421 1.0719517 -0.08409893 0.050821908 -0.0015701001
0.093411915 -0.062439017 -0.027734777 1.1249199 1.0042014 -0.08022436 1.0833591 0.005303042
0.053459637 1.0071543 0.09677048 1.0168656 0.0061488682 1.1039869 1.0186793 0.93847346

net.4.bias f4 [11]
00000000: 980a d1be b207 5940 d39c 6e3f 8374 573e
00000010: e11d 05c0 2deb 2840 e576 7fbf fdf3 59be
00000020: ae45 cdbf c4b8 8640 da00 94bf
-0.40828395 3.3910947 0.93208045 0.2104054 -2.0799487 2.639354 -0.99790794 -0.2128448
-1.603689 4.2100544 -1.156276
