models/part1.pt (torch, 45703 bytes, 6 tensors)

net.0.weight f4 [50, 155]
000000 ac 23 3c bf a9 5c 77 bf ca e2 b2 bf f0 7a 9f bb
       -0.7349193 -0.96625763 -1.397546 -0.00486695
000010 c0 e2 07 3c f0 6f c3 3b e2 f7 c1 bf b7 f5 c3 bf
       0.0082938075 0.0059642717 -1.5153773 -1.5309361
000020 e0 b5 83 be c5 b1 6c 40 88 96 a4 bf 9c bb c5 bf
       -0.25724697 3.6983502 -1.2858438 -1.5447879
000030 4e 79 64 bf 94 54 02 3f e9 61 70 3f 61 da f3 be
       -0.89247596 0.50910306 0.938994 -0.47627547
000040 87 6c 60 bf 1f 9c af bf ea 50 e2 be 35 55 37 bf
       -0.876656 -1.3719519 -0.44202358 -0.7161439
000050 49 64 c4 bf 86 3f 08 3f c6 45 4a bd 14 a1 12 bf
       -1.5343105 0.5322193 -0.049382947 -0.57277036
000060 8c ea 29 3f 61 a5 b5 3f c3 d5 cc 3f 20 69 bc 3e
       0.66373515 1.4191095 1.6002735 0.36798954
000070 91 6d 31 be d1 91 08 3f 24 20 d1 3c 00 fe 9a bd
       -0.17326953 0.533475 0.025528021 -0.07567978
000080 73 65 86 3f 74 c3 8d be e5 0b 34 bf 99 c1 9a bf
       1.049971 -0.2768818 -0.7033065 -1.2090331
000090 ca 18 72 be 5a 2c 5c 3d 7a c5 4d 3d b8 84 bf bf
       -0.23642269 0.053753234 0.050237156 -1.4962378
0000a0 c3 b1 c9 bf 03 c5 86 bf 7d 6e 1b be f5 18 56 3e
       -1.5757374 -1.0528873 -0.15178867 0.20907958
0000b0 54 c7 1b be e3 f2 cd 3e 48 a6 bf 3c 82 8e 46 3d
       -0.15212756 0.4022437 0.023394719 0.04847575
0000c0 66 4b bf bc 9a ea a3 bd c8 fd 39 3c 94 99 28 3d
       -0.023351382 -0.08003731 0.01135201 0.04116209
0000d0 75 dd 67 40 80 ba f9 3b 31 a4 fe 3f bd e4 fe bf
       3.6228917 0.0076211095 1.9893857 -1.9913555
0000e0 77 5f 9d 3d 3b 72 54 bd 51 4e 63 be 12 1d 6c 3d
       0.07684224 -0.05186675 -0.22197844 0.05764491
0000f0 ae 87 8c be 7e ad 71 3f 48 70 66 bd 6e e9 78 3d
       -0.27447265 0.94405353 -0.056259423 0.06076949
000100 a7 02 9c 3d 1c 3d c7 3c 5b b3 84 3d 51 f2 6a bd
       0.076176934 0.024321131 0.06479522 -0.057359997
000110 6f d0 47 bf 4c 01 0d bf f2 e9 39 3d f0 ab 2f bd
       -0.7805242 -0.55080104 0.045389123 -0.04288858
000120 6a 5a 51 3d bb 24 2b be cd 3a 06 c0 50 ea 45 bf
       0.051111616 -0.1671323 -2.097339 -0.7731066
000130 61 23 30 bf 3e 50 3e bf fb 91 6d bf 4a 31 e5 bf
       -0.68803984 -0.7434119 -0.92800874 -1.7905667
000140 3b fa 1e 3f ee 80 cb be 7d cf f8 bf 3e db ab bf
       0.6210057 -0.39746803 -1.943832 -1.3426282
000150 f2 7a 01 3e 5d 40 88 bd d5 e3 1f c0 1f 2a 09 bf
       0.12644556 -0.06652901 -2.4982808 -0.53579897
000160 81 43 02 bd 57 11 af be bb d5 15 c0 8e f1 1a bf
       -0.031802658 -0.34192917 -2.34117 -0.60524833
000170 a2 db 93 bf a8 64 c8 be 6c d9 83 be 6e 45 ca bf
       -1.1551402 -0.39139295 -0.25751817 -1.5802438
000180 de ba b8 bf 64 f6 6b be 72 fe ba bf 16 05 f3 3d
       -1.4432027 -0.2304321 -1.46089 0.118662044
000190 48 84 c7 bf 86 16 66 be fc be e7 bd 49 db 58 bd
       -1.5587244 -0.2246953 -0.11315724 -0.0529435
0001a0 44 f8 42 bd be b1 c7 3f c5 a6 bd 3f 64 79 c6 3f
       -0.047600046 1.5601118 1.4816519 1.5505795
0001b0 f1 1a c0 3f fe 89 c3 3f 1d f8 c3 3f 6a 12 c6 3f
       1.5008222 1.5276487 1.5310093 1.547437
0001c0 d9 8b bc 3f 3f 56 ce 3f 9d 2f c1 3f f5 c5 c8 3f
       1.4730178 1.612007 1.5092655 1.5685412
0001d0 15 a4 cc 3f 5f 2c 5b bf 9a 38 24 3f 45 9c 23 3e
       1.5987574 -0.8561458 0.6414887 0.15977581
0001e0 97 75 8e be 1a c1 c1 3e 5e d8 96 be a0 9f 17 3f
       -0.2782409 0.37842637 -0.2946195 0.59227943
0001f0 57 bb 05 c0 b3 d8 ef bf 42 b1 a7 bf 5a ca 1f 3f
       -2.0895593 -1.8738006 -1.310097 0.6241814
000200 dc 80 69 be c7 1f 55 3e ff e0 39 3e a2 7a 68 be
       -0.22803062 0.20812903 0.18152235 -0.2270303
000210 34 70 92 be 8a ba 2e bf 4b ae 9d bf 08 e1 9d bf
       -0.2860123 -0.68253386 -1.2318815 -1.2334299
000220 7c 29 a3 3e 8d 9a fe 3f 0b 7e a1 bb 6e f4 08 40
       0.31867588 1.9890915 -0.0049283556 2.1399188
000230 0d 3f da be d3 0d b0 3e ac dd 19 40 3e ac d3 3f
       -0.4262623 0.34385547 2.4041548 1.6536939
000240 38 33 2a bc 4d c0 cd 3f 49 0c e4 3d bf 06 e8 3d
       -0.010388188 1.607431 0.11135156 0.11329412
000250 f8 92 45 3f b1 3e c1 3f ec e3 2d be c4 31 27 3e
       0.7717738 1.5097257 -0.16981477 0.16327578
000260 ec a0 c1 3f 8d ba c2 3e ae 3c 85 3e 76 46 2b bf
       1.5127234 0.38032952 0.26022857 -0.6690439
000270 02 b9 81 bf 40 65 ba bf 20 1b 8b bd ec c4 66 bd
       -1.0134585 -1.4562149 -0.06792283 -0.056340143
000280 57 1e 8c bd e4 de b7 bf 06 78 ce bf ab d4 98 be
       -0.06841724 -1.4364896 -1.6130378 -0.29849753
000290 50 65 71 40 e7 77 a2 bf e9 d3 c4 bf ba f0 6a bf
       3.7718086 -1.2692841 -1.537717 -0.9177357
0002a0 48 f5 09 3f df 56 61 3f 21 79 00 bf 53 93 37 bf
       0.53889894 0.8802318 -0.5018483 -0.71709174
0002b0 c9 18 ae bf 92 8d 02 bf 9e 9c 2f bf 4a a5 b4 bf
       -1.3601314 -0.5099727 -0.68598354 -1.4112942
0002c0 96 a1 23 3f 9c 63 2f bd 46 16 17 bf de eb 19 3f
       0.63918436 -0.042819604 -0.5901836 0.6012553
0002d0 30 bc bd 3f d2 de ca 3f 74 ef dd 3e 17 c0 18 be
       1.4823055 1.5849249 0.4334675 -0.14917026
0002e0 48 9a 0d 3f 0a 8d 0a bd ef a6 80 bd d0 84 86 3f
       0.5531354 -0.03382591 -0.0628184 1.0509281
0002f0 b4 5d 73 be 97 0b 35 bf 08 fc 9a bf 8d 2e 9f be
       -0.23766214 -0.7072081 -1.2108164 -0.31090203
000300 0a 25 69 bd 3c 58 66 bd 53 04 b8 bf 72 a0 c4 bf
       -0.05692009 -0.05623649 -1.437632 -1.5361464
000310 90 72 7c bf b4 cd 2c bd bd 2c 89 3e 59 a1 89 bd
       -0.9861231 -0.04218836 0.26791945 -0.06720228
000320 df 7b f3 3e d0 83 6a bc 16 64 5f 3d 72 6d 3c bd
       0.47555444 -0.014313653 0.05453881 -0.046002813
000330 a2 cd 6d 3d c6 61 9e bd 0a 8e 75 bd c4 cb 66 40
       0.058057435 -0.077334926 -0.059949912 3.6061869
000340 2d 81 07 bd f0 fd fb 3f 87 d1 e9 bf 9a 43 16 3d
       -0.033082176 1.968687 -1.8267068 0.036685564
000350 bf 01 a1 3d 54 42 45 be 57 1b 1d bd 56 72 82 be
       0.07861661 -0.19263583 -0.03835615 -0.25477856
000360 24 28 63 3f 70 b7 10 bd 00 69 a3 bb a9 9c 94 3d
       0.88733125 -0.03533119 -0.004986882 0.07256443
000370 d7 57 34 bd 92 c2 38 3d bc d5 18 3d d1 5e 2e bf
       -0.044029083 0.04510743 0.037313208 -0.6811343
000380 f9 68 09 bf f8 12 f3 bc 3e c8 07 3d f9 f4 1a bd
       -0.536758 -0.029672131 0.03314995 -0.03783128
000390 be ef 36 be 94 a2 fe bf 33 05 36 bf 2a 76 2a bf
       -0.17864892 -1.9893365 -0.71101683 -0.66586554
0003a0 1e 84 15 bf fc 9a 75 bf 36 65 e5 bf 77 ba 2f 3f
       -0.5840472 -0.9593961 -1.7921512 0.686439
0003b0 45 f8 ba be 80 d4 f4 bf 67 d4 9a bf 84 a5 33 3d
       -0.3651754 -1.912735 -1.209607 0.04385902
0003c0 24 11 04 3c 18 51 23 c0 b8 fc 01 bf 1c ea 1b bd
       0.008060727 -2.5518246 -0.50776243 -0.03806506
0003d0 17 ed 8f be a3 b8 15 c0 a5 16 05 bf d6 f7 9c bf
       -0.28110573 -2.3393943 -0.5198768 -1.2263134
0003e0 e8 3c 8c be 91 b4 84 be 82 21 c2 bf 30 3c c1 bf
       -0.27390218 -0.2591901 -1.5166476 -1.5096493
0003f0 04 bd a5 be 61 96 b6 bf c5 4c a5 3d 3b ff bb bf
       -0.3237077 -1.4264642 0.08071283 -1.4687265

net.0.bias f4 [50]
000000 ec 0d f0 3f a9 a7 f8 3f 65 13 f9 3f 03 65 f3 3f
       1.8754249 1.9426166 1.9459044 1.9015201
000010 60 91 dd 3f 89 fe e8 3f c9 ba ec 3f 40 78 f0 3f
       1.730999 1.8202678 1.8494502 1.8786697
000020 45 4b f2 3f 85 05 a4 bd 75 33 fb 3f d1 23 eb 3f
       1.892922 -0.08008865 1.9625078 1.8370305
000030 fb fc e9 3f f4 3e ee 3f e8 21 fa 3f 7c 15 e6 3f
       1.8280329 1.8612962 1.9541597 1.7975307
000040 c8 42 f3 3f db 1e e7 3f 70 1d 87 bd 85 50 f4 3f
       1.9004755 1.8056291 -0.06597412 1.9087073
000050 49 ff f4 3f 66 68 f1 3f 49 35 93 bd f3 b5 ee 3f
       1.9140407 1.8859985 -0.07187898 1.8649276
000060 04 d3 f8 3f 5d 85 ed 3f cf 3a f7 3f 3a 10 f8 3f
       1.9439397 1.8556324 1.9314822 1.9379952
000070 18 bc a2 bd 9a 45 f3 3f fb 1a ed 3f 52 2a ec 3f
       -0.07946032 1.9005616 1.8523859 1.8450415
000080 45 ec f6 3f 4d d8 f1 3f 48 c3 e9 3f 85 1a f8 3f
       1.9290854 1.8894135 1.826272 1.9383093
000090 44 93 f6 3f 92 8c f2 3f 53 30 e9 3f 23 36 89 bd
       1.9263692 1.8949149 1.8217872 -0.06699779
0000a0 03 5f ee 3f eb 38 ed 3f 1f 2d ef 3f aa 73 7b bd
       1.8622745 1.8532995 1.8685645 -0.061389603
0000b0 02 81 f6 3f 11 0b be bc 33 24 a1 bd 3a f1 52 bd
       1.925812 -0.023198636 -0.078682326 -0.051499583
0000c0 4e bd a2 bd 66 e0 f5 3f
       -0.07946263 1.9209106

net.2.weight f4 [50, 50]
000000 21 32 f1 3f 26 9b e7 3f 19 6d e0 3f 81 2e f6 3f
       1.8843423 1.8094223 1.7533294 1.9232942
000010 96 b6 da 3f 3d c1 df 3f 8c 71 f0 3f 06 2e fd 3f
       1.7086971 1.7480847 1.8784652 1.977967
000020 04 12 e5 3f de 81 bb bd 10 60 f3 3f 24 8d e0 3f
       1.7896123 -0.091556296 1.9013691 1.7543073
000030 8c 9a fd 3f 3f cc f9 3f 6b c1 f7 3f c1 45 02 40
       1.9812789 1.9515456 1.9355901 2.0355074
000040 91 6d fe 3f c1 05 ef 3f 8e 9c a3 3d 41 2b fa 3f
       1.9877187 1.8673631 0.07988845 1.954445
000050 f3 ed f9 3f 1c 8d ef 3f 06 71 7d bd 86 57 e9 3f
       1.9525741 1.8714938 -0.061875366 1.8229835
000060 b3 aa f1 3f a8 13 f1 3f 3b a8 f0 3f 3d fd fd 3f
       1.8880218 1.8834124 1.880134 1.9842907
000070 dc 5f d0 bd e9 21 f7 3f ab d1 f5 3f 67 34 f2 3f
       -0.10174534 1.9307224 1.920461 1.8922242
000080 ce 63 fc 3f 51 f6 fc 3f 2e 8c e6 3f fb 5b f4 3f
       1.9717958 1.976267 1.801153 1.909057
000090 b2 24 e4 3f a0 c3 ea 3f 1d 38 e3 3f e4 f7 57 3d
       1.7823699 1.834095 1.77515 0.05272664
0000a0 49 ab ee 3f f2 9c e6 3f 33 da ec 3f c7 66 c9 3b
       1.8646022 1.8016646 1.8504089 0.006146285
0000b0 7a a2 f7 3f 69 93 0b 3e e8 4e c0 bd 80 cb 10 bc
       1.9346459 0.13630451 -0.0939005 -0.008837581
0000c0 bf 2b 0c 3e 27 d9 fa 3f b0 92 fb 3f a5 e6 eb 3f
       0.13688563 1.959752 1.965414 1.8429762
0000d0 87 73 f3 3f f2 72 ef 3f 45 27 ed 3f db 49 fe 3f
       1.9019631 1.8706954 1.8527609 1.9866289
0000e0 fc bf ef 3f ca 16 ef 3f 5c 92 00 40 ac 00 13 3d
       1.8730464 1.867883 2.008933 0.035889313
0000f0 d3 5b dd 3f 9b a7 ef 3f 55 7a ff 3f c6 43 fb 3f
       1.7293648 1.8723024 1.9959208 1.9630058
000100 86 6e fc 3f df 15 ec 3f 43 18 e3 3f 67 c5 ff 3f
       1.9721229 1.8444175 1.7741779 1.9982117
000110 a2 44 de 3d 9d 91 00 40 ac bd fa 3f 0e 86 01 40
       0.108529344 2.0088875 1.9589133 2.023807
000120 cf 33 af bd c9 8d fb 3f 81 a3 ed 3f bb 08 f2 3f
       -0.085548036 1.9652644 1.8565522 1.8908914
000130 b0 15 fa 3f ca a3 e1 3f 27 af 15 3c e5 a3 ee 3f
       1.9537868 1.762811 0.009135998 1.8643767
000140 96 6e fe 3f b5 b1 e2 3f b9 d5 e7 3f d3 92 e5 3f
       1.9877498 1.7710482 1.8112098 1.7935432
000150 af d1 ff 3f 59 db fc 3f 7e c1 ff 3f 9b 26 04 40
       1.9985865 1.975444 1.9980924 2.0648563
000160 c6 43 f8 3f 48 b9 93 3c dc da f5 3f 0e c0 f4 3f
       1.9395683 0.018032685 1.9207416 1.912111
000170 ee c4 f2 3f dc fc ee bd 50 a7 ff 3f e6 e9 d5 bd
       1.8966348 -0.11669323 1.9972935 -0.10445003
000180 60 0b ca 3d c4 df 84 3d 80 2c 16 3d 87 72 f7 3f
       0.09865451 0.064879924 0.036663532 1.9331826
000190 e8 42 fe 3c 7c 1d 8e bd 79 01 9a bd af 33 93 bd
       0.031037763 -0.069392174 -0.07519812 -0.07187592
0001a0 94 5b ae bd 54 f7 83 3d 30 66 2c 3c 00 cf be ba
       -0.08513561 0.064436585 0.01052241 -0.001455754
0001b0 04 14 1b 3d 17 c3 05 3e c0 85 33 bc 8c 10 8b bd
       0.037860885 0.13062702 -0.010957181 -0.067902654
0001c0 1c 12 d2 bd 1a 4d ef 3d 7d ec ff bd 62 56 8d 3d
       -0.1025736 0.11684628 -0.124962784 0.06901242
0001d0 4e 7a fd 3d ac b4 9a 3d 80 07 8f ba e0 72 96 bc
       0.123768434 0.07553992 -0.0010912269 -0.018365324
0001e0 9a 83 b7 3d bf 01 9a bd d4 c6 4c 3d 48 09 33 bd
       0.08960648 -0.07519864 0.049994305 -0.043710023
0001f0 1e 99 98 3d b4 3e 00 bd 0e 4a c1 bd 08 32 5d bd
       0.0745108 -0.0313098 -0.09437953 -0.05400279
000200 00 54 aa 3d f0 64 53 3d 4a 7e cc bd 93 55 bc bd
       0.08316803 0.051609933 -0.09985025 -0.091960095
000210 3c c2 ed bc 00 60 5d bc 4c dd 22 bd f4 ba c2 3d
       -0.029023282 -0.013511658 -0.039761826 0.09508315
000220 d0 d7 20 3c 62 c2 1a bd 70 f2 04 bc 9a 9f 84 3d
       0.009817079 -0.037783034 -0.008114442 0.06475754
000230 0e 1e cb bd e2 4c 0e be cc ab e8 bd 9c ae 7e 3d
       -0.09917842 -0.13896516 -0.11360893 0.06217824
000240 80 92 7b 3c d5 86 01 be 3a b9 ec 3d f6 21 9b 3d
       0.015354753 -0.1264909 0.11558767 0.07574837
000250 0c 1f 07 be 10 f6 b1 3d 9e d6 f3 3f 0a 46 f4 3f
       -0.13195437 0.08689511 1.9049871 1.9083874
000260 9b 87 ff 3f 9d a5 fd 3f 6c fc ee 3f 37 56 ea 3f
       1.9963259 1.9816166 1.8670783 1.8307561
000270 a5 51 00 40 62 0e 02 40 c5 bb f2 3f 8e ce e6 bd
       2.0049832 2.0321279 1.8963553 -0.11269866
000280 09 63 00 40 35 d5 ec 3f 05 ab e8 3f c6 fe e0 3f
       2.0060446 1.8502566 1.8177191 1.7577751
000290 dc 89 f8 3f 6b 6a fd 3f 67 39 e9 3f e2 02 e8 3f
       1.9417071 1.9798101 1.8220643 1.812588
0002a0 f4 c2 ca 3d 72 88 f3 3f e6 d6 01 40 a7 7c f5 3f
       0.099004656 1.9026015 2.0287414 1.9178666
0002b0 9b c0 0e 3e 5b be f2 3f 2e ce e7 3f 56 42 fe 3f
       0.1394066 1.8964342 1.8109796 1.9863994
0002c0 8e 70 f6 3f 01 34 00 40 25 cc b8 3c 3a 3a e7 3f
       1.9253099 2.003174 0.022558281 1.8064644
0002d0 17 43 e8 3f 35 44 f1 3f 66 d4 ef 3f 24 42 e9 3f
       1.8145474 1.884894 1.8736694 1.822331
0002e0 25 fe 01 40 51 33 e9 3f af 08 f3 3f 6d 79 00 40
       2.0311368 1.8218786 1.8987025 2.0074112
0002f0 c8 4d f7 3f 00 f1 ec 3b e6 a7 f9 3f 89 aa ea 3f
       1.9320612 0.007230878 1.9504364 1.8333293
000300 af 8b e0 3f b9 d0 6e 3d bb 68 e5 3f 38 fe d5 bd
       1.7542628 0.058304522 1.7922586 -0.10448879
000310 c6 f6 d3 bd 5a 6f ea 3d df 5b c2 bd 49 55 ff 3f
       -0.10349803 0.1144702 -0.09490179 1.9947902
000320 d1 14 9f 3d 01 28 aa bb 68 18 e1 bd 7f 16 1d be
       0.07767642 -0.005192757 -0.10990983 -0.15340613
000330 8f 61 f0 bd 00 0e 9d 3d 99 6a d7 bd 45 86 28 bd
       -0.11737358 0.07668686 -0.10518379 -0.041143674
000340 56 52 54 3b 8c 6b 8c bc 5f 79 b5 3b ff 4c 09 be
       0.003239771 -0.017141126 0.00553815 -0.13408278
000350 c7 9e ad 3d a9 60 03 be 52 27 e0 bd b4 d5 fb bd
       0.0847755 -0.12829842 -0.10945 -0.1229662
000360 82 13 85 3d 6d 7f bc bd 6a 6d 45 bd 60 2b 3b 3d
       0.064978614 -0.09203992 -0.04820005 0.045695662
000370 ce 5b 42 bd 1d e1 bd 3d 6d 5f 06 3d 89 cf 0b bd
       -0.047450833 0.092714526 0.03280585 -0.034133468
000380 ad 0b f8 bd ae af 20 be 58 9b 36 3c 3a 3a 7b bc
       -0.12111602 -0.15692016 0.011145435 -0.0153337065
000390 df 26 f2 3d ed bf 1d be 99 99 6d 3b 5d f3 fb 3c
       0.1182382 -0.15405245 0.0036254881 0.030755693
0003a0 7c 35 53 3d c6 79 1b 3d 6a 29 e8 bc 18 84 27 be
       0.05156468 0.03795793 -0.02834006 -0.16358984
0003b0 7c 08 5f bd fa ba f0 3d eb ae f4 bd 2e 5c c1 bd
       -0.05445145 0.11754413 -0.119474255 -0.0944141
0003c0 1c 3e d7 3d d5 6e fe bc 48 11 95 bd d5 ef 72 3b
       0.10509893 -0.031058708 -0.07278687 0.003706922
0003d0 93 fb 07 3d 01 79 65 3a 9e 1f e9 3d 80 38 03 bb
       0.033198904 0.0008753688 0.113829836 -0.002002269
0003e0 0e b0 73 bd 36 63 be bd 50 89 32 bc 5c 4e e2 bc
       -0.05949407 -0.09296267 -0.010896996 -0.027625255
0003f0 92 d6 c3 3d f8 0b 87 3d 76 1c df 3d 4e f1 e2 3d
       0.095624104 0.0659408 0.108941 0.110811815

net.2.bias f4 [50]
000000 d7 98 ba 3f b9 af ce 3f 60 e4 fd bd ea ce ca 3f
       1.4577893 1.6147376 -0.12397075 1.5844395
000010 8f 31 46 3d ab 8e 08 be 6c 32 5f bd 30 9c e4 3c
       0.048387107 -0.13335674 -0.054491445 0.027906507
000020 a4 03 da bd 98 a1 cf 3f d2 34 b5 3f f9 8c 0a 3d
       -0.10645226 1.622119 1.4156744 0.03382585
000030 13 3d d7 3b 32 98 7e bd a5 48 08 be 66 d4 bf 3f
       0.00656856 -0.062156864 -0.13308962 1.4986694
000040 b8 a8 ec bd 15 a8 48 bd be bf c1 3f 66 d7 4a bd
       -0.11555618 -0.04898842 1.513664 -0.049521826
000050 e7 b1 c5 3f 82 1b 02 be 80 a5 e4 bd 94 ce c3 3f
       1.5444916 -0.12705806 -0.11164379 1.5297418
000060 76 5a ac bd 15 94 ce 3f 00 54 ea bc ad 30 ba 3f
       -0.084156916 1.6138941 -0.028604507 1.4546105
000070 c0 e5 c9 3f 23 dd f1 bc 95 39 e8 bd d0 4e 71 bd
       1.5773239 -0.029524392 -0.11339108 -0.058913052
000080 73 1e c4 3f 1e fe cb 3f a4 14 cf 3f 18 a7 54 bd
       1.5321792 1.5936925 1.6178174 -0.051917166
000090 84 fc bc 3f 43 fc cb 3f ba fa 6c bd d6 fc bd 3f
       1.4764562 1.5936359 -0.0578563 1.4842784
0000a0 1a 5d 8c bd 47 36 bc 3f 86 3d dc 3d a0 1a ca 3f
       -0.06853695 1.4704064 0.10753922 1.5789375
0000b0 27 8a e8 bd 18 42 c7 3f ad 7c cc 3d c7 f9 29 bd
       -0.113544755 1.5567045 0.099847175 -0.04149797
0000c0 f4 c8 c1 3f a9 69 b1 3f
       1.5139451 1.386037

net.4.weight f4 [11, 50]
000000 ce 02 02 40 77 44 f6 3f 63 02 05 3e 9d a5 02 40
       2.0314212 1.9239644 0.12989192 2.0413582
000010 f7 c2 6f bd 70 14 80 bd 1f bf e3 bd 40 be e7 bd
       -0.058535542 -0.06253898 -0.11120438 -0.11315584
000020 0b 63 03 be 20 53 00 40 93 8e 02 40 83 04 95 bd
       -0.1283075 2.0050735 2.039952 -0.07276251
000030 08 59 ee 3d f8 a2 18 bd 28 d5 2c 3d d7 8b 05 40
       0.11638075 -0.037264794 0.04219547 2.0866601
000040 6a b6 e0 3d 6a 0a cb bd 93 05 01 40 29 79 91 bd
       0.10972293 -0.09914096 2.0159652 -0.071031876
000050 a4 e6 e9 3f a0 56 cd bb 6a bb 01 bd 9b f4 fd 3f
       1.8273511 -0.00626643 -0.031672873 1.9840273
000060 5f c0 d8 3c d7 c4 01 40 88 66 95 3d d2 c3 ea 3f
       0.026458917 2.0276392 0.07294947 1.834101
000070 27 7f e9 3f ea 53 9d bd 86 26 95 3d d5 bc 05 3e
       1.8241929 -0.07682021 0.072827384 0.13060315
000080 c4 d5 ef 3f 59 47 fd 3f 09 d4 fb 3f 4c 2d 58 3d
       1.8737111 1.9787399 1.9674083 0.052777573
000090 0e e9 00 40 22 43 fe 3f 22 ae c0 3d 2d d6 f2 3f
       2.0142245 1.9864237 0.09408213 1.8971611
0000a0 ff 3e 0a 3e 7b f7 fa 3f e4 4a d3 bd 8f 57 00 40
       0.13500594 1.9606775 -0.10317019 2.0053442
0000b0 76 f6 f5 3d 21 f8 02 40 db 1d 45 3d ff 3f 61 3d
       0.12009899 2.0463946 0.048124176 0.054992672
0000c0 0b d6 ff 3f 9d 01 ea 3f 2e 61 c5 3f 8e 4e c6 3f
       1.9987196 1.8281742 1.5420282 1.5492723
0000d0 13 5f a0 bd 3f 2b be 3f bb b5 0c bd 00 2a be bc
       -0.07830634 1.4856948 -0.034353 -0.023213387
0000e0 9a 93 be bd 62 02 cb 3d c0 c0 69 bb 19 2e d2 3f
       -0.093054965 0.09912564 -0.0035667866 1.6420318
0000f0 74 b1 b9 3f 9d cd 62 3d 10 24 ee bc 8f e6 a7 3d
       1.4507279 0.05537187 -0.02906993 0.081982724
000100 2e a1 67 bd f0 c5 be 3f 20 2c 38 3c 03 53 8a bd
       -0.056550197 1.4904156 0.011240989 -0.067541145
000110 61 96 d3 3f c0 93 ae bb 43 e0 cf 3f cc fb 29 bd
       1.6530267 -0.0053276718 1.6240314 -0.041499898
000120 3a 98 0e bd 3e 36 b5 3f aa ea 4c 3d c1 85 cb 3f
       -0.034813143 1.4157178 0.05002848 1.5900193
000130 3c 27 be 3d 68 86 c9 3f d3 64 c3 3f 4a 6e f1 bb
       0.09284827 1.5744143 1.5265144 -0.007367884
000140 e8 3d 6c 3d 87 83 0a 3e 9a d5 c7 3f 89 ca b6 3f
       0.057676226 0.13526736 1.5612061 1.4280559
000150 4e ab b6 3f 40 c6 5d 3d 5f 31 d7 3f d8 e4 bd 3f
       1.4271028 0.054144144 1.6811942 1.4835463
000160 46 fe 91 3d dc 68 d4 3f d2 82 fd 3d 86 1d d3 3f
       0.07128577 1.65945 0.123784676 1.6493385
000170 69 09 87 bd fc e0 d0 3f 01 f2 d0 3c 52 45 bb 3f
       -0.06593592 1.631866 0.025506021 1.463053
000180 dd 6b dd bd e8 50 2d bd 4f 71 d5 3f 1e 07 cf 3f
       -0.10811589 -0.042313486 1.6675204 1.6174047
000190 f4 cf d0 3f f0 85 b6 3f 1e 0b a7 3d da 56 cc 3f
       1.6313462 1.4259624 0.08156417 1.5964005
0001a0 2f 6b 19 3e 02 71 aa bd 2a e6 ef 3d 56 c3 af ba
       0.14982294 -0.08322336 0.11713822 -0.0013409655
0001b0 40 69 67 3d d1 37 b2 3f 75 ee bf 3f b2 dc 95 bd
       0.05649686 1.3923284 1.4994646 -0.07317485
0001c0 7e 4a bc bc 1f b4 f7 bb ee 88 4f bd a2 42 cd 3f
       -0.02298474 -0.007559314 -0.050667696 1.603596
0001d0 41 32 06 3e cb cc 42 3d 50 92 bc 3f 04 38 01 bd
       0.13105108 0.047558587 1.4732151 -0.03154756
0001e0 10 86 bd 3f b0 dc 2b 3c 50 2f 4e bc 09 53 ce 3f
       1.4806538 0.010489628 -0.012584522 1.611909
0001f0 1d c1 ae 3c e5 81 b2 3f 38 39 4f bd e9 cc bb 3f
       0.021332318 1.3945891 -0.050591677 1.4671909
000200 e4 c2 c8 3f 76 b0 0d 3e 0e 63 eb 3d 04 1b 09 3d
       1.5684476 0.13836846 0.114935026 0.03347303
000210 77 67 b8 3f 30 d4 c2 3f 3a 15 c7 3f 40 5d 3a 3b
       1.4406575 1.5221004 1.5553353 0.002843693
000220 2b 7f ce 3f f6 9a cd 3f c0 f8 31 bd 0a fb bb 3f
       1.6132559 1.6062915 -0.043450117 1.4685986
000230 20 c8 86 3c 60 c6 c6 3f 56 81 e4 3c 29 29 b0 3f
       0.016452849 1.5529289 0.027893703 1.3762561
000240 43 b0 e5 bd e0 d7 d3 3f a9 57 2e 3e 56 78 ef bd
       -0.1121526 1.6550255 0.17025627 -0.11692874
000250 56 2d b7 3f db b8 b7 3f a4 2a f7 3f 8d 5f ef 3f
       1.431071 1.4353288 1.9309888 1.8701035
000260 18 45 33 3d 66 7b f4 3f cb a9 8b 3d 7e 17 bb bd
       0.043767065 1.9100158 0.06819495 -0.0913534
000270 80 f3 f1 bb 51 28 e0 bc a8 52 db bc 33 7c f7 3f
       -0.007383764 -0.027362974 -0.026772812 1.9334778
000280 4a 66 f1 3f da 8a 06 3e 9b bb be 3b 95 6e 8d bd
       1.8859341 0.13138905 0.005820704 -0.069058575
000290 85 42 07 3e fb d7 02 40 5c 7c 08 bd 40 35 5e 3d
       0.13208969 2.0444324 -0.033321723 0.054250002
0002a0 f3 9c 00 40 38 43 11 3d 65 0b 08 40 9c f3 55 3d
       2.0095794 0.035464495 2.1256955 0.052234277
0002b0 c0 27 cc 3d 2a 96 05 40 9a 3e 3e bd 67 09 ff 3f
       0.09968519 2.0872903 -0.04644642 1.9924744
0002c0 90 57 da bc 38 31 0a 40 76 08 fa 3f 98 b1 e8 3d
       -0.026653081 2.159254 1.9533832 0.11361998
0002d0 34 b4 27 bd a6 39 f2 3d 45 cf 04 40 99 ac 05 40
       -0.04094334 0.11827402 2.0751507 2.0886595
0002e0 70 56 f5 3f c0 38 89 bb dc 90 09 40 f4 89 f4 3f
       1.9167004 -0.0041876733 2.1494665 1.91046
0002f0 50 41 fd bc ab 6b ee 3f 1c d4 05 be 05 22 08 40
       -0.030914932 1.8626608 -0.13069195 2.1270764
000300 36 78 6e bd 14 83 00 40 dc e0 cc bd 6b 88 f3 3f
       -0.05822011 2.0080004 -0.10003826 1.9026006
000310 61 59 24 3e 3e 7c 0e 3d 02 ab fc 3f dc 77 f4 3f
       0.1604972 0.034786455 1.9739687 1.9099078
000320 1c a8 fa 3f d6 d2 f5 3f e8 04 cd 3d c3 2b f8 3f
       1.9582553 1.9204967 0.100107014 1.9388355
000330 14 c5 e6 3c 60 cd ac 3c a0 8f 07 3c d5 37 20 bd
       0.028170146 0.021094024 0.008273989 -0.039115746
000340 5e 67 fb bd 75 57 f7 3f f1 6a f7 3f 52 05 f7 3c
       -0.12275575 1.9323565 1.9329511 0.030153904
000350 08 9b 07 bd 33 19 05 3e 44 c5 80 bd 32 66 ea 3f
       -0.033106834 0.12997894 -0.062876254 1.8312438
000360 98 9b 46 bd a3 76 8f bd ca 68 dc 3f 43 54 0d 3e
       -0.04848823 -0.0700505 1.7219479 0.13801675
000370 c4 95 f8 3f 28 5e 8e 3d 3c da 54 bd f9 78 e3 3f
       1.9420705 0.06951553 -0.051965937 1.7771293
000380 63 3b bf 3d 32 07 f6 3f 4d c5 10 3e 9c c0 f2 3f
       0.09337499 1.9220946 0.14137764 1.896503
000390 db 79 e1 3f 52 f9 49 bd 45 f4 09 3e 99 3e cc bd
       1.7615312 -0.049310036 0.13472088 -0.09972877
0003a0 78 71 da 3f f3 33 e7 3f d6 11 e7 3f 82 36 90 3d
       1.7065878 1.8062729 1.8052318 0.070416465
0003b0 66 d0 dd 3f ea 83 e6 3f 22 08 e0 bd 49 83 f4 3f
       1.7329223 1.8009007 -0.10939051 1.9102565
0003c0 a8 9b 03 3d 2d b0 e1 3f 74 82 59 bc 46 8e f2 3f
       0.032130867 1.763189 -0.013275731 1.8949668
0003d0 9a dd 07 3e 8e 6c d8 3f 53 6d 4b bd c1 37 00 3d
       0.13268128 1.6908128 -0.049664807 0.03130317
0003e0 8c 19 ee 3f 16 42 d5 3f 3e 15 12 40 7b db 0e 40
       1.8601546 1.6660793 2.2825465 2.232146
0003f0 e3 c4 a0 bd 37 fb 06 40 97 52 ad 3c ac a2 34 3d
       -0.07850053 2.109083 0.021157546 0.04410045

net.4.bias f4 [11]
000000 8d e1 3b 3f 3e 42 8a 3f 39 f7 29 3f 80 0c 82 3f
       0.7339104 1.0801466 0.66392857 1.0160065
000010 02 9d f0 3e 39 ee 84 3f 2a 87 54 3f 74 c4 62 3f
       0.46994787 1.03852 0.83018744 0.88581014
000020 6c 5b 00 3f c1 0c 98 3f f1 d4 3e 3f
       0.501395 1.1878892 0.7454367
