models/part2_advanced.pt (torch, 109391 bytes, 6 tensors)

net.0.weight f4 [100, 155]
-0.03329627 0.01534025 0.06416233 -0.00486695 0.0082938075 0.0059642717 -0.0009810753 0.048255403
0.043461606 -0.043017663 0.07669636 0.046227448 -0.012562931 0.07249075 0.0067883474 0.051580403
-0.06728665 0.0723205 0.0758942 -0.059589446 -0.07168594 -0.02085683 -0.049382947 0.021944039
0.038298395 -0.0076429253 0.058668066 0.0044686855 -0.023607556 -0.06707617 0.025528021 -0.07567978
0.0019988187 0.013550337 -0.044982433 0.02413033 0.015628047 0.053753234 0.050237156 -0.06495101
-0.05952448 -0.029480033 -0.057783563 0.025786811 -0.052626103 -0.06132377 0.023394719 0.04847575
-0.023351382 -0.08003731 0.01135201 0.04116209 0.062745206 0.0076211095 0.055761807 -0.07181888
0.07684224 -0.05186675 -0.05482567 0.05764491 -0.017938057 0.049569465 -0.056259423 0.06076949
0.076176934 0.024321131 0.06479522 -0.057359997 -0.017736122 0.02444829 0.045389123 -0.04288858
0.051111616 -0.02652516 -0.042840954 0.016828302 -0.06282159 -0.07312601 0.02665661 0.027395146
0.030905174 -0.010523591 -0.058730833 -0.06441046 0.07695816 -0.069554426 0.024208691 0.06659267
0.062943384 -0.049601797 -0.025898892 -0.06345013 0.051165022 -0.07526507 -0.07394332 -0.053534947
0.065575115 0.05206365 0.053907424 0.06162999 -0.037372544 -0.043434817 -0.049344577 0.026502892
0.0312441 0.016554024 -0.061886024 0.0070117884 -0.042714912 -0.015908327 -0.012555202 0.003869089
-0.070486255 0.068504244 -0.034271523 0.024983492 0.05522039 0.033115834 0.05678739 0.045420304
0.058818895 0.016952844 0.051309038 -0.033484664 -0.043258533 0.038354162 0.021118727 -0.0015758442
-0.06528064 0.02858058 0.053277988 -0.008655094 0.018597897 0.036283415 -0.07883146 -0.013149963
-0.029202962 -0.041054018 0.05122613 0.07963819 0.012855285 0.052653506 -0.05714845 0.015993925
-0.010388188 -0.04772273 0.01750212 0.026259005 -0.00315189 0.035852812 0.038521826 0.07279782
0.0048088916 0.0030606827 -0.00069755554 0.011894981 -0.051593818 -0.009876164 -0.06792283 -0.056340143
-0.06841724 0.059588294 -0.04614024 -0.0064821327 0.008677333 0.07097384 0.036512684 -0.05719991
0.07943614 -0.07514117 0.011808009 0.07471061 0.06964701 -0.018227162 -0.0536115 0.03527532
0.0626406 -0.042819604 -0.012677101 -0.048342977 0.03171847 0.01772542 0.04062538 -0.028067833
-0.07713443 -0.03382591 -0.0628184 -0.018935375 0.030994408 -0.066807516 -0.0037492812 -0.07857837
-0.05692009 -0.05623649 -0.027329335 -0.040684007 0.012363493 0.049101137 0.060149975 0.025307626
-0.00052936084 -0.014313653 0.05453881 -0.046002813 0.058057435 -0.077334926 -0.059949912 0.021306537
-0.033082176 0.014937864 0.06998452 0.036685564 0.07861661 -0.034021907 -0.03835615 -0.009516393
-0.01617682 -0.03533119 -0.004986882 0.07256443 -0.044029083 0.04510743 0.037313208 0.046515875
0.02166935 -0.029672131 0.03314995 -0.03783128 -0.048617393 0.07508458 0.067235954 -0.056665868
0.06562343 0.016686166 0.020619072 0.077421926 -0.0041948617 -0.02549594 0.050610565 -0.020571386
-0.019167406 -0.032390237 0.07978159 0.039869748 -0.012591357 -0.0016014407 0.0057875775 -0.047566578
0.023208607 -0.062340133 -0.0037030058 -0.015027976 -0.03279677 0.07432108 0.022494987 0.03873499
00000000: ab61 08bd ac55 7b3c 8a67 833d f07a 9fbb
00000010: c0e2 073c f06f c33b 6d97 80ba 75a7 453d
00000020: cc04 323d 4a33 30bd fb12 9d3d fe58 3d3d
00000030: c0d4 4dbc 0876 943d c970 de3b f945 533d
00000040: 95cd 89bd c51c 943d 6b6e 9b3d 1014 74bd
00000050: 14d0 92bd f1db aabc c645 4abd fcc3 b33c
00000060: c7de 1c3d 8171 fabb ed4d 703d 0d6e 923b
00000070: a264 c1bc 3b5f 89bd 2420 d13c 00fe 9abd
00000080: 9dfe 023b 3c02 5e3c 803f 38bd f8ac c53c
00000090: 6406 803c 5a2c 5c3d 7ac5 4d3d 0905 85bd
000000a0: f1cf 73bd 1c80 f1bc 75ae 6cbd dd3e d33c
000000b0: 788e 57bd a22e 7bbd 48a6 bf3c 828e 463d
000000c0: 664b bfbc 9aea a3bd c8fd 393c 9499 283d
000000d0: 8f80 803d 80ba f93b 7e66 643d c715 93bd
000000e0: 775f 9d3d 3b72 54bd e290 60bd 121d 6c3d
000000f0: d5f2 92bc 5a09 4b3d 4870 66bd 6ee9 783d
00000100: a702 9c3d 1c3d c73c 5bb3 843d 51f2 6abd
00000110: 584b 91bc c847 c83c f2e9 393d f0ab 2fbd
00000120: 6a5a 513d 4b4b d9bc ff79 2fbd 82db 893c
00000130: 9ba8 80bd 17c3 95bd f75e da3c c96b e03c
00000140: d92c fd3c 246b 2cbc be8f 70bd a2e9 83bd
00000150: 3d9c 9d3d 8d72 8ebd 4e51 c63c bd61 883d
00000160: 76e8 803d 412b 4bbd ea29 d4bc 24f2 81bd
00000170: 6a92 513d 9324 9abd 986f 97bd 7647 5bbd
00000180: 3f4c 863d b240 553d 08ce 5c3d ba6f 7c3d
00000190: f413 19bd b5e8 31bd 8a1d 4abd 981c d93c
000001a0: a0f3 ff3c 4e9c 873c 337c 7dbd 25c3 e53b
000001b0: d5f5 2ebd 2e52 82bc 55b4 4dbc 8b90 7d3b
000001c0: 195b 90bd f44b 8c3d 4c60 0cbd 2eaa cc3c
000001d0: c72e 623d 78a4 073d e599 683d a40a 3a3d
000001e0: 15ec 703d b1e0 8a3c 6d29 523d 3727 09bd
000001f0: dc2f 31bd 4119 1d3d 2e01 ad3c 8f8c ceba
00000200: dbb1 85bd d221 ea3c 053a 5a3d 18ce 0dbc
00000210: 9e5a 983c eb9d 143d 6372 a1bd f172 57bc
00000220: 0d3b efbc 4228 28bd 7ed2 513d 5919 a33d
00000230: f99e 523c 34ab 573d 7e14 6abd b105 833c
00000240: 3833 2abc e978 43bd 9b60 8f3c 201d d73c
00000250: f08f 4ebb 66da 123d 10c9 1d3d 0617 953d
00000260: e893 9d3b bc95 483b 29dc 36ba 2be3 423c
00000270: 0a54 53bd a2cf 21bc 201b 8bbd ecc4 66bd
00000280: 571e 8cbd db12 743d 8cfd 3cbd 1268 d4bb
00000290: 5f2b 0e3c bc5a 913d 538e 153d 744a 6abd
000002a0: 6aaf a23d 9de3 99bd 6176 413c e001 993d
000002b0: 17a3 8e3d 2151 95bc bb97 5bbd db7c 103d
000002c0: b749 803d 9c63 2fbd 9eb3 4fbc 4903 46bd
000002d0: 3aeb 013d e634 913c cc66 263d 83ee e5bc
000002e0: a8f8 9dbd 0a8d 0abd efa6 80bd 5c1e 9bbc
000002f0: fce7 fd3c 61d2 88bd 80b6 75bb b2ed a0bd
00000300: 0a25 69bd 3c58 66bd c5e1 dfbc 46a4 26bd
00000310: 4090 4a3c 461e 493d d25f 763d f051 cf3c
00000320: cec4 0aba d083 6abc 1664 5f3d 726d 3cbd
00000330: a2cd 6d3d c661 9ebd 0a8e 75bd 0c8b ae3c
00000340: 2d81 07bd f1bd 743c 0b54 8f3d 9a43 163d
00000350: bf01 a13d 8e5a 0bbd 571b 1dbd a5ea 1bbc
00000360: 4085 84bc 70b7 10bd 0069 a3bb a99c 943d
00000370: d757 34bd 92c2 383d bcd5 183d 6e87 3e3d
00000380: ec83 b13c f812 f3bc 3ec8 073d f9f4 1abd
00000390: 0823 47bd f2c5 993d 01b3 893d 781a 68bd
000003a0: 9465 863d 6db1 883c 54e9 a83c 638f 9e3d
000003b0: 0d75 89bb dddc d0bc 064d 4f3d 5385 a8bc
000003c0: f704 9dbc a0ab 04bd 8864 a33d 764e 233d
000003d0: fb4b 4ebc 6fe7 d1ba b8a5 bd3b 2cd5 42bd
000003e0: fa1f be3c 5e58 7fbd 21ae 72bb e637 76bc
000003f0: e855 06bd a735 983d 6847 b83c 95a8 1e3d

net.0.bias f4 [100]
-0.022848936 0.04800104 -0.019609723 -0.0055037374 0.0108236745 -0.07084388 0.044075526 0.08168342
-0.0599928 0.0396422 -0.07304339 0.0053835427 -0.02845097 -0.069620386 0.042576373 0.055320453
0.019796437 0.03516028 -0.044427793 0.046246987 -0.06392752 -0.015210208 -0.029210271 -0.03316396
0.073387064 0.06568761 0.04856806 -0.029992977 -0.041944295 -0.014002421 -0.025570733 0.003774844
0.049540598 0.08012431 0.048537385 -0.0659874 0.06181271 -0.07452325 0.01096953 0.005848657
-0.012583442 -0.028613843 -0.026105074 0.05502309 -0.05119769 0.01815426 0.03765439 0.06247482
0.006764924 0.07766105 -0.07924754 -0.04621428 -0.069801725 -0.0058750617 -0.049673483 0.062226947
-0.030992176 0.009025466 0.05946702 -0.07916062 0.02873265 -0.05999268 0.04785572 -0.012955727
-0.06891924 0.02145413 0.013715135 0.034079067 0.053524982 -0.0073709325 -0.03724875 0.0848852
-0.02179357 0.061187238 0.06113681 -0.07877377 -0.017834434 -0.0002442916 -0.064367905 0.02258752
-0.03320078 -0.04121957 0.068113506 0.04323807 0.08294858 -0.0077068303 -0.017022645 -0.050156657
0.004962488 0.071834624 -0.004199379 -0.029932806 0.059778403 0.000823722 0.013562203 0.07672557
0.07520413 0.08002213 -0.07299233 0.008755319
00000000: b12d bbbc bd9c 443d 92a4 a0bc b258 b4bb
00000010: c855 313c 9916 91bd 8a88 343d a349 a73d
00000020: 03bb 75bd dc5f 223d c697 95bd 6e68 b03b
00000030: 0212 e9bc 2295 8ebd 9064 2e3d b397 623d
00000040: 232c a23c 3a04 103d ebf9 35bd 7b6d 3d3d
00000050: 6eec 82bd 3c34 79bc 614a efbc efd6 07bd
00000060: f54b 963d 3a87 863d 4def 463d d5b3 f5bc
00000070: c8cd 2bbd 696a 65bc b779 d1bc 6063 773b
00000080: 15eb 4a3d 3718 a43d 23cf 463d 6724 87bd
00000090: 532f 7d3d a59f 98bd 8bb9 333c 17a6 bf3b
000000a0: c82a 4ebc 9467 eabc 4fda d5bc e45f 613d
000000b0: abb4 51bd 3eb8 943c 7d3b 1a3d 99e5 7f3d
000000c0: 4cac dd3b c20c 9f3d 894c a2bd 2f4b 3dbd
000000d0: 35f4 8ebd 9783 c0bb 6c76 4bbd afe1 7e3d
000000e0: 4ee3 fdbc 8cdf 133c b193 733d f71e a2bd
000000f0: bc60 eb3c e2ba 75bd 5c04 443d 4244 54bc
00000100: 8825 8dbd 92c0 af3c 72b5 603c 7e96 0b3d
00000110: 033d 5b3d dd87 f1bb 2592 18bd 4bd8 ad3d
00000120: 6e88 b2bc 789f 7a3d 976a 7a3d 2454 a1bd
00000130: 8519 92bc 4314 80b9 52d3 83bd 7609 b93c
00000140: 8bfd 07bd dad5 28bd 187f 8b3d 671a 313d
00000150: f2e0 a93d 9489 fcbb 1373 8bbc 1171 4dbd
00000160: 5e9c a23b 081e 933d f29a 89bb a535 f5bc
00000170: 33da 743d 0cef 573a 0134 5e3c 4c22 9d3d
00000180: 9f04 9a3d a4e2 a33d 017d 95bd 7872 0f3c

net.2.weight f4 [100, 100]
0.079028554 0.08540918 -0.08626108 0.06528965 -0.04601522 -0.050080087 -0.064809784 -0.061607964
-0.015636966 -0.010126493 -0.043813217 0.05592378 -0.06550599 0.0890638 -0.09775765 0.03633972
-0.0681706 -0.0533296 0.0237085 -0.02215001 -0.06709085 -0.004541836 -0.0744539 -0.059742358
0.05092873 -0.0020777306 -0.026216045 0.07887289 0.01502872 0.073140055 0.04342514 -0.00020212296
-0.044274937 -0.052050054 0.0791527 0.021380104 0.0774111 0.059756123 -0.009726197 -0.08468031
0.031881772 -0.030567558 0.011567216 -0.044637952 0.078577496 0.087915525 -0.0677016 -0.03223706
-0.082899 0.040440883 -0.07411744 -0.079051405 -0.0731019 -0.08899794 0.07724937 -0.051304057
0.0681612 -0.029277287 -0.032252647 -0.027393043 -0.08955972 0.02725343 -0.04833706 0.035421625
-0.08520658 0.0077403206 0.07276184 -0.03379636 0.012872418 -0.09753463 -0.04084457 0.07460337
0.031205948 0.028196417 0.040206984 -0.02041839 -0.034892954 0.08582639 -0.036669895 -0.016439542
-0.07578689 0.076653324 -0.040861268 -0.045555495 -0.07019222 0.014801504 -0.08590485 0.084921315
0.07309011 -0.08457892 -0.08576858 0.024338005 -0.06779927 -0.10164575 0.05445424 -0.03336044
0.012304652 0.0025924756 -0.06257004 -0.05723211 0.036495287 -0.090837285 -0.006831059 -0.010237692
-0.05495061 0.09883603 -0.08971701 -0.08642237 -0.07229594 0.059865423 -0.08512411 0.064211614
0.101155065 0.09387099 0.09826296 0.022562796 -0.081245236 0.031233687 0.041172452 -0.0012527588
-0.08763633 0.0822761 0.020299446 0.06701079 -0.0066320365 -0.08509602 0.09207491 -0.09891027
-0.06464182 0.09828717 -0.02217176 0.05219557 0.06781696 -0.007613229 -0.020869376 0.044432916
-0.0145768225 0.041329242 -0.03380489 -0.049625304 -0.06466952 -0.10019591 -0.032788046 -0.04235699
0.031649835 0.005207801 -0.06244351 -0.07355817 -0.017736793 0.04137866 0.0072721234 0.00898806
-0.053702034 -0.045777272 -0.013770327 0.045459557 -0.085317895 0.040769022 0.06234684 -0.09880888
0.04039421 0.022083746 0.045003645 -0.048850548 0.06301572 -0.052228037 -0.044551857 0.038764544
-0.023308853 0.068924055 -0.011580624 -0.07424917 -0.08386295 0.005501308 -0.07177637 0.089394994
0.092085704 0.059328787 -0.07630261 -0.023601146 0.07378145 0.020365298 0.011250634 -0.00488461
-0.050048236 -0.03266696 0.056920573 -0.02243983 -0.023535175 0.04797663 -0.04155741 -0.013053607
0.08338048 0.015486013 0.050388318 -0.046505615 0.05033629 -0.049695775 0.09776115 -0.022692984
-0.07157604 -0.019172546 0.082129866 0.08721466 0.0074706785 0.06955577 -0.024593648 -0.001008286
0.073549755 0.007920985 0.021104313 0.0684824 0.016765362 -0.058236882 0.019837774 0.0024552948
-0.0010263302 0.10523958 0.0852937 -0.08184763 -0.036380887 -0.002539408 0.058953665 -0.021436697
-0.006345906 -0.016903332 -0.053812295 -0.08708788 -0.07095192 0.027463373 0.055129264 0.0022918612
0.10107185 -0.008359611 0.08325664 -0.016764939 -0.046640143 0.009818338 -0.09305609 0.045499824
0.02993175 0.055287845 0.060942795 0.09490124 -0.06560378 -0.08525414 0.01755886 -0.03538291
0.009262889 0.095653675 0.012054598 0.014033456 -0.08319329 0.0092287725 -0.0801867 -0.015998026
00000000: b9d9 a13d 02eb ae3d a6a9 b0bd 94b6 853d
00000010: 757a 3cbd c720 4dbd feba 84bd a258 7cbd
00000020: 1819 80bc 97e9 25bc 7d75 33bd 5510 653d
00000030: 0128 86bd 1567 b63d 2a35 c8bd f5d8 143d
00000040: 079d 8bbd 2370 5abd 5438 c23c f073 b5bc
00000050: ed66 89bd afd3 94bb 497b 98bd 67b4 74bd
00000060: a59a 503d 892a 08bb 08c3 d6bc 1c88 a13d
00000070: 053b 763c 74ca 953d 8fde 313d f8f0 53b9
00000080: a359 35bd 7032 55bd d01a a23d 5425 af3c
00000090: b689 9e3d d6c2 743d a15a 1fbc df6c adbd
000000a0: 7696 023d d168 fabc 6c84 3d3c 49d6 36bd
000000b0: 3ded a03d 0e0d b43d 23a7 8abd 020b 04bd
000000c0: f3c6 a9bd 57a5 253d e2ca 97bd b4e5 a1bd
000000d0: 73b6 95bd 8d44 b6bd eb34 9e3d 3424 52bd
000000e0: 1998 8b3d ecd6 efbc 5a1b 04bd 6067 e0bc
000000f0: 166b b7bd 9642 df3c 15fd 45bd 4416 113d
00000100: ca80 aebd 84a2 fd3b 2904 953d 0d6e 0abd
00000110: d6e6 523c 3cc0 c7bd a34c 27bd a7c9 983d
00000120: 9ea3 ff3c 2cfc e63c 14b0 243d 7844 a7bc
00000130: eaeb 0ebd bfc5 af3d 2c33 16bd 38ac 86bc
00000140: 2836 9bbd 6bfc 9c3d 255e 27bd 6698 3abd
00000150: f0c0 8fbd 0282 723c e2ee afbd 3aeb ad3d
00000160: 45b0 953d b637 adbd 70a7 afbd 7f60 c73c
00000170: 58da 8abd a62b d0bd 690b 5f3d f5a4 08bd
00000180: 7399 493c 86e6 293b b924 80bd 386c 6abd
00000190: 157c 153d e608 babd 14d7 dfbb febb 27bc
000001a0: e413 61bd 8b6a ca3d 8dbd b7bd 36fe b0bd
000001b0: e50f 94bd 7235 753d 8d55 aebd 6181 833d
000001c0: 632a cf3d 6f3f c03d 173e c93d 9dd5 b83c
000001d0: e763 a6bd cadd ff3c 72a4 283d 9c33 a4ba
000001e0: ad7a b3bd 5f80 a83d 064b a63c f43c 893d
000001f0: 8e51 d9bb d246 aebd c591 bc3d 7891 cabd
00000200: ee62 84bd c94a c93d 8da1 b5bc 06cb 553d
00000210: 9ee3 8a3d 6578 f9bb 41f6 aabc 4aff 353d
00000220: a0d3 6ebc da48 293d ff76 0abd e743 4bbd
00000230: 7471 84bd 8333 cdbd c24c 06bd 867e 2dbd
00000240: 42a3 013d 33a6 aa3b c4c4 7fbd aaa5 96bd
00000250: c04c 91bc ab7c 293d fe4a ee3b a842 133c
00000260: aaf6 5bbd f380 3bbd f09c 61bc cd33 3a3d
00000270: 26bb aebd 6bfd 263d 665f 7f3d 4f5c cabd
00000280: 6674 253d f9e8 b43c be55 383d 8317 48bd
00000290: 630e 813d 11ed 55bd 027c 36bd 92c7 1e3d
000002a0: 35f2 bebc 0e28 8d3d a8bc 3dbc f30f 98bd
000002b0: 57c0 abbd 5144 b43b 7dff 92bd b914 b73d
000002c0: 6e97 bc3d be02 733d 8b44 9cbd 3157 c1bc
000002d0: bb1a 973d 20d5 a63c 9454 383c 140f a0bb
000002e0: 61ff 4cbd cacd 05bd 8c25 693d bcd3 b7bc
000002f0: d7cc c0bc 2583 443d 1a38 2abd ccde 55bc
00000300: 63c3 aa3d 0cb9 7d3c fb63 4e3d ac7c 3ebd
00000310: 6d2d 4e3d cc8d 4bbd ff36 c83d a3e6 b9bc
00000320: 7596 92bd be0f 9dbc b433 a83d 9a9d b23d
00000330: 98cc f43b 4173 8e3d 9e78 c9bc 7728 84ba
00000340: 41a1 963d 05c7 013c f4e2 ac3c 8040 8c3d
00000350: 8357 893c cc89 6ebd d482 a23c 03e9 203b
00000360: ed85 86ba d987 d73d 77ae ae3d bb9f a7bd
00000370: 2004 15bd 326c 26bb 6679 713d 039c afbc
00000380: 51f1 cfbb db78 8abc 486a 5cbd 215b b2bd
00000390: 3d4f 91bd defa e03c 39cf 613d 0d33 163b
000003a0: c2fe ce3d c0f6 08bc 7582 aa3d a056 89bc
000003b0: bc09 3fbd 18dd 203c 3194 bebd 065e 3a3d
000003c0: 6e33 f53c 8275 623d 279f 793d 955b c23d
000003d0: 465b 86bd b999 aebd 99d7 8f3c aced 10bd
000003e0: 5fc3 173c 13e6 c33d a680 453c 95ec 653c
000003f0: 3e61 aabd 4734 173c ed38 a4bd 4b0e 83bc

net.2.bias f4 [100]
0.009035863 0.08631571 -0.042321254 -0.062253747 0.026336767 0.10213571 0.08515202 -0.010788315
-0.0023203674 -0.013430685 0.10243802 0.021496253 0.011701343 0.03436652 -0.06741563 -0.018418837
-0.07237787 0.036211606 0.066923335 0.008421269 -0.037396822 0.08299392 0.021683987 -0.07408302
-0.07698772 0.051081326 0.06914618 0.09922611 0.033965807 -0.05795704 -0.07220029 0.0019145882
0.049844187 -0.029578265 0.033697758 0.05274644 0.034074925 -0.03421184 -0.026654536 -0.061731312
-0.0016428464 -0.09264196 0.061843406 0.026137589 0.03360055 0.07500288 -0.03389576 0.002931929
-0.04028754 0.053754676 0.030579165 0.06440217 0.003705876 0.049418088 -0.053957775 -0.05031802
-0.0761351 0.055797365 -0.08441924 -0.03605547 -0.017762212 -0.0042546783 0.0851126 0.091118656
-0.04925789 -0.021981858 -0.08391912 -0.051970653 -0.0428976 -0.027921485 0.07632388 -0.015530672
0.03444905 -0.07136648 -0.044975832 0.018477969 -0.04007098 0.0909553 -0.017779881 0.10031256
0.053660136 0.046400677 -0.10074573 0.054348014 -0.06428273 0.09047498 0.081314914 -0.050484907
0.026135078 0.03671683 -0.09093076 0.010451475 -0.013437876 0.015380824 0.06530094 -0.05238249
-0.08482643 -0.07714331 -0.0006674594 -0.026157616
00000000: 280b 143c 4ac6 b03d 0d59 2dbd c9fd 7ebd
00000010: 34c0 d73c 872c d13d 2f64 ae3d 79c1 30bc
00000020: 4e11 18bb 600c 5cbc 06cb d13d e918 b03c
00000030: fdb6 3f3c e8c3 0c3d 3511 8abd 1ae3 96bc
00000040: d93a 94bd 9f52 143d 1a0f 893d 5df9 093c
00000050: 692d 19bd b7f8 a93d 9ea2 b13c d7b8 97bd
00000060: bdab 9dbd a73a 513d 839c 8d3d 0f37 cb3d
00000070: bb1f 0b3d 5c64 6dbd bfdd 93bd ebf2 fa3a
00000080: 6b29 4c3d 1e4e f2bc a906 0a3d a70c 583d
00000090: 2692 0b3d b721 0cbd 9d5a dabc f9d9 7cbd
000000a0: c754 d7ba 11bb bdbd 834f 7d3d 7f1e d63c
000000b0: bba0 093d 1c9b 993d 48d6 0abd 9b25 403b
000000c0: 8c04 25bd dd2d 5c3d 2881 fa3c 49e5 833d
000000d0: 48de 723b 9f6a 4a3d d402 5dbd 451a 4ebd
000000e0: b8ec 9bbd c78b 643d ffe3 acbd e7ae 13bd
000000f0: 0f82 91bc d46a 8bbb 844f ae3d 6b9c ba3d
00000100: a4c2 49bd 4c13 b4bc cadd abbd 2edf 54bd
00000110: 65b5 2fbd 99bb e4bc b24f 9c3d 5c74 7ebc
00000120: 721a 0d3d 9728 92bd 9438 38bd 1c5f 973c
00000130: 7821 24bd c646 ba3d 1da7 91bc ac70 cd3d
00000140: bbca 5b3d a30e 3e3d c753 cebd 069c 5e3d
00000150: aaa6 83bd f24a b93d 6f88 a63d 43c9 4ebd
00000160: 3b19 d63c 6364 163d e839 babd aa3c 2b3c
00000170: 892a 5cbc daff 7b3c 80bc 853d 068f 56bd
00000180: 7bb9 adbd 50fd 9dbd 71f8 2eba 7f48 d6bc

net.4.weight f4 [11, 100]
-0.05406224 -0.029645192 0.057045877 -0.05604156 0.076344706 0.060730774 -0.022856237 -0.00784784
0.03172999 0.069074765 0.0011246986 -0.047983285 0.093642585 -0.01092968 0.041866302 0.09937129
0.028869826 0.09848142 -0.015576388 -0.044528704 0.059100527 0.10066689 0.107938126 0.107185684
0.0362581 -0.08680466 0.092783816 0.101956904 -0.0807288 0.007068105 0.00756437 -0.00012992663
0.06229663 -0.039012507 -0.034622602 -0.073334195 -0.017118677 -0.0449676 -0.043019976 0.07529198
-0.0041444767 -0.06563123 -0.049829677 0.039331965 -0.03844064 0.09417531 0.048734907 -0.05030414
-0.06186323 -0.030814538 -0.07218789 0.07426409 -0.071002334 0.06069273 -0.042663846 0.041432925
0.02986649 0.05429786 0.053894375 0.08041461 0.081550136 0.09788786 -0.021834195 -0.05837418
-0.0053994916 -0.025701435 0.00069719594 -0.035923406 -0.06978268 -0.015924016 0.10460168 0.09138821
-0.029185988 0.08109803 -0.007103974 -0.0077672875 -0.08556844 0.096394956 -0.08475238 0.03608257
-0.07779834 0.09096887 -0.083233215 0.05477242 -0.08572344 0.024386205 0.068191454 0.09491579
0.008252966 0.09254587 0.07430751 0.082821295 0.080726594 -0.013819337 0.013465682 -0.05996244
0.02725382 0.06263759 0.029310718 -0.081636965 -0.055637594 0.033761747 -0.0919349 0.07973253
-0.052544996 -0.02890846 -0.027082829 -0.034952745 -0.09138888 -0.014547489 -0.037601095 0.059423637
-0.018042214 -0.015090284 0.036973473 0.09102315 -0.08550193 -0.041947015 -0.026831388 0.078740776
-0.021447055 -0.032236245 -0.053446412 -0.0353819 -0.10297402 -0.09998311 0.03271357 -0.010465838
-0.10592149 0.00026801895 -0.04292259 0.038209744 0.062043685 0.079091914 0.019061163 0.08927855
0.084941626 -0.033010952 -0.09410633 -0.01632624 0.067291595 0.034197103 -0.043414734 -0.025332592
0.05232879 0.03960125 0.067960806 0.030969074 -0.04161609 -0.097194776 0.050449308 -0.07550578
-0.074718095 -0.011098106 -0.01010581 -0.09091888 0.055466313 0.03170148 -0.036045413 -0.029022437
-0.029478472 0.049260087 0.044577427 -0.09697302 -0.037173126 -0.013575861 -0.09297985 -0.09162331
0.018507838 -0.037554495 -0.10566535 0.07142325 -0.07451112 -0.103915006 -0.007839535 -0.083584234
0.07886737 -0.016325785 -0.05707231 0.02890174 -0.063587435 -0.02483 0.04987424 0.077070855
-0.10068723 0.06650285 -0.10366029 0.040014908 -0.07690572 -0.020843407 -0.0731426 0.0770107
0.037501723 -0.0041448227 0.09069099 -0.09001019 -0.06409867 0.057184093 0.046133675 0.031853534
-0.042600926 -0.04949863 0.090594254 0.003295065 -0.10009111 0.0647907 -0.004633721 -0.10572752
-0.060539857 -0.08702854 -0.03372187 0.009423434 -0.042318974 0.051452994 -0.0599877 0.09339262
-0.09305427 -0.087547176 -0.009563356 0.07087223 -0.033753224 -0.07424124 0.06621439 0.05812409
-0.03907011 -0.0896427 0.025406294 0.00829827 0.058823172 -0.08553398 -0.038270637 0.090446174
0.060898576 -0.0386904 -0.04007772 0.06937118 0.03870207 -0.078512155 0.04495939 -0.016374284
0.087593056 -0.0804404 -0.05293218 0.08787014 -0.040266834 -0.1049723 0.046397325 -0.013235335
0.036956485 -0.025139017 0.071683265 -0.012768772 -0.013281426 0.061017808 -0.0075094495 -0.09860958
00000000: 5e70 5dbd 79da f2bc f0a8 693d d68b 65bd
00000010: 9d5a 9c3d d5c0 783d 013d bbbc 3a94 00bc
00000020: 4ef7 013d 1277 8d3d 9f6a 933a 1f8a 44bd
00000030: afc7 bf3d 6712 33bc 007c 2b3d 2d83 cb3d
00000040: 6a80 ec3c a0b0 c93d 1b34 7fbc bb63 36bd
00000050: 6513 723d 712a ce3d aa0e dd3d 2b84 db3d
00000060: 6083 143d a4c6 b1bd 7105 be3d c8ce d03d
00000070: 2455 a5bd 909b e73b 89de f73b ea3c 08b9
00000080: c02a 7f3d 94cb 1fbd 6ed0 0dbd 3d30 96bd
00000090: 783c 8cbc f22f 38bd b735 30bd ae32 9a3d
000000a0: 64ce 87bb ab69 86bd 341a 4cbd 8e1a 213d
000000b0: ef73 1dbd fcde c03d 419e 473d b70b 4ebd
000000c0: 4c64 7dbd c56e fcbc 3fd7 93bd c517 983d
000000d0: ac69 91bd f198 783d 49c0 2ebd 92b5 293d
000000e0: 92aa f43c 6f67 5e3d 59c0 5c3d 6ab0 a43d
000000f0: c203 a73d 6e79 c83d a0dd b2bc c419 6fbd
00000100: 38ee b0bb d18b d2bc 07c4 363a 6c24 13bd
00000110: 39ea 8ebd 1573 82bc 6839 d63d be29 bb3d
00000120: 7417 efbc b916 a63d 74c8 e8bb bb84 febb
00000130: 823e afbd b86a c53d a892 adbd 51cb 133d
00000140: bc54 9fbd e34d ba3d 2d76 aabd 0c59 603d
00000150: c58f afbd 94c5 c73c f6a7 8b3d 3663 c23d
00000160: 7337 073c b088 bd3d 892e 983d 369e a93d
00000170: fc53 a53d 806a 62bc 2a9f 5c3c 2d9b 75bd
00000180: 6743 df3c 2348 803d 081d f03c 4831 a7bd
00000190: 3fe4 63bd c249 0a3d 5d48 bcbd cf4a a33d
000001a0: 6c39 57bd 6fd1 ecbc cfdc ddbc 9c2a 0fbd
000001b0: 182a bbbd 9758 6ebc 9b03 1abd 3366 733d
000001c0: 44cd 93bc 3d3d 77bc 7f71 173d 586a ba3d
000001d0: a31b afbd a2d0 2bbd 80cd dbbc d842 a13d
000001e0: bcb1 afbc 270a 04bd a0ea 5abd 9cec 10bd
000001f0: 0be4 d2bd f2c3 ccbd aafe 053d e878 2bbc
00000200: 5eed d8bd e584 8c39 99cf 2fbd d281 1c3d
00000210: 8521 7e3d f1fa a13d 2826 9c3c acd7 b63d
00000220: e0f5 ad3d 7e36 07bd d2ba c0bd 9bbe 85bc
00000230: 2dd0 893d 4312 0c3d a6d3 31bd 4c86 cfbc
00000240: b756 563d ec34 223d 092f 8b3d dbb2 fd3c
00000250: a275 2abd 0e0e c7bd efa3 4e3d c6a2 9abd
00000260: cd05 99bd d5d4 35bc d792 25bc ae33 babd
00000270: a530 633d 69d9 013d 5ba4 13bd 76c0 edbc
00000280: d67c f1bc f2c4 493d d296 363d ca99 c6bd
00000290: d942 18bd 4a6d 5ebc 386c bebd 01a5 bbbd
000002a0: c09d 973c bed2 19bd 1367 d8bd 5a46 923d
000002b0: 4999 98bd 64d1 d4bd 6571 00bc 362e abbd
000002c0: 3785 a13d a7bd 85bc a8c4 69bd 58c3 ec3c
000002d0: 213a 82bd 4968 cbbc ee48 4c3d 53d7 9d3d
000002e0: 1b35 cebd a532 883d d94b d4bd ace6 233d
000002f0: bf80 9dbd cbbf aabc cacb 95bd c9b7 9d3d
00000300: 689b 193d 4bd1 87bb 33bc b93d 4357 b8bd
00000310: 2a46 83bd de39 6a3d aaf6 3c3d da78 023d
00000320: 4f7e 2ebd 13bf 4abd 7b89 b93d 04f2 573b
00000330: 91fc ccbd fdb0 843d 78d6 97bb ac87 d8bd
00000340: a4f8 77bd 053c b2bd f21f 0abd bf64 1a3c
00000350: a956 2dbd 60c0 523d aab5 75bd a144 bf3d
00000360: 3d93 bebd ef4b b3bd 9faf 1cbc 7625 913d
00000370: d240 0abd cb0b 98bd 699b 873d 8713 6e3d
00000380: fb07 20bd 9896 b7bd dc20 d03c 78f5 073c
00000390: 91f0 703d 702c afbd acc1 1cbd d83b b93d
000003a0: c970 793d d379 1ebd 8928 24bd 7a12 8e3d
000003b0: 1086 1e3d fbca a0bd 5627 383d 5d23 86bc
000003c0: fd63 b33d f0bd a4bd 6acf 58bd 43f5 b33d
000003d0: d6ee 24bd b8fb d6bd 1f0b 3e3d 05d9 58bc
000003e0: af5f 173d 57f0 cdbc adce 923d 1d34 51bc
000003f0: 579a 59bc cfed 793d d411 f6bb d2f3 c9bd

net.4.bias f4 [11]
-0.0025641245 0.05980941 -0.05012178 0.019304084 0.061298143 0.068772554 -0.034233995 0.068767734
-0.057418775 0.055582095 -0.07923035
00000000: df0a 28bb b6fa 743d 7f4c 4dbd 9923 9e3c
00000010: c313 7b3d a0d8 8c3d f238 0cbd 19d6 8c3d
00000020: f32f 6bbd 0daa 633d 8643 a2bd
