models/part2_advanced.pt (torch, 109391 bytes, 6 tensors)

net.0.weight f4 [100, 155]
000000 4a 21 48 bd 6d 98 ce 39 af 01 63 3d f0 7a 9f bb
       -0.048859872 0.00039404948 0.055421527 -0.00486695
000010 c0 e2 07 3c f0 6f c3 3b 83 31 16 bc e8 2c 24 3d
       0.0082938075 0.0059642717 -0.009167078 0.04008189
000020 cc 04 32 3d 4a 33 30 bd 29 72 87 3d 09 0d 12 3d
       0.043461606 -0.043017663 0.06613571 0.035656963
000030 e8 e9 4d bc 84 39 4d 3d 42 d6 77 bc 52 17 f7 3c
       -0.012567975 0.05010368 -0.015126767 0.030162487
000040 26 e0 b3 bd 13 2f 82 3d b7 e1 87 3d 03 b0 8c bd
       -0.08782987 0.06356635 0.066348486 -0.06869509
000050 8f b5 a4 bd d7 cc 30 bd c6 45 4a bd 23 9f 2a 3c
       -0.08042442 -0.0431641 -0.049382947 0.010413918
000060 14 d5 84 3c 78 b7 f1 bc 82 ca 16 3d 92 78 47 3b
       0.016214885 -0.02950643 0.03681422 0.0030436856
000070 a2 64 c1 bc 6d 69 8c bd 24 20 d1 3c 00 fe 9a bd
       -0.023607556 -0.06856046 0.025528021 -0.07567978
000080 06 58 a4 bc b1 a7 24 bc 4e 41 38 bd f8 ac c5 3c
       -0.020061504 -0.010049746 -0.044984154 0.02413033
000090 30 d1 7f 3c 5a 2c 5c 3d 7a c5 4d 3d f0 85 97 bd
       0.015613839 0.053753234 0.050237156 -0.073985934
0000a0 07 74 8c bd 1c 80 f1 bc 75 ae 6c bd 98 4e ce 3c
       -0.06858068 -0.029480033 -0.057783563 0.02518396
0000b0 78 8e 57 bd a2 2e 7b bd 48 a6 bf 3c 82 8e 46 3d
       -0.052626103 -0.06132377 0.023394719 0.04847575
0000c0 66 4b bf bc 9a ea a3 bd c8 fd 39 3c 94 99 28 3d
       -0.023351382 -0.08003731 0.01135201 0.04116209
0000d0 8f 80 80 3d 80 ba f9 3b 7e 66 64 3d c7 15 93 bd
       0.062745206 0.0076211095 0.055761807 -0.07181888
0000e0 77 5f 9d 3d 3b 72 54 bd e2 90 60 bd 12 1d 6c 3d
       0.07684224 -0.05186675 -0.05482567 0.05764491
0000f0 00 37 92 bc 5a 09 4b 3d 48 70 66 bd 6e e9 78 3d
       -0.017848492 0.049569465 -0.056259423 0.06076949
000100 a7 02 9c 3d 1c 3d c7 3c 5b b3 84 3d 51 f2 6a bd
       0.076176934 0.024321131 0.06479522 -0.057359997
000110 58 4b 91 bc c8 47 c8 3c f2 e9 39 3d f0 ab 2f bd
       -0.017736122 0.02444829 0.045389123 -0.04288858
000120 6a 5a 51 3d 76 8f d8 bc 70 ff 0a bd e2 c5 a5 3c
       0.051111616 -0.026435595 -0.03393501 0.02023596
000130 f2 89 a9 bd 3d 69 b0 bd a1 98 0f 3d bb 0c 13 3d
       -0.08278264 -0.086138226 0.035057668 0.035900813
000140 d3 17 b3 3c 59 37 93 bc 46 8f 4c bd cb a8 68 bd
       0.021861946 -0.017970728 -0.049941324 -0.0568016
000150 48 78 82 3d 66 e0 a6 bd db 3d 06 3d e1 58 79 3d
       0.06370598 -0.08148269 0.032773834 0.060875777
000160 5a 2d 29 3d aa e4 81 bd 2e 6a 8b bc 2b be 60 bd
       0.041303016 -0.06342442 -0.017018404 -0.05486886
000170 de 59 19 3d bc 22 af bd e6 9a 84 bd 1a 22 35 bd
       0.03743922 -0.08551547 -0.06474857 -0.044221975
000180 65 6f 99 3d 22 ea 7a 3d b1 79 81 3d 8e 0c 91 3d
       0.0749195 0.061258443 0.06322039 0.07082473
000190 1c dd e5 bc f0 30 0d bd 1a 74 24 bd bc 37 12 3d
       -0.028059535 -0.0344705 -0.040149786 0.035697684
0001a0 40 a3 25 3d 1c 21 d2 3c 3a 4f 58 bd e4 0a 84 3c
       0.04043889 0.025650553 -0.05280993 0.016118474
0001b0 dc c8 09 bd 87 35 df bb fb 2e 62 bb d3 98 54 3c
       -0.03363882 -0.006811801 -0.0034512866 0.012975889
0001c0 35 ad 7b bd 71 d0 9e 3d a3 66 ce bc 7c 97 0b 3d
       -0.06144448 0.07754601 -0.025195425 0.034080014
0001d0 df ad 83 3d 1a 49 a4 3c d8 a2 3e 3d 5e dc 27 3d
       0.06429648 0.020054389 0.04654202 0.040981643
0001e0 5b 83 4a 3d 30 e0 8a 3c 29 35 36 3d d8 01 0f bd
       0.049441677 0.016952604 0.04448429 -0.034913868
0001f0 f0 4a 63 bd 3e 19 1d 3d 5d b5 95 3c e1 65 45 bb
       -0.055491388 0.03835415 0.018274957 -0.003012054
000200 47 4c b4 bd 36 c0 c3 3b fa 82 20 3d 57 81 9b bc
       -0.08803611 0.005973841 0.03918741 -0.018982572
000210 37 ad 1d 3c 23 87 d1 3c 17 57 b6 bd 96 4e 5c bc
       0.009623817 0.025577134 -0.0890333 -0.013446471
000220 0e 18 f4 bc 42 28 28 bd 2f ab df 3c 59 19 a3 3d
       -0.029796626 -0.041054018 0.027303306 0.07963819
000230 09 68 f6 3b e1 a6 f9 3c 52 04 a2 bd 35 ff f8 bb
       0.007519726 0.030475082 -0.0791098 -0.0075987824
000240 38 33 2a bc 61 c7 97 bd 50 90 02 bc 0b 05 a4 3a
       -0.010388188 -0.074110754 -0.007968977 0.001251371
000250 a1 b0 e3 bc 14 1f 1c 3c 34 69 fe 3c d8 a5 87 3d
       -0.027794184 0.009528894 0.031056024 0.06623429
000260 0d c9 54 bc 7a 52 3a bc 7e fc 9a bc 7d 9d b6 3b
       -0.012987387 -0.011372203 -0.018919226 0.0055729733
000270 9e 00 70 bd 4f a3 4e bc 20 1b 8b bd ec c4 66 bd
       -0.05859434 -0.012612178 -0.06792283 -0.056340143
000280 57 1e 8c bd 49 3c 73 3d 42 d3 3d bd e0 67 d4 bb
       -0.06841724 0.059383664 -0.04634405 -0.0064821094
000290 00 b1 0c 3c be e6 8f 3d cc 89 12 3d 74 4a 6a bd
       0.008587122 0.070264325 0.035775945 -0.05719991
0002a0 7b 7e 80 3d db 3c bc bd e0 09 9d 3a 1e 7e 80 3d
       0.06274124 -0.09191295 0.0011981092 0.06274055
0002b0 ac 14 89 3d 5b e7 ab bc 5c 3b 6b bd e2 4c 05 3d
       0.06693396 -0.020984342 -0.057429656 0.032544024
0002c0 c6 6e 3e 3d 9c 63 2f bd e7 63 83 bc 8d 64 84 bd
       0.04649236 -0.042819604 -0.016038848 -0.06464491
0002d0 00 14 70 3c 25 19 71 3b 1e 15 23 3d f0 c1 e1 bc
       0.014653206 0.003678867 0.03981506 -0.027558297
0002e0 fb ca 9e bd 0a 8d 0a bd ef a6 80 bd 54 70 0e bd
       -0.07753559 -0.03382591 -0.0628184 -0.034775093
0002f0 c5 30 69 3c 30 da 88 bd 80 b6 75 bb 60 f1 a0 bd
       0.014232819 -0.06682241 -0.0037492812 -0.07858539
000300 0a 25 69 bd 3c 58 66 bd ec 92 ea bc cc f6 2b bd
       -0.05692009 -0.05623649 -0.028634511 -0.04198341
000310 40 90 4a 3c 46 1e 49 3d f6 12 78 3d f0 51 cf 3c
       0.012363493 0.049101137 0.060564958 0.025307626
000320 00 54 0b ba d0 83 6a bc 16 64 5f 3d 72 6d 3c bd
       -0.0005314946 -0.014313653 0.05453881 -0.046002813
000330 a2 cd 6d 3d c6 61 9e bd 0a 8e 75 bd 0c 8b ae 3c
       0.058057435 -0.077334926 -0.059949912 0.021306537
000340 2d 81 07 bd b8 86 75 3c 0b 54 8f 3d 9a 43 16 3d
       -0.033082176 0.014985733 0.06998452 0.036685564
000350 bf 01 a1 3d 8e 5a 0b bd 57 1b 1d bd 00 18 27 bc
       0.07861661 -0.034021907 -0.03835615 -0.010198593
000360 40 85 84 bc 70 b7 10 bd 00 69 a3 bb a9 9c 94 3d
       -0.01617682 -0.03533119 -0.004986882 0.07256443
000370 d7 57 34 bd 92 c2 38 3d bc d5 18 3d 6e 87 3e 3d
       -0.044029083 0.04510743 0.037313208 0.046515875
000380 ec 83 b1 3c f8 12 f3 bc 3e c8 07 3d f9 f4 1a bd
       0.02166935 -0.029672131 0.03314995 -0.03783128
000390 ed f1 49 bd 01 6e 98 3d 38 3b 74 3d 2e d9 8c bd
       -0.049302984 0.074428566 0.059626788 -0.06877361
0003a0 b2 e5 83 3d f1 43 8f 3c 2e 8d a6 3c e8 60 9e 3d
       0.06440295 0.017488452 0.020330992 0.07733327
0003b0 c9 56 82 bb d2 c4 d1 bc c9 e0 4a 3d fb 2f b1 bc
       -0.0039776308 -0.025606547 0.049530778 -0.021629324
0003c0 a0 fe 9b bc 2c a7 05 bd 51 cb 85 3d 8c 7e d7 3c
       -0.019042313 -0.03263013 0.0653292 0.02630546
0003d0 6c 14 63 bc 80 09 d2 ba a7 b8 75 3a 32 ea 67 bd
       -0.013859849 -0.001602456 0.00093735236 -0.05661983
0003e0 46 f3 b3 3c d2 5c 7e bd ab 33 96 bb a4 55 82 bc
       0.021966588 -0.06210024 -0.004583796 -0.015909977
0003f0 5c 5a 05 bd f6 6c 96 3d 84 3e ba 3c b1 0d 1b 3d
       -0.032556877 0.073450014 0.022734888 0.037854854

net.0.bias f4 [100]
000000 a2 e7 0d bd 50 67 37 3d fa fe db bc ef eb 52 bb
       -0.03464473 0.04477626 -0.02685498 -0.0032184084
000010 38 71 43 3c e3 9c 8f bd c4 96 28 3d f4 55 94 3d
       0.011928849 -0.07012346 0.041159406 0.07242957
000020 59 36 8f bd 2a 64 dc 3c 2c 83 90 bd 9e 56 76 bb
       -0.06992788 0.02690323 -0.07056269 -0.003758825
000030 7a b7 38 bd 7c b6 95 bd 69 3b 14 3d 9a 86 28 3d
       -0.045096852 -0.07310197 0.03618947 0.04114399
000040 4a e7 0c 3c 7f 27 9e 3c f6 4a 67 bd 63 92 49 3d
       0.0086000655 0.019305943 -0.056467973 0.04921187
000050 6e ec 82 bd b3 f1 09 bd d4 8c 8d bc 1e 4c 0f bd
       -0.06392752 -0.033677768 -0.017279066 -0.0349847
000060 14 cc 7b 3d 47 53 7e 3d 68 19 29 3d b1 4c 05 bd
       0.06147392 0.06209114 0.041283995 -0.03254384
000070 95 18 24 bd 50 92 47 bc 05 00 cd bc 8d 6a 0c 3c
       -0.040062506 -0.01218088 -0.025024423 0.008570326
000080 20 03 26 3d 52 61 af 3d 37 01 5f 3d 45 01 9b bd
       0.040530324 0.08563484 0.054444518 -0.075686015
000090 82 0d 84 3d a5 9f 98 bd 41 61 e7 3b 40 8b 20 3c
       0.06447889 -0.07452325 0.007061154 0.009798825
0000a0 97 7f 66 bc b5 53 a5 bc a2 bd dd bc d6 ca 28 3d
       -0.014068506 -0.020181516 -0.027067963 0.041209064
0000b0 ab b4 51 bd 3f d2 67 3c d4 ac dc 3c 79 45 73 3d
       -0.05119769 0.014149248 0.02693788 0.059392426
0000c0 8b b9 70 3c ce 49 87 3d 91 dd b6 bd f8 29 37 bd
       0.014692674 0.06605874 -0.08928979 -0.04471776
0000d0 c2 5c 89 bd 71 66 96 39 49 cb 16 bd e8 a2 3c 3d
       -0.06707145 0.00028686554 -0.03681496 0.046053797
0000e0 af 27 f2 bc 08 95 78 3c 8a 59 89 3d 20 aa bc bd
       -0.029559938 0.015172251 0.06706531 -0.09212136
0000f0 83 a4 ae 3c 97 1f 8c bd 50 02 1f 3d 90 b8 47 bc
       0.02131868 -0.06841963 0.038820565 -0.012189999
000100 cc ae 8a bd ec 7e 34 3c 1a 25 19 3c 66 51 cd 3c
       -0.06771621 0.011016589 0.009347225 0.025063228
000110 2d f9 4a 3d 38 cc 0d bc ee f4 17 bd 22 01 9a 3d
       0.04955404 -0.008654647 -0.037098818 0.07519747
000120 57 c1 05 bd fe 3c 81 3d ce 62 5b 3d c7 1b a8 bd
       -0.032655086 0.063104615 0.053561024 -0.08208423
000130 16 8b be bc d9 46 f9 39 52 d3 83 bd 70 7e c2 3c
       -0.02325968 0.00047545767 -0.064367905 0.02374193
000140 55 d9 c1 bc 42 a5 28 bd a5 c3 58 3d f5 8f 09 3d
       -0.023663202 -0.041173227 0.052920956 0.033584554
000150 15 b6 a3 3d 68 e6 9c bc b8 70 07 bd a2 bd 60 bd
       0.07993714 -0.019152835 -0.03306648 -0.054868348
000160 54 5e 26 3c 70 81 98 3d 48 09 10 bc 5f 44 0a bd
       0.0101543255 0.07446563 -0.008791275 -0.03375661
000170 04 0b 4f 3d 9b cf 72 3c a6 ec 2e ba 0b 9d 92 3d
       0.050547615 0.014820005 -0.00066728366 0.0715886
000180 6e 1d 98 3d ac 5c a3 3d 98 60 9b bd a3 cf c9 3c
       0.07427488 0.0797666 -0.07586783 0.024635142

net.2.weight f4 [100, 100]
000000 a9 84 a6 3d b9 92 b5 3d 3b bb b1 bd a3 0e 97 3d
       0.08130772 0.08865876 -0.086782895 0.073758386
000010 17 40 3d bd c7 20 4d bd 97 b5 66 bd 8a b9 59 bd
       -0.0462037 -0.050080087 -0.05632552 -0.05315546
000020 18 19 80 bc 80 16 eb ba 7d 75 33 bd 39 a0 83 3d
       -0.015636966 -0.0017935783 -0.043813217 0.064270444
000030 ad 39 6b bd 69 72 b6 3d c0 d1 b8 bd 4a fc 06 3d
       -0.05742805 0.08908541 -0.09024382 0.032955445
000040 f0 e6 7a bd 9a c6 63 bd 54 38 c2 3c c8 5b 99 bc
       -0.061255395 -0.055609323 0.0237085 -0.018720523
000050 ed 66 89 bd 50 95 c1 bb 70 9f 93 bd cd 9a 73 bd
       -0.06709085 -0.005907692 -0.07208145 -0.0594738
000060 22 17 72 3d b0 fb ca 3b 4c 57 e7 bc 83 fc a3 3d
       0.059104092 0.0061945543 -0.028239869 0.08007147
000070 e8 90 49 3c 6f 1c 94 3d 5a 99 29 3d 18 84 06 3c
       0.012302615 0.07231986 0.041406013 0.008210205
000080 0c ef 16 bd ad f9 33 bd c1 51 b3 3d 54 25 af 3c
       -0.036849067 -0.04393928 0.08755828 0.021380104
000090 b9 99 ae 3d d6 c2 74 3d b0 0d b9 bb cb b8 bc bd
       0.08525414 0.059756123 -0.0056473836 -0.09214934
0000a0 fa 2e 25 3d 54 bd b5 bc 88 3d a4 3c 14 36 15 bd
       0.040328003 -0.022185005 0.020048872 -0.036428526
0000b0 3d ed a0 3d 85 22 c5 3d 30 ec 72 bd 40 d7 c2 bc
       0.078577496 0.09625725 -0.059307277 -0.02378428
0000c0 aa 74 98 bd f2 44 46 3d 4d 64 94 bd fb 5b 9e bd
       -0.07444127 0.048405595 -0.07245693 -0.07732388
0000d0 73 b6 95 bd 85 2d a5 bd eb 34 9e 3d 43 5b 30 bd
       -0.0731019 -0.08065323 0.07724937 -0.043055784
0000e0 5a 33 7d 3d 28 b3 e2 bc 2c 34 f7 bc 60 67 e0 bc
       0.06181655 -0.027673319 -0.030176245 -0.027393043
0000f0 4b 20 a6 bd 2c 1f eb 3c a3 c0 24 bd 8c 37 f5 3c
       -0.08111628 0.028701387 -0.040222775 0.029933713
000100 ca 80 ae bd 34 23 80 3c f5 56 a6 3d 6c cf fb bc
       -0.08520658 0.015641786 0.081220545 -0.030738555
000110 98 9f ae 3c ca 2f ca bd a3 4c 27 bd 37 a1 a9 3d
       0.021316335 -0.09872396 -0.04084457 0.082827024
000120 26 78 22 3d 2e 12 16 3d d2 c3 31 3d 78 44 a7 bc
       0.039665364 0.03663843 0.04339964 -0.02041839
000130 5a dd 2d bd 29 bc c0 3d 2c 33 16 bd 50 aa 02 bc
       -0.042447425 0.09410889 -0.036669895 -0.007975176
000140 28 36 9b bd 6b fc 9c 3d 2a d1 05 bd c6 b5 18 bd
       -0.07578689 0.076653324 -0.032670178 -0.037282728
000150 7a c3 7e bd cc ac be 3c 28 94 9e bd 7d 69 b0 3d
       -0.06219814 0.023275755 -0.07743102 0.0861387
000160 67 8f 96 3d 90 dd 9b bd 7a ea bb bd ac 0f d6 3c
       0.073515706 -0.07610619 -0.09175582 0.02613052
000170 2a 8c 73 bd 0f 04 cb bd a9 95 80 3d 8c 02 ce bc
       -0.059459843 -0.099128835 0.062785454 -0.025147699
000180 e8 7f a9 3c 40 3a 2f 3c 57 a5 7f bd 6a ed 48 bd
       0.020690873 0.01069504 -0.06241354 -0.04905454
000190 f6 66 0e 3d 55 d4 b4 bd d0 00 61 bc 58 27 10 bc
       0.03476616 -0.088295616 -0.013733104 -0.008798443
0001a0 7d 19 63 bd 8b 6a ca 3d 6d 7c b5 bd eb 8c af bd
       -0.05544423 0.09883603 -0.08861623 -0.085718
0001b0 e5 0f 94 bd 76 47 68 3d 8d 55 ae bd 02 a5 78 3d
       -0.07229594 0.056708775 -0.08512411 0.06070424
0001c0 09 cb c6 3d 31 37 c0 3d 71 dd be 3d 6c 11 85 3c
       0.09706695 0.09385527 0.0931958 0.016243659
0001d0 ed 13 b3 bd 08 9e c8 3c 72 a4 28 3d 20 99 f7 bb
       -0.08744035 0.024489418 0.041172452 -0.0075560957
0001e0 ad 7a b3 bd e9 81 9a 3d 78 da 9d 3c 3d f5 89 3d
       -0.08763633 0.0754431 0.019269213 0.067362286
0001f0 10 bb 35 bc 40 0e b7 bd dd 68 ae 3d 55 71 c8 bd
       -0.011091962 -0.08938265 0.08516095 -0.09787241
000200 eb 4f 92 bd 47 1e bb 3d b4 c5 eb bc 82 6a 5e 3d
       -0.071441494 0.09136634 -0.028780796 0.054300793
000210 02 e7 7a 3d 40 67 40 bc 80 b9 a4 bc 4a ff 35 3d
       0.061255462 -0.011743367 -0.020107985 0.044432916
000220 48 3d a6 bc da 48 29 3d 16 c8 01 bd 77 b6 60 bd
       -0.020292893 0.041329242 -0.031684957 -0.054861512
000230 42 5c 81 bd 5b 93 cb bd 68 6b f9 bc b0 1f 3b bd
       -0.06316425 -0.09940215 -0.030446723 -0.045684516
000240 42 a3 01 3d 80 a5 63 3a 3c 79 87 bd c8 6d 94 bd
       0.031649835 0.0008684024 -0.066149205 -0.072475016
000250 40 0c 76 bc 52 a7 13 3d 00 cd c0 3b 50 b6 3e 3c
       -0.015017569 0.03604824 0.005883813 0.011640146
000260 aa f6 5b bd d0 20 38 bd f0 9c 61 bc a6 af 2a 3d
       -0.053702034 -0.044953167 -0.013770327 0.041671418
000270 2b e7 bb bd 06 1d 2e 3d 6a 13 66 3d 4f 5c ca bd
       -0.09174951 0.042508148 0.05617086 -0.09880888
000280 12 e9 2b 3d 18 22 77 3c da 12 23 3d 4d 62 63 bd
       0.04197032 0.015083812 0.0398129 -0.05551367
000290 63 0e 81 3d fa 87 6c bd a3 31 32 bd 62 d6 03 3d
       0.06301572 -0.057746865 -0.04350437 0.032186873
0002a0 6c 71 b0 bc 09 bd 8e 3d a8 bc 3d bc 88 ab 9f bd
       -0.021538459 0.06969649 -0.011580624 -0.07796389
0002b0 bb ab aa bd d0 af a8 3b 40 98 9f bd b9 14 b7 3d
       -0.08333536 0.0051479116 -0.07792711 0.089394994
0002c0 7f 08 b2 3d 92 95 76 3d 8b 44 9c bd a0 51 bc bc
       0.08693027 0.060201235 -0.07630261 -0.02298814
0002d0 bb 1a 97 3d 20 d5 a6 3c 50 e6 00 3c 30 40 fe bb
       0.07378145 0.020365298 0.007867411 -0.0077591166
0002e0 a7 d0 60 bd b4 4e 02 bd 7a c2 6e 3d 54 91 9f bc
       -0.054886486 -0.03181334 0.058290936 -0.019478478
0002f0 e8 7b db bc 9e dc 49 3d f7 27 45 bd 28 13 73 bc
       -0.026792482 0.049282663 -0.048133817 -0.01483611
000300 69 21 aa 3d 10 86 6a 3c be 93 3a 3d fa 13 4a bd
       0.08307154 0.01431419 0.045551054 -0.049335457
000310 72 02 46 3d 57 e8 5d bd df 7a c8 3d f4 cd e2 bc
       0.048342176 -0.054176655 0.09789061 -0.027686097
000320 25 7d 95 bd 78 1e b1 bc 33 db 96 3d 19 b0 a0 3d
       -0.0729926 -0.021620974 0.07366028 0.07846088
000330 b0 b4 e7 3b 41 73 8e 3d b4 a9 08 bd 98 d0 21 bc
       0.0070711 0.06955577 -0.033364967 -0.009876393
000340 41 a1 96 3d 40 4f 8e ba f4 e2 ac 3c 82 9e 73 3d
       0.073549755 -0.0010857359 0.021104313 0.059477337
000350 50 74 fd 3b ed a4 6e bd 00 82 31 3c d0 71 c5 bb
       0.007734813 -0.058262754 0.010834217 -0.0060255304
000360 f0 6f 22 bc 77 28 c6 3d 77 ae ae 3d 28 83 b9 bd
       -0.009914383 0.09675687 0.0852937 -0.09058219
000370 20 04 15 bd 70 4e 34 bc 42 1b 6c 3d e8 a1 b3 bc
       -0.036380887 -0.011005029 0.057643183 -0.021927789
000380 40 d2 7b bc 0c 4f d4 bc c7 2e 7f bd 8f ef af bd
       -0.015369952 -0.025916599 -0.06230047 -0.08590614
000390 4b c3 a2 bd 00 76 9b 3c 86 f4 3e 3d 80 49 d2 bb
       -0.079474054 0.018977165 0.046619914 -0.0064174533
0003a0 f3 91 bc 3d b4 56 8e bc 29 93 98 3d a0 56 89 bc
       0.09207525 -0.017375328 0.074499436 -0.016764939
0003b0 2d be 63 bd 18 dd 20 3c 37 2a cc bd 9e 82 19 3d
       -0.055601288 0.009818338 -0.09968989 0.037478082
0003c0 60 87 ad 3c 92 de 3e 3d ae a7 55 3d 91 dd af 3d
       0.021182716 0.04659898 0.052161865 0.08587182
0003d0 46 5b 86 bd 6f f6 c0 bd e8 92 0b 3c 90 db 34 bd
       -0.06560378 -0.094220035 0.008518912 -0.044154704
0003e0 80 d9 03 3a a1 72 b1 3d 58 15 2e 3c 68 e0 44 3c
       0.00050296634 0.08664442 0.010625206 0.012016393
0003f0 3e 61 aa bd 80 42 09 3a ed 38 a4 bd 68 03 cd bc
       -0.08319329 0.00052360445 -0.0801867 -0.025026038

net.2.bias f4 [100]
000000 94 d3 8d 3c 43 60 a9 3d 2a 3a 52 bd 07 7c 5f bd
       0.017312802 0.082703136 -0.051325 -0.05456164
000010 14 59 96 3c 49 03 c0 3d 25 ab bf 3d 88 48 9a bc
       0.018353023 0.093756266 0.09358815 -0.018833414
000020 80 1d cc bb 34 d6 a3 bc 01 c2 c6 3d a8 45 82 3c
       -0.0062291026 -0.019999601 0.09704972 0.015902355
000030 50 04 e6 3b ac f3 d2 3c 53 f3 9a bd 80 e0 22 bc
       0.007019557 0.025750957 -0.07565942 -0.00994122
000040 2b 7d a4 bd 06 1b fa 3c 75 4c 8f 3d c8 62 89 3c
       -0.080316864 0.030530464 0.06997005 0.016770735
000050 f4 9c f9 bc 01 b9 97 3d ae 92 7e 3c 62 c7 a9 bd
       -0.030470349 0.074083336 0.015537901 -0.082899824
000060 2b fb ae bd 6e e7 33 3d 31 d0 9f 3d 84 95 ba 3d
       -0.08544 0.04392188 0.07803381 0.09110549
000070 8c ea d0 3c 9f 51 87 bd f7 26 90 bd c0 3f 29 3c
       0.025502466 -0.06607365 -0.07038682 0.010330141
000080 3e 57 6f 3d 18 a0 aa bc 02 6c 16 3d 62 29 7c 3d
       0.05843281 -0.020828292 0.036724098 0.061562903
000090 b6 9f 2e 3d f8 69 cd bc d4 5a a8 bc ed 66 81 bd
       0.04263278 -0.025074944 -0.020551123 -0.0631846
0000a0 c0 16 ba 3a 50 05 b2 bd cf ca 8f 3d e0 ea ad 3c
       0.0014197454 -0.086924195 0.070211045 0.021230161
0000b0 3e e5 2d 3d 33 cf a7 3d 74 c5 dc bc f1 36 de 3a
       0.04245495 0.08193817 -0.026949622 0.001695363
0000c0 7c 40 0f bd 22 fc 43 3d 1e a3 20 3d 52 31 69 3d
       -0.034973606 0.047847874 0.03921806 0.0569318
0000d0 3c 63 59 3c 52 a7 29 3d fd 61 65 bd e3 83 71 bd
       0.013268288 0.041419335 -0.056001652 -0.058963668
0000e0 eb 8b ab bd 5e ef 64 3d 2a c5 be bd ed 1a 24 bd
       -0.083762966 0.05589234 -0.0931495 -0.04006474
0000f0 e8 5d 57 bc 28 52 28 bc 2b e5 9d 3d 9f b4 bc 3d
       -0.013144948 -0.010273494 0.07709726 0.09214138
000100 1d 10 4a bd a8 03 61 bc cb 20 a9 bd 20 01 6a bd
       -0.049331773 -0.013733782 -0.08258208 -0.05712998
000110 94 2a 0e bd e0 b6 a8 bc 51 6b 8c 3d 48 cb b7 bc
       -0.034708574 -0.020595014 0.068564065 -0.0224358
000120 c4 21 e2 3c 88 db a3 bd fa b3 14 bd 9c 96 41 3c
       0.027603991 -0.08000857 -0.03630445 0.011815693
000130 3a 28 01 bd d3 60 b7 3d 1b 05 a8 bc 49 bd bb 3d
       -0.031532504 0.08954015 -0.020510247 0.09166963
000140 c2 28 3f 3d 72 84 2e 3d 2a 99 bc bd 46 83 48 3d
       0.04666973 0.04260678 -0.09208901 0.048953317
000150 7e e4 95 bd 49 90 ca 3d 65 e1 94 3d b7 08 3c bd
       -0.07318972 0.098908015 0.07269553 -0.04590675
000160 d4 df 98 3c 8a 3a 02 3d 25 59 ae bd 01 56 e1 3c
       0.018661417 0.03179411 -0.08513097 0.02750683
000170 b0 be a0 bb 00 f5 c2 3c 09 e7 92 3d d7 1e 51 bd
       -0.004905544 0.023798466 0.07172973 -0.0510548
000180 ab 77 bd bd cd d2 8b bd 00 e0 f4 3b 34 e8 9c bc
       -0.092513405 -0.068273164 0.007472992 -0.019153692

net.4.weight f4 [11, 100]
000000 70 f2 7f bd 2a 06 1c bd 66 29 47 3d f0 01 84 bd
       -0.062487066 -0.038091816 0.048623465 -0.06445682
000010 5b 0f 8b 3d f2 36 56 3d 94 3d 00 bd 48 8e 85 bc
       0.06790038 0.052298494 -0.031308725 -0.016303197
000020 ec a7 be 3c 22 6e 78 3d 60 c0 ef bb da 15 67 bd
       0.02327343 0.060651906 -0.007316634 -0.056417324
000030 dd 84 ae 3d d4 a7 9e bc c2 f2 08 3d 41 41 ba 3d
       0.085214354 -0.019367136 0.033434637 0.090944774
000040 38 77 a7 3c f1 66 b8 3d 14 92 c4 bc 73 e6 58 bd
       0.02044259 0.090040095 -0.023995437 -0.05295415
000050 fe 7a 4f 3d 81 e8 bc 3d 69 c0 cb 3d a9 3f ca 3d
       0.050654404 0.09224034 0.09948809 0.098754235
000060 d4 e8 e3 3c 0f 0d c3 bd 57 be ac 3d 52 3a 9e 3d
       0.027820982 -0.09523975 0.08434742 0.077259675
000070 15 9a b6 bd eb 7c 1e 3c 7f f2 99 3b 40 67 0c bc
       -0.089161076 0.009673337 0.0046980972 -0.008569539
000080 82 a9 5c 3d ca 56 42 bd 37 56 30 bd 0d 6f a7 bd
       0.053872593 -0.04744605 -0.04305097 -0.08175478
000090 b4 40 d1 bc b7 c8 5a bd da c2 52 bd eb ed 88 3d
       -0.025543548 -0.053414073 -0.051455356 0.06686004
0000a0 58 d7 4d bc 0d af 97 bd e3 a9 6e bd 24 1a fd 3c
       -0.012563549 -0.07406435 -0.058267485 0.030896254
0000b0 ca da 3f bd 9d 9f af 3d 5e 14 25 3d 1f 57 cd 3e
       -0.046839513 0.08575366 0.040302627 0.4010553
0000c0 13 f8 8f bd 97 cf 20 bd 35 12 a5 bd 21 cf 86 3d
       -0.07029738 -0.039260473 -0.08060113 0.065824755
0000d0 92 3d b9 3d 1a 20 56 3d ed d5 3a bd 4e 22 07 3d
       0.09044947 0.05227671 -0.04561417 0.0329917
0000e0 c0 ad af 3c e2 d4 3b 3d 2a 2e 3a 3d 6d 70 93 3d
       0.021445155 0.045857318 0.04545418 0.07199178
0000f0 d9 c0 95 3d cb 33 b7 3d a8 b7 d3 3d de d0 88 bd
       0.073121734 0.089454256 0.10337764 -0.06680463
000100 6d 92 b0 bb bc ce 0b bd e0 41 fd bb 97 a8 35 bd
       -0.005388549 -0.034132704 -0.0077288 -0.044350233
000110 b3 2b a0 bd 68 9d c7 bc 79 f1 c4 3d 4b eb a9 3d
       -0.07820835 -0.02436705 0.0961637 0.08296832
000120 f3 22 1a bd 41 c7 94 3d f0 6d 7e bc 63 c9 84 bc
       -0.037630986 0.07264567 -0.015529141 -0.01620931
000130 22 86 c0 bd 91 2d b4 3d 89 ef a6 bc 24 89 e2 3c
       -0.09400584 0.087977536 -0.020377891 0.027653284
000140 13 a4 b0 bd 2f 07 a9 3d dd b6 bb bd 6e e3 3d 3d
       -0.08625045 0.08253323 -0.09165738 0.046359472
000150 b7 d9 c0 bd 94 c1 82 3c e2 d6 74 3d 3f 1e b1 3d
       -0.09416526 0.015961446 0.05977524 0.08648347
000160 00 2c 4c b9 41 47 ac 3d c9 ed 86 3d 67 2f 6d bc
       -0.00019471347 0.08412028 0.06588323 -0.014476634
000170 e7 16 94 3d d4 53 b6 bc 50 c4 a5 3b d6 16 8c bd
       0.07230931 -0.02225677 0.0050588027 -0.06840293
000180 a1 3c 9a 3c 3e ff 5d 3d 20 08 ab 3c 35 6f b8 bd
       0.018827738 0.054198496 0.020877898 -0.09005586
000190 0a b8 41 bd 5a 8a 2c 3d b5 32 ab bd 8f 5c b4 3d
       -0.047294654 0.04212413 -0.08359281 0.08806717
0001a0 4d fb 34 bd 4c 6a a8 bc 74 4f 99 bc 80 c4 d9 bc
       -0.04418497 -0.020558499 -0.018714644 -0.026582956
0001b0 50 05 aa bd 00 58 cb bb 98 8e ef bc 95 cd 8a 3d
       -0.083017945 -0.006205559 -0.029242799 0.06777493
0001c0 58 dd 1e bc 00 b7 dc bb 72 a5 39 3d bb 81 cb 3d
       -0.009696327 -0.0067356825 0.045323797 0.099368535
0001d0 60 03 9e bd 8d 90 09 bd 40 82 97 bc 69 59 b2 3d
       -0.077154875 -0.03358512 -0.018494725 0.0870846
0001e0 68 5f 56 bc ac b7 c3 bc 62 a6 38 bd d8 70 dd bc
       -0.01308427 -0.023891293 -0.04508055 -0.027031347
0001f0 53 c7 c1 bd 65 a8 bb bd 92 34 28 3d 2f 88 8d bc
       -0.09461846 -0.09162978 0.04106576 -0.017276851
000200 f0 cc c7 bd ce 28 a1 3c 5f e3 0b bd 1a bc 3e 3d
       -0.097558856 0.019672778 -0.034152385 0.046566106
000210 0f 26 90 3d 31 15 b3 3d f4 84 e0 3c 5f eb c7 3d
       0.07038509 0.08744276 0.027407147 0.0976169
000220 af 0c bf 3d cc ed c9 bc b8 9f af bd 98 b3 02 bc
       0.09328591 -0.024649523 -0.08575386 -0.007977389
000230 5f e3 9a 3d 6a 46 2e 3d 3a 9b 0f bd 34 19 8b bc
       0.07562899 0.04254762 -0.035060145 -0.016979791
000240 52 6a 78 3d 0a 5f 44 3d d1 48 9c 3d e6 4b 1f bf
       0.06064827 0.0479422 0.07631076 -0.62225187
000250 96 40 08 bd 97 ed b5 bd a2 c4 70 3d 60 85 89 bd
       -0.03326472 -0.08883207 0.058781274 -0.067148924
000260 25 6b 8f be 60 1e 35 bb 48 02 6f 3b 28 15 a9 bd
       -0.28011432 -0.0027636513 0.0036469866 -0.08255988
000270 03 ad 82 3d 36 13 24 3d 68 d2 e2 bc ec 6a a9 bc
       0.063806556 0.040057383 -0.02768822 -0.020680867
000280 e0 1d ad bc f2 f8 6b 3d 1a 51 c9 bd 1a 81 b5 bd
       -0.02113241 0.05761046 -0.09829922 -0.08862515
000290 ce 3c a7 bc a0 48 ab bb 2d 55 ad bd a6 8d aa bd
       -0.020414736 -0.0052271634 -0.084635116 -0.083277985
0002a0 a4 f4 db 3c 98 2c ef bc ba 4a c7 bd c5 5a a3 3d
       0.026850052 -0.029196069 -0.0973105 0.07976297
0002b0 36 79 87 bd 15 ae c3 bd 80 11 04 3a d0 0f 9a bd
       -0.06614916 -0.09554688 0.0005038008 -0.07522547
0002c0 11 a1 b2 3d e8 e6 02 bc 9b 0c 77 bd 72 93 18 3d
       0.08722127 -0.007989623 -0.060314756 0.03724999
0002d0 7a 2f 62 bd 00 fb 86 bc e2 74 6e 3d 19 e8 ae 3d
       -0.05522106 -0.016477108 0.058216937 0.08540363
0002e0 43 16 bd bd 29 49 99 3d 10 39 c3 bd fa 19 46 3d
       -0.09232762 0.07484657 -0.09532368 0.048364617
0002f0 40 5f 8c bd 68 c9 4c bc 92 b5 84 bd be 9e ae 3d
       -0.06854105 -0.012499191 -0.06479944 0.085263714
000300 32 bf 3b 3d 30 ec 89 3b 7f c9 ca 3d 3b 3a a7 bd
       0.045836635 0.004209064 0.099017136 -0.081654035
000310 a7 54 64 bd 59 39 86 3d 8e 2a 5f 3d 9a 9f 24 3d
       -0.055744793 0.06553907 0.054483943 0.04019127
000320 16 9b 16 bd 20 a3 32 bd 07 75 c5 3d 90 31 15 3c
       -0.036768995 -0.0436126 0.09641462 0.009106055
000330 ed f6 c0 bd ef a6 90 3d 00 06 a8 3a a8 6e cc bd
       -0.09422097 0.0706309 0.0012819171 -0.099820435
000340 f7 c4 5f bd 12 4c a6 bd 78 2c e4 bc e8 46 7a 3c
       -0.0546312 -0.08119978 -0.027853236 0.015275694
000350 c6 73 15 bd e2 bd 6a 3d ca ca 5d bd 5f 44 cb 3d
       -0.036487363 0.057309993 -0.054148473 0.0992515
000360 5b 9f b2 bd ab 4c a7 bd 4f 45 76 bb 79 1b 9d 3d
       -0.08721801 -0.0816892 -0.0037577932 0.076712556
000370 88 32 e4 bc 5c 1d 8c bd 30 b0 93 3d 81 03 83 3d
       -0.027856126 -0.06841537 0.072113395 0.06397153
000380 94 0e 08 bd 9b 99 ab bd 8a 1b 00 3d a8 de f6 3c
       -0.033217028 -0.08378907 0.031276263 0.030135468
000390 53 5d 84 3d db 8c 8c bd d1 cc 00 bd 11 44 c5 3d
       0.06463113 -0.068628035 -0.03144533 0.09632123
0003a0 4b a3 88 3d c0 75 06 bd 24 34 0c bd 81 03 9a 3d
       0.06671771 -0.03282714 -0.034229413 0.075201996
0003b0 3e 75 36 3d 38 b9 94 bd a2 2a 50 3d 58 78 2c bc
       0.044545405 -0.0726189 0.050821908 -0.010526739
0003c0 bf 4e bf 3d a8 bd 98 bd b0 bb 40 bd 21 f4 bf 3d
       0.093411915 -0.07458049 -0.047053993 0.09372736
0003d0 84 4e 0d bd 27 09 cb bd 42 07 56 3d 20 ea 11 3f
       -0.034498706 -0.09913855 0.052253015 0.5699787
0003e0 9a 68 2f 3d f8 c3 9d bc 69 b6 9e 3d a0 47 e2 bb
       0.042824365 -0.019258484 0.07749636 -0.006905511
0003f0 40 1b ac bd 71 d6 88 3d 0d 03 4f 3b fb ec bd bd
       -0.08403635 0.066815265 0.0031587512 -0.09273716

net.4.bias f4 [11]
000000 7a 2f c2 3d 02 00 fb bd 90 7f af bd 8c ab e7 3d
       0.09481712 -0.12255861 -0.085692525 0.11312017
000010 7f a6 2e 3d 2f e0 e3 3d 77 0f a4 3d 60 dd 66 3d
       0.04263925 0.11126744 0.08010762 0.056363463
000020 47 2f 27 be be b3 a8 3d 57 ed 3f 3d
       -0.16326629 0.08237408 0.046857204
