models/part1.pt (torch, 45703 bytes, 6 tensors)

net.0.weight f4 [50, 155]
00000000: d4df 623e 4d70 833e a80d 533e f07a 9fbb
00000010: c0e2 073c f06f c33b 069e 8e3e 1fea a63e
00000020: c478 a33e 306b 723e 4401 ab3e cfb1 a53e
00000030: 9d51 893e 065d dc3e e209 ba3e 2d1d 983e
00000040: 1d84 603e 2901 6c3e da85 983e 89d1 093e
00000050: 5b45 673d 4bc4 ab3e c645 4abd d0a7 1b3e
00000060: e7d3 c93e 62d7 b03e 82fe d23e 4f0e b43e
00000070: 2561 6b3e 896b 853e 2420 d13c 00fe 9abd
00000080: f168 b03e 6535 a53e fc29 493e 7932 8f3e
00000090: 6354 a93e 5a2c 5c3d 7ac5 4d3d 6a9f 923d
000000a0: 841a b33d 7da3 6c3e 0300 e7bc 2304 9f3e
000000b0: ecc5 d83c 7f14 e23d 48a6 bf3c 828e 463d
000000c0: 664b bfbc 9aea a3bd c8fd 393c 9499 283d
000000d0: a484 aa3e 80ba f93b dd68 4f3e e806 cc3d
000000e0: 775f 9d3d 3b72 54bd f24a 9f3c 121d 6c3d
000000f0: b0e0 423e 669a 1b3e 4870 66bd 6ee9 783d
00000100: a702 9c3d 1c3d c73c 5bb3 843d 51f2 6abd
00000110: b118 943e 61b0 1e3e f2e9 393d f0ab 2fbd
00000120: 6a5a 513d 9829 183e a5e6 c63c aeb2 443e
00000130: 4945 523e 23f1 f23d 080c 7dbd 1510 8d3e
00000140: b29e c93e 814c 133e 6310 a23d 5e97 6d3e
00000150: 6ffd d73e d982 873e 9631 b83d 4d8f ae3e
00000160: 7530 b63e 068b 6d3e 00bd c2be 507b 543d
00000170: e696 893e 25e5 513d 1678 aabe 4adf 983d
00000180: 540b 513e 7b7f 06be 6b5c 3f3e 41b5 8ebb
00000190: f904 c93d 6e92 383e 87fc 9dbe 0925 70be
000001a0: 1c1d 6bbe 9677 12be 87cf 62be 5f3a 1cbe
000001b0: f02d 4fbe 62b5 33be 7444 30be 2d72 1fbe
000001c0: 0aa7 6bbe 17a7 babd 9188 46be dbd5 09be
000001d0: a7c9 d5bd 9e51 3b3e ea14 d13e 54ed cd3e
000001e0: 97bf d53e 8974 be3e e331 cb3e 0502 9c3e
000001f0: 3eb6 b7be 8293 7d3e 1c70 a93e 6e57 ac3e
00000200: 5ce7 8b3e 5d6a c43e e7f1 ad3e 2bcc b03e
00000210: c8bd bd3e 7d27 f13d 58b5 e93d 334f 4b3e
00000220: 82ae 043e 0eaa 8d3e 53fa c73e aab2 ca3e
00000230: 4b70 643e ffbd ce3e 5395 9d3e 5ac5 c33e
00000240: 3833 2abc f89e a83e 8314 c03e afa2 c43e
00000250: e56f 943e dcb7 a43e f223 ad3e 2ac3 563d
00000260: 9218 b43e a53e a43e 2bf0 af3e a19e 843e
00000270: 6111 3c3e 9ed9 003e 201b 8bbd ecc4 66bd
00000280: 571e 8cbd db41 ad3e af73 6b3e 8dc0 863e
00000290: 5ce6 903e 707a a83e 6d01 a23e 0f21 5f3e
000002a0: 8a1a dc3e 1ac7 8b3e 113e 713e 7bca b13e
000002b0: fa57 623e 5d80 4e3e e43b 0a3e 0248 213e
000002c0: bf0d d33e 9c63 2fbd 43f0 e43d ea30 9a3e
000002d0: 817e c13e 451f ba3e 4dee c23e d321 5d3e
000002e0: fd3b 7b3e 0a8d 0abd efa6 80bd 5a01 a23e
000002f0: a1e0 a93e c9a4 303e 4ebb 713e 0e49 713e
00000300: 0a25 69bd 3c58 66bd 4293 d43d 7d9f cc3d
00000310: f014 8a3e 3182 a13d 74d8 ae3e 87b0 cd3d
00000320: e0d9 2e3e d083 6abc 1664 5f3d 726d 3cbd
00000330: a2cd 6d3d c661 9ebd 0a8e 75bd 513d 933e
00000340: 2d81 07bd 0d3f 273e fffe 783e 9a43 163d
00000350: bf01 a13d 3e23 1b3d 571b 1dbd 8a65 323e
00000360: 7d51 af3d 70b7 10bd 0069 a3bb a99c 943d
00000370: d757 34bd 92c2 383d bcd5 183d 31a6 ae3e
00000380: 6ab6 1b3e f812 f3bc 3ec8 073d f9f4 1abd
00000390: e46a cf3d 7157 103e 0570 6e3e e379 483e
000003a0: 567d 843e 222e 87bd 6d63 883e 2a6f dc3e
000003b0: 87fb 133e 0165 da3d 85e2 b13e 3907 a23e
000003c0: 1ee2 9d3e 77f4 203d af2f ae3e 5510 a13e
000003d0: b06d 8a3e b772 b2be 2cb7 eb3d b2a6 263e
000003e0: e8a7 193e ca50 a0be 07b6 f43d c381 f23d
000003f0: cbeb 52be 20f4 4e3e ff1d 18bd 1f65 2d3e
0.22155696 0.25671616 0.20610678 -0.00486695 0.0082938075 0.0059642717 0.27854937 0.32600495
0.31928074 0.23673701 0.33399403 0.3236222 0.26820078 0.4303972 0.36335665 0.2970976
0.21925397 0.23047318 0.2978962 0.13458838 0.056462627 0.33548197 -0.049382947 0.15200734
0.3941948 0.34539324 0.412098 0.35167167 0.22986276 0.26058605 0.025528021 -0.07567978
0.34455064 0.322673 0.19644922 0.27968195 0.33072194 0.053753234 0.050237156 0.07159312
0.08745292 0.23109241 -0.028198248 0.31057844 0.026461564 0.110390656 0.023394719 0.04847575
-0.023351382 -0.08003731 0.01135201 0.04116209 0.33304322 0.0076211095 0.20254846 0.09962255
0.07684224 -0.05186675 0.019444916 0.05764491 0.19031024 0.15195617 -0.056259423 0.06076949
0.076176934 0.024321131 0.06479522 -0.057359997 0.28925088 0.1549697 0.045389123 -0.04288858
0.051111616 0.14859617 0.024279902 0.19208786 0.20534243 0.118623994 -0.061779052 0.27551332
0.39378887 0.14384653 0.07913282 0.23202273 0.42185542 0.26467016 0.08993833 0.34093705
0.35583845 0.23197564 -0.3803482 0.051875412 0.2687294 0.05124392 -0.33294743 0.07464464
0.20414478 -0.13134567 0.18687598 -0.0043551032 0.098154016 0.18024608 -0.30856726 -0.23451628
-0.22960323 -0.14303431 -0.22149478 -0.15256642 -0.20232368 -0.17549661 -0.17213613 -0.15570898
-0.23012939 -0.09113901 -0.19388033 -0.13460486 -0.10438853 0.18292853 0.4083627 0.4022013
0.41747734 0.37198284 0.39686498 0.3047029 -0.35881227 0.24763301 0.33093345 0.33660454
0.2732495 0.383624 0.3397362 0.34530768 0.37058854 0.1177511 0.11411542 0.19854431
0.12957194 0.27668804 0.3905817 0.39589435 0.22308461 0.4037933 0.30777988 0.38236505
-0.010388188 0.32933784 0.3751565 0.38405368 0.2899162 0.32171524 0.33816487 0.052432217
0.35174996 0.32079044 0.3436292 0.25902274 0.18366005 0.12583014 -0.06792283 -0.056340143
-0.06841724 0.33839306 0.22993349 0.2631878 0.2830075 0.32905912 0.31641713 0.21789955
0.42988998 0.2730034 0.23558833 0.34724793 0.22103873 0.20166154 0.13499409 0.15750125
0.41221425 -0.042819604 0.11178639 0.30115443 0.37791827 0.36351982 0.38072434 0.21594934
0.24534602 -0.03382591 -0.0628184 0.31641656 0.3317919 0.1725036 0.23606607 0.23563024
-0.05692009 -0.05623649 0.1037965 0.099913575 0.269691 0.0788616 0.34149516 0.100434355
0.170753 -0.014313653 0.05453881 -0.046002813 0.058057435 -0.077334926 -0.059949912 0.28757718
-0.033082176 0.16332646 0.24316023 0.036685564 0.07861661 0.037875406 -0.03835615 0.17421547
0.085604645 -0.03533119 -0.004986882 0.07256443 -0.044029083 0.04510743 0.037313208 0.3411117
0.15206304 -0.029672131 0.03314995 -0.03783128 0.1012781 0.14095856 0.2328492 0.19577746
0.25876874 -0.06600596 0.26638356 0.4305356 0.14451419 0.10663796 0.34743133 0.31646135
0.30836576 0.03929564 0.34020755 0.31457773 0.2703681 -0.34853145 0.11509547 0.16274527
0.15005457 -0.31311637 0.119487815 0.11841156 -0.2059776 0.20210314 -0.03713798 0.16933106

net.0.bias f4 [50]
00000000: 7ad2 cf3e c9bd e03e cbaa d93e 6c37 b83e
00000010: c7da b03e e82b bd3e e356 a83e 9c47 da3e
00000020: 4488 cc3e 6abc 893e 04f4 e73e 40d5 b23e
00000030: abb7 a23e 398d a43e fc2b d73e 7e2c 913e
00000040: 4f92 b73e 9df6 a43e 3a70 8e3e f7e8 c23e
00000050: b8aa c73e be45 d73e cee7 9b3e e0cb b73e
00000060: 67ed d83e c7bc b03e 2462 cf3e b403 ce3e
00000070: 620e 8d3e 5338 d23e b58a b73e b1f7 a33e
00000080: 9816 ce3e 2699 b33e 0117 9e3e 1aa2 d53e
00000090: 6eba ce3e 89d7 c33e 8840 a93e 4da4 993e
000000a0: a25f b03e 00c6 ab3e 31b8 b73e a1f5 a43e
000000b0: 1454 cf3e 57cb b33e b324 8c3e 5472 923e
000000c0: 79c7 7e3e fc09 cc3e
0.40590268 0.43894795 0.42513117 0.35979784 0.34541914 0.3694756 0.3287879 0.4263276
0.39947712 0.2690156 0.45303357 0.34928322 0.31780753 0.32138994 0.42025745 0.28354257
0.35853812 0.322194 0.27819997 0.38068363 0.38997436 0.42045397 0.3045029 0.35897732
0.42368624 0.34519026 0.40504563 0.402372 0.27550036 0.41058597 0.35848013 0.3202491
0.40251613 0.3507778 0.30876926 0.41725236 0.4037661 0.38250378 0.33057046 0.30008164
0.34447962 0.335495 0.35882714 0.3221865 0.40493834 0.35116073 0.2737175 0.2860285
0.2488078 0.39851367

net.2.weight f4 [50, 50]
00000000: 8ce1 4a3e b105 113e 7dbc d73d 17a3 8f3e
00000010: 2369 bd3d 38aa af3d bee1 4d3e 3976 983e
00000020: f74f d13d 1ac0 fb3d 02a3 843e edc1 9d3d
00000030: 81b8 9d3e 1ff6 933e cee8 8f3e 901e ab3e
00000040: ba7c ab3e 25e9 183e fa41 963e 1f65 943e
00000050: 2fa6 8d3e ab04 343e df4a 0c3e bc9f f93d
00000060: a918 793e 59db 563e 7bac 603e 1e1a ad3e
00000070: 04ef cc3d cee5 7d3e ff26 763e be57 543e
00000080: a19e 9c3e 3bef 9b3e 868f f33d 8faf 733e
00000090: 699b 033e 8a3b 0b3e 52b7 c23d da56 893e
000000a0: d2a5 4b3e 4488 ff3d 826c 3e3e af16 513e
000000b0: 6395 883e 75a6 ab3e 7f31 f53d 93ca 503e
000000c0: 23f4 b23e 7890 9c3e 9701 953e 6824 3b3e
000000d0: e500 803e 14a0 6e3e 9e28 6a3e 0155 a33e
000000e0: 7851 353e d689 423e 6de1 a53e d81f 863e
000000f0: 7fda b93d 1da0 4b3e b85c a43e 7e04 9f3e
00000100: 9ff6 a23e 340e 123e 6438 f23d ca00 8b3e
00000110: 16e3 aa3e 4e1c ae3e 1bb2 8e3e 70f5 9e3e
00000120: 6a33 043e 5927 853e ec25 573e 4c23 653e
00000130: c6f0 943e 123e f03d 966d 763e dbbd 353e
00000140: 7911 993e eb7c cd3d a180 153e 6ac3 fc3d
00000150: ffdd a93e 8713 a03e 9d5b af3e 921d bb3e
00000160: b639 893e 15d7 7a3e 6258 873e 45f0 7e3e
00000170: c234 783e f565 f43d d7da aa3e 35d1 053e
00000180: 36d0 a53e e52b 943e 5eaf 853e a914 8e3e
00000190: 4340 863e 1818 253e d410 1f3e 60c2 203e
000001a0: 0d0c 163e 089a 973e 8806 773e f373 6a3e
000001b0: 887f 893e 7166 b93e 88c9 603e 22bf 273e
000001c0: 8171 033e 2ec8 b13e 063a d53d f164 993e
000001d0: 9a97 b43e e61a 9d3e caf6 6a3e b528 583e
000001e0: fc65 a33e 291f 203e cb3d 903e caaf 3f3e
000001f0: 5bd5 9b3e b52b 4c3e e1fe 093e 43ae 323e
00000200: fa64 a13e fc39 913e efca 073e 7cdb 0e3e
00000210: 23f7 4c3e ff54 5d3e a437 443e 875d a63e
00000220: 0e0a 763e fbe0 453e b85f 633e 8e09 983e
00000230: 7a58 063e 2c58 be3d daa5 f03d 4858 963e
00000240: b57f 7b3e 03ba d73d 0332 b13e 6e80 9c3e
00000250: bb49 c83d ba01 a23e 2c7e 5f3e 10ac 703e
00000260: 86b4 ad3e 9847 a93e 829c 823e 8d40 203e
00000270: 73c1 a83e 0c4f ae3e 4743 4f3e 23f7 e33d
00000280: a3fe b53e 2ae7 263e 5a57 0e3e de05 b73d
00000290: 8dab 8e3e 8612 8e3e e675 243e 22ff b13d
000002a0: 9ae3 a43e 0823 6c3e bef8 b13e 2adb 573e
000002b0: 5e2a b43e 10f2 3f3e da78 203e 0e9c 9c3e
000002c0: 6f8f 833e 3a23 b23e 6ed4 703e 6565 ee3d
000002d0: ed15 ff3d ce7c 443e e350 4d3e c90f 143e
000002e0: 9203 b03e 3a9b 143e dd20 723e b1db 9b3e
000002f0: fbe6 803e ffa0 6d3e e853 8e3e dc96 1a3e
00000300: 820f ab3d 5f0d 883e cc08 f23d 42f9 d23d
00000310: 1ed3 f43d bd71 ac3e 9856 023e 0d0e aa3e
00000320: bbd3 a53e d501 823e e8c4 153e 75e5 cb3d
00000330: 3275 f73d 36a4 a43e f248 0b3e 6bba 573e
00000340: 8c34 813e a401 5a3e 2f8c 853e 45aa f23d
00000350: 620d b13e 911d 023e 9fff 143e 1bcd e43d
00000360: 44ea a33e e3ea 233e 0e87 393e 6906 9b3e
00000370: 8bfd 5a3e cfbb b13e 6050 8c3e ece5 5e3e
00000380: 5c14 093e 3590 c13d 67f2 883e da15 743e
00000390: 64ff b73e 5528 ce3d bc11 853e e4f8 903e
000003a0: 44c8 9c3e af2e 983e 25f5 603e 10e5 c03d
000003b0: 9af6 4d3e 6e22 bd3e ccf8 fb3d acab 0b3e
000003c0: f726 b73e 134e 623e a1c5 3a3e 7c19 7c3e
000003d0: 4ea6 933e 0cb6 783e 92b4 af3e 4b46 683e
000003e0: 184f 2d3e af93 263e 7bbf 5c3e 6a2d 4b3e
000003f0: ce94 a43e 42b7 943e 3de0 ab3e 4bca ac3e
0.19812602 0.14162327 0.10533998 0.28054115 0.09248569 0.085773885 0.20105645 0.29777697
0.1022033 0.122925 0.25905615 0.07703004 0.30804828 0.28898713 0.28107303 0.33421755
0.33493596 0.14932688 0.2934721 0.289834 0.2766585 0.17579906 0.13700436 0.1218867
0.24325813 0.20982112 0.21940796 0.33808988 0.10006526 0.24794695 0.24038313 0.20736596
0.30589774 0.30455956 0.11892609 0.23797439 0.12852253 0.13596931 0.09507622 0.26824075
0.19887474 0.124771625 0.1859608 0.2041881 0.26676473 0.33525434 0.11972331 0.20389776
0.34951887 0.3057897 0.29102775 0.18275607 0.25000682 0.23303252 0.22867057 0.3190079
0.17706859 0.18997893 0.3239855 0.2619617 0.09074878 0.19885297 0.3210199 0.31058115
0.31828782 0.1426323 0.11827162 0.2714904 0.33376378 0.3400597 0.2787026 0.3104663
0.12910238 0.26006582 0.2101056 0.22376746 0.29089946 0.11730589 0.24065241 0.17748205
0.29896143 0.10033592 0.1459985 0.1234196 0.33177182 0.31264898 0.34249583 0.36545998
0.26801842 0.2449611 0.26434618 0.24896343 0.24238876 0.11933509 0.33370087 0.13068087
0.32385415 0.2893974 0.26110357 0.27750137 0.26220903 0.16122472 0.15533763 0.15699148
0.14653035 0.29609704 0.24123585 0.22895794 0.2685511 0.3621097 0.21951878 0.16381505
0.12836267 0.34723037 0.10411458 0.29959825 0.35271913 0.30684584 0.22945705 0.21109279
0.31913745 0.15636887 0.28172144 0.18719402 0.30436215 0.19938548 0.13476135 0.17449288
0.31522352 0.2836455 0.13261007 0.13950914 0.2001615 0.21614455 0.1916185 0.3249323
0.24027273 0.19324104 0.22204483 0.2969479 0.13119689 0.09294161 0.11750384 0.29364228
0.24560435 0.10533526 0.34608468 0.30566734 0.09779688 0.31641942 0.21825475 0.23503137
0.3392679 0.33062434 0.2551003 0.15649624 0.3296009 0.34044683 0.20240508 0.11131122
0.35545835 0.1629912 0.1390051 0.08936666 0.27865258 0.27748507 0.160606 0.08691241
0.32204896 0.23060238 0.34760088 0.21079698 0.35188574 0.18744683 0.15671101 0.3058781
0.2569537 0.347925 0.23518535 0.11640433 0.12455354 0.19188234 0.20050387 0.14459147
0.34377724 0.14512339 0.23645349 0.3044105 0.25176224 0.23205946 0.2779839 0.15096611
0.08352567 0.265727 0.11818084 0.103014484 0.1195433 0.33680525 0.12728345 0.33213845
0.323881 0.25392023 0.14625895 0.09955875 0.120829 0.32156533 0.13602045 0.21067207
0.25235403 0.21289688 0.26083514 0.118488826 0.34580523 0.12706591 0.14550637 0.11171933
0.32014668 0.16007571 0.18117926 0.30278328 0.21385781 0.347136 0.2740507 0.21767396
0.13386673 0.094513334 0.26747438 0.2383646 0.35937035 0.100662865 0.25990093 0.28314888
0.3062154 0.29723117 0.21968515 0.0941869 0.20113602 0.3694033 0.123033136 0.13639706
0.35771915 0.22100095 0.18239452 0.24619097 0.28837818 0.24288195 0.34317452 0.22683065
0.16924703 0.16267274 0.21557419 0.19841543 0.3214478 0.29046065 0.33569518 0.33748087

net.2.bias f4 [50]
00000000: 861b 643e 174e b23e 4152 ba3d 9ecd a73e
00000010: b0c6 933e 3ff0 a13d badb 343e 5b02 783e
00000020: 62db e83d 5055 ae3e b4b0 223e 5eb8 803e
00000030: 0e59 743e b766 2a3e 1aa4 b33d ce3c 783e
00000040: 40bc d23d cbee 293e a318 813e 151e 253e
00000050: eb5b 973e 51d2 b43d 3f4d e33d 5f14 8e3e
00000060: 48b3 e33d 3dbb af3e 6807 453e 8629 413e
00000070: 30ba a33e d8ea 3f3e f252 c03d 4a2b 1d3e
00000080: 2350 843e 7f2f a03e 5db8 b23e ea8f 2b3e
00000090: 445d 623e bd32 ab3e 7e39 2d3e b45d 5b3e
000000a0: 1549 1b3e 5489 6b3e 9e9e ad3e a5b0 a13e
000000b0: bffd 013e 16a3 933e 3b20 af3e 5490 353e
000000c0: 436d 813e 6b77 bf3d
0.22276124 0.34825203 0.0909772 0.3277406 0.28862524 0.079071514 0.17661944 0.24219649
0.11369969 0.34049463 0.1588772 0.2514066 0.23862097 0.16640745 0.08771534 0.24241945
0.10289812 0.16594999 0.2521411 0.16124757 0.29562315 0.08829177 0.11098718 0.27749917
0.111181796 0.3432254 0.19241107 0.18863496 0.31977987 0.1874193 0.093908206 0.15348545
0.2584239 0.31286237 0.34906283 0.16754118 0.2210589 0.33437148 0.16916463 0.21422464
0.15164597 0.23001605 0.33910078 0.31580082 0.12694453 0.28835362 0.34204277 0.17730838
0.25278673 0.09348949

net.4.weight f4 [11, 50]
00000000: 9d3f 133f 4931 ee3e 95c2 213f ef96 173f
00000010: 4b30 dd3e 542b ea3e 2ee6 c83e 3719 c53e
00000020: ee9a cc3e fa93 0e3f d5fd 163f 58d2 dd3e
00000030: 7fdd 1c3f a084 ec3e a748 103f a255 1f3f
00000040: aa4e 1b3f 226f cd3e 205c 0c3f 43b2 d93e
00000050: f81a c03e 96ef fd3e 5148 ee3e 9a22 063f
00000060: 8065 093f 31f6 133f 1a65 153f 8474 bb3e
00000070: b578 c43e 6da0 d63e d18d 113f cb28 223f
00000080: 9b83 d03e 97bf 043f e576 033f 65d4 0e3f
00000090: 0bc6 0b3f efc6 063f 76fd 193f 6896 e23e
000000a0: ddad 233f b9fb fd3e 2437 d03e 82d3 0e3f
000000b0: 2178 173f 33ba 153f 07d5 093f 90b9 0c3f
000000c0: 8075 083f ddf6 dd3e 37c0 fa3e 1bdf fc3e
000000d0: 3553 d83e a4d4 e03e 9159 e93e eaa8 fd3e
000000e0: d38f d13e 95af 183f 70eb 053f c398 183f
000000f0: 77db ce3e 409c 0f3f 19aa ee3e d07d 143f
00000100: 505d ed3e e97b dd3e 32c9 013f 6a00 dd3e
00000110: dec9 163f d3b8 fa3e 4320 133f 2649 eb3e
00000120: a40e ec3e a5fb b73e 971a 0f3f e409 0b3f
00000130: 962c 1a3f feae 023f 2b33 fc3e 0d0b fa3e
00000140: af5c 0d3f 8306 233f 82f4 fe3e 033c be3e
00000150: 479e c13e e2dc 0e3f 7eb5 1d3f ac5f db3e
00000160: 4fd5 133f 4054 1b3f 0b7f 203f 24b4 163f
00000170: f22a e23e 8547 163f d7e3 fd3e c5d3 ce3e
00000180: 2532 c33e d9e9 e33e 6b0a 1b3f fd4e 223f
00000190: 6259 193f 6dd7 c73e 1403 153f 1ade 113f
000001a0: 7bb2 233f b6cb de3e c885 1e3f 62c5 fd3e
000001b0: 5b38 153f 4677 bb3e bffc f13e e02b dd3e
000001c0: 0eaf f13e 9df8 fa3e d03c f03e aab0 103f
000001d0: 3d63 203f ff98 0b3f a888 db3e 0f28 ed3e
000001e0: 171e e73e e0e0 023f 4a4c f73e 0355 133f
000001f0: b2b3 073f 3b4f bc3e 7ec3 ea3e 878c d83e
00000200: b036 0e3f b743 223f 0df4 1b3f 86e7 083f
00000210: bd69 cb3e 23b4 f83e 30b6 063f 3ca9 013f
00000220: 0061 113f 523c 123f 6bcb ec3e 4c14 df3e
00000230: 65f2 043f 321a 033f 1344 093f a2ce b33e
00000240: 7745 b73e 8fa7 1d3f 75ca 283f b7bb c03e
00000250: 7af9 c63e 579a f13e 9c56 d53e 4bd3 b43e
00000260: 40be 0b3f 9332 ce3e 3d0c 0f3f 7f79 db3e
00000270: ad1d fe3e f210 f13e b053 003f 3ace da3e
00000280: 3057 c13e c53c 233f 128a 003f 7d4c dc3e
00000290: 5f53 273f 14a9 053f b96e ed3e 941f 0e3f
000002a0: 6dda f73e ce23 083f b591 1d3f 5bf9 0d3f
000002b0: 2dcc 183f 59b5 113f 2e88 ed3e a81b f83e
000002c0: 1fda f73e c034 223f 2a61 e83e 211a 1c3f
000002d0: 8ee9 e83e 7f07 1f3f d5eb 0c3f c9f3 113f
000002e0: 372a cf3e 5d46 003f cf90 1f3f 76d4 c83e
000002f0: d909 f43e 2e52 b33e d060 bf3e c4bc 1a3f
00000300: 1f27 e73e 49a9 003f e348 be3e 8323 c43e
00000310: e890 263f 7396 073f 11a4 e63e fcba e93e
00000320: c4f6 213f b393 173f f607 1a3f ecb1 1e3f
00000330: a5ab 043f f063 0a3f bcef 023f 15d7 ea3e
00000340: 4d3b cf3e 4643 1d3f 02ee 1c3f 9c2b 093f
00000350: f41f ed3e 17f8 203f c88f ea3e 7b11 ff3e
00000360: 3369 e53e 95b1 dc3e 28d1 c43e b743 223f
00000370: bed2 1e3f fa43 123f 53b1 e33e ff37 e53e
00000380: f76b 1a3f 6f5b 1a3f 13cf 263f 8300 0f3f
00000390: 4cfa e73e c579 e43e e74c 213f c331 ce3e
000003a0: e3c1 bd3e 3235 f43e 41d8 f63e 703e 133f
000003b0: 302c ca3e 0496 f13e 299a cb3e 11ee 153f
000003c0: 593d 093f 75a9 db3e 3328 fe3e c6e6 133f
000003d0: 9d97 1a3f 9a1b b83e ea61 e13e 9e96 063f
000003e0: e94a 063f a1c7 ce3e 3f28 0d3f 7c96 ff3e
000003f0: ad3c d93e d079 c53e 3b41 033f f994 103f
0.5751894 0.46521977 0.63187534 0.5921468 0.43200907 0.45736182 0.39238113 0.384958
0.39961952 0.55694544 0.58981067 0.43324542 0.61275476 0.46194935 0.5636086 0.6224004
0.60666907 0.4012385 0.5482807 0.42518815 0.37520576 0.49596852 0.46539548 0.5239655
0.536705 0.57797533 0.58357394 0.36612332 0.38373342 0.4191927 0.5685702 0.63343495
0.40725407 0.5185484 0.51353294 0.5579284 0.54599065 0.526473 0.60152376 0.44255376
0.6393717 0.49606112 0.4066707 0.55791485 0.5916768 0.5848724 0.5384068 0.54970646
0.5330429 0.43352404 0.48974773 0.49388966 0.42250982 0.43912232 0.45576146 0.49542934
0.40930042 0.59642917 0.52312374 0.59608096 0.40401813 0.56097794 0.4661415 0.58004475
0.46360254 0.43258598 0.50697625 0.43164378 0.58901775 0.48969135 0.574711 0.45954245
0.4610492 0.35934177 0.5589995 0.54311967 0.6022428 0.51048267 0.49257788 0.48836556
0.5521955 0.6368181 0.4979592 0.3715516 0.3781607 0.5580579 0.6160506 0.4284643
0.5774736 0.6067543 0.6269385 0.5886862 0.4417339 0.5870288 0.4958789 0.40395942
0.38124195 0.4451435 0.6056277 0.63401777 0.5990201 0.39031544 0.5820782 0.56979525
0.63944215 0.43514794 0.61922884 0.49564654 0.58289117 0.36614436 0.47263142 0.43197536
0.4720387 0.49017802 0.46921396 0.5651957 0.62651426 0.5453033 0.42877698 0.46319625
0.45140144 0.5112438 0.4830039 0.5755159 0.5300857 0.36779198 0.45852274 0.42294714
0.55552197 0.63384575 0.60919267 0.53478277 0.3972911 0.48574933 0.52621746 0.50648856
0.56788635 0.5712329 0.46248946 0.43570173 0.51932365 0.51211846 0.536195 0.35118586
0.35795185 0.615838 0.65933925 0.37643215 0.3886221 0.47188064 0.4166764 0.35317454
0.54587173 0.4027296 0.5587805 0.42866132 0.49632016 0.4708324 0.50127697 0.42735463
0.3776183 0.637646 0.5021068 0.43027106 0.6536159 0.5221112 0.46373537 0.55516934
0.48408833 0.53179634 0.61550456 0.5545861 0.5968655 0.5691734 0.4639296 0.484586
0.484086 0.6336174 0.4538663 0.6097737 0.45490688 0.62120813 0.5504735 0.5701261
0.40461895 0.50107366 0.62330335 0.39224595 0.47663763 0.35023636 0.3737855 0.60444283
0.45147035 0.5025831 0.37164983 0.38308343 0.6506486 0.5296394 0.45047048 0.4565047
0.6326716 0.59209746 0.601684 0.6199024 0.5182441 0.5405874 0.51147056 0.4586722
0.4047493 0.61430776 0.6130067 0.5358217 0.4631344 0.62878555 0.4581282 0.49818024
0.44806823 0.43104234 0.38440824 0.63384575 0.6204032 0.57134974 0.44471225 0.44769284
0.6032099 0.60295767 0.6515972 0.55860156 0.4530815 0.44624153 0.6300797 0.4027234
0.37061986 0.47696835 0.48211864 0.5751715 0.39486837 0.47184765 0.39766052 0.58566386
0.53609234 0.42902723 0.49640045 0.5777401 0.60387594 0.35958558 0.44020015 0.52573574
0.52458054 0.4038668 0.55139536 0.49919498 0.42429104 0.38569498 0.5127141 0.56477314

net.4.bias f4 [11]
00000000: f638 cb3e fe66 0a3f 1999 c03e 39da 133f
00000010: d1cb af3e dbc1 a93e 3b69 1b3f 25b6 0b3f
00000020: 4334 f13e 1c2a b83e 4d2f 0e3f
0.39691895 0.54063404 0.37616804 0.57754856 0.34335187 0.33155712 0.60707444 0.54574805
0.47110185 0.35969627 0.55540925
