models/part1.pt (torch, 109127 bytes, 6 tensors)

fc1.weight f4 [100, 155]
000000 48 b2 09 bd dc bb 72 3c 55 fa 82 3d f0 7a 9f bb
       -0.033617288 0.014815297 0.06395403 -0.00486695
000010 c0 e2 07 3c f0 6f c3 3b 6d 7d 86 ba 5a 85 45 3d
       0.0082938075 0.0059642717 -0.0010260768 0.048222877
000020 cc 04 32 3d 4a 33 30 bd fb 12 9d 3d b6 4e 3d 3d
       0.043461606 -0.043017663 0.07669636 0.046217643
000030 e8 e9 4d bc a6 39 8f 3d b5 ae 8d 3b 2c e6 4f 3d
       -0.012567975 0.069934174 0.004323805 0.05075662
000040 c9 ac 8b bd 95 a8 93 3d 6b 12 9b 3d ed d4 75 bd
       -0.068200655 0.07209889 0.07571872 -0.060017515
000050 0d 3c 93 bd d7 7c bf bc c6 45 4a bd 02 ce af 3c
       -0.07189188 -0.023374958 -0.049382947 0.021460537
000060 17 78 12 3d d3 5d 27 bc 2f e2 66 3d 08 8d 47 3b
       0.035759058 -0.0102152405 0.05636805 0.0030449051
000070 a2 64 c1 bc 4a 69 8c bd 24 20 d1 3c 00 fe 9a bd
       -0.023607556 -0.0685602 0.025528021 -0.07567978
000080 4b 6d 8f b9 ca 5d 40 3c 4e 41 38 bd f8 ac c5 3c
       -0.00027356515 0.011741111 -0.044984154 0.02413033
000090 30 d1 7f 3c 5a 2c 5c 3d 7a c5 4d 3d 18 20 85 bd
       0.015613839 0.053753234 0.050237156 -0.06500262
0000a0 6e 1c 74 bd 1c 80 f1 bc 75 ae 6c bd 9c 4e ce 3c
       -0.059597425 -0.029480033 -0.057783563 0.025183968
0000b0 78 8e 57 bd a2 2e 7b bd 48 a6 bf 3c 82 8e 46 3d
       -0.052626103 -0.06132377 0.023394719 0.04847575
0000c0 66 4b bf bc 9a ea a3 bd c8 fd 39 3c 94 99 28 3d
       -0.023351382 -0.08003731 0.01135201 0.04116209
0000d0 8f 80 80 3d 80 ba f9 3b 7e 66 64 3d c7 15 93 bd
       0.062745206 0.0076211095 0.055761807 -0.07181888
0000e0 77 5f 9d 3d 3b 72 54 bd e2 90 60 bd 12 1d 6c 3d
       0.07684224 -0.05186675 -0.05482567 0.05764491
0000f0 fe 36 92 bc 5a 09 4b 3d 48 70 66 bd 6e e9 78 3d
       -0.017848488 0.049569465 -0.056259423 0.06076949
000100 a7 02 9c 3d 1c 3d c7 3c 5b b3 84 3d 51 f2 6a bd
       0.076176934 0.024321131 0.06479522 -0.057359997
000110 58 4b 91 bc c8 47 c8 3c f2 e9 39 3d f0 ab 2f bd
       -0.017736122 0.02444829 0.045389123 -0.04288858
000120 6a 5a 51 3d 74 8f d8 bc cd 9a 2f bd 8e b6 80 3c
       0.051111616 -0.026435591 -0.04287224 0.015712049
000130 64 06 83 bd 2c fa 96 bd 6c c9 da 3c 30 1f e0 3c
       -0.06397703 -0.07371935 0.026707374 0.027358621
000140 38 08 fd 3c e0 93 2c bc bc 9b 70 bd fc 25 84 bd
       0.030887708 -0.010533303 -0.05874227 -0.064525574
000150 bf 68 9d 3d 02 9c 8e bd d8 50 c6 3c 69 9a 85 3d
       0.07685994 -0.0696335 0.024208471 0.06523592
000160 d4 58 7b 3d 5e 6f 4f bd ea 29 d4 bc c7 85 83 bd
       0.06136401 -0.050643317 -0.025898892 -0.064220004
000170 e4 5e 4e 3d 64 5f 9a bd 98 6f 97 bd d0 a3 5b bd
       0.050383464 -0.075377256 -0.07394332 -0.05362302
000180 8f 2e 86 3d b2 40 55 3d ae 71 5c 3d ba 6f 7c 3d
       0.06551849 0.05206365 0.05381935 0.06162999
000190 4e 70 19 bd 21 7a 37 bd 8a 1d 4a bd 98 1c d9 3c
       -0.037460618 -0.044794206 -0.049344577 0.026502892
0001a0 a0 f3 ff 3c d4 89 88 3c e0 1a 7d bd 70 ce e9 3b
       0.0312441 0.016667284 -0.061793208 0.007135205
0001b0 82 94 2e bd a8 64 81 bc 58 ba 4b bc 80 d4 82 3b
       -0.042622097 -0.015795067 -0.0124345645 0.003992617
0001c0 74 3c 90 bd 99 6a 8c 3d f9 fe 0b bd b4 97 cd 3c
       -0.070427805 0.068562694 -0.034178708 0.025096752
0001d0 1a 90 62 3d 96 93 04 3d 7c 67 66 3d aa c7 39 3d
       0.055313207 0.03236731 0.056251034 0.04535643
0001e0 0e e8 70 3d 30 e0 8a 3c 8a 21 52 3d 66 01 0f bd
       0.058815055 0.016952604 0.051301517 -0.034913443
0001f0 e0 56 31 bd 3e 19 1d 3d 08 a6 ac 3c d2 62 45 bb
       -0.04329574 0.03835415 0.021075264 -0.0030118716
000200 41 c0 8a bd b4 06 d7 3c 28 1c 55 3d dd eb 17 bc
       -0.06774951 0.026248313 0.052028805 -0.009272543
000210 e1 2b 97 3c bc 76 12 3d c1 74 a2 bd c0 84 58 bc
       0.01845354 0.035757765 -0.07932425 -0.013215244
000220 c3 17 f4 bc e4 05 28 bd ff 16 49 3d 6b 19 a3 3d
       -0.029796487 -0.041021243 0.049094196 0.079638325
000230 e0 fa 51 3c c7 cb 4c 3d ad 1d 71 bd af 1f 6c 3c
       0.012816161 0.049999025 -0.05886619 0.014411851
000240 38 33 2a bc 00 3c 44 bd 12 e5 86 3c 2d 72 d1 3c
       -0.010388188 -0.047908783 0.016466651 0.025567139
000250 ba 3d 7e bb 3f c1 0b 3d 58 f4 1d 3d 31 35 95 3d
       -0.0038794116 0.03411984 0.038563102 0.07285536
000260 90 92 98 3b c1 8b 3b 3b 9c af 96 ba 69 9c 35 3c
       0.0046561435 0.0028617235 -0.0011496427 0.011084654
000270 62 54 55 bd 30 fc 21 bc 20 1b 8b bd ec c4 66 bd
       -0.052082427 -0.009886786 -0.06792283 -0.056340143
000280 57 1e 8c bd 36 fc 73 3d 55 13 3d bd e0 67 d4 bb
       -0.06841724 0.0595667 -0.046161015 -0.0064821094
000290 00 b1 0c 3c dd 49 91 3d 0e 50 15 3d 74 4a 6a bd
       0.008587122 0.070941664 0.0364533 -0.05719991
0002a0 cf de a0 3d 56 d7 9b bd 0d 1b 2b 3c 8d 4d 96 3d
       0.07854997 -0.076094314 0.010443461 0.073390104
0002b0 91 a9 8e 3d be 81 98 bc a5 8f 5b bd aa 76 10 3d
       0.06965936 -0.018616553 -0.053603787 0.035269417
0002c0 f4 8e 7d 3d 9c 63 2f bd ae 3e 50 bc d6 31 48 bd
       0.06190391 -0.042819604 -0.0127102565 -0.048875652
0002d0 c3 fa fa 3c 98 e7 8b 3c 77 09 23 3d 17 c2 e1 bc
       0.03063715 0.017078206 0.03980395 -0.02755837
0002e0 45 cc 9e bd 0a 8d 0a bd ef a6 80 bd 4b 87 9e bc
       -0.07753805 -0.03382591 -0.0628184 -0.019351622
0002f0 d5 27 ef 3c 30 da 88 bd 80 b6 75 bb 60 f1 a0 bd
       0.029193798 -0.06682241 -0.0037492812 -0.07858539
000300 0a 25 69 bd 3c 58 66 bd d6 09 e0 bc 42 b2 26 bd
       -0.05692009 -0.05623649 -0.02734844 -0.040697344
000310 40 90 4a 3c 46 1e 49 3d 7e 12 78 3d f0 51 cf 3c
       0.012363493 0.049101137 0.06056451 0.025307626
000320 1c 55 0b ba d0 83 6a bc 16 64 5f 3d 72 6d 3c bd
       -0.00053151115 -0.014313653 0.05453881 -0.046002813
000330 a2 cd 6d 3d c6 61 9e bd 0a 8e 75 bd 0c 8b ae 3c
       0.058057435 -0.077334926 -0.059949912 0.021306537
000340 2d 81 07 bd b8 86 75 3c 0b 54 8f 3d 9a 43 16 3d
       -0.033082176 0.014985733 0.06998452 0.036685564
000350 bf 01 a1 3d 8e 5a 0b bd 57 1b 1d bd 04 18 27 bc
       0.07861661 -0.034021907 -0.03835615 -0.010198597
000360 40 85 84 bc 70 b7 10 bd 00 69 a3 bb a9 9c 94 3d
       -0.01617682 -0.03533119 -0.004986882 0.07256443
000370 d7 57 34 bd 92 c2 38 3d bc d5 18 3d 6e 87 3e 3d
       -0.044029083 0.04510743 0.037313208 0.046515875
000380 ec 83 b1 3c f8 12 f3 bc 3e c8 07 3d f9 f4 1a bd
       0.02166935 -0.029672131 0.03314995 -0.03783128
000390 ed f1 49 bd ed c5 99 3d f5 59 88 3d bb c4 6d bd
       -0.049302984 0.075084545 0.06657783 -0.058048945
0003a0 79 9d 85 3d 38 71 88 3c 88 a9 a8 3c 2d 8e 9e 3d
       0.06524176 0.01665555 0.020588651 0.07741962
0003b0 40 33 8a bb 5e 46 d1 bc 8e 89 4e 3d 46 f8 a9 bc
       -0.0042175353 -0.025546249 0.05042415 -0.020748269
0003c0 bc f5 9d bc a0 ab 04 bd 27 ea a1 3d 6c fc 1c 3d
       -0.019282214 -0.032390237 0.07905989 0.038326666
0003d0 46 57 55 bc 80 09 d2 ba 86 34 b8 3b af 07 43 bd
       -0.013021296 -0.001602456 0.0056214957 -0.04761475
0003e0 54 d2 ba 3c 5e 58 7f bd 1a 6f 75 bb 30 ed 76 bc
       0.02280537 -0.062340133 -0.0037450255 -0.015071198
0003f0 e8 55 06 bd bd 24 98 3d 68 47 b8 3c 36 7d 1e 3d
       -0.03279677 0.07428882 0.022494987 0.03869363

fc1.bias f4 [100]
000000 6f df bb bc 8c fe 22 3d 5e d8 b5 bc 33 03 6a bc
       -0.02293369 0.039793536 -0.022197898 -0.014282989
000010 50 ad 6b 3c ff 61 93 bd bf 6c 13 3d 15 67 9a 3d
       0.014384583 -0.07196426 0.03599238 0.075391926
000020 05 18 8a bd 66 af 09 3d 81 2a 94 bd 8d 60 11 bc
       -0.067428626 0.03361454 -0.072346695 -0.008873117
000030 e6 11 fe bc 11 72 8c bd 61 c2 16 3d 12 d1 57 3d
       -0.031014394 -0.06857694 0.036806468 0.05268962
000040 39 6b 46 3c aa 3a ce 3c c4 67 2f bd de 7c 6b 3d
       0.012110525 0.025174458 -0.042823568 0.05749213
000050 31 ca 7a bd 13 60 e0 bc c6 e8 cf bc 7c 12 26 bd
       -0.06122798 -0.027389562 -0.02537955 -0.04054497
000060 4f 95 80 3d 30 10 76 3d f4 3c 1f 3d cf fe f8 bc
       0.06278478 0.06007403 0.03887649 -0.03039494
000070 23 0f 33 bd 08 08 cf bc 5b fc e8 bc 4f 19 1f 3c
       -0.043715607 -0.025272384 -0.028440645 0.009710624
000080 c1 1e 4e 3d 3c 78 a3 3d b8 d9 44 3d 39 33 8e bd
       0.050322298 0.07981917 0.048059195 -0.06943364
000090 d8 e3 90 3d ed 30 9e bd 26 68 33 3c 40 a0 5f 3c
       0.07074708 -0.077241756 0.010950124 0.013649046
0000a0 58 33 43 bc f0 03 ee bc 40 1d e8 bc 86 9e 5f 3d
       -0.011914097 -0.029054612 -0.02833426 0.05459454
0000b0 fd ac 40 bd 85 db 71 3c a7 d4 14 3d 20 88 83 3d
       -0.047039974 0.01476181 0.036335614 0.06422448
0000c0 32 6d 0a bb 4b 40 9e 3d 09 96 a0 bd 64 ee 50 bd
       -0.0021122214 0.07727107 -0.07841117 -0.051008597
0000d0 b7 62 90 bd af d3 06 bb ca d6 52 bd 6e 95 63 3d
       -0.07050078 -0.002057295 -0.05147437 0.05556243
0000e0 91 66 29 bd d9 35 65 3c 6d 13 98 3d 90 c2 96 bd
       -0.04135758 0.013989889 0.0742558 -0.073613286
0000f0 f6 c5 07 3d b2 81 79 bd 54 5f 2e 3d 1b ce c0 bc
       0.033147775 -0.060914703 0.04257138 -0.023535779
000100 eb b1 7c bd ac 67 af 3c 69 10 aa 3b dc 56 ca 3c
       -0.061693113 0.02141174 0.0051899445 0.02469962
000110 ef fc 4c 3d fd ef a0 ba b6 c9 07 bd 0e 8e a1 3d
       0.050045904 -0.0012278553 -0.03315135 0.07888423
000120 ac a0 04 bd a6 80 7f 3d f5 c8 36 3d a0 b4 98 bd
       -0.03237979 0.062378548 0.04462524 -0.074563265
000130 01 97 5b bc 20 13 ee 3b 31 53 7b bd 46 e9 4b 3c
       -0.013402701 0.0072654635 -0.061358634 0.012445753
000140 8e d4 d6 bc e2 f7 1e bd 8c cf 70 3d 28 c6 07 3d
       -0.0262244 -0.03881062 0.058791682 0.03314796
000150 19 cc 8d 3d bd 9a be bc 62 ab cc bc 2f c3 54 bd
       0.06923694 -0.023267144 -0.024984065 -0.051943954
000160 04 62 d2 39 5b ff 8d 3d d7 30 99 bb 80 43 c1 bc
       0.0004012735 0.06933471 -0.0046750116 -0.023591757
000170 6c 55 47 3d b2 8d e4 3a 37 b5 4f 3c 6c 2c 9d 3d
       0.04866545 0.0017437248 0.012677482 0.076744884
000180 35 9e a5 3d 62 85 9b 3d 52 a8 88 bd d3 6d 85 3c
       0.08086816 0.075938 -0.066727296 0.01628772

fc2.weight f4 [100, 100]
000000 e1 c6 a7 3d 46 c0 b5 3d 4b 04 b1 bd f0 48 96 3d
       0.0819223 0.08874564 -0.08643397 0.073381305
000010 29 47 3b bd 58 61 49 bd 82 bf 67 bd 31 08 5e bd
       -0.04572216 -0.0491651 -0.05657912 -0.05420703
000020 fd 0e 72 bc 88 60 2a bb 9d 85 30 bd 3e 92 82 3d
       -0.014774081 -0.0025997479 -0.043096174 0.0637555
000030 21 f1 6b bd a2 f9 b6 3d 5a 12 b9 bd 8f 9f 06 3d
       -0.057603005 0.089343324 -0.090367034 0.03286701
000040 c1 12 7c bd 44 15 63 bd c9 4f c8 3c 42 6e 9c bc
       -0.061541323 -0.055440202 0.024452107 -0.019095544
000050 ae 28 87 bd 5c 47 ab bb 00 1f 92 bd e7 45 71 bd
       -0.06599556 -0.0052270126 -0.07134819 -0.058904555
000060 f7 f6 6e 3d 1c a9 ac 3b 99 94 e7 bc 49 7c a4 3d
       0.058340993 0.005269183 -0.0282691 0.08031518
000070 98 c6 4e 3c 3f 1d 95 3d 98 68 2a 3d f2 8d fd 3b
       0.012620591 0.07280969 0.041603655 0.0077378685
000080 05 e2 17 bd e5 d6 36 bd 39 a0 b1 3d ae 0d b9 3c
       -0.037080783 -0.044638533 0.08673138 0.02258953
000090 c4 1d ad 3d 7a 3b 7a 3d 74 f7 b8 bb 5a 01 bc bd
       0.08452943 0.061091878 -0.005644733 -0.09179945
0000a0 49 90 23 3d 86 7a b6 bc 4f b8 a3 3c 44 c2 17 bd
       0.039932523 -0.02227522 0.019985346 -0.0370505
0000b0 29 70 a2 3d 5a d1 c4 3d 1c a3 74 bd 73 85 c9 bc
       0.07931549 0.09610243 -0.059725866 -0.024599766
0000c0 82 b3 98 bd fb 34 43 3d 29 03 92 bd 3c 3e 9d bd
       -0.074561134 0.047657948 -0.07129509 -0.07677886
0000d0 19 de 93 bd 51 79 a5 bd 41 10 9f 3d d7 1d 33 bd
       -0.07220096 -0.0807978 0.07766772 -0.04372963
0000e0 03 aa 7f 3d bd 30 df bc c7 46 fa bc 14 88 da bc
       0.062417995 -0.02724492 -0.030551327 -0.026676215
0000f0 31 ce a7 bd 7a 4e f1 3c ca 9d 27 bd bb 30 f8 3c
       -0.08193625 0.029456366 -0.040921964 0.030296674
000100 84 92 ad bd c6 1d 79 3c b1 91 a5 3d e0 e3 fc bc
       -0.08475211 0.015204852 0.08084429 -0.030870378
000110 6f d7 a7 3c f1 32 c9 bd c7 df 23 bd 90 3f a7 3d
       0.020488469 -0.098241694 -0.040008333 0.081664205
000120 d8 92 22 3d cb ae 11 3d ef 4a 32 3d 3b aa a5 bc
       0.039690822 0.035567086 0.043528493 -0.020222774
000130 ca d0 2a bd cc 03 c0 3d a3 16 12 bd bc d1 0d bc
       -0.041703023 0.09375724 -0.03566612 -0.008655962
000140 52 04 9a bd 11 ce 9d 3d e5 e1 07 bd b0 27 1c bd
       -0.07520355 0.0770532 -0.033174414 -0.038123786
000150 39 67 80 bd fb c8 be 3c 64 c6 9e bd 4f d2 b0 3d
       -0.06269688 0.023289194 -0.07752684 0.08633863
000160 54 a5 96 3d 3c fa 9c bd 96 c8 ba bd 70 bc dc 3c
       0.073557526 -0.07664916 -0.0912029 0.026945323
000170 fa 21 76 bd 7e 4b ca bd 49 f6 7f 3d fd db d3 bc
       -0.060090996 -0.0987768 0.062490735 -0.025861735
000180 ef 11 a3 3c 92 db 23 3c 15 46 7e bd d1 20 4b bd
       0.019906012 0.01000108 -0.062078554 -0.049591843
000190 e6 51 0a 3d 48 54 b5 bd 1c 53 69 bc a4 0b 08 bc
       0.03376951 -0.08853966 -0.014241006 -0.008303557
0001a0 39 f1 65 bd 3c a0 c7 3d 95 cd b4 bd 0c 8e ac bd
       -0.05613825 0.09747359 -0.08828274 -0.08425531
0001b0 20 d3 96 bd 2e 30 6d 3d 14 93 b0 bd f9 24 7c 3d
       -0.07364488 0.057907276 -0.08621803 0.061558697
0001c0 76 58 c7 3d 1a 5b bf 3d 22 5c bf 3d 22 63 86 3c
       0.097336695 0.09343548 0.09343745 0.016404692
0001d0 29 33 b2 bd e1 76 c6 3c 24 11 24 3d b9 f6 e3 bb
       -0.08701164 0.024226608 0.04005541 -0.006956902
0001e0 71 e9 b6 bd 4e 71 98 3d 6a 9a 94 3c e7 40 88 3d
       -0.08931244 0.07443486 0.018140037 0.06653004
0001f0 f8 a6 22 bc 0f 1f b4 bd d9 7c ae 3d 64 24 c9 bd
       -0.009927504 -0.087949865 0.085199066 -0.09821394
000200 d3 21 93 bd 67 98 b9 3d f9 ef ed bc 8d dd 60 3d
       -0.07184186 0.090622716 -0.029045092 0.054898787
000210 16 88 7c 3d 70 f3 2e bc 1c b2 9a bc a2 50 2e 3d
       0.06165322 -0.010678157 -0.018883757 0.042557366
000220 55 58 9d bc 7a 5d 21 3d 1e 0d 02 bd 00 a8 62 bd
       -0.019207159 0.039395787 -0.03175079 -0.055336
000230 9d 1d 80 bd c5 62 cb bd 2f f6 f8 bc 90 4c 37 bd
       -0.06255648 -0.09930948 -0.030390827 -0.04475075
000240 6b 39 fa 3c 44 67 8c 3a 99 49 86 bd 82 14 92 bd
       0.030544957 0.0010711928 -0.065570064 -0.07132818
000250 0f f8 73 bc 2a 71 18 3d 1a 1e 88 3b 17 70 31 3c
       -0.014890685 0.037217297 0.004153979 0.010829947
000260 53 81 61 bd 2a 4f 37 bd 38 ae 6b bc e4 9f 2e 3d
       -0.055054974 -0.04475323 -0.014384799 0.042632952
000270 c0 a6 bd bd 5c 68 2b 3d dc 9c 68 3d 28 91 cc bd
       -0.09260321 0.04184757 0.056790218 -0.09988624
000280 25 b6 30 3d 3d 03 66 3c d0 98 27 3d f1 6f 65 bd
       0.043142457 0.014038858 0.040917218 -0.05601496
000290 b2 6f 7f 3d 77 6d 69 bd 4b e5 2f bd ae ef 04 3d
       0.06236238 -0.05698916 -0.04294328 0.03245514
0002a0 41 be a6 bc 0e 45 8d 3d fd f8 52 bc 3b 0f 9c bd
       -0.020354392 0.06897937 -0.012876746 -0.076200925
0002b0 72 9f aa bd 05 66 da 3b 63 1c a0 bd b9 9e b6 3d
       -0.08331193 0.0066649937 -0.07817914 0.08916993
0002c0 c7 f3 af 3d 6c c9 78 3d e8 36 9f bd 71 3b b4 bc
       0.08591419 0.060738966 -0.077741444 -0.022001
0002d0 4b 34 95 3d 6b 14 a2 3c bd 5e 0d 3c 2e 09 d2 bb
       0.07285365 0.019785127 0.008628544 -0.0064097857
0002e0 67 b2 5d bd 16 a1 02 bd 8a 1f 6f 3d d2 f0 a1 bc
       -0.054125216 -0.031891905 0.058379687 -0.019768152
0002f0 a7 c7 db bc 3e e3 4c 3d 95 3c 48 bd a8 c0 83 bc
       -0.0268286 0.050021403 -0.0488859 -0.016083077
000300 01 14 ac 3d f7 ca 60 3c d7 72 3c 3d eb b4 45 bd
       0.08402253 0.013720266 0.046007957 -0.04826824
000310 18 75 4a 3d e7 86 59 bd 86 86 c7 3d 88 d1 db bc
       0.049428076 -0.05310717 0.09742455 -0.02683331
000320 25 7d 95 bd 78 1e b1 bc 33 db 96 3d 19 b0 a0 3d
       -0.0729926 -0.021620974 0.07366028 0.07846088
000330 b0 b4 e7 3b 41 73 8e 3d b4 a9 08 bd 98 d0 21 bc
       0.0070711 0.06955577 -0.033364967 -0.009876393
000340 41 a1 96 3d 40 4f 8e ba f4 e2 ac 3c 82 9e 73 3d
       0.073549755 -0.0010857359 0.021104313 0.059477337
000350 50 74 fd 3b ed a4 6e bd 00 82 31 3c d0 71 c5 bb
       0.007734813 -0.058262754 0.010834217 -0.0060255304
000360 f0 6f 22 bc 77 28 c6 3d 77 ae ae 3d 28 83 b9 bd
       -0.009914383 0.09675687 0.0852937 -0.09058219
000370 20 04 15 bd 70 4e 34 bc 42 1b 6c 3d e8 a1 b3 bc
       -0.036380887 -0.011005029 0.057643183 -0.021927789
000380 40 d2 7b bc 0c 4f d4 bc c7 2e 7f bd 8f ef af bd
       -0.015369952 -0.025916599 -0.06230047 -0.08590614
000390 4b c3 a2 bd 00 76 9b 3c 86 f4 3e 3d 80 49 d2 bb
       -0.079474054 0.018977165 0.046619914 -0.0064174533
0003a0 f3 91 bc 3d b4 56 8e bc 29 93 98 3d a0 56 89 bc
       0.09207525 -0.017375328 0.074499436 -0.016764939
0003b0 2d be 63 bd 18 dd 20 3c 37 2a cc bd 9e 82 19 3d
       -0.055601288 0.009818338 -0.09968989 0.037478082
0003c0 60 87 ad 3c 92 de 3e 3d ae a7 55 3d 91 dd af 3d
       0.021182716 0.04659898 0.052161865 0.08587182
0003d0 46 5b 86 bd 6f f6 c0 bd e8 92 0b 3c 90 db 34 bd
       -0.06560378 -0.094220035 0.008518912 -0.044154704
0003e0 80 d9 03 3a a1 72 b1 3d 58 15 2e 3c 68 e0 44 3c
       0.00050296634 0.08664442 0.010625206 0.012016393
0003f0 3e 61 aa bd 80 42 09 3a ed 38 a4 bd 68 03 cd bc
       -0.08319329 0.00052360445 -0.0801867 -0.025026038

fc2.bias f4 [100]
000000 44 59 f7 3b b2 cd c6 3d 2a 3a 52 bd 13 53 5f bd
       0.007548483 0.09707202 -0.051325 -0.054522585
000010 6f 71 5a 3c 66 2c f4 3d e9 7f b6 3d 13 73 df bc
       0.013332709 0.11922531 0.08911116 -0.027276551
000020 b5 cd 4b bb 34 d6 a3 bc 2c c8 c4 3d 7c 11 57 3c
       -0.0031097953 -0.019999601 0.09608492 0.013126727
000030 fe 36 d3 3b 23 5b 02 3d 53 f3 9a bd 64 85 11 3c
       0.0064457646 0.031825196 -0.07565942 0.0088819
000040 2b 7d a4 bd 26 0c da 3c 87 2c 8f 3d 42 80 89 3c
       -0.080316864 0.026617121 0.06990915 0.01678479
000050 db ff d5 bc 13 ec b0 3d 9f 98 7e 3c 62 c7 a9 bd
       -0.026122978 0.086387776 0.015539317 -0.082899824
000060 2b fb ae bd 73 3b 18 3d 5f 7d 9a 3d 5f d0 ca 3d
       -0.08544 0.03716607 0.07543444 0.09903025
000070 4e 8a 34 3d be 51 87 bd 6e 49 88 bd 0a 87 ad 3c
       0.04407721 -0.06607388 -0.066546306 0.021182556
000080 33 b6 63 3d 18 a0 aa bc 78 f5 f7 3c 74 58 6c 3d
       0.05559368 -0.020828292 0.030268416 0.057701543
000090 bd f8 6d 3d c4 f0 12 bd bb 2b b2 bc ed 66 81 bd
       0.058098543 -0.035874143 -0.021749368 -0.0631846
0000a0 c0 16 ba 3a 50 05 b2 bd ee d3 7a 3d 2b dd a8 3c
       0.0014197454 -0.086924195 0.06123727 0.020613274
0000b0 e9 1e 34 3d d7 ce 87 3d a2 d5 81 bc 80 d7 19 3c
       0.04397479 0.066312484 -0.015848938 0.009389758
0000c0 7c 40 0f bd 92 97 45 3d 12 20 e3 3c 0a b0 7d 3d
       -0.034973606 0.04824025 0.027725253 0.061935462
0000d0 fd b5 ac bb 52 a7 29 3d ea ae 65 bd 41 a1 6c bd
       -0.005270718 0.041419335 -0.056075014 -0.05777097
0000e0 eb 8b ab bd 00 1c 93 3d 2a c5 be bd 12 11 3a bd
       -0.083762966 0.07183075 -0.0931495 -0.045426436
0000f0 e8 5d 57 bc 28 52 28 bc f9 1c bc 3d 4c 76 90 3d
       -0.013144948 -0.010273494 0.091852136 0.07053813
000100 7a 94 31 bd a8 03 61 bc c4 50 a3 bd 20 01 6a bd
       -0.04335449 -0.013733782 -0.07974389 -0.05712998
000110 7d 25 0e bd e0 b6 a8 bc 98 06 92 3d 41 a1 b7 bc
       -0.03470372 -0.020595014 0.07130164 -0.022415759
000120 6e 32 22 3d 88 db a3 bd 9a d0 7e bd b2 07 4a 3b
       0.039598875 -0.08000857 -0.062210657 0.003082734
000130 3a 28 01 bd 67 09 ad 3d 75 bd 28 bc 13 d4 d7 3d
       -0.031532504 0.08449059 -0.010299076 0.10538497
000140 b4 7d 6f 3d 4c c2 31 3d 2a 99 bc bd a0 9a 43 3d
       0.05846949 0.043398187 -0.09208901 0.047754884
000150 38 bd 95 bd ec ae c8 3d 78 e6 9a 3d b7 08 3c bd
       -0.07311481 0.09798989 0.0756349 -0.04590675
000160 90 aa 8f 3c 27 14 4c 3d 25 59 ae bd 4d e0 07 bb
       0.017537385 0.049823906 -0.08513097 -0.002073306
000170 b0 be a0 bb fd 5d a8 3c 73 ff 69 3d d7 1e 51 bd
       -0.004905544 0.02055263 0.05712838 -0.0510548
000180 fa 75 bd bd cd d2 8b bd 73 ae e5 3b 12 9a a4 bc
       -0.09251018 -0.068273164 0.0070093214 -0.020092998

fc3.weight f4 [11, 100]
000000 2b 2c 7b bd 6f 1d 10 bd 66 29 47 3d 60 01 84 bd
       -0.06132142 -0.03518432 0.048623465 -0.06445575
000010 ae 2e 8b 3d 5b ca 67 3d a4 b4 db bc a0 2c 83 bc
       0.06796013 0.056589466 -0.026819535 -0.01601249
000020 1c 00 c9 3c 22 6e 78 3d 2b 7c 9e bb ae da 66 bd
       0.024536185 0.060651906 -0.0048365793 -0.056360893
000030 98 9e ae 3d e8 c6 9c bc c2 f2 08 3d a9 15 bf 3d
       0.08526343 -0.019137815 0.033434637 0.09330303
000040 38 77 a7 3c 86 c8 ba 3d 4f a8 ac bc 73 e6 58 bd
       0.02044259 0.09120278 -0.02107635 -0.05295415
000050 38 db 53 3d 6a c7 c4 3d 48 c0 cb 3d a9 3f ca 3d
       0.051722735 0.09608348 0.09948784 0.098754235
000060 d4 e8 e3 3c c7 19 bd bd 01 e5 b1 3d 36 3e ce 3d
       0.027820982 -0.09233432 0.08686257 0.100704595
000070 07 fa b0 bd c0 f4 b3 ba 80 0d 63 ba ae f4 de bb
       -0.08641439 -0.0013729557 -0.00086613744 -0.0068040704
000080 20 33 61 3d ca 56 42 bd d2 17 2e bd d7 b2 a5 bd
       0.054980397 -0.04744605 -0.042503186 -0.080907516
000090 84 fd bd bc 4a 96 59 bd b9 8c 52 bd eb ed 88 3d
       -0.023192175 -0.053121842 -0.051403735 0.06686004
0000a0 58 d7 4d bc 0d af 97 bd 18 a4 64 bd 77 61 fd 3c
       -0.012563549 -0.07406435 -0.055820554 0.030930264
0000b0 8c 4e 39 bd 82 f3 b5 3d 3c f5 24 3d 30 88 70 bd
       -0.045240924 0.08884336 0.040272936 -0.05872363
0000c0 13 f8 8f bd 1e 65 0e bd 21 a2 a2 bd 41 64 91 3d
       -0.07029738 -0.0347644 -0.0794108 0.070992
0000d0 11 06 a2 bd 1a 20 56 3d 63 3a 51 bd e3 b1 08 3d
       -0.07911313 0.05227671 -0.051081073 0.03337277
0000e0 c0 ad af 3c d1 57 47 3d 2a 2e 3a 3d 9f a3 93 3d
       0.021445155 0.048667733 0.04545418 0.072089426
0000f0 d9 c0 95 3d cb 33 b7 3d 3b 02 e1 bc 6d fc 81 bd
       0.073121734 0.089454256 -0.027466884 -0.063469745
000100 c0 58 62 bc bc ce 0b bd 11 03 fd bb 97 a8 35 bd
       -0.013815105 -0.034132704 -0.007721313 -0.044350233
000110 b3 2b a0 bd 68 9d c7 bc f0 d6 c9 3d 50 eb a9 3d
       -0.07820835 -0.02436705 0.09855449 0.082968354
000120 1e ed 12 bd 41 c7 94 3d 1f 77 72 bc 5e fe 7b bc
       -0.035870664 0.07264567 -0.0147989085 -0.01538047
000130 22 86 c0 bd e7 4f c0 3d 60 3e bb bd a0 86 f0 3c
       -0.09400584 0.0939024 -0.091427565 0.02936107
000140 77 10 aa bd 0a 9e ad 3d dd b6 bb bd 3b c3 56 3d
       -0.08303922 0.08477409 -0.09165738 0.05243228
000150 b4 d9 c0 bd d9 16 9e 3c ae c0 76 3d 3f 1e b1 3d
       -0.094165236 0.019298004 0.060242347 0.08648347
000160 96 69 40 39 0e 0e af 3d c9 ed 86 3d e7 c0 9b 3d
       0.0001834988 0.085476026 0.06588323 0.076051526
000170 e7 16 94 3d 84 af b3 bc 55 60 c1 3b d6 16 8c bd
       0.07230931 -0.021934278 0.0059013763 -0.06840293
000180 58 30 9a 3c 3e ff 5d 3d 78 0f ab 3c 35 6f b8 bd
       0.01882188 0.054198496 0.0208814 -0.09005586
000190 9e 4c 3a bd 1f 3f 30 3d b5 32 ab bd 47 5d b4 3d
       -0.045483224 0.043028947 -0.08359281 0.08806854
0001a0 be f5 34 bd 3e da 8d bc 19 17 93 bc 31 82 da bc
       -0.04417967 -0.01731598 -0.01795535 -0.026673408
0001b0 23 4d ab bd 00 58 cb bb 27 7b e6 bc 05 cc 8a 3d
       -0.08364322 -0.006205559 -0.028134895 0.06777195
0001c0 3a d0 1e bc 6e 9f da bb 72 a5 39 3d 96 b8 cd 3d
       -0.0096932 -0.0066718375 0.045323797 0.100449726
0001d0 60 03 9e bd a5 05 0b bd 2d 3e 7e bc 69 59 b2 3d
       -0.077154875 -0.03394093 -0.015517754 0.0870846
0001e0 68 ff 62 bc fe 62 a4 bc 60 a6 38 bd d8 70 dd bc
       -0.013854839 -0.020066734 -0.045080543 -0.027031347
0001f0 53 c7 c1 bd 83 9a b7 bd 94 1a 27 3d dc b6 a6 b8
       -0.09461846 -0.08965018 0.04079683 -7.949557e-05
000200 18 57 c8 bd d0 51 0d 3c 3c 9e 0d bd 4d 3f 3e 3d
       -0.09782237 0.008625463 -0.034574732 0.046447087
000210 1c 7b 8f 3d 31 15 b3 3d dd 1d e0 3c 0d 82 cb 3d
       0.07005903 0.08744276 0.02735799 0.099369146
000220 2f ba c2 3d 97 57 cb bc f9 b5 ae bd 98 b3 02 bc
       0.09508168 -0.02482204 -0.08530802 -0.007977389
000230 5f e3 9a 3d 6a 46 2e 3d 75 5d 0c bd 2b ae 8b bc
       0.07562899 0.04254762 -0.034268815 -0.017050823
000240 9e 2c 82 3d 6c 4d 4d 3d 20 14 9d 3d f2 00 21 3d
       0.06356166 0.050122663 0.07669854 0.039307542
000250 96 40 08 bd 54 e3 b2 bd 4b 41 72 3d e9 1f 83 bd
       -0.03326472 -0.08734766 0.0591443 -0.06402571
000260 3e 4e 88 bd 60 1e 35 bb c0 f6 e7 ba e4 79 a7 bd
       -0.066555485 -0.0027636513 -0.0017697439 -0.08177546
000270 03 ad 82 3d 40 9c 27 3d 68 d2 e2 bc b9 fd a6 bc
       0.063806556 0.040920496 -0.02768822 -0.020384656
000280 e0 1d ad bc f2 f8 6b 3d 95 12 5b 3d bc 13 b2 bd
       -0.02113241 0.05761046 0.053484518 -0.0869517
000290 78 3e ec bc a0 48 ab bb 4e e4 ac bd a6 8d aa bd
       -0.028838381 -0.0052271634 -0.08441983 -0.083277985
0002a0 72 f4 db 3c 98 2c ef bc 05 d5 c4 bd d2 5a a3 3d
       0.026849959 -0.029196069 -0.09610943 0.07976307
0002b0 42 ea 86 bd 15 ae c3 bd f5 72 91 3a b5 fd 9a bd
       -0.0658765 -0.09554688 0.0011096882 -0.07567922
0002c0 11 a1 b2 3d 14 2f a1 bb 95 4c 43 bd f8 51 1e 3d
       0.08722127 -0.004918942 -0.047680456 0.03865239
0002d0 63 53 60 bd 1e d2 85 bc e2 74 6e 3d 6e 79 b9 3d
       -0.054767024 -0.016335543 0.058216937 0.09056364
0002e0 43 16 bd bd 18 86 9c 3d ed 24 c1 bd fa 19 46 3d
       -0.09232762 0.07642764 -0.09430871 0.048364617
0002f0 a0 af 8c bd a6 e1 44 bc 92 b5 84 bd 26 5b b4 3d
       -0.06869435 -0.012016689 -0.06479944 0.08806448
000300 32 bf 3b 3d 12 cd 86 3b 91 c5 cd 3d 3b 3a a7 bd
       0.045836635 0.0041138018 0.100474484 -0.081654035
000310 ca 57 64 bd 59 39 86 3d d6 27 5f 3d db 9f 24 3d
       -0.055747785 0.06553907 0.05448135 0.040191513
000320 b0 f2 05 bd fa 32 21 bd 07 75 c5 3d d0 36 15 3c
       -0.032702148 -0.039355256 0.09641462 0.009107307
000330 bd dc c0 bd 6e d5 a3 3d 59 47 e7 3b ba 39 cc bd
       -0.094171025 0.07999693 0.007058066 -0.09971948
000340 00 35 5f bd 12 4c a6 bd 3a 72 c1 bc c9 fa 7a 3c
       -0.054493904 -0.08119978 -0.023614038 0.015318581
000350 85 6d 15 bd 93 0d 6b 3d ca ca 5d bd 6e f3 d3 3d
       -0.0364814 0.057385992 -0.054148473 0.10349165
000360 5b 9f b2 bd 86 33 a6 bd 9e 19 7c 3b 79 1b 9d 3d
       -0.08721801 -0.08115296 0.0038467417 0.076712556
000370 12 ea e4 bc cc 6f 6f bd d0 b1 93 3d 81 03 83 3d
       -0.027943645 -0.058456227 0.072116494 0.06397153
000380 94 0e 08 bd 3a 21 9f bd 5d 98 08 3d ae 82 ca 3c
       -0.033217028 -0.07770009 0.03334843 0.024720516
000390 64 0d 89 3d 0d 2c a3 bd aa cd 04 bd 57 50 c8 3d
       0.06692007 -0.079673864 -0.0324227 0.097809486
0003a0 5c 5e 89 3d c0 75 06 bd a2 18 0b bd 86 4e a1 3d
       0.06707451 -0.03282714 -0.03395904 0.07876305
0003b0 d3 7e 4b 3d e4 82 94 bd 0e b0 52 3d 58 78 2c bc
       0.049681496 -0.07251528 0.05143743 -0.010526739
0003c0 bf 4e bf 3d a8 bd 98 bd 4e 2c 31 bd e9 e5 bf 3d
       0.093411915 -0.07458049 -0.043255143 0.09370024
0003d0 11 c9 e6 bc 4c 68 bd bd b5 a8 58 3d a0 d1 f2 bb
       -0.028172048 -0.09248409 0.052895267 -0.007410243
0003e0 9a 68 2f 3d 15 ae 4a bc 50 6c a2 3d fd 99 4f 3b
       0.042824365 -0.012370606 0.07930815 0.0031677478
0003f0 80 ef f2 bb 71 d6 88 3d 80 cd de ba 4b 84 ba bd
       -0.0074138045 0.066815265 -0.00169985 -0.09107264

fc3.bias f4 [11]
000000 5f 8d ed 3c 96 74 b8 3d 04 3f f8 3c 97 00 cd 3d
       0.028998075 0.09006612 0.030303486 0.10009878
000010 ed a5 b0 3d 31 15 df 3d 82 aa 57 3d 92 44 f1 3d
       0.08625398 0.10892714 0.052652843 0.11780657
000020 6f a4 b9 3c cd f3 cf 3d 1b 29 68 3c
       0.022661416 0.10153923 0.014169957
