models/part1.pt (torch, 45639 bytes, 6 tensors)

fc1.weight f4 [50, 155]
00000000: 4eb2 09bd afba 723c 55fa 823d f07a 9fbb
00000010: c0e2 073c f06f c33b 237e 86ba 5a85 453d
00000020: cc04 323d 4a33 30bd fb12 9d3d b64e 3d3d
00000030: e8e9 4dbc 912e 8f3d c65d 8c3b 7ee5 4f3d
00000040: c5ad 8bbd 95a8 933d 6b12 9b3d f5d4 75bd
00000050: 0d3c 93bd d79f bfbc c645 4abd fecd af3c
00000060: 924c 123d e09b 29bc 25b1 663d 8d83 473b
00000070: 7d64 c1bc 5d69 8cbd 2420 d13c 00fe 9abd
00000080: 08e9 97b9 263e 403c 4e41 38bd f8ac c53c
00000090: 30d1 7f3c 5a2c 5c3d 7ac5 4d3d 1820 85bd
000000a0: 6e1c 74bd 1c80 f1bc 75ae 6cbd a74f ce3c
000000b0: 788e 57bd a22e 7bbd 48a6 bf3c 828e 463d
000000c0: 664b bfbc 9aea a3bd c8fd 393c 9499 283d
000000d0: 8f80 803d 80ba f93b 7e66 643d c715 93bd
000000e0: 775f 9d3d 3b72 54bd e290 60bd 121d 6c3d
000000f0: 1837 92bc 5a09 4b3d 4870 66bd 6ee9 783d
00000100: a702 9c3d 1c3d c73c 5bb3 843d 51f2 6abd
00000110: 584b 91bc d547 c83c f2e9 393d f0ab 2fbd
00000120: 6a5a 513d 9a8f d8bc cd9a 2fbd 41b6 803c
00000130: 9a06 83bd 2ffa 96bd 6cc9 da3c 301f e03c
00000140: 3808 fd3c e093 2cbc bc9b 70bd fc25 84bd
00000150: bf68 9d3d 029c 8ebd d850 c63c f499 853d
00000160: ce57 7b3d 346f 4fbd ea29 d4bc ca85 83bd
00000170: 935e 4e3d 675f 9abd 986f 97bd d0a3 5bbd
00000180: 8f2e 863d b240 553d ae71 5c3d ba6f 7c3d
00000190: 4e70 19bd 897f 37bd 8a1d 4abd 981c d93c
000001a0: a0f3 ff3c d489 883c e01a 7dbd 73ce e93b
000001b0: 8294 2ebd a864 81bc 58ba 4bbc 83d4 823b
000001c0: 743c 90bd 996a 8c3d f9fe 0bbd b497 cd3c
000001d0: 1a90 623d 9093 043d 3267 663d aac7 393d
000001e0: 0ee8 703d 30e0 8a3c 8a21 523d 3204 0fbd
000001f0: 5f74 31bd 3e19 1d3d 08a6 ac3c 0895 45bb
00000200: 18c8 8abd 99e8 d63c 151c 553d 2de4 17bc
00000210: 922e 973c b876 123d c474 a2bd c284 58bc
00000220: eb19 f4bc 5bc3 27bd 2d0e 493d d119 a33d
00000230: cbfa 513c 3e8a 4c3d 2ea5 7abd 6339 613c
00000240: 3833 2abc c740 67bd cad3 843c a16a d03c
00000250: 4157 7ebb 036b 0b3d 43e2 1d3d 3135 953d
00000260: 9092 983b bd8b 3b3b 97b2 96ba 829c 353c
00000270: 2854 55bd 04fc 21bc 201b 8bbd ecc4 66bd
00000280: 571e 8cbd 36fc 733d 5513 3dbd e067 d4bb
00000290: fdb0 0c3c dd49 913d 0e50 153d 744a 6abd
000002a0: ebe4 a03d bed1 9bbd 021b 2b3c 374e 963d
000002b0: 91a9 8e3d be81 98bc a38f 5bbd aa76 103d
000002c0: ab9b 7d3d 9c63 2fbd 953e 50bc 8d18 48bd
000002d0: 7bba fa3c 65f4 8b3c 5114 233d d8c1 e1bc
000002e0: 43cb 9ebd 0a8d 0abd efa6 80bd 2f84 9ebc
000002f0: 6c1f ef3c 30da 88bd 80b6 75bb 60f1 a0bd
00000300: 0a25 69bd 3c58 66bd d609 e0bc 42b2 26bd
00000310: 4090 4a3c 461e 493d df12 783d f051 cf3c
00000320: 2f54 0bba d083 6abc 1664 5f3d 726d 3cbd
00000330: a2cd 6d3d c661 9ebd 0a8e 75bd 0c8b ae3c
00000340: 2d81 07bd b886 753c 0b54 8f3d 9a43 163d
00000350: bf01 a13d 8e5a 0bbd 571b 1dbd e417 27bc
00000360: 4085 84bc 70b7 10bd 0069 a3bb a99c 943d
00000370: d757 34bd 92c2 383d bcd5 183d 6e87 3e3d
00000380: e983 b13c f812 f3bc 3ec8 073d f9f4 1abd
00000390: e5f1 49bd edc5 993d 095a 883d 92c4 6dbd
000003a0: 799d 853d 3871 883c 88a9 a83c 2d8e 9e3d
000003b0: 4033 8abb 5e46 d1bc 8e89 4e3d 46f8 a9bc
000003c0: bcf5 9dbc a0ab 04bd 29ea a13d 6cfc 1c3d
000003d0: 3d56 55bc 8009 d2ba d735 b83b 6707 43bd
000003e0: 48d2 ba3c 5e58 7fbd ed6e 75bb 30ed 76bc
000003f0: e855 06bd bd24 983d 6847 b83c 367d 1e3d
-0.03361731 0.014815017 0.06395403 -0.00486695 0.0082938075 0.0059642717 -0.001026098 0.048222877
0.043461606 -0.043017663 0.07669636 0.046217643 -0.012567975 0.06991304 0.0042836396 0.05075597
-0.06820253 0.07209889 0.07571872 -0.060017545 -0.07189188 -0.023391647 -0.049382947 0.02146053
0.035717554 -0.010352105 0.056321282 0.00304434 -0.023607487 -0.06856034 0.025528021 -0.07567978
-0.00028974586 0.011733567 -0.044984154 0.02413033 0.015613839 0.053753234 0.050237156 -0.06500262
-0.059597425 -0.029480033 -0.057783563 0.025184466 -0.052626103 -0.06132377 0.023394719 0.04847575
-0.023351382 -0.08003731 0.01135201 0.04116209 0.062745206 0.0076211095 0.055761807 -0.07181888
0.07684224 -0.05186675 -0.05482567 0.05764491 -0.017848536 0.049569465 -0.056259423 0.06076949
0.076176934 0.024321131 0.06479522 -0.057359997 -0.017736122 0.024448315 0.045389123 -0.04288858
0.051111616 -0.026435662 -0.04287224 0.015711905 -0.063977435 -0.073719375 0.026707374 0.027358621
0.030887708 -0.010533303 -0.05874227 -0.064525574 0.07685994 -0.0696335 0.024208471 0.06523505
0.061363034 -0.05064316 -0.025898892 -0.064220026 0.05038316 -0.07537728 -0.07394332 -0.05362302
0.06551849 0.05206365 0.05381935 0.06162999 -0.037460618 -0.04479936 -0.049344577 0.026502892
0.0312441 0.016667284 -0.061793208 0.0071352064 -0.042622097 -0.015795067 -0.0124345645 0.0039926185
-0.070427805 0.068562694 -0.034178708 0.025096752 0.055313207 0.03236729 0.05625076 0.04535643
0.058815055 0.016952604 0.051301517 -0.03491611 -0.04332387 0.03835415 0.021075264 -0.0030148644
-0.06776446 0.026233958 0.052028734 -0.00927071 0.018454824 0.03575775 -0.079324275 -0.013215246
-0.029797515 -0.04095779 0.049085785 0.079639085 0.012816141 0.049936526 -0.061192684 0.013746592
-0.010388188 -0.05645826 0.01621427 0.02544147 -0.0038809332 0.0340376 0.038545858 0.07285536
0.0046561435 0.0028617226 -0.0011497316 0.011084678 -0.05208221 -0.009886745 -0.06792283 -0.056340143
-0.06841724 0.0595667 -0.046161015 -0.0064821094 0.008587119 0.070941664 0.0364533 -0.05719991
0.07856163 -0.076083645 0.010443451 0.07339137 0.06965936 -0.018616553 -0.05360378 0.035269417
0.061916035 -0.042819604 -0.012710233 -0.04885154 0.030606499 0.01708431 0.039814297 -0.027558252
-0.07753613 -0.03382591 -0.0628184 -0.01935014 0.029189788 -0.06682241 -0.0037492812 -0.07858539
-0.05692009 -0.05623649 -0.02734844 -0.040697344 0.012363493 0.049101137 0.060564872 0.025307626
-0.00053149735 -0.014313653 0.05453881 -0.046002813 0.058057435 -0.077334926 -0.059949912 0.021306537
-0.033082176 0.014985733 0.06998452 0.036685564 0.07861661 -0.034021907 -0.03835615 -0.010198567
-0.01617682 -0.03533119 -0.004986882 0.07256443 -0.044029083 0.04510743 0.037313208 0.046515875
0.021669345 -0.029672131 0.03314995 -0.03783128 -0.049302954 0.075084545 0.06657798 -0.058048792
0.06524176 0.01665555 0.020588651 0.07741962 -0.0042175353 -0.025546249 0.05042415 -0.020748269
-0.019282214 -0.032390237 0.07905991 0.038326666 -0.013021049 -0.001602456 0.0056216526 -0.04761448
0.022805348 -0.062340133 -0.003745015 -0.015071198 -0.03279677 0.07428882 0.022494987 0.03869363

fc1.bias f4 [50]
00000000: f3c5 533c 27e3 853d 62f2 703d 9a20 333d
00000010: f5a9 79bc c74d d03c 26da 8fbc 7187 603d
00000020: 532d d53c 0980 bcbd dd5e a13d b9de 4dbc
00000030: 8f64 3dbd ba51 0dbd a597 ad3d 4f5a 70bd
00000040: d2f4 e23c 7b49 f7bc d9a6 60bd 0129 3c3d
00000050: e699 533d 25af 9c3d 3b38 92bd c254 df3c
00000060: 79d0 a23d b06d f2ba 6c9a 9f3d 3ee3 a63d
00000070: f4d0 69bd b13e e53c 5eb0 883c d219 1d3c
00000080: befd 793d d063 a63c 2529 f4bc 1e34 a03d
00000090: 6b7e 4b3d a38d 0a3d 1870 9fbc 29b9 91bd
000000a0: e11d 0cbc 7a88 96bc c904 6ebc d140 2fbd
000000b0: ebbd 493d 84bc 9fbc 9290 c5bd c740 41bd
000000c0: dd0d 8dbd 7c13 5e3d
0.012925613 0.065374665 0.058824904 0.043732263 -0.015238275 0.025427712 -0.017560076 0.054816667
0.026022589 -0.09204108 0.07879422 -0.012565308 -0.04623848 -0.03450177 0.084761895 -0.058679875
0.02770463 -0.030186405 -0.05484662 0.045937542 0.05166044 0.07650594 -0.07139631 0.027262095
0.07949919 -0.0018495824 0.077931255 0.08148812 -0.05708404 0.027983995 0.01668566 0.009588676
0.061033003 0.020311266 -0.029804775 0.078224406 0.04968111 0.03382648 -0.01946263 -0.071153946
-0.008552046 -0.018375624 -0.014527508 -0.042786423 0.049253386 -0.019499071 -0.09646715 -0.047180917
-0.0688741 0.0542178

fc2.weight f4 [50, 50]
00000000: a1c9 90bc 945d 92bd 1770 d6bd 00c3 953d
00000010: d0dd 00be 6142 03be 7edd 76bc 59d0 b53d
00000020: 863d e3bd 39b6 c0bd 3acd 4a3d 984c 09be
00000030: 7d98 c03d 3b5c 9a3d 9e30 953d e059 eb3d
00000040: 1324 013e cd6c 8bbd 7e72 973d 8e47 a33d
00000050: fa73 833d bf72 10bd 06fb acbd 3b3c b9bd
00000060: 4963 133d 829b e7ba 33df 253c 18a8 063e
00000070: dde9 efbd 1dd1 0c3d f79e e33c 4cfb 97bb
00000080: 2c4e c53d 0c53 bd3d c06b c4bd 5943 d53c
00000090: e676 a6bd 4793 a1bd afee f5bd dbf9 3d3d
000000a0: 5d12 4cbc 8df5 b8bd 2f88 e6bc 305c 46bc
000000b0: 8dda 603d c035 f43d 6ae4 cabd a78a 41bc
000000c0: 31cf 073e 3600 c73d 358e 853d a333 2fbd
000000d0: 2975 cc3c 4815 0d3c d25f 313b 7a1c bd3d
000000e0: 0d15 46bd ac72 12bd 8b30 ca3d 3e0a 133d
000000f0: ed26 0abe d4f3 e4bc 7d7b c33d d4a8 ae3d
00000100: e1ff c03d 1d2a a8bd bdcd d7bd 18f6 3c3d
00000110: 67a6 de3d ec7c ed3d 47d9 5e3d e7e8 ab3d
00000120: 494c c6bd 192d 0c3d d657 73bc 4c57 d7ba
00000130: 5c41 893d 39e8 d9bd 8566 663c 519d 48bd
00000140: 9fa4 913d ce3e 02be 39a9 9fbd d4ee cebd
00000150: 5704 d83d 46b7 b33d 8f7e f03d da6a 0f3e
00000160: b3c0 303d 2049 9a3c f085 1f3d ca11 b33c
00000170: d641 843c 3b52 dabd e3ab de3d 980a c4bd
00000180: c8b1 ca3d 2327 843d 1495 153d dad1 593d
00000190: e842 fe3c 7c1d 8ebd 7901 9abd af33 93bd
000001a0: 945b aebd 54f7 833d 3066 2c3c 00cf beba
000001b0: 0414 1b3d 17c3 053e c085 33bc 8c10 8bbd
000001c0: 1c12 d2bd 1a4d ef3d 7dec ffbd 6256 8d3d
000001d0: 4e7a fd3d acb4 9a3d 8007 8fba e072 96bc
000001e0: 9a83 b73d bf01 9abd d4c6 4c3d 4809 33bd
000001f0: 1e99 983d b43e 00bd 0e4a c1bd 0832 5dbd
00000200: 0054 aa3d f064 533d 4a7e ccbd 9355 bcbd
00000210: 3cc2 edbc 0060 5dbc 4cdd 22bd f4ba c23d
00000220: d0d7 203c 62c2 1abd 70f2 04bc 9a9f 843d
00000230: 0e1e cbbd e24c 0ebe ccab e8bd 9cae 7e3d
00000240: 8092 7b3c d586 01be 3ab9 ec3d f621 9b3d
00000250: 0c1f 07be 10f6 b13d adcd b6bb 209a 463c
00000260: 4c28 f73d 78d1 da3d 050c 033d 4451 88bd
00000270: 7cc8 d43d 268d ee3d 0f70 9cbc c707 ecbd
00000280: 773d 073e 388b 79bd dc80 adbd dd73 0bbe
00000290: cfff 713d a653 603d 6516 6abd 58ea 08be
000002a0: bbcd c43d 0c9d 443c ee91 013e 38e3 01bc
000002b0: eaac 023e d37f 09bd db1f 81bd 0355 aa3d
000002c0: b1c6 1e3d 4e28 033e 2b90 2d3c 8206 d4bd
000002d0: 6c1b c8bd 9068 10bd baad 9bbc 28f2 9dbd
000002e0: 53dc ee3d 8e61 9dbd d3ac 893c 5ae4 a93d
000002f0: 08cc e73c c742 e63b 9436 5a3d ab40 a0bd
00000300: 356d 13be 4211 293d 3be2 d4bd 4a77 f9bd
00000310: 97b7 d7bd 7431 e23d 4800 cabd 1f03 e93d
00000320: dd50 c03d 2b54 c93c 05fa a9bd a685 02be
00000330: 5325 e1bd 89fe ba3d a916 bfbd 2e89 91bc
00000340: 2c33 bb3c c5ec 8dbc 89f2 033d b247 e4bd
00000350: 3fa9 ed3d 0287 d0bd ceb0 a8bd f5b5 f2bd
00000360: 2e81 bc3d 0bce 90bd 53e9 46bd 8ce4 973d
00000370: 8404 70bc c1cf ee3d 6723 2e3d ca36 46bc
00000380: 4086 c1bd 70f2 09be f6ac 203d 54eb 383c
00000390: 3b89 033e 515c 05be b9c6 e83c 04f6 593d
000003a0: 0a18 a03d d0a9 8c3d ead3 20bc 6aaf 09be
000003b0: 55d9 e5bc 0ac5 0e3e ad7f d9bd 7fe7 c2bd
000003c0: 4a27 043e 1f81 10bc b48d 40bd 0d4f 823c
000003d0: 7d01 743d fb86 4c3c 0e28 e83d 65d9 fbba
000003e0: 4c09 74bd 251a 87bd 5089 32bc 5c4e e2bc
000003f0: 92d6 c33d f80b 873d 761c df3d 4ef1 e23d
-0.01767427 -0.07146755 -0.10470598 0.07312584 -0.12584615 -0.1281829 -0.015067456 0.0887763
-0.11095719 -0.09409756 0.049512126 -0.13408124 0.09404085 0.07537123 0.072846636 0.11491752
0.12611417 -0.068078615 0.073948845 0.07972632 0.06418605 -0.03526568 -0.084463164 -0.09044691
0.035983358 -0.0017670246 0.010124016 0.1315006 -0.11714528 0.034379113 0.027785761 -0.004638111
0.09634051 0.092443556 -0.09590864 0.02603309 -0.08128147 -0.07889419 -0.12008416 0.04638086
-0.01245555 -0.0903121 -0.02814111 -0.01210694 0.054895926 0.119243145 -0.09906848 -0.011812842
0.13262631 0.09716837 0.065212645 -0.042773854 0.02495821 0.008611031 0.002706517 0.09233947
-0.04835992 -0.03575389 0.0987254 0.03589844 -0.13491412 -0.027948298 0.09545038 0.08528295
0.09423805 -0.082111575 -0.10537288 0.04613313 0.108715825 0.115960926 0.05440643 0.08394032
-0.09682519 0.034222696 -0.014852485 -0.0016429215 0.067019194 -0.10639996 0.0140625285 -0.048978154
0.07111477 -0.1271927 -0.077959485 -0.101041466 0.10547703 0.08775191 0.11742889 0.14005604
0.043152522 0.018833697 0.038946092 0.021859068 0.016144674 -0.106602155 0.108726285 -0.09572333
0.0989719 0.06452777 0.036519125 0.053178646 0.031037763 -0.069392174 -0.07519812 -0.07187592
-0.08513561 0.064436585 0.01052241 -0.001455754 0.037860885 0.13062702 -0.010957181 -0.067902654
-0.1025736 0.11684628 -0.124962784 0.06901242 0.123768434 0.07553992 -0.0010912269 -0.018365324
0.08960648 -0.07519864 0.049994305 -0.043710023 0.0745108 -0.0313098 -0.09437953 -0.05400279
0.08316803 0.051609933 -0.09985025 -0.091960095 -0.029023282 -0.013511658 -0.039761826 0.09508315
0.009817079 -0.037783034 -0.008114442 0.06475754 -0.09917842 -0.13896516 -0.11360893 0.06217824
0.015354753 -0.1264909 0.11558767 0.07574837 -0.13195437 0.08689511 -0.0055787177 0.012121707
0.12068233 0.10684484 0.031993885 -0.06656125 0.10389802 0.11648016 -0.019096402 -0.11524921
0.1320704 -0.060923785 -0.084718436 -0.13618417 0.05908185 0.054767273 -0.057150263 -0.13370645
0.096095525 0.0120003335 0.12653324 -0.007927708 0.12761274 -0.03356917 -0.06304904 0.08316996
0.038763706 0.12808344 0.010593454 -0.10352804 -0.09770855 -0.03525597 -0.019003738 -0.07712203
0.11663117 -0.07684623 0.016806042 0.08295508 0.028295532 0.0070270034 0.053274706 -0.078248344
-0.14397128 0.041276224 -0.103947125 -0.12180956 -0.10533064 0.11044589 -0.09863335 0.113775484
0.093904234 0.024576267 -0.082996406 -0.12746295 -0.10993447 0.0913058 -0.09330494 -0.017765608
0.02285155 -0.017324815 0.03221372 -0.11146487 0.11604547 -0.10182001 -0.08236848 -0.11851112
0.092043266 -0.070705496 -0.04856236 0.07416639 -0.014649514 0.1166072 0.04251423 -0.012098024
-0.09449434 -0.13471389 0.03922745 0.011286575 0.12845318 -0.13023497 0.02841507 0.053213134
0.07817085 0.06868327 -0.009816149 -0.13445821 -0.028057734 0.13942352 -0.10620055 -0.095168106
0.12905613 -0.008819847 -0.04701014 0.015906835 0.05957173 0.012483354 0.11335765 -0.0019214569
-0.05957918 -0.065967835 -0.010896996 -0.027625255 0.095624104 0.0659408 0.108941 0.110811815

fc2.bias f4 [50]
00000000: 1af3 b13d cd72 093e 60e4 fdbd e513 173e
00000010: a7da 9f3d ab8e 08be 6c32 5fbd cd02 b93b
00000020: a403 dabd 1690 243e 06ec 59bd 4320 303d
00000030: 1003 113c e480 61bd a548 08be 9d9c 3b3c
00000040: b8a8 ecbd 4ec2 dcbc 1f7d 763c 66d7 4abd
00000050: 5b81 453d 821b 02be 80a5 e4bd a50e bd3d
00000060: 3fd5 96bd 84f7 e93d 0054 eabc 6b73 eebc
00000070: ce8b da3d b877 80bc 9539 e8bd d04e 71bd
00000080: 75fd 003d c74a 023e d044 273e 18a7 54bd
00000090: 2aea 243d 009b e23d bafa 6cbd b11f a03c
000000a0: 1a5d 8cbd d515 d53a 7d54 b93d 5351 1a3e
000000b0: ef7a bebd f0bc a13d e2ff 003e 2819 cdbc
000000c0: 4331 4f3d 430b 02be
0.08688946 0.134227 -0.12397075 0.14753683 0.078053765 -0.13335674 -0.054491445 0.005646086
-0.10645226 0.1607059 -0.053203605 0.042999517 0.008850828 -0.05505456 -0.13308962 0.011450914
-0.11555618 -0.02694812 0.01504448 -0.049521826 0.048219066 -0.12705806 -0.11164379 0.09231309
-0.07364892 0.11424163 -0.028604507 -0.02910777 0.10671197 -0.015682086 -0.11339108 -0.058913052
0.031491715 0.12723838 0.16334844 -0.051917166 0.04026238 0.1106472 -0.0578563 0.019546362
-0.06853695 0.0016257117 0.09049318 0.15070085 -0.093007915 0.07897365 0.12597612 -0.02503641
0.05058409 -0.12699609

fc3.weight f4 [11, 50]
00000000: 1198 ae3d fa02 4cbc 6302 053e bb01 e63d
00000010: 5620 95bd 7014 80bd 1fbf e3bd 65bc 02be
00000020: 0b63 03be 043b af3d 6610 c03d e360 b7bd
00000030: 6a02 cc3d 46ba 35bd 28d5 2c3d 5b9c f23d
00000040: 6ab6 e03d 6850 e7bd 6f53 693d 2979 91bd
00000050: 506e e6bd a056 cdbb 6abb 01bd 6ed9 173d
00000060: c8b0 823c da80 c23d 8866 953d 5269 01be
00000070: a3da e7bd ba05 b7bd 8626 953d d5bc 053e
00000080: a254 99bd e1bd 0d3d a4c0 923c 4c2d 583d
00000090: 414b 573d 8f99 033d 22ae c03d 452f 24bd
000000a0: ff3e 0a3e 7715 05bb a371 fbbd 6c80 a93d
000000b0: 62e7 cb3d 3e09 cc3d 6470 ef3c 28fb 433d
000000c0: 3cc9 333d 0a56 77bd 3200 df3a 685a 8e3b
000000d0: 135f a0bd 72e7 36bd e8ca 62bd 002a bebc
000000e0: 9a93 bebd 901d a63d c0c0 69bb 3171 ef3d
000000f0: 83f0 b9bd f9f2 203d f2e2 3bbd 4a75 993d
00000100: 2ea1 67bd f1ad 8fbd 202c 383c ca97 a4bd
00000110: 1732 c73d c093 aebb acb6 a33d ccfb 29bd
00000120: 3a98 0ebd 7104 0cbe 50e0 213d 0186 713d
00000130: 3c27 be3d 85c4 973c a8a0 d3bb e4a8 9bbc
00000140: e83d 6c3d 8783 0a3e 7fe4 2a3c 564d e4bd
00000150: 5dd0 ebbd 40c6 5d3d 530d 063e 2d37 8bbd
00000160: 46fe 913d bc17 f23d d282 fd3d 8479 b93d
00000170: 0240 b1bd 6c5b d63d 80d6 a23b bd0d a2bd
00000180: f6eb 0bbe 1e78 63bd 1efe f03d edb1 103e
00000190: 3408 ed3d c2a6 abbd 1e0b a73d 977f c73d
000001a0: dada 0c3e 0271 aabd 2ae6 ef3d 6904 82bc
000001b0: 4069 673d 3794 c7bd bc85 b3bc 12e5 b6bd
000001c0: ed45 21bd 5037 70bc ee88 4fbd 378a 803d
000001d0: 4132 063e c56e 073d 6b01 7bbd 0438 01bd
000001e0: 7b7f 09bd b0dc 2b3c 502f 4ebc bef4 b73d
000001f0: d058 313c c2d4 dabd 3839 4fbd b5d1 8bbd
00000200: a5ac 833d a3cf 013e 0e63 eb3d 041b 093d
00000210: 382e a8bd 22b4 073c 57ad 1f3d 405d 3a3b
00000220: c1d4 9f3d 7e11 aa3d c0f8 31bd fc93 36bd
00000230: 20c8 863c 9561 823c c5b3 373c df84 f1bd
00000240: addf 07be 6bb6 0a3e b8bd 1e3e 0be0 fdbd
00000250: fae6 cabd 106a a8bc 66f9 9bbd d610 09be
00000260: 1845 333d b275 adbd 64e5 453d 7e17 bbbd
00000270: 80f3 f1bb 42fe 34bd a852 dbbc ca67 5ebd
00000280: 5fba f2bd 02a5 ea3d 10fd 3dbc 3cfa 9bbd
00000290: 8542 073e 03f1 933c 5c7c 08bd cfcf 283d
000002a0: 2837 0bbc 3843 113d 4221 f93d 9cf3 553d
000002b0: c027 cc3d fe19 9e3d f448 69bd ee29 c4bb
000002c0: 9057 dabc 1efd 0f3e d4a4 4abd 6c0b cf3d
000002d0: 34b4 27bd a639 f23d 0073 803d fd98 a73d
000002e0: 813b c5bd c038 89bb 75db 063e 4e1f ddbd
000002f0: 5041 fdbc 9a54 0cbe 1cd4 05be 7ade d63d
00000300: 9ca5 a6bd 7d87 9c3c f1ef f6bd ba9f d6bd
00000310: 09af 073e 089f e23c d3eb 1ebd 4cac 19bd
00000320: df2f 143e 7f04 ee3d e804 cd3d 24ea 113e
00000330: 5680 6f3c 60cd ac3c a08f 073c 85a7 5abd
00000340: 5e67 fbbd 4611 153e 3a5b f03d bf68 5c3c
00000350: f724 4bbd caa6 fb3d 44c5 80bd 89d7 afbb
00000360: 989b 46bd 1d76 a9bd 9a1f dabd 4354 0d3e
00000370: 3a1a 093e 285e 8e3d 3cda 54bd 9d7e 1bbd
00000380: 3ab6 a93d 7490 fa3d 4dc5 103e bd2b 883d
00000390: e1da 2ebd d095 7dbd 45f4 093e 993e ccbd
000003a0: 0775 e2bd 89e1 b1bb cb5c 39bc 8236 903d
000003b0: 3d44 c9bd 95b7 a9bc 2208 e0bd 892a d53d
000003c0: a89b 033d 2328 8cbd 7fd6 02bd 0a77 d63d
000003d0: 1eac e53d 6046 ffbd d8c9 88bd 80eb c63c
000003e0: 5ead 123d e89c b7bd 8142 973d 6cf9 bd3c
000003f0: e3c4 a0bd a7af a5bd 74b7 193c aca2 343d
0.08525098 -0.012451882 0.12989192 0.11230799 -0.07281558 -0.06253898 -0.11120438 -0.1276718
-0.1283075 0.08556178 0.09378128 -0.089540266 0.09961398 -0.044367097 0.04219547 0.11846229
0.10972293 -0.11294633 0.056964334 -0.071031876 -0.11251509 -0.00626643 -0.031672873 0.03707259
0.015953436 0.09497233 0.07294947 -0.12637833 -0.113209985 -0.08936639 0.072827384 0.13060315
-0.074868456 0.03460491 0.017914124 0.052777573 0.052562002 0.032128867 0.09408213 -0.040084142
0.13500594 -0.0020306983 -0.12277534 0.08276448 0.09956242 0.099627 0.029228397 0.047846943
0.043893084 -0.060384788 0.0017013608 0.0043442734 -0.07830634 -0.044654317 -0.055369288 -0.023213387
-0.093054965 0.08111107 -0.0035667866 0.116915114 -0.09079077 0.039294217 -0.04587073 0.07493074
-0.056550197 -0.070155986 0.011240989 -0.08036764 0.09726351 -0.0053276718 0.07993826 -0.041499898
-0.034813143 -0.1367357 0.03952056 0.058965687 0.09284827 0.018526325 -0.0064583607 -0.019001432
0.057676226 0.13526736 0.010430454 -0.11147563 -0.115143515 0.054144144 0.1309102 -0.06797633
0.07128577 0.11820933 0.123784676 0.090563804 -0.08654787 0.10466656 0.004969418 -0.079127766
-0.1366423 -0.055534475 0.11767219 0.14130373 0.1157383 -0.08381416 0.08156417 0.09741133
0.1375536 -0.08322336 0.11713822 -0.015871244 0.05649686 -0.097450666 -0.021914355 -0.089304104
-0.039373327 -0.014661625 -0.050667696 0.062763624 0.13105108 0.033064622 -0.06128065 -0.03154756
-0.03356884 0.010489628 -0.012584522 0.08982228 0.010824397 -0.106851116 -0.050591677 -0.06827108
0.06429414 0.12676863 0.114935026 0.03347303 -0.082119405 0.008282693 0.03898367 0.002843693
0.078042515 0.083041176 -0.043450117 -0.044574723 0.016452849 0.015915671 0.011212294 -0.11792921
-0.1326892 0.1354615 0.1550206 -0.123962484 -0.099073365 -0.020558387 -0.07615928 -0.13385329
0.043767065 -0.08469714 0.048314467 -0.0913534 -0.007383764 -0.04418779 -0.026772812 -0.0542982
-0.11851954 0.11457254 -0.011595979 -0.07616088 0.13208969 0.01805926 -0.033321723 0.041213807
-0.008497037 0.035464495 0.121645465 0.052234277 0.09968519 0.07719801 -0.05695434 -0.0059864437
-0.026653081 0.140614 -0.0494736 0.101096004 -0.04094334 0.11827402 0.062719345 0.08183477
-0.0963049 -0.0041876733 0.13169654 -0.107969865 -0.030914932 -0.13704148 -0.13069195 0.10491653
-0.08137056 0.019107575 -0.12057484 -0.10479684 0.13250364 0.027663723 -0.03879912 -0.03751783
0.14471386 0.11621951 0.100107014 0.14249474 0.014618 0.021094024 0.008273989 -0.053382415
-0.12275575 0.1455737 0.1173615 0.013452708 -0.0495958 0.12287672 -0.062876254 -0.00536627
-0.04848823 -0.082744814 -0.10650559 0.13801675 0.13388911 0.06951553 -0.051965937 -0.037962545
0.0828671 0.122345835 0.14137764 0.066489674 -0.042689208 -0.06191045 0.13472088 -0.09972877
-0.110574774 -0.005428497 -0.0113136275 0.070416465 -0.098274685 -0.020717422 -0.10939051 0.104085036
0.032130867 -0.06843593 -0.03194284 0.10471924 0.112144694 -0.12464595 -0.06679124 0.024282217
0.035809867 -0.08965474 0.073857315 0.023190223 -0.07850053 -0.08090144 0.009382118 0.04410045

fc3.bias f4 [11]
00000000: e766 b23c 0f88 e93d 6195 093d 6bac 143e
00000010: d72f a6bc e66c f53c 3b1c b33d 3993 b23d
00000020: f8c1 0a3d 8524 a03d 0aa3 bd3d
0.021777583 0.11402904 0.033589724 0.14518897 -0.020286484 0.029959153 0.08745619 0.08719487
0.03387639 0.078194655 0.09259613
