models/part1.pt (torch, 109191 bytes, 6 tensors)

net.0.weight f4 [100, 155]
-0.033617288 0.014815211 0.06395403 -0.00486695 0.0082938075 0.0059642717 -0.0010260791 0.048222877
0.043461606 -0.043017663 0.07669636 0.046217643 -0.012567975 0.06993116 0.004319884 0.05075661
-0.068200804 0.07209889 0.07571872 -0.060017515 -0.07189188 -0.023377273 -0.049382947 0.021460533
0.03575392 -0.010234311 0.056363128 0.0030436888 -0.023607556 -0.06856046 0.025528021 -0.07567978
-0.0002746731 0.011740379 -0.044984154 0.02413033 0.015613839 0.053753234 0.050237156 -0.06500262
-0.059597425 -0.029480033 -0.057783563 0.02518396 -0.052626103 -0.06132377 0.023394719 0.04847575
-0.023351382 -0.08003731 0.01135201 0.04116209 0.062745206 0.0076211095 0.055761807 -0.07181888
0.07684224 -0.05186675 -0.05482567 0.05764491 -0.017848492 0.049569465 -0.056259423 0.06076949
0.076176934 0.024321131 0.06479522 -0.057359997 -0.017736122 0.02444829 0.045389123 -0.04288858
0.051111616 -0.026435595 -0.04287224 0.015712008 -0.06397703 -0.07371935 0.026707374 0.027358621
0.030887708 -0.010533303 -0.05874227 -0.064525574 0.07685994 -0.0696335 0.024208471 0.065235905
0.061363988 -0.050643317 -0.025898892 -0.06422001 0.050383456 -0.075377256 -0.07394332 -0.05362302
0.06551849 0.05206365 0.05381935 0.06162999 -0.037460618 -0.04479452 -0.049344577 0.026502892
0.0312441 0.016667284 -0.061793208 0.007135205 -0.042622097 -0.015795067 -0.0124345645 0.003992617
-0.070427805 0.068562694 -0.034178708 0.025096752 0.055313207 0.032367304 0.056251027 0.04535643
0.058815055 0.016952604 0.051301517 -0.034913868 -0.043281037 0.03835415 0.021075264 -0.0030120537
-0.06775226 0.026246302 0.052028798 -0.009273529 0.018453218 0.035757758 -0.07932425 -0.013215244
-0.029796626 -0.041054018 0.049093433 0.07963819 0.012816161 0.049991064 -0.059589393 0.014150612
-0.010388188 -0.049539357 0.016469426 0.025568523 -0.0038795397 0.0341082 0.03856328 0.07285536
0.0046561435 0.0028617233 -0.0011496544 0.011084716 -0.052082438 -0.009886816 -0.06792283 -0.056340143
-0.06841724 0.0595667 -0.046161015 -0.0064821094 0.008587121 0.070941664 0.036453295 -0.05719991
0.078560874 -0.07607099 0.010444286 0.07338982 0.06965936 -0.01861655 -0.05360388 0.035269417
0.0619061 -0.042819604 -0.012710295 -0.0488657 0.030747976 0.017102588 0.039796658 -0.027558511
-0.07753994 -0.03382591 -0.0628184 -0.019340416 0.029209841 -0.06682241 -0.0037492812 -0.07858539
-0.05692009 -0.05623649 -0.02734844 -0.040697344 0.012363493 0.049101137 0.06056362 0.025307626
-0.0005314944 -0.014313653 0.05453881 -0.046002813 0.058057435 -0.077334926 -0.059949912 0.021306537
-0.033082176 0.014985732 0.06998452 0.036685564 0.07861661 -0.034021907 -0.03835615 -0.0101984525
-0.01617682 -0.03533119 -0.004986882 0.07256443 -0.044029083 0.04510743 0.037313208 0.046515875
0.021669326 -0.029672131 0.03314995 -0.03783128 -0.04930285 0.075084545 0.0665778 -0.05804813
0.06524146 0.01665555 0.020588651 0.07741962 -0.0042175353 -0.025546249 0.050424147 -0.020748269
-0.019282289 -0.032390237 0.07905996 0.038328204 -0.013021649 -0.001602456 0.0056215622 -0.047614805
0.02280537 -0.062340133 -0.0037450374 -0.015071199 -0.03279677 0.07428882 0.022494987 0.03869363
00000000: 48b2 09bd 80bb 723c 55fa 823d f07a 9fbb
00000010: c0e2 073c f06f c33b 807d 86ba 5a85 453d
00000020: cc04 323d 4a33 30bd fb12 9d3d b64e 3d3d
00000030: e8e9 4dbc 1138 8f3d d08d 8d3b 2ae6 4f3d
00000040: ddac 8bbd 95a8 933d 6b12 9b3d edd4 75bd
00000050: 0d3c 93bd b281 bfbc c645 4abd 00ce af3c
00000060: b472 123d d0ad 27bc 06dd 663d a078 473b
00000070: a264 c1bc 6d69 8cbd 2420 d13c 00fe 9abd
00000080: 0002 90b9 b85a 403c 4e41 38bd f8ac c53c
00000090: 30d1 7f3c 5a2c 5c3d 7ac5 4d3d 1820 85bd
000000a0: 6e1c 74bd 1c80 f1bc 75ae 6cbd 984e ce3c
000000b0: 788e 57bd a22e 7bbd 48a6 bf3c 828e 463d
000000c0: 664b bfbc 9aea a3bd c8fd 393c 9499 283d
000000d0: 8f80 803d 80ba f93b 7e66 643d c715 93bd
000000e0: 775f 9d3d 3b72 54bd e290 60bd 121d 6c3d
000000f0: 0037 92bc 5a09 4b3d 4870 66bd 6ee9 783d
00000100: a702 9c3d 1c3d c73c 5bb3 843d 51f2 6abd
00000110: 584b 91bc c847 c83c f2e9 393d f0ab 2fbd
00000120: 6a5a 513d 768f d8bc cd9a 2fbd 78b6 803c
00000130: 6406 83bd 2cfa 96bd 6cc9 da3c 301f e03c
00000140: 3808 fd3c e093 2cbc bc9b 70bd fc25 84bd
00000150: bf68 9d3d 029c 8ebd d850 c63c 679a 853d
00000160: ce58 7b3d 5e6f 4fbd ea29 d4bc c885 83bd
00000170: e25e 4e3d 645f 9abd 986f 97bd d0a3 5bbd
00000180: 8f2e 863d b240 553d ae71 5c3d ba6f 7c3d
00000190: 4e70 19bd 757a 37bd 8a1d 4abd 981c d93c
000001a0: a0f3 ff3c d489 883c e01a 7dbd 70ce e93b
000001b0: 8294 2ebd a864 81bc 58ba 4bbc 80d4 823b
000001c0: 743c 90bd 996a 8c3d f9fe 0bbd b497 cd3c
000001d0: 1a90 623d 9493 043d 7a67 663d aac7 393d
000001e0: 0ee8 703d 30e0 8a3c 8a21 523d d801 0fbd
000001f0: 7547 31bd 3e19 1d3d 08a6 ac3c e065 45bb
00000200: b2c1 8abd 7c02 d73c 261c 553d 00f0 17bc
00000210: 342b 973c ba76 123d c174 a2bd c084 58bc
00000220: 0e18 f4bc 4228 28bd 3216 493d 5919 a33d
00000230: e0fa 513c 6ec3 4c3d 0214 74bd f8d7 673c
00000240: 3833 2abc c8e9 4abd e4ea 863c 1475 d13c
00000250: e03f 7ebb 0ab5 0b3d 88f4 1d3d 3135 953d
00000260: 9092 983b c08b 3b3b 00b0 96ba ab9c 353c
00000270: 6554 55bd 50fc 21bc 201b 8bbd ecc4 66bd
00000280: 571e 8cbd 36fc 733d 5513 3dbd e067 d4bb
00000290: ffb0 0c3c dd49 913d 0d50 153d 744a 6abd
000002a0: 86e4 a03d 1bcb 9bbd 831e 2b3c 674d 963d
000002b0: 91a9 8e3d bc81 98bc be8f 5bbd aa76 103d
000002c0: 4091 7d3d 9c63 2fbd d73e 50bc 6627 48bd
000002d0: 2ee3 fb3c ba1a 8c3c d201 233d 63c2 e1bc
000002e0: 43cd 9ebd 0a8d 0abd efa6 80bd cb6f 9ebc
000002f0: 7a49 ef3c 30da 88bd 80b6 75bb 60f1 a0bd
00000300: 0a25 69bd 3c58 66bd d609 e0bc 42b2 26bd
00000310: 4090 4a3c 461e 493d 8f11 783d f051 cf3c
00000320: fc53 0bba d083 6abc 1664 5f3d 726d 3cbd
00000330: a2cd 6d3d c661 9ebd 0a8e 75bd 0c8b ae3c
00000340: 2d81 07bd b786 753c 0b54 8f3d 9a43 163d
00000350: bf01 a13d 8e5a 0bbd 571b 1dbd 6917 27bc
00000360: 4085 84bc 70b7 10bd 0069 a3bb a99c 943d
00000370: d757 34bd 92c2 383d bcd5 183d 6e87 3e3d
00000380: df83 b13c f812 f3bc 3ec8 073d f9f4 1abd
00000390: c9f1 49bd edc5 993d f159 883d e0c3 6dbd
000003a0: 519d 853d 3871 883c 88a9 a83c 2d8e 9e3d
000003b0: 4033 8abb 5e46 d1bc 8d89 4e3d 46f8 a9bc
000003c0: e4f5 9dbc a0ab 04bd 30ea a13d 09fe 1c3d
000003d0: c158 55bc 8009 d2ba 1535 b83b be07 43bd
000003e0: 54d2 ba3c 5e58 7fbd 4d6f 75bb 31ed 76bc
000003f0: e855 06bd bd24 983d 6847 b83c 367d 1e3d

net.0.bias f4 [100]
-0.025661465 0.047531556 -0.032907754 -0.019360157 0.011863441 -0.07084388 0.030069249 0.077867314
-0.0599928 0.03285414 -0.07304339 -0.008767195 -0.03288457 -0.069464296 0.035219617 0.042718638
0.012647282 0.025003947 -0.044427793 0.06127508 -0.06392752 -0.029279076 -0.028940396 -0.034669794
0.06749055 0.062874205 0.051816754 -0.030950513 -0.049041398 -0.014636378 -0.023119219 0.008412907
0.049801935 0.080093175 0.048946977 -0.0659874 0.068914264 -0.07452325 0.0073860814 0.021217873
-0.010560896 -0.02921069 -0.026737079 0.052248143 -0.05119769 0.018147457 0.040465064 0.06419158
-0.0049371305 0.080448814 -0.07860511 -0.044383813 -0.069801725 -0.0029299883 -0.049673483 0.055099804
-0.037457164 0.0071297484 0.07410606 -0.07916062 0.029029261 -0.06898495 0.041572396 -0.016836977
-0.06891924 0.027058408 0.00874961 0.027853847 0.047502633 -0.008273149 -0.03724875 0.079699636
-0.02390243 0.061765827 0.057044998 -0.07877377 -0.021959292 0.0070063737 -0.064367905 0.016053056
-0.03320078 -0.04121957 0.05554275 0.036291454 0.06790462 -0.017851122 -0.021460578 -0.05130024
0.005456975 0.0712168 -0.004678695 -0.027825654 0.04721907 0.0028222406 0.011714963 0.0751864
0.07893635 0.073625214 -0.07255925 0.016611492
00000000: fe37 d2bc 73b0 423d 48ca 06bd 3199 9ebc
00000010: e15e 423c 9916 91bd c953 f63c e678 9f3d
00000020: 03bb 75bd 1092 063d c697 95bd 48a4 0fbc
00000030: f9b1 06bd 4c43 8ebd 7242 103d bdf9 2e3d
00000040: 8c36 4f3c 14d5 cc3c ebf9 35bd 94fb 7a3d
00000050: 6eec 82bd acda efbc 6914 edbc ea01 0ebd
00000060: 7c38 8a3d 31c4 803d ce3d 543d ee8b fdbc
00000070: a2df 48bd 6bcd 6fbc 8464 bdbc 4ad6 093c
00000080: 1dfd 4b3d e407 a43d a07c 483d 6724 87bd
00000090: ec22 8d3d a59f 98bd f106 f23b 1bd1 ad3c
000000a0: 9c07 2dbc 424b efbc b807 dbbc 2602 563d
000000b0: abb4 51bd faa9 943c b2be 253d e076 833d
000000c0: a7c7 a1bb 59c2 a43d b7fb a0bd cdcb 35bd
000000d0: 35f4 8ebd 0c05 40bb 6c76 4bbd 55b0 613d
000000e0: af6c 19bd aaa0 e93b ebc4 973d f71e a2bd
000000f0: c6ce ed3c fb47 8dbd d147 2a3d b3ed 89bc
00000100: 8825 8dbd 98a9 dd3c 865a 0f3c c02d e43c
00000110: 1f92 423d 1a8c 07bc 2592 18bd 9039 a33d
00000120: 07cf c3bc 2afe 7c3d 04a8 693d 2454 a1bd
00000130: f9e3 b3bc b995 e53b 52d3 83bd b381 833c
00000140: 8bfd 07bd dad5 28bd cb80 633d 59a6 143d
00000150: 9411 8b3d 843c 92bc 18ce afbc 3320 52bd
00000160: 6dd0 b23b 1dda 913d bd4f 99bb a0f2 e3bc
00000170: c968 413d 57f5 383b 1ef0 3f3c 54fb 993d
00000180: 62a9 a13d d1c8 963d f299 94bd d314 883c

net.2.weight f4 [100, 100]
0.08130772 0.08864621 -0.08682014 0.07319715 -0.046203878 -0.050080087 -0.056661904 -0.05475062
-0.015636966 -0.0029539764 -0.043813217 0.06354676 -0.05770454 0.08908541 -0.09039736 0.03284142
-0.061632995 -0.055748373 0.0237085 -0.019330652 -0.06709085 -0.0059373984 -0.07208146 -0.0594738
0.05800328 0.004902498 -0.028355367 0.08007147 0.012302201 0.07226954 0.04138317 0.0074845664
-0.03715431 -0.044958044 0.086385235 0.021380104 0.084260866 0.059756123 -0.0056561814 -0.09216686
0.039751325 -0.022457892 0.019784974 -0.03737025 0.078577496 0.09602403 -0.059954345 -0.02494508
-0.074615754 0.047295995 -0.07245693 -0.07732388 -0.0731019 -0.08095577 0.07724937 -0.044024
0.06181428 -0.027673542 -0.030743763 -0.027393043 -0.08227501 0.028700128 -0.04118361 0.029908797
-0.08520658 0.014934893 0.08064877 -0.031003233 0.020091334 -0.09872396 -0.04084457 0.08110931
0.03960768 0.035134405 0.043374278 -0.02041839 -0.042448215 0.09355577 -0.036669895 -0.009008362
-0.07578689 0.076653324 -0.033390194 -0.03858373 -0.0629126 0.023130724 -0.07762542 0.0861387
0.07348649 -0.07694895 -0.09177601 0.02613052 -0.0604079 -0.099129625 0.06241988 -0.026226008
0.019602489 0.009726873 -0.06241354 -0.049871955 0.03476616 -0.08832195 -0.013699825 -0.007876044
-0.0554402 0.09883603 -0.08823091 -0.083792984 -0.07229594 0.058152426 -0.08512411 0.061883785
0.09739996 0.09385527 0.09338477 0.016257688 -0.08723196 0.024537284 0.041172452 -0.0070984694
-0.08763633 0.07546938 0.019267859 0.067362025 -0.009872346 -0.08770411 0.08512133 -0.09787241
-0.07144562 0.09137663 -0.028795242 0.055280365 0.06160489 -0.010662317 -0.018417275 0.044432916
-0.019286899 0.041329242 -0.031706806 -0.0548814 -0.06221084 -0.09878888 -0.029948186 -0.044695266
0.031649835 0.0011108427 -0.06547493 -0.07095468 -0.014775712 0.037232265 0.005883813 0.011640146
-0.053702034 -0.044468857 -0.013770327 0.042662673 -0.09175639 0.042504713 0.056522507 -0.09880888
0.04355885 0.015085754 0.040962595 -0.055521596 0.06301572 -0.05684105 -0.04263776 0.032276068
-0.019929783 0.069695815 -0.011580624 -0.07598196 -0.08313572 0.0070547834 -0.077918224 0.089394994
0.0869292 0.060949948 -0.07630261 -0.021565309 0.07378145 0.020365298 0.008573978 -0.006056313
-0.054236792 -0.031515907 0.058704007 -0.019478478 -0.026769482 0.050297562 -0.048140205 -0.01483611
0.084282316 0.014330962 0.046104573 -0.0481962 0.049514133 -0.053081937 0.09789061 -0.026680099
-0.0729926 -0.021620974 0.07366028 0.07846088 0.0070711 0.06955577 -0.033364967 -0.009876393
0.073549755 -0.0010857359 0.021104313 0.059477337 0.007734813 -0.058262754 0.010834217 -0.0060255304
-0.009914383 0.09675687 0.0852937 -0.09058219 -0.036380887 -0.011005029 0.057643183 -0.021927789
-0.015369952 -0.025916599 -0.06230047 -0.08590614 -0.079474054 0.018977165 0.046619914 -0.0064174533
0.09207525 -0.017375328 0.074499436 -0.016764939 -0.055601288 0.009818338 -0.09968989 0.037478082
0.021182716 0.04659898 0.052161865 0.08587182 -0.06560378 -0.094220035 0.008518912 -0.044154704
0.00050296634 0.08664442 0.010625206 0.012016393 -0.08319329 0.00052360445 -0.0801867 -0.025026038
00000000: a984 a63d 258c b53d c2ce b1bd 63e8 953d
00000010: 4740 3dbd c720 4dbd 5016 68bd 3042 60bd
00000020: 1819 80bc 8097 41bb 7d75 33bd ce24 823d
00000030: 995b 6cbd 6972 b63d 4022 b9bd ba84 063d
00000040: e172 7cbd 6858 64bd 5438 c23c 515b 9ebc
00000050: ed66 89bd 828e c2bb 729f 93bd cd9a 73bd
00000060: d994 6d3d 22a5 a03b 8449 e8bc 83fc a33d
00000070: 2c8f 493c 0d02 943d 6681 293d 1841 f53b
00000080: 1e2f 18bd ed25 38bd beea b03d 5425 af3c
00000090: f690 ac3d d6c2 743d 7d57 b9bb fbc1 bcbd
000000a0: 49d2 223d 9df9 b7bc 1914 a23c 8c11 19bd
000000b0: 3ded a03d 3fa8 c43d b092 75bd a059 ccbc
000000c0: 25d0 98bd 72b9 413d 4d64 94bd fb5b 9ebd
000000d0: 73b6 95bd 24cc a5bd eb34 9e3d 8352 34bd
000000e0: f830 7d3d a0b3 e2bc 58da fbbc 6067 e0bc
000000f0: cd7f a8bd 881c eb3c 25b0 28bd 4b03 f53c
00000100: ca80 aebd 7bb1 743c 2f2b a53d 7efa fdbc
00000110: 9596 a43c ca2f cabd a34c 27bd a31c a63d
00000120: aa3b 223d 18e9 0f3d 3aa9 313d 7844 a7bc
00000130: 2ede 2dbd 2b9a bf3d 2c33 16bd cf97 13bc
00000140: 2836 9bbd 6bfc 9c3d 28c4 08bd f909 1ebd
00000150: 52d8 80bd a57c bd3c 14fa 9ebd 7d69 b03d
00000160: 1680 963d 6997 9dbd 10f5 bbbd ac0f d63c
00000170: 466e 77bd 7904 cbbd fdab 7f3d edd7 d6bc
00000180: 6695 a03c 765d 1f3c 57a5 7fbd 8946 4cbd
00000190: f666 0e3d 23e2 b4bd 3b75 60bc 860a 01bc
000001a0: 4315 63bd 8b6a ca3d 68b2 b4bd a89b abbd
000001b0: e50f 94bd 3d31 6e3d 8d55 aebd da79 7d3d
000001c0: a179 c73d 3137 c03d 8440 bf3d d82e 853c
000001d0: aba6 b2bd 6a02 c93c 72a4 283d 479a e8bb
000001e0: ad7a b3bd b18f 9a3d a1d7 9d3c 1af5 893d
000001f0: 9fbf 21bc 369e b3bd 1854 ae3d 5571 c8bd
00000200: 1552 92bd ac23 bb3d 00e4 ebbc aa6d 623d
00000210: 6955 7c3d 00b1 2ebc d3df 96bc 4aff 353d
00000220: 8fff 9dbc da48 293d ffde 01bd 52cb 60bd
00000230: cbd0 7ebd d351 cabd e655 f5bc 6212 37bd
00000240: 42a3 013d b299 913a b817 86bd b050 91bd
00000250: d415 72bc dc80 183d 00cd c03b 50b6 3e3c
00000260: aaf6 5bbd fa24 36bd f09c 61bc 0ebf 2e3d
00000270: c6ea bbbd 6c19 2e3d 2584 673d 4f5c cabd
00000280: c46a 323d 3d2a 773c 65c8 273d 9d6a 63bd
00000290: 630e 813d 29d2 68bd efa4 2ebd e933 043d
000002a0: c943 a3bc aebc 8e3d a8bc 3dbc 6e9c 9bbd
000002b0: 0f43 aabd d02b e73b 9793 9fbd b914 b73d
000002c0: f007 b23d a7a6 793d 8b44 9cbd bba9 b0bc
000002d0: bb1a 973d 20d5 a63c df79 0c3c 0974 c6bb
000002e0: 6627 5ebd d316 01bd 9d73 703d 5491 9fbc
000002f0: ac4b dbbc d104 4e3d aa2e 45bd 2813 73bc
00000300: 359c ac3d 69cc 6a3c 26d8 3c3d 6169 45bd
00000310: 55cf 4a3d 726c 59bd df7a c83d 3990 dabc
00000320: 257d 95bd 781e b1bc 33db 963d 19b0 a03d
00000330: b0b4 e73b 4173 8e3d b4a9 08bd 98d0 21bc
00000340: 41a1 963d 404f 8eba f4e2 ac3c 829e 733d
00000350: 5074 fd3b eda4 6ebd 0082 313c d071 c5bb
00000360: f06f 22bc 7728 c63d 77ae ae3d 2883 b9bd
00000370: 2004 15bd 704e 34bc 421b 6c3d e8a1 b3bc
00000380: 40d2 7bbc 0c4f d4bc c72e 7fbd 8fef afbd
00000390: 4bc3 a2bd 0076 9b3c 86f4 3e3d 8049 d2bb
000003a0: f391 bc3d b456 8ebc 2993 983d a056 89bc
000003b0: 2dbe 63bd 18dd 203c 372a ccbd 9e82 193d
000003c0: 6087 ad3c 92de 3e3d aea7 553d 91dd af3d
000003d0: 465b 86bd 6ff6 c0bd e892 0b3c 90db 34bd
000003e0: 80d9 033a a172 b13d 5815 2e3c 68e0 443c
000003f0: 3e61 aabd 8042 093a ed38 a4bd 6803 cdbc

net.2.bias f4 [100]
0.0033808637 0.09824407 -0.051325 -0.05456164 0.009854965 0.11987118 0.089568764 -0.018833414
0.009578269 -0.01919125 0.095969275 0.015253046 -0.0025620344 0.037303746 -0.07565942 0.008875237
-0.080316864 0.030823719 0.0702864 0.016770735 -0.01819087 0.08833442 0.030283889 -0.082899824
-0.08544 0.037913457 0.07596172 0.09863224 0.04417899 -0.06607388 -0.066546306 0.020325033
0.056820516 -0.020828292 0.024368051 0.05468571 0.05778033 -0.025121972 -0.020551123 -0.0631846
0.0014197454 -0.086924195 0.062300768 0.026394581 0.04271709 0.06672409 -0.0071665146 -0.010769546
-0.034973606 0.047693394 0.02607585 0.06321639 -0.010999137 0.04698265 -0.04376831 -0.055115644
-0.083762966 0.0720418 -0.0931495 -0.041387793 -0.013144948 -0.010273494 0.09219288 0.06911958
-0.04335449 -0.013733782 -0.08258208 -0.05712998 -0.03489676 -0.020595014 0.070730604 -0.0224358
0.03692772 -0.08000857 -0.03626428 0.001603293 -0.031532504 0.08371943 -0.010101987 0.10643754
0.05929977 0.04207494 -0.09208901 0.04773658 -0.07318972 0.09902205 0.07696539 -0.04590675
0.017331703 0.048836052 -0.08513097 0.0025127467 -0.004905544 0.023666086 0.05795824 -0.0510548
-0.09251018 -0.068273164 0.00027428876 -0.019153692
00000000: 7b91 5d3b 3034 c93d 2a3a 52bd 077c 5fbd
00000010: b876 213c 057f f53d d46f b73d 8848 9abc
00000020: 2cee 1c3c f836 9dbc 8a8b c43d e9e7 793c
00000030: cee7 27bb d0cb 183d 53f3 9abd 7169 113c
00000040: 2b7d a4bd 0682 fc3c 51f2 8f3d c862 893c
00000050: 0505 95bc ade8 b43d eb15 f83c 62c7 a9bd
00000060: 2bfb aebd 244b 1b3d d191 9b3d b3ff c93d
00000070: 07f5 343d be51 87bd 6e49 88bd af80 a63c
00000080: a1bc 683d 18a0 aabc 829f c73c 20fe 5f3d
00000090: 11ab 6c3d 98cc cdbc d45a a8bc ed66 81bd
000000a0: c016 ba3a 5005 b2bd 172f 7f3d 7339 d83c
000000b0: 1ef8 2e3d a4a6 883d 15d5 eabb c072 30bc
000000c0: 7c40 0fbd 265a 433d 059d d53c 9877 813d
000000d0: b935 34bc e170 403d 6646 33bd f1c0 61bd
000000e0: eb8b abbd a78a 933d 2ac5 bebd 3f86 29bd
000000f0: e85d 57bc 2852 28bc 9fcf bc3d 918e 8d3d
00000100: 7a94 31bd a803 61bc cb20 a9bd 2001 6abd
00000110: e8ef 0ebd e0b6 a8bc 35db 903d 48cb b7bc
00000120: 8541 173d 88db a3bd db89 14bd 9625 d23a
00000130: 3a28 01bd 1875 ab3d ce82 25bc edfb d93d
00000140: 51e4 723d c656 2c3d 2a99 bcbd 6f87 433d
00000150: 7ee4 95bd 13cc ca3d 08a0 9d3d b708 3cbd
00000160: 37fb 8d3c 5008 483d 2559 aebd e5ac 243b
00000170: b0be a0bb 61df c13c 9f65 6d3d d71e 51bd
00000180: fa75 bdbd cdd2 8bbd 6ace 8f39 34e8 9cbc

net.4.weight f4 [11, 100]
-0.06225247 -0.03401118 0.048623465 -0.06445682 0.06804254 0.05741922 -0.024892751 -0.016303197
0.024245875 0.060670152 -0.0041293204 -0.0564091 0.085307755 -0.018696636 0.033434637 0.09301904
0.02044259 0.09378696 -0.020905517 -0.05295415 0.051026616 0.09643565 0.10148447 0.098754235
0.027820982 -0.09300337 0.08851641 0.10257243 -0.086732596 -0.0013729557 -0.00086613744 -0.0054413574
0.055321 -0.04744605 -0.041142575 -0.079352155 -0.022796711 -0.053414017 -0.051455356 0.06686004
-0.012563549 -0.07406435 -0.05427147 0.031159516 -0.04626643 0.08778952 0.041331276 -0.05826797
-0.07029738 -0.03481694 -0.078964755 0.070707686 -0.078562394 0.052021943 -0.05141293 0.03388193
0.021445155 0.04900902 0.04545418 0.07188293 0.073121734 0.089454256 -0.023246067 -0.06275001
-0.013815105 -0.034132704 -0.0077288 -0.044350233 -0.078205764 -0.02436705 0.0992338 0.08296832
-0.035742417 0.07264567 -0.015529253 -0.015892114 -0.09400584 0.09337684 -0.09189234 0.030564148
-0.08130437 0.08451213 -0.09165738 0.049497515 -0.09416526 0.021129316 0.061202195 0.08648347
-0.00019384838 0.08410576 0.06588323 0.07442922 0.07230931 -0.02225285 0.0051452303 -0.06840293
0.01882188 0.054198496 0.021293286 -0.09005586 -0.046799645 0.04160061 -0.08359281 0.08806717
-0.044210292 -0.018363332 -0.02132282 -0.026582956 -0.08410549 -0.0061028893 -0.029834775 0.067774616
-0.00926683 -0.0068864906 0.045323797 0.100659445 -0.077154875 -0.033485092 -0.015312672 0.0870846
-0.014088223 -0.02064008 -0.047916695 -0.027031347 -0.09461846 -0.090652905 0.040713474 -0.0046184133
-0.096576594 0.008625463 -0.034574732 0.04515961 0.071895756 0.08744276 0.028278075 0.09975186
0.0954285 -0.024649736 -0.08575386 -0.007977389 0.07562899 0.04254762 -0.03577232 -0.017286066
0.0657802 0.049471173 0.07578347 0.04009712 -0.03326472 -0.08899625 0.06157304 -0.06593783
-0.0660592 -0.0023258983 -0.0011471856 -0.08314747 0.063806556 0.0396835 -0.02768822 -0.020303488
-0.02113241 0.05761046 0.05273835 -0.08793675 -0.028838381 -0.0052271634 -0.084635116 -0.083277985
0.026840797 -0.029196069 -0.096902125 0.07976297 -0.067245916 -0.09554688 0.0005038366 -0.07548472
0.08722127 -0.004159622 -0.04581956 0.03927441 -0.05635035 -0.015997376 0.058216937 0.089907974
-0.09232762 0.07710383 -0.09125189 0.048364617 -0.068543054 -0.010582959 -0.06479944 0.089249596
0.045836635 0.0042305123 0.10109209 -0.081654035 -0.055747785 0.06553907 0.05387589 0.04019127
-0.036226448 -0.039749358 0.09641462 0.009106055 -0.09412461 0.0776898 0.005970086 -0.099820435
-0.054818165 -0.08113027 -0.024982609 0.0152835185 -0.035998423 0.057673294 -0.054148473 0.102651194
-0.08721801 -0.07760669 0.001864989 0.076712556 -0.028137071 -0.061416388 0.07171236 0.06397153
-0.033217028 -0.08069163 0.035475194 0.021900441 0.068026304 -0.079673864 -0.0324227 0.09844519
0.06948074 -0.03282714 -0.031662527 0.07909423 0.04896425 -0.0726188 0.050821908 -0.010526739
0.093411915 -0.07458049 -0.043435395 0.093704194 -0.029748352 -0.095735185 0.05307855 -0.006506054
0.042824365 -0.014846676 0.08161546 -0.000701541 -0.006361086 0.06687206 -0.0017746896 -0.092558704
00000000: 72fc 7ebd 4f4f 0bbd 6629 473d f001 84bd
00000010: e359 8b3d 6b30 6b3d e2eb cbbc 488e 85bc
00000020: 499f c63c 4481 783d 404f 87bb 3a0d 67bd
00000030: d5b5 ae3d b029 99bc c2f2 083d c480 be3d
00000040: 3877 a73c 6113 c03d 0c42 abbc 73e6 58bd
00000050: 4901 513d 0e80 c53d 17d7 cf3d a93f ca3d
00000060: d4e8 e33c 8d78 bebd 1748 b53d 7f11 d23d
00000070: dca0 b1bd c0f4 b3ba 800d 63ba 6a4d b2bb
00000080: 4698 623d ca56 42bd 1e85 28bd 6283 a2bd
00000090: 2bc0 babc a8c8 5abd dac2 52bd ebed 883d
000000a0: 58d7 4dbc 0daf 97bd c34b 5ebd 3e42 ff3c
000000b0: de81 3dbd feca b33d fc4a 293d 65aa 6ebd
000000c0: 13f8 8fbd 359c 0ebd 46b8 a1bd 31cf 903d
000000d0: 52e5 a0bd f614 553d 5d96 52bd c7c7 0a3d
000000e0: c0ad af3c afbd 483d 2a2e 3a3d 5c37 933d
000000f0: d9c0 953d cb33 b73d 896e bebc 1483 80bd
00000100: c058 62bc bcce 0bbd e041 fdbb 97a8 35bd
00000110: 582a a0bd 689d c7bc 173b cb3d 4beb a93d
00000120: a466 12bd 41c7 943d 686e 7ebc 2e30 82bc
00000130: 2286 c0bd 5b3c bf3d 0d32 bcbd aa61 fa3c
00000140: e882 a6bd b214 ad3d ddb6 bbbd e8bd 4a3d
00000150: b7d9 c0bd 6317 ad3c 27af 7a3d 3f1e b13d
00000160: c743 4bb9 a43f ac3d c9ed 863d 596e 983d
00000170: e716 943d 9c4b b6bc 5299 a83b d616 8cbd
00000180: 5830 9a3c 3eff 5d3d 426f ae3c 356f b8bd
00000190: fcb0 3fbd 6765 2a3d b532 abbd 8f5c b43d
000001a0: da15 35bd b36e 96bc 32ad aebc 80c4 d9bc
000001b0: 803f acbd bffa c7bb 0f68 f4bc 6bcd 8a3d
000001c0: e7d3 17bc 12a8 e1bb 72a5 393d 8a26 ce3d
000001d0: 6003 9ebd aa27 09bd 00e2 7abc 6959 b23d
000001e0: 4ad2 66bc 6315 a9bc 4c44 44bd d870 ddbc
000001f0: 53c7 c1bd 3ba8 b9bd 2cc3 263d 0f56 97bb
00000200: f3c9 c5bd d051 0d3c 3c9e 0dbd 49f9 383d
00000210: 153e 933d 3115 b33d 6ca7 e73c b44a cc3d
00000220: 0470 c33d 3eee c9bc b89f afbd 98b3 02bc
00000230: 5fe3 9a3d 6a46 2e3d ff85 12bd 829b 8dbc
00000240: c5b7 863d 49a2 4a3d 5d34 9b3d e13c 243d
00000250: 9640 08bd aa43 b6bd 0334 7c3d 6a0a 87bd
00000260: 0c4a 87bd 196e 18bb 295d 96ba 3949 aabd
00000270: 03ad 823d 2a8b 223d 68d2 e2bc 8053 a6bc
00000280: e01d adbc f2f8 6b3d 2b04 583d 2f18 b4bd
00000290: 783e ecbc a048 abbb 2d55 adbd a68d aabd
000002a0: 3be1 db3c 982c efbc 9f74 c6bd c55a a33d
000002b0: 3ab8 89bd 15ae c3bd e713 043a bc97 9abd
000002c0: 11a1 b23d 704d 88bb 4aad 3bbd 34de 203d
000002d0: a0cf 66bd ee0c 83bc e274 6e3d ac21 b83d
000002e0: 4316 bdbd 9de8 9d3d 45e2 babd fa19 463d
000002f0: 4d60 8cbd 2664 2dbc 92b5 84bd 7ec8 b63d
00000300: 32bf 3b3d 1ca0 8a3b 5f09 cf3d 3b3a a7bd
00000310: ca57 64bd 5939 863d f7ac 5c3d 9a9f 243d
00000320: 2f62 14bd 39d0 22bd 0775 c53d 9031 153c
00000330: 67c4 c0bd d41b 9f3d b6a0 c33b a86e ccbd
00000340: 0389 60bd a127 a6bd 54a8 ccbc b967 7a3c
00000350: 1573 13bd d53a 6c3d caca 5dbd ca3a d23d
00000360: 5b9f b2bd 42f0 9ebd a672 f43a 791b 9d3d
00000370: b77f e6bc c08f 7bbd eedd 923d 8103 833d
00000380: 940e 08bd a741 a5bd 704e 113d 8e68 b33c
00000390: 6051 8b3d 0d2c a3bd aacd 04bd a29d c93d
000003a0: eb4b 8e3d c075 06bd 91b0 01bd 28fc a13d
000003b0: bd8e 483d 2ab9 94bd a22a 503d 5878 2cbc
000003c0: bf4e bf3d a8bd 98bd 50e9 31bd fce7 bf3d
000003d0: d1b2 f3bc cf10 c4bd e568 593d bd30 d5bb
000003e0: 9a68 2f3d 793f 73bc 0226 a73d 9fe7 37ba
000003f0: a870 d0bb 38f4 883d b49c e8ba 6b8f bdbd

net.4.bias f4 [11]
0.03777545 0.0837375 0.019508049 0.09871459 0.083188035 0.11499574 0.050654624 0.11189897
0.030405995 0.09888873 0.018803459
00000000: 6eba 1a3d 917e ab3d 58cf 9f3c e02a ca3d
00000010: 7d5e aa3d e382 eb3d 397b 4f3d 4a2b e53d
00000020: fe15 f93c 2d86 ca3d b609 9a3c
