models/part1.pt (torch, 109127 bytes, 6 tensors)

fc1.weight f4 [100, 155]
000000 48 b2 09 bd 3b bc 72 3c 55 fa 82 3d f0 7a 9f bb
       -0.033617288 0.014815385 0.06395403 -0.00486695
000010 c0 e2 07 3c f0 6f c3 3b 46 7d 86 ba 5a 85 45 3d
       0.0082938075 0.0059642717 -0.0010260723 0.048222877
000020 cc 04 32 3d 4a 33 30 bd fb 12 9d 3d b6 4e 3d 3d
       0.043461606 -0.043017663 0.07669636 0.046217643
000030 e8 e9 4d bc de 38 8f 3d 10 96 8d 3b 3b e6 4f 3d
       -0.012567975 0.069932684 0.0043208674 0.050756674
000040 ae ac 8b bd 95 a8 93 3d 6b 12 9b 3d e4 d4 75 bd
       -0.068200454 0.07209889 0.07571872 -0.06001748
000050 0d 3c 93 bd 0c 7e bf bc c6 45 4a bd 15 ce af 3c
       -0.07189188 -0.023375534 -0.049382947 0.021460572
000060 de 74 12 3d de 77 27 bc eb df 66 3d 3b 90 47 3b
       0.035755984 -0.01022145 0.05636589 0.0030450958
000070 a6 64 c1 bc 58 69 8c bd 24 20 d1 3c 00 fe 9a bd
       -0.023607563 -0.0685603 0.025528021 -0.07567978
000080 eb c1 8f b9 b5 57 40 3c 4e 41 38 bd f8 ac c5 3c
       -0.00027419566 0.011739661 -0.044984154 0.02413033
000090 30 d1 7f 3c 5a 2c 5c 3d 7a c5 4d 3d 18 20 85 bd
       0.015613839 0.053753234 0.050237156 -0.06500262
0000a0 6e 1c 74 bd 1c 80 f1 bc 75 ae 6c bd c1 4e ce 3c
       -0.059597425 -0.029480033 -0.057783563 0.025184037
0000b0 78 8e 57 bd a2 2e 7b bd 48 a6 bf 3c 82 8e 46 3d
       -0.052626103 -0.06132377 0.023394719 0.04847575
0000c0 66 4b bf bc 9a ea a3 bd c8 fd 39 3c 94 99 28 3d
       -0.023351382 -0.08003731 0.01135201 0.04116209
0000d0 8f 80 80 3d 80 ba f9 3b 7e 66 64 3d c7 15 93 bd
       0.062745206 0.0076211095 0.055761807 -0.07181888
0000e0 77 5f 9d 3d 3b 72 54 bd e2 90 60 bd 12 1d 6c 3d
       0.07684224 -0.05186675 -0.05482567 0.05764491
0000f0 fb 36 92 bc 5a 09 4b 3d 48 70 66 bd 6e e9 78 3d
       -0.017848482 0.049569465 -0.056259423 0.06076949
000100 a7 02 9c 3d 1c 3d c7 3c 5b b3 84 3d 51 f2 6a bd
       0.076176934 0.024321131 0.06479522 -0.057359997
000110 58 4b 91 bc c8 47 c8 3c f2 e9 39 3d f0 ab 2f bd
       -0.017736122 0.02444829 0.045389123 -0.04288858
000120 6a 5a 51 3d 71 8f d8 bc cd 9a 2f bd e2 b6 80 3c
       0.051111616 -0.026435586 -0.04287224 0.015712205
000130 63 06 83 bd 2c fa 96 bd 6c c9 da 3c 30 1f e0 3c
       -0.063977025 -0.07371935 0.026707374 0.027358621
000140 38 08 fd 3c e0 93 2c bc bc 9b 70 bd fc 25 84 bd
       0.030887708 -0.010533303 -0.05874227 -0.064525574
000150 bf 68 9d 3d 02 9c 8e bd d8 50 c6 3c 9a 9a 85 3d
       0.07685994 -0.0696335 0.024208471 0.065236285
000160 e6 58 7b 3d 5c 6f 4f bd ea 29 d4 bc b3 85 83 bd
       0.061364077 -0.05064331 -0.025898892 -0.064219855
000170 16 5f 4e 3d 64 5f 9a bd 98 6f 97 bd d0 a3 5b bd
       0.05038365 -0.075377256 -0.07394332 -0.05362302
000180 8f 2e 86 3d b2 40 55 3d ae 71 5c 3d ba 6f 7c 3d
       0.06551849 0.05206365 0.05381935 0.06162999
000190 4e 70 19 bd 5c 7a 37 bd 8a 1d 4a bd 98 1c d9 3c
       -0.037460618 -0.044794425 -0.049344577 0.026502892
0001a0 a0 f3 ff 3c d4 89 88 3c e0 1a 7d bd 6a ce e9 3b
       0.0312441 0.016667284 -0.061793208 0.007135202
0001b0 82 94 2e bd a8 64 81 bc 59 ba 4b bc 7a d4 82 3b
       -0.042622097 -0.015795067 -0.012434565 0.0039926143
0001c0 74 3c 90 bd 99 6a 8c 3d f9 fe 0b bd b4 97 cd 3c
       -0.070427805 0.068562694 -0.034178708 0.025096752
0001d0 1a 90 62 3d a9 93 04 3d 9a 67 66 3d aa c7 39 3d
       0.055313207 0.032367382 0.056251146 0.04535643
0001e0 0e e8 70 3d 30 e0 8a 3c 8a 21 52 3d 32 02 0f bd
       0.058815055 0.016952604 0.051301517 -0.034914203
0001f0 17 6d 31 bd 3e 19 1d 3d 08 a6 ac 3c 52 70 45 bb
       -0.043316927 0.03835415 0.021075264 -0.0030126763
000200 53 c1 8a bd 82 04 d7 3c 3b 1c 55 3d 7d 0f 18 bc
       -0.06775155 0.026247267 0.052028876 -0.009281036
000210 b2 22 97 3c cf 76 12 3d c0 74 a2 bd bf 84 58 bc
       0.018449161 0.035757836 -0.079324245 -0.013215243
000220 1d 17 f4 bc ca d4 27 bd 3b 14 49 3d ed 19 a3 3d
       -0.029796178 -0.040974416 0.04909156 0.07963929
000230 e1 fa 51 3c 2b c3 4c 3d 05 d2 72 bd fb 54 6a 3c
       0.012816162 0.049990814 -0.05928232 0.0143024875
000240 38 33 2a bc a7 fc 3d bd c7 96 86 3c 49 4b d1 3c
       -0.010388188 -0.046383526 0.016429318 0.025548594
000250 3c 40 7e bb 04 b1 0b 3d 65 e9 1d 3d 31 35 95 3d
       -0.003879561 0.034104362 0.03855266 0.07285536
000260 92 92 98 3b b3 8b 3b 3b 5c af 96 ba 56 9c 35 3c
       0.0046561444 0.0028617203 -0.0011496353 0.011084637
000270 c8 54 55 bd 72 fc 21 bc 20 1b 8b bd ec c4 66 bd
       -0.052082807 -0.009886848 -0.06792283 -0.056340143
000280 57 1e 8c bd 36 fc 73 3d 55 13 3d bd e0 67 d4 bb
       -0.06841724 0.0595667 -0.046161015 -0.0064821094
000290 19 b1 0c 3c dd 49 91 3d 0c 50 15 3d 74 4a 6a bd
       0.008587145 0.070941664 0.03645329 -0.05719991
0002a0 d7 e3 a0 3d 2f c9 9b bd b0 1e 2b 3c 54 4d 96 3d
       0.07855957 -0.07606732 0.010444328 0.07338968
0002b0 91 a9 8e 3d d0 81 98 bc e6 8f 5b bd 9e 76 10 3d
       0.06965936 -0.018616587 -0.05360403 0.035269372
0002c0 9c 8b 7d 3d 9c 63 2f bd e7 3e 50 bc 9f 2b 48 bd
       0.06190072 -0.042819604 -0.01271031 -0.048869725
0002d0 ef 1b fc 3c 84 22 8c 3c e3 f5 22 3d ee c1 e1 bc
       0.030775039 0.017106302 0.039785277 -0.027558293
0002e0 41 cc 9e bd 0a 8d 0a bd ef a6 80 bd e4 65 9e bc
       -0.07753802 -0.03382591 -0.0628184 -0.019335695
0002f0 e7 4b ef 3c 30 da 88 bd 80 b6 75 bb 60 f1 a0 bd
       0.029210998 -0.06682241 -0.0037492812 -0.07858539
000300 0a 25 69 bd 3c 58 66 bd d6 09 e0 bc 42 b2 26 bd
       -0.05692009 -0.05623649 -0.02734844 -0.040697344
000310 40 90 4a 3c 46 1e 49 3d 87 11 78 3d f0 51 cf 3c
       0.012363493 0.049101137 0.06056359 0.025307626
000320 f8 56 0b ba d0 83 6a bc 16 64 5f 3d 72 6d 3c bd
       -0.00053153886 -0.014313653 0.05453881 -0.046002813
000330 a2 cd 6d 3d c6 61 9e bd 0a 8e 75 bd 0c 8b ae 3c
       0.058057435 -0.077334926 -0.059949912 0.021306537
000340 2d 81 07 bd b7 86 75 3c 0b 54 8f 3d 9a 43 16 3d
       -0.033082176 0.014985732 0.06998452 0.036685564
000350 bf 01 a1 3d 8e 5a 0b bd 57 1b 1d bd f3 17 27 bc
       0.07861661 -0.034021907 -0.03835615 -0.010198581
000360 40 85 84 bc 70 b7 10 bd 00 69 a3 bb a9 9c 94 3d
       -0.01617682 -0.03533119 -0.004986882 0.07256443
000370 d7 57 34 bd 92 c2 38 3d bc d5 18 3d 6e 87 3e 3d
       -0.044029083 0.04510743 0.037313208 0.046515875
000380 d8 83 b1 3c f8 12 f3 bc 3e c8 07 3d f9 f4 1a bd
       0.021669313 -0.029672131 0.03314995 -0.03783128
000390 ce f1 49 bd ed c5 99 3d dc 59 88 3d ff c3 6d bd
       -0.04930287 0.075084545 0.06657764 -0.058048245
0003a0 51 9d 85 3d 38 71 88 3c 88 a9 a8 3c 2d 8e 9e 3d
       0.06524146 0.01665555 0.020588651 0.07741962
0003b0 40 33 8a bb 5e 46 d1 bc 8d 89 4e 3d 47 f8 a9 bc
       -0.0042175353 -0.025546249 0.050424147 -0.02074827
0003c0 e4 f5 9d bc a0 ab 04 bd 1a ea a1 3d 0e fe 1c 3d
       -0.019282289 -0.032390237 0.079059795 0.038328223
0003d0 e9 58 55 bc 80 09 d2 ba 4f 34 b8 3b e5 07 43 bd
       -0.013021686 -0.001602456 0.00562147 -0.04761495
0003e0 54 d2 ba 3c 5e 58 7f bd 99 6f 75 bb 32 ed 76 bc
       0.02280537 -0.062340133 -0.003745055 -0.0150712
0003f0 e8 55 06 bd bd 24 98 3d 68 47 b8 3c 36 7d 1e 3d
       -0.03279677 0.07428882 0.022494987 0.03869363

fc1.bias f4 [100]
000000 52 2c b4 bc cd 80 28 3d 85 e2 b8 bc bf d0 63 bc
       -0.02199379 0.04113846 -0.02256895 -0.013904749
000010 5c b5 7a 3c 44 20 95 bd a4 08 18 3d 78 1c 97 3d
       0.0153020285 -0.07281545 0.037117615 0.07378477
000020 96 77 88 bd 6f 5d 12 3d 0b 31 96 bd c6 e1 02 bc
       -0.06663434 0.035733636 -0.07333573 -0.007988399
000030 ae a0 fc bc b4 94 8c bd 0b 79 1e 3d 10 07 57 3d
       -0.030838337 -0.068643 0.038689654 0.05249697
000040 a5 4d 43 3c de a5 d6 3c 55 a6 30 bd 13 34 64 3d
       0.011920367 0.026202139 -0.043127377 0.055713724
000050 25 6b 7b bd d3 14 e1 bc 5f 92 d6 bc 67 6a 27 bd
       -0.061381478 -0.02747575 -0.026192842 -0.040872958
000060 78 ef 7f 3d c5 b1 7b 3d 97 67 26 3d bd f3 04 bd
       0.062484235 0.06144883 0.040626135 -0.03245901
000070 03 2a 35 bd 4d 3d ce bc 99 bf df bc 05 1a 2d 3c
       -0.04422952 -0.025175715 -0.02731304 0.010565286
000080 a1 9f 51 3d 14 c4 a0 3d 73 75 49 3d 4a 57 90 bd
       0.051177625 0.07849899 0.049184274 -0.07047899
000090 2a 3f 90 3d 22 e2 9c bd 09 bc 33 3c 0d 1b 5c 3c
       0.070432976 -0.07660319 0.010970124 0.013434184
0000a0 ab 02 57 bc 32 a6 e4 bc f4 55 ed bc c9 21 61 3d
       -0.013123195 -0.02791128 -0.02897165 0.05496386
0000b0 79 ea 3b bd 2c d6 6d 3c 3c c5 14 3d 1f 25 81 3d
       -0.045877907 0.014516395 0.03632091 0.063059084
0000c0 ab 46 cb ba 8f 0c 9e 3d d3 ee a0 bd 18 fe 53 bd
       -0.0015508732 0.07717239 -0.07858052 -0.051755995
0000d0 fc 41 8d bd 58 01 53 bb b7 e5 4e bd dc de 62 3d
       -0.06897351 -0.0032196846 -0.050512042 0.055388317
0000e0 25 1a 28 bd 46 db 6a 3c ea 64 97 3d f2 04 96 bd
       -0.04104056 0.014334505 0.07392295 -0.07325162
0000f0 9e 5c 08 3d 5e f7 78 bd 9b 05 2c 3d 81 85 be bc
       0.03329145 -0.060782783 0.041997533 -0.023257019
000100 dc 14 7d bd d6 d7 ae 3c 7c cd be 3b 1d 6f c9 3c
       -0.06178747 0.021343153 0.0058228355 0.024589116
000110 94 57 50 3d 75 a5 83 ba 18 65 07 bd 6a c2 a3 3d
       0.05086477 -0.0010043817 -0.033055395 0.07996066
000120 dd 51 08 bd 60 64 80 3d 4e 61 36 3d 62 c7 98 bd
       -0.033281196 0.06269145 0.04452639 -0.07459904
000130 18 c2 43 bc 43 9d 0b 3c 15 9d 7a bd 34 78 63 3c
       -0.011948131 0.008521381 -0.06118496 0.013883639
000140 52 b5 ce bc 46 6a 22 bd a4 86 6f 3d 5d cb 07 3d
       -0.025232945 -0.03965213 0.058478013 0.033152927
000150 80 d4 8d 3d aa 00 c8 bc 2c 54 ca bc 20 dc 58 bd
       0.06925297 -0.02441438 -0.02469834 -0.052944303
000160 8d b8 30 ba d4 a3 8e 3d 0f 2a c9 bb f2 6a c8 bc
       -0.00067413674 0.069648415 -0.006139047 -0.024465058
000170 a6 68 47 3d 88 a4 64 3b 08 a6 51 3c 32 6d a0 3d
       0.048683785 0.0034888107 0.012795933 0.07833327
000180 3e 47 a5 3d 59 21 9c 3d c8 8d 86 bd ee 91 7f 3c
       0.08070229 0.07623548 -0.065700114 0.015598757

fc2.weight f4 [100, 100]
000000 8e a3 a7 3d e9 89 b5 3d f3 cf b0 bd e7 c5 95 3d
       0.081854925 0.08864195 -0.08633413 0.073131375
000010 25 b5 3a bd fe 3e 49 bd 1c 13 68 bd 3f 01 5f bd
       -0.04558291 -0.04913234 -0.05665885 -0.054444548
000020 f5 c8 72 bc 8f 4b 2f bb 09 f7 30 bd 0a 9a 82 3d
       -0.01481842 -0.0026747917 -0.04320434 0.06377037
000030 5c fc 6b bd 73 a0 b6 3d 40 d8 b8 bd 7a 49 07 3d
       -0.057613716 0.08917322 -0.090256214 0.033029057
000040 c6 c1 7b bd c6 5d 62 bd 5f 3c c8 3c 13 4a 9b bc
       -0.061464094 -0.05526521 0.02444285 -0.01895622
000050 7f 2b 87 bd 26 cc a5 bb ba 00 92 bd 81 ee 70 bd
       -0.06600093 -0.005059737 -0.07129045 -0.058821205
000060 72 4a 6f 3d fe aa ad 3b 34 dd e6 bc 29 73 a4 3d
       0.058420606 0.005299925 -0.02818165 0.080297776
000070 f1 99 50 3c 44 6a 95 3d c5 d8 2a 3d 50 9f f4 3b
       0.012732015 0.07295659 0.041710634 0.0074652806
000080 05 7c 17 bd 16 8a 36 bd 43 51 b1 3d 92 9e b8 3c
       -0.03698351 -0.044565283 0.086580776 0.02253655
000090 c5 38 ad 3d c4 f2 7a 3d 38 b8 ba bb 36 a5 bb bd
       0.084580936 0.061266676 -0.00569823 -0.09162371
0000a0 ac 27 23 3d 06 6d b8 bc 11 18 a2 3c f4 9e 17 bd
       0.039832756 -0.022512924 0.019786866 -0.037016824
0000b0 a0 61 a2 3d 68 bf c4 3d e4 dc 74 bd a1 1d cb bc
       0.07928777 0.0960682 -0.05978097 -0.024794402
0000c0 f0 ea 98 bd 88 ac 43 3d 95 cb 91 bd 53 35 9d bd
       -0.07466686 0.04777196 -0.07118908 -0.076761864
0000d0 59 dc 93 bd 79 ab a5 bd 97 fa 9e 3d a5 4b 33 bd
       -0.07219762 -0.080893464 0.0776264 -0.043773312
0000e0 46 2b 80 3d 26 b2 de bc 89 89 f8 bc c3 9f da bc
       0.06258254 -0.027184557 -0.03033902 -0.026687508
0000f0 0c 38 a8 bd 7e ca f2 3c 88 40 27 bd bf 75 f9 3c
       -0.08213815 0.029637571 -0.040833026 0.030451654
000100 e5 89 ad bd 6f 10 7b 3c 99 5b a5 3d eb 43 fb bc
       -0.08473567 0.015323742 0.080741115 -0.030672034
000110 3c 4b a6 3c 58 22 c9 bd 2e ff 23 bd e5 47 a7 3d
       0.020299546 -0.09821004 -0.04003828 0.0816801
000120 c0 bc 22 3d 69 db 10 3d a6 48 32 3d 5a 2e a6 bc
       0.039730787 0.035365496 0.043526314 -0.020285774
000130 d9 c8 29 bd d2 f0 bf 3d 1d 9f 11 bd 72 6e 10 bc
       -0.04145131 0.09372105 -0.035552133 -0.008815395
000140 6e 37 9a bd 19 c7 9d 3d b5 9a 07 bd 2f ea 1b bd
       -0.075301036 0.077039905 -0.033106524 -0.03806513
000150 b4 33 80 bd f6 28 bd 3c 9a 26 9f bd 8b 98 b0 3d
       -0.062598616 0.02309082 -0.077710345 0.08622845
000160 35 bd 96 3d d0 49 9d bd a3 59 ba bd 50 d1 dc 3c
       0.07360307 -0.07680094 -0.09099128 0.026955277
000170 c9 49 76 bd d3 6a ca bd 8d ec 7f 3d a9 84 d3 bc
       -0.06012896 -0.09883656 0.06248145 -0.025820093
000180 b4 23 a2 3c a2 2f 25 3c 96 a2 7e bd 69 ee 4a bd
       0.019792415 0.010082157 -0.062166773 -0.049543772
000190 8d 08 0a 3d 30 80 b5 bd 4e ff 6a bc 40 d8 04 bc
       0.03369956 -0.088623405 -0.014343096 -0.008108199
0001a0 72 7e 66 bd 39 8b c7 3d da c6 b4 bd 3a 5d ac bd
       -0.05627293 0.097433515 -0.088269904 -0.08416219
0001b0 d3 f0 96 bd 72 94 6d 3d 12 65 b0 bd 50 c9 7c 3d
       -0.07370152 0.058002897 -0.08613028 0.061715424
0001c0 7e 69 c7 3d d1 ab bf 3d e7 4b bf 3d eb 1b 85 3c
       0.09736918 0.09358943 0.09340649 0.016248664
0001d0 24 61 b2 bd 9a 88 c4 3c 4c 02 24 3d 62 4f e7 bb
       -0.08709934 0.023990918 0.040041253 -0.0070590237
0001e0 f0 12 b7 bd 0b 0a 98 3d 9f 7a 93 3c b0 1c 88 3d
       -0.08939159 0.074237905 0.018002806 0.06646097
0001f0 c8 76 23 bc cd f7 b3 bd 25 41 ae 3d ad 03 c9 bd
       -0.00997705 -0.087874986 0.08508519 -0.09815154
000200 1c 1f 93 bd e9 2b b9 3d 76 8b ee bc c7 72 61 3d
       -0.07183668 0.09041578 -0.029119235 0.0550411
000210 3e 71 7c 3d a5 e0 2f bc bd 3a 99 bc ed f8 2d 3d
       0.061631434 -0.010734712 -0.018704766 0.042473722
000220 37 c2 9d bc 5d e6 20 3d 74 3f 02 bd 7a 36 63 bd
       -0.019257648 0.03928219 -0.031798795 -0.055471875
000230 6e 98 7f bd 05 ee ca bd fe 8f f7 bc 25 74 37 bd
       -0.062401228 -0.0990868 -0.030220028 -0.0447885
000240 7d 7b fa 3c 79 5f 8b 3a 63 51 86 bd 05 d8 91 bd
       0.030576462 0.0010633311 -0.06558492 -0.071212806
000250 62 61 73 bc 49 47 18 3d 6d 89 83 3b df 12 31 3c
       -0.014854761 0.037177358 0.004014185 0.010807722
000260 a3 96 61 bd 9f f7 36 bd d2 68 6a bc fc 85 2e 3d
       -0.0550753 -0.044669744 -0.014307218 0.042608246
000270 60 ea bd bd b4 e9 2a 3d c1 f3 67 3d bb 91 cc bd
       -0.09273219 0.041726783 0.056628946 -0.099887334
000280 72 5d 31 3d 3b ee 64 3c 4d a3 27 3d bb ed 65 bd
       0.043302007 0.013972814 0.04092722 -0.05613492
000290 3a 8b 7f 3d 9b 2f 69 bd 9e 56 2f bd 31 78 04 3d
       0.062388636 -0.056930166 -0.042807214 0.032341186
0002a0 6c a8 a5 bc 22 2f 8d 3d 81 fa 53 bc 66 fc 9b bd
       -0.020221911 0.068937555 -0.012938143 -0.076165006
0002b0 91 7d aa bd ea d0 dd 3b 4c 54 a0 bd 98 0c b7 3d
       -0.08324731 0.0067692893 -0.07828578 0.08937949
0002c0 01 aa af 3d 0b 13 79 3d 47 48 9f bd eb 01 b3 bc
       0.085773475 0.060809176 -0.07777458 -0.0218515
0002d0 8e 3b 95 3d 7b 69 a2 3c 5a 2d 0c 3c 91 8d ce bb
       0.0728675 0.019825688 0.0085557345 -0.006303497
0002e0 9f 11 5e bd ad 0e 02 bd 9f ac 6f 3d 2a b3 a0 bc
       -0.054216024 -0.031752277 0.058514234 -0.019616682
0002f0 61 e0 db bc 2c 15 4d 3d 50 c4 48 bd 36 6a 84 bc
       -0.02684039 0.05006902 -0.049015343 -0.016163927
000300 f3 34 ac 3d 9d d2 5f 3c e5 aa 3c 3d 7e ee 45 bd
       0.08408537 0.013661054 0.046061415 -0.048323147
000310 c8 62 4a 3d 00 b3 59 bd ca e3 c7 3d 73 7d db bc
       0.04941061 -0.053149223 0.09760244 -0.026793217
000320 25 7d 95 bd 78 1e b1 bc 33 db 96 3d 19 b0 a0 3d
       -0.0729926 -0.021620974 0.07366028 0.07846088
000330 b0 b4 e7 3b 41 73 8e 3d b4 a9 08 bd 98 d0 21 bc
       0.0070711 0.06955577 -0.033364967 -0.009876393
000340 41 a1 96 3d 40 4f 8e ba f4 e2 ac 3c 82 9e 73 3d
       0.073549755 -0.0010857359 0.021104313 0.059477337
000350 50 74 fd 3b ed a4 6e bd 00 82 31 3c d0 71 c5 bb
       0.007734813 -0.058262754 0.010834217 -0.0060255304
000360 f0 6f 22 bc 77 28 c6 3d 77 ae ae 3d 28 83 b9 bd
       -0.009914383 0.09675687 0.0852937 -0.09058219
000370 20 04 15 bd 70 4e 34 bc 42 1b 6c 3d e8 a1 b3 bc
       -0.036380887 -0.011005029 0.057643183 -0.021927789
000380 40 d2 7b bc 0c 4f d4 bc c7 2e 7f bd 8f ef af bd
       -0.015369952 -0.025916599 -0.06230047 -0.08590614
000390 4b c3 a2 bd 00 76 9b 3c 86 f4 3e 3d 80 49 d2 bb
       -0.079474054 0.018977165 0.046619914 -0.0064174533
0003a0 f3 91 bc 3d b4 56 8e bc 29 93 98 3d a0 56 89 bc
       0.09207525 -0.017375328 0.074499436 -0.016764939
0003b0 2d be 63 bd 18 dd 20 3c 37 2a cc bd 9e 82 19 3d
       -0.055601288 0.009818338 -0.09968989 0.037478082
0003c0 60 87 ad 3c 92 de 3e 3d ae a7 55 3d 91 dd af 3d
       0.021182716 0.04659898 0.052161865 0.08587182
0003d0 46 5b 86 bd 6f f6 c0 bd e8 92 0b 3c 90 db 34 bd
       -0.06560378 -0.094220035 0.008518912 -0.044154704
0003e0 80 d9 03 3a a1 72 b1 3d 58 15 2e 3c 68 e0 44 3c
       0.00050296634 0.08664442 0.010625206 0.012016393
0003f0 3e 61 aa bd 80 42 09 3a ed 38 a4 bd 68 03 cd bc
       -0.08319329 0.00052360445 -0.0801867 -0.025026038

fc2.bias f4 [100]
000000 ff 6d f2 3b fe 77 c6 3d 2a 3a 52 bd 92 49 5f bd
       0.0073983665 0.096908554 -0.051325 -0.05451352
000010 cf ca 57 3c d8 fb f4 3d ff ae b6 3d 5f 5e f5 bc
       0.013170912 0.11962098 0.089200966 -0.029952226
000020 dc ad 05 ba 34 d6 a3 bc 75 34 c4 3d e2 09 57 3c
       -0.00050994544 -0.019999601 0.09580318 0.013124915
000030 c2 90 15 3c 95 eb 16 3d 53 f3 9a bd dc b8 15 3c
       0.009128751 0.036845762 -0.07565942 0.009138312
000040 2b 7d a4 bd 41 92 da 3c 47 ce 8e 3d e0 8c 89 3c
       -0.080316864 0.026681067 0.06972938 0.016790807
000050 13 3b a2 bc c7 e1 b0 3d 7a 75 7e 3c 62 c7 a9 bd
       -0.01980356 0.086368136 0.015530938 -0.082899824
000060 2b fb ae bd 4a 82 17 3d 8b d9 9a 3d d1 f7 cb 3d
       -0.08544 0.036989488 0.07561024 0.099593766
000070 97 37 34 3d be 51 87 bd 6e 49 88 bd 1a f0 ae 3c
       0.043998327 -0.06607388 -0.066546306 0.021354724
000080 1d 46 58 3d 18 a0 aa bc 63 38 f2 3c 60 fc 74 3d
       0.05280124 -0.020828292 0.029567903 0.059810996
000090 01 62 6d 3d af d8 0c bd 19 c2 e5 bc ed 66 81 bd
       0.057954792 -0.034386333 -0.028046655 -0.0631846
0000a0 c0 16 ba 3a 50 05 b2 bd 1c 5c 7a 3d 00 46 9b 3c
       0.0014197454 -0.086924195 0.061123 0.018954277
0000b0 61 ca 35 3d 30 e4 87 3d d1 86 91 bc 80 d7 19 3c
       0.044382457 0.0663532 -0.01776448 0.009389758
0000c0 7c 40 0f bd e2 da 45 3d 7f 88 e3 3c 4c 55 7e 3d
       -0.034973606 0.048304446 0.027775047 0.062093064
0000d0 96 35 5b bb 52 a7 29 3d ea ae 65 bd 88 f4 6c bd
       -0.0033448688 0.041419335 -0.056075014 -0.05785039
0000e0 eb 8b ab bd ec bf 93 3d 2a c5 be bd 72 90 37 bd
       -0.083762966 0.072143406 -0.0931495 -0.04481549
0000f0 e8 5d 57 bc 28 52 28 bc 44 b8 bb 3d 62 a8 8f 3d
       -0.013144948 -0.010273494 0.09166005 0.07014538
000100 7a 94 31 bd a8 03 61 bc 3c 87 a2 bd 20 01 6a bd
       -0.04335449 -0.013733782 -0.0793595 -0.05712998
000110 01 1c 0e bd e0 b6 a8 bc 3a 51 92 3d 03 9e b7 bc
       -0.034694675 -0.020595014 0.07144399 -0.022414213
000120 74 ce 21 3d 88 db a3 bd 50 b9 7f bd c1 bd a2 bb
       0.03950353 -0.08000857 -0.062432587 -0.004966468
000130 3a 28 01 bd 94 2e ad 3d 9e 24 2a bc d3 71 d7 3d
       -0.031532504 0.0845615 -0.010384707 0.10519757
000140 3a 99 70 3d 39 76 32 3d 2a 99 bc bd 8d c0 41 3d
       0.05873988 0.043569777 -0.09208901 0.04730277
000150 7a bd 95 bd cd 7e c8 3d a6 88 9b 3d b7 08 3c bd
       -0.073115304 0.0978981 0.07594423 -0.04590675
000160 e4 06 8e 3c 32 70 4c 3d 25 59 ae bd ae 9e 29 bb
       0.01733727 0.049911685 -0.08513097 -0.0025881934
000170 b0 be a0 bb 99 66 7f 3c e9 c4 7b 3d d7 1e 51 bd
       -0.004905544 0.015588426 0.061467085 -0.0510548
000180 fa 75 bd bd cd d2 8b bd 85 2a e6 3b 17 44 af bc
       -0.09251018 -0.068273164 0.0070241117 -0.021394772

fc3.weight f4 [11, 100]
000000 5d 74 80 bd ac 99 0c bd 66 29 47 3d fb ff 83 bd
       -0.062721945 -0.03432624 0.048623465 -0.06445309
000010 a9 2e 8b 3d 9c c1 63 3d 4c cb cc bc 94 0d 83 bc
       0.06796009 0.055604562 -0.024999283 -0.015997685
000020 85 e7 d6 3c 22 6e 78 3d 1f cc 95 bb 7a da 66 bd
       0.026233444 0.060651906 -0.0045714523 -0.0563607
000030 70 07 af 3d e5 db 97 bc c2 f2 08 3d 0c 1d bf 3d
       0.085463405 -0.018537471 0.033434637 0.09331712
000040 38 77 a7 3c fa 30 bd 3d fd 8e ba bc 73 e6 58 bd
       0.02044259 0.09237857 -0.02277326 -0.05295415
000050 4a 1e 5b 3d ff 8a c0 3d 71 c0 cb 3d a9 3f ca 3d
       0.053495683 0.094015114 0.09948815 0.098754235
000060 d4 e8 e3 3c d3 88 bd bd b2 1c b6 3d 6e 31 d3 3d
       0.027820982 -0.09254613 0.08892192 0.10312162
000070 34 f5 ac bd c0 f4 b3 ba 80 0d 63 ba 69 78 b3 bb
       -0.08445206 -0.0013729557 -0.00086613744 -0.0054770005
000080 ce ec 65 3d ca 56 42 bd 28 33 2c bd 24 d3 a8 bd
       0.056134038 -0.04744605 -0.042040974 -0.08243397
000090 dd e4 c4 bc 6a 94 58 bd 20 59 53 bd eb ed 88 3d
       -0.024034912 -0.052875914 -0.051598668 0.06686004
0000a0 58 d7 4d bc 0d af 97 bd 72 ca 61 bd 20 8b fd 3c
       -0.012563549 -0.07406435 -0.055124708 0.030950129
0000b0 cf fe 41 bd c2 fb b4 3d 70 62 22 3d 30 88 70 bd
       -0.047362145 0.088370815 0.03964466 -0.05872363
0000c0 13 f8 8f bd 47 40 09 bd 0f 90 a1 bd ff e8 90 3d
       -0.07029738 -0.033508565 -0.07888805 0.070756905
0000d0 c5 32 a1 bd 1a 20 56 3d 63 3a 51 bd 57 98 05 3d
       -0.07871012 0.05227671 -0.051081073 0.032615986
0000e0 c0 ad af 3c 60 e1 4a 3d 2a 2e 3a 3d 7e 36 93 3d
       0.021445155 0.04953134 0.04545418 0.07188128
0000f0 d9 c0 95 3d cb 33 b7 3d fd 43 d9 bc ac 26 82 bd
       0.073121734 0.089454256 -0.026521677 -0.06355032
000100 c0 58 62 bc bc ce 0b bd 0d 23 03 bc 97 a8 35 bd
       -0.013815105 -0.034132704 -0.008003962 -0.044350233
000110 a0 2b a0 bd 68 9d c7 bc 4a 74 ca 3d 4e eb a9 3d
       -0.07820821 -0.02436705 0.09885462 0.08296834
000120 73 8c 10 bd 41 c7 94 3d e3 6e 72 bc bc 77 75 bc
       -0.035290193 0.07264567 -0.014796945 -0.01498216
000130 22 86 c0 bd 75 46 c0 3d 54 1f bc bd 55 29 ed 3c
       -0.09400584 0.093884386 -0.09185663 0.028950373
000140 88 99 a6 bd ce 9c b0 3d dd b6 bb bd fb ea 4d 3d
       -0.081347525 0.08623658 -0.09165738 0.050272923
000150 ac d9 c0 bd 76 5a 9f 3c 24 55 74 3d 3f 1e b1 3d
       -0.094165176 0.019452315 0.05965151 0.08648347
000160 a0 96 98 39 ab 9a af 3d c9 ed 86 3d f0 cb 96 3d
       0.00029103924 0.085744224 0.06588323 0.07363117
000170 e7 16 94 3d cd e3 b2 bc 82 2a 9e 3b d6 16 8c bd
       0.07230931 -0.02183714 0.0048268447 -0.06840293
000180 58 30 9a 3c 3e ff 5d 3d 7d 13 ab 3c 3c 6f b8 bd
       0.01882188 0.054198496 0.020883316 -0.09005591
000190 72 5e 33 bd a9 37 2c 3d b5 32 ab bd 28 5f b4 3d
       -0.043791242 0.04204527 -0.08359281 0.08807212
0001a0 86 f5 34 bd 2d 38 84 bc 60 a3 a7 bc 63 99 da bc
       -0.044179462 -0.016140068 -0.020463645 -0.026684469
0001b0 81 6d af bd 00 58 cb bb 24 f0 e8 bc fd cb 8a 3d
       -0.08565808 -0.006205559 -0.02843482 0.06777189
0001c0 4e 10 20 bc be 37 e0 bb 72 a5 39 3d f2 83 cc 3d
       -0.009769512 -0.0068425825 0.045323797 0.09986104
0001d0 60 03 9e bd 2c 52 10 bd 04 97 59 bc 69 59 b2 3d
       -0.077154875 -0.035234615 -0.013280634 0.0870846
0001e0 be 39 86 bc b2 49 91 bc f7 a5 38 bd d8 70 dd bc
       -0.016384955 -0.017735336 -0.04508015 -0.027031347
0001f0 53 c7 c1 bd b3 11 b7 bd 3f 39 1d 3d f6 c3 56 bb
       -0.09461846 -0.08938923 0.038384672 -0.003277061
000200 6d 37 cd bd d0 51 0d 3c 3c 9e 0d bd 50 ed 37 3d
       -0.10020337 0.008625463 -0.034574732 0.044904053
000210 10 7c 8d 3d 31 15 b3 3d 20 19 de 3c 03 b1 cf 3d
       0.06908429 0.08744276 0.02711159 0.10141184
000220 7a 8e c4 3d 77 9f cf bc fc 1f ae bd 98 b3 02 bc
       0.09597488 -0.025344593 -0.08502194 -0.007977389
000230 5f e3 9a 3d 6a 46 2e 3d db 94 0f bd 54 26 8c bc
       0.07562899 0.04254762 -0.03505407 -0.01710812
000240 fa 15 87 3d e4 c9 4e 3d 00 46 9e 3d f2 00 21 3d
       0.065959886 0.050485507 0.07728195 0.039307542
000250 96 40 08 bd 6d 22 b6 bd d5 69 70 3d 44 6f 82 bd
       -0.03326472 -0.08893285 0.05869468 -0.063688785
000260 24 6c 89 bd 60 1e 35 bb c0 f6 e7 ba 82 ec a5 bd
       -0.06710079 -0.0027636513 -0.0017697439 -0.08101751
000270 03 ad 82 3d 05 b7 23 3d 68 d2 e2 bc a3 ff a3 bc
       0.063806556 0.039969463 -0.02768822 -0.020019358
000280 e0 1d ad bc f2 f8 6b 3d 85 61 56 3d 0a c5 b1 bd
       -0.02113241 0.05761046 0.052339096 -0.0868016
000290 78 3e ec bc a0 48 ab bb 8b fb ab bd a6 8d aa bd
       -0.028838381 -0.0052271634 -0.083975874 -0.083277985
0002a0 05 f4 db 3c 98 2c ef bc 3b e8 c4 bd d6 5a a3 3d
       0.026849756 -0.029196069 -0.09614607 0.0797631
0002b0 b4 a1 88 bd 15 ae c3 bd d5 5f 91 3a a0 94 9c bd
       -0.066714674 -0.09554688 0.0011091182 -0.076455355
0002c0 11 a1 b2 3d 03 a9 a7 bb 60 f7 42 bd 61 fe 20 3d
       0.08722127 -0.0051165833 -0.047599196 0.039305095
0002d0 70 35 68 bd e3 e4 92 bc e2 74 6e 3d 80 52 be 3d
       -0.056691587 -0.017931407 0.058216937 0.092930794
0002e0 44 16 bd bd f1 25 9c 3d 75 62 bf bd fa 19 46 3d
       -0.092327625 0.07624424 -0.09344951 0.048364617
0002f0 b8 a6 8d bd a8 99 4a bc 92 b5 84 bd 57 93 b9 3d
       -0.06916565 -0.012365736 -0.06479944 0.09061306
000300 32 bf 3b 3d ae a1 85 3b 30 b6 d0 3d 3b 3a a7 bd
       0.045836635 0.0040781116 0.101909995 -0.081654035
000310 ca 57 64 bd 59 39 86 3d 5a 24 5f 3d 2b a2 24 3d
       -0.055747785 0.06553907 0.054478027 0.040193718
000320 42 64 01 bd c8 c6 23 bd 07 75 c5 3d b9 3c 15 3c
       -0.031589754 -0.039984494 0.09641462 0.009108716
000330 7f dc c0 bd b8 b6 a5 3d c1 92 ae 3b b3 41 cc bd
       -0.09417056 0.080914915 0.005327553 -0.09973469
000340 c0 77 65 bd 12 4c a6 bd 57 db c2 bc 37 fc 7a 3c
       -0.056022406 -0.08119978 -0.02378623 0.015318922
000350 00 f8 15 bd e2 7f 6a 3d ca ca 5d bd ba 43 d3 3d
       -0.036613464 0.057250865 -0.054148473 0.10315652
000360 5b 9f b2 bd 85 1a a8 bd c1 a4 b3 3b 79 1b 9d 3d
       -0.08721801 -0.08208183 0.0054822867 0.076712556
000370 b2 0f f4 bc 76 8d 68 bd f7 b1 93 3d 81 03 83 3d
       -0.02979264 -0.056775533 0.072116785 0.06397153
000380 94 0e 08 bd c5 b5 9e bd d0 12 02 3d 20 ab b9 3c
       -0.033217028 -0.077495135 0.031756222 0.022664607
000390 76 a9 85 3d 0d 2c a3 bd aa cd 04 bd c9 26 c6 3d
       0.06526463 -0.079673864 -0.0324227 0.096753664
0003a0 75 8b 87 3d c0 75 06 bd dc 7d 0c bd 31 2c a4 3d
       0.06618396 -0.03282714 -0.034299716 0.08016241
0003b0 32 ba 4d 3d ae 45 95 bd 6c df 52 3d 58 78 2c bc
       0.050226398 -0.07288681 0.051482603 -0.010526739
0003c0 bf 4e bf 3d a8 bd 98 bd f4 9c 32 bd 81 d3 bf 3d
       0.093411915 -0.07458049 -0.043606713 0.09366513
0003d0 91 85 d8 bc b0 ff bc bd 8b d6 5a 3d a0 d1 f2 bb
       -0.026430877 -0.09228456 0.05342726 -0.007410243
0003e0 9a 68 2f 3d 49 62 5b bc 67 10 a2 3d 6a cf 62 3b
       0.042824365 -0.013390132 0.07913285 0.0034608492
0003f0 fa 0c 00 bc 71 d6 88 3d 80 cd de ba 3c 95 b9 bd
       -0.007815594 0.066815265 -0.00169985 -0.09061667

fc3.bias f4 [11]
000000 4e 95 f7 3c e5 5f b7 3d d0 13 fd 3c 13 31 d0 3d
       0.030222561 0.08953837 0.030893236 0.1016561
000010 7a eb b1 3d c6 65 d7 3d 81 31 5d 3d 8c ba f2 3d
       0.08687492 0.105174586 0.05400229 0.11851987
000020 44 9a c6 3c 80 54 d1 3d 27 96 82 3c
       0.024243481 0.10221195 0.015940739
