models/part1.pt (torch, 5447 bytes, 6 tensors)

fc1.weight f4 [5, 155]
0	0x417e28dc	15.884975
1	0x422ef7cf	43.742
2	0x415d8ad2	13.846392
3	0xbc003bc8	-0.007826753
4	0xbd42de4e	-0.047575288
5	0x3d919d49	0.07110078
6	0x3fdd5460	1.7291374
7	0x4031272c	2.7680159
8	0x3fb83f14	1.439425
9	0x41c4ec80	24.615479
10	0x40406210	3.0059853
11	0x41444f8b	12.26942
12	0x40361591	2.8450663
13	0x47adc1ff	88963.99
14	0x47e19880	115505.0
15	0x42b289bd	89.26902
16	0x4351a6d0	209.65161
17	0x41c72842	24.894657
18	0x41287635	10.528859
19	0x41836ea7	16.42903
20	0x40edb0d6	7.4278364
21	0x479f5a8c	81589.09
22	0xbbb59880	-0.005541861
23	0x4297a32d	75.8187
24	0x4835c1f9	186119.89
25	0x489a5c43	316130.1
26	0x47fdbfc3	129919.52
27	0x4770bc29	61628.16
28	0x42df3b89	111.61628
29	0x46178094	9696.145
30	0x3bb31ec0	0.005466312
31	0x3d87ea31	0.06636465
32	0x469722f1	19345.47
33	0x45516ea4	3350.915
34	0x40093f49	2.1444876
35	0xbcf270db	-0.02959483
36	0x4055d1be	3.3409266
37	0x3c90614c	0.01762452
38	0x3d32d256	0.043657623
39	0x4034f0df	2.8272016
40	0x3fe5eefa	1.7963555
41	0x3d120648	0.03565052
42	0x3cf87fb1	0.030334326
43	0x430e64dc	142.39398
44	0x3e107b82	0.14109614
45	0x41c93052	25.148594
46	0xbd8fe1b8	-0.07025474
47	0x3c098b70	0.008395061
48	0x3be6eeb0	0.0070474967
49	0x3d8dd51f	0.06925415
50	0x3c02b970	0.007978782
51	0xbd9273cb	-0.07150992
52	0x401791e6	2.36828
53	0xbd275a64	-0.040857688
54	0x3f637cdd	0.888624
55	0x3ee6f93e	0.45112032
56	0xbd1b723c	-0.03795074
57	0xbd2fa997	-0.042886343
58	0x3eac7b4e	0.33687824
59	0xbd75d41a	-0.06001673
60	0x43032e0a	131.17984
61	0xbd7b537e	-0.06135892
62	0xbd888cb6	-0.066674635
63	0x3d80b73d	0.0628495
64	0x3cd8b53c	0.026453607
65	0x3d51c212	0.05121047
66	0x3c83bb38	0.016080484
67	0xbd3e076e	-0.046393804
68	0x3dce4ebd	0.10073612
69	0xbd5eb994	-0.0543762
70	0xbd82b0e6	-0.06381397
71	0x3da303fb	0.079597436
72	0x3cef1408	0.029184356
73	0x42cc0ad6	102.021164
74	0xbfd317a5	-1.6491591
75	0x432d41aa	173.2565
76	0x43515b86	209.35751
77	0x4280e5bd	64.44871
78	0xc00e3355	-2.221883
79	0xbf121734	-0.57066655
80	0x40b650a7	5.6973453
81	0x3fb5dfee	1.4208963
82	0xbfec4370	-1.845808
83	0x4099bbbe	4.8041677
84	0x415d7d3c	13.843075
85	0x4134a80d	11.291028
86	0xbfda5a99	-1.7058898
87	0x443ca3b1	754.5577
88	0x44197c79	613.9449
89	0x4319d55d	153.83345
90	0xc03f8843	-2.9926918
91	0x42609b53	56.151684
92	0x42817d06	64.74419
93	0x41ccddcd	25.608301
94	0xbdc72d6e	-0.09725462
95	0x4095ee47	4.6853366
96	0x409e1aa9	4.9407544
97	0xbd1c7634	-0.038198665
98	0x409c2946	4.8800383
99	0x3d4faad5	0.050700027
100	0x409f6a74	4.981745
101	0x44f0dec9	1926.962
102	0xbdeac33e	-0.11463021
103	0xbd02bc54	-0.031917885
104	0xbd689ca4	-0.05679001
105	0xc0a46bff	-5.138183
106	0xc0a67003	-5.2011733
107	0xc0a736fc	-5.225462
108	0xc0a72d42	-5.2242746
109	0xc0a264f3	-5.074823
110	0xc0a2501b	-5.0722785
111	0xc0a44377	-5.1332355
112	0xc0a4e857	-5.153362
113	0xc0a602dc	-5.187849
114	0xc0a702c3	-5.219087
115	0xc0a635a4	-5.194048
116	0xc0a5b7cf	-5.1786876
117	0x43216bc1	161.42091
118	0x42b24c79	89.14936
119	0x411701c4	9.437931
120	0x40c59d2f	6.1754375
121	0x411138cf	9.076369
122	0x410ee7cd	8.931592
123	0x461fc635	10225.552
124	0xc318f18c	-152.94354
125	0x3ff359e8	1.9011812
126	0x403c21f6	2.9395728
127	0x461fc60f	10225.515
128	0x46d8f3f4	27769.977
129	0x4680a35b	16465.678
130	0x43f0bf71	481.49564
131	0x4492aff8	1173.499
132	0x42e94b07	116.64654
133	0x42039b29	32.901524
134	0x42072314	33.784256
135	0x403a7de8	2.9139347
136	0x436d963b	237.58684
137	0x46341189	11524.384
138	0x464bdd56	13047.334
139	0x4134efbd	11.30853
140	0x4021bd80	2.5271912
141	0x48302ac2	180395.03
142	0x4880eeab	264053.34
143	0x46910bfd	18565.994
144	0x3c002bf0	0.0078229755
145	0x4c8a9da7	7.2674616e+07
146	0x4822285e	166049.47
147	0x47a1de5e	82876.734
148	0x4426ae6e	666.72546
149	0x470aecf0	35564.938
150	0xc5f778e1	-7919.11
151	0x4021a068	2.5254154
152	0x43de96e5	445.17886
153	0x41ee64dd	29.79925
154	0x43f2ef23	485.86826
155	0xc829c33c	-173836.94
156	0xc9e575ab	-1.8797334e+06
157	0xc94fa4f4	-850511.25
158	0x3d98cd2f	0.07461011
159	0x3d87703d	0.06613205
160	0xbd2887d5	-0.041145165
161	0xc6e9ea7e	-29941.246
162	0xc77b7164	-64369.39
163	0xc7228508	-41605.03
164	0x3c9f4c0c	0.019445442
165	0xc7be0fd4	-97311.66
166	0xc8b0c227	-362001.22
167	0xc82294c0	-166483.0
168	0xcf1579e2	-2.507793e+09
169	0xd0038d07	-8.828231e+09
170	0xc91bd42b	-638274.7
171	0xcb3ffb32	-1.2581682e+07
172	0xc9b1ccfd	-1.4565436e+06
173	0xc7958968	-76562.81
174	0xc8163ed2	-153851.28
175	0xc79644ce	-76937.61
176	0xcf03b3fd	-2.209611e+09
177	0x3d1fd462	0.039020903
178	0xc7c77e94	-102141.16
179	0xcfab9a45	-5.7580283e+09
180	0xd13d326d	-5.0787176e+10
181	0xd0a2d407	-2.1854435e+10
182	0xcdbb895c	-3.9329267e+08
183	0x3d7b3422	0.061329015
184	0xce3c335c	-7.893706e+08
185	0xbcd42978	-0.02589868
186	0x3d6d900a	0.057998694
187	0xced472e5	-1.7821498e+09
188	0xce70b0a2	-1.0095269e+09
189	0xc6617e08	-14431.508
190	0xbd161541	-0.036641363
191	0xc71c5469	-40020.41
192	0x3d80c765	0.062880315
193	0xbb0ace60	-0.0021180138
194	0xc76f226a	-61218.414
195	0xc70e7c4b	-36476.293
196	0xc44f5252	-829.28625
197	0xc044a81f	-3.0727613
198	0xcc019c99	-3.3976932e+07
199	0xc61c3485	-9997.13
200	0x3e6cfa3a	0.23142329
201	0x3d89ba8f	0.06725036
202	0xbd523921	-0.051324014
203	0x3c7f3218	0.015575908
204	0xbcd064aa	-0.025438625
205	0xbcfaccca	-0.03061523
206	0x3d8464d1	0.06464542
207	0xc83e3ced	-194803.7
208	0xbcd12f94	-0.025535382
209	0x3c0043c8	0.00782866
210	0x3da15083	0.078766845
211	0x3c1df010	0.009639755
212	0xbd6e7a8a	-0.05822233
213	0x3d1a0628	0.037603527
214	0x3d9859eb	0.074390255
215	0xc83e3ca0	-194802.5
216	0x3d28d934	0.041222766
217	0x3d9e3b71	0.07726181
218	0xbc00ae28	-0.007854022
219	0x3d17a138	0.037018985
220	0xbce225d2	-0.027605925
221	0xbd4c09f4	-0.04981418
222	0x3d999fe5	0.075012006
223	0xc1a4d09f	-20.601866
224	0x3c92993c	0.017895333
225	0x3cea055c	0.028567009
226	0xbc264f48	-0.010150738
227	0xbc9ffd2e	-0.019529905
228	0x3f807425	1.0035444
229	0x4718ef8d	39151.55
230	0xc84aab4a	-207533.16
231	0xc8c071c7	-394126.22
232	0xc9109544	-592212.25
233	0x4722aaae	41642.68
234	0x46f3fa67	31229.201
235	0xc7de46bb	-113805.46
236	0xc6d631a0	-27416.812
237	0x4707c48b	34756.543
238	0xc659446e	-13905.107
239	0xc80db487	-145106.11
240	0xc8442318	-200844.38
241	0x46f145ab	30882.834
242	0xc9f733f2	-2.0250862e+06
243	0xcaeeac94	-7.820874e+06
244	0xc9b1ed0f	-1.4575699e+06
245	0x4751b985	53689.52
246	0x45d9afe3	6965.986
247	0xc7ca53a4	-103591.28
248	0xc8209375	-164429.83
249	0x421fc3fe	39.9414
250	0xc746a5d8	-50853.844
251	0xc79541ec	-76419.84
252	0x42202c6e	40.04339
253	0xc78fc913	-73618.15
254	0x4166a65c	14.415615
255	0xc78fc60b	-73612.086

fc1.bias f4 [5]
0	0x40a62b3f	5.192779
1	0xc79569f0	-76499.875
2	0x467c676a	16153.854
3	0x4522d3b1	2605.2307
4	0x464d32fe	13132.748

fc2.weight f4 [5, 5]
0	0xc525b19f	-2651.1013
1	0xd7d0291c	-4.5774996e+14
2	0xd7aedf69	-3.8454913e+14
3	0xd6c85985	-1.10143405e+14
4	0xd497bb4d	-5.2134596e+12
5	0xc8e1a87c	-462147.88
6	0xc2875517	-67.66619
7	0xc9c99f70	-1.651694e+06
8	0xc496cc41	-1206.3829
9	0xcac0cf46	-6.317987e+06
10	0x4589981c	4403.0137
11	0xd6e1869e	-1.2398415e+14
12	0xd6bd620f	-1.0411443e+14
13	0xd5d94a22	-2.9864053e+13
14	0xd3a2909e	-1.396422e+12
15	0xc63e4481	-12177.126
16	0xd7e28780	-4.981432e+14
17	0xd7be4edd	-4.1849185e+14
18	0xd6da0469	-1.1985624e+14
19	0xd4a53672	-5.6766644e+12
20	0x451722c2	2418.1724
21	0x45253b15	2643.6926
22	0x43fe41ea	508.51495
23	0x42fbc6b7	125.888115
24	0xc5b385aa	-5744.708

fc2.bias f4 [5]
0	0xc7cf6259	-106180.695
1	0xc1abc75b	-21.472342
2	0xc6e6c79d	-29539.807
3	0xc7e1572c	-115374.34
4	0x3f4b0709	0.7930761

fc3.weight f4 [11, 5]
0	0xd6720885	-6.65296e+13
1	0x474cc768	52423.406
2	0xd669cc20	-6.426573e+13
3	0xd6476954	-5.48138e+13
4	0x458771a5	4334.2056
5	0x557ff753	1.7589857e+13
6	0x475bc9aa	56265.664
7	0x55773f47	1.6990697e+13
8	0x5552e393	1.4492179e+13
9	0x45f53328	7846.3945
10	0xd488ecf3	-4.704727e+12
11	0x474b504c	52048.297
12	0xd4842f9a	-4.5418744e+12
13	0xd461984e	-3.8756916e+12
14	0x45ab731d	5486.389
15	0xd6fd50bb	-1.3926159e+14
16	0x475dd1b7	56785.715
17	0xd6f4b1f9	-1.3452261e+14
18	0xd6d0b4eb	-1.1473773e+14
19	0x456040a2	3588.0396
20	0xd6443606	-5.3934077e+13
21	0x4715f1d6	38385.836
22	0xd63d89f2	-5.210004e+13
23	0xd621a8cb	-4.4436583e+13
24	0x45913d84	4647.6895
25	0x54e14652	7.7403794e+12
26	0x47921657	74796.68
27	0x54d98693	7.4741255e+12
28	0x54b9967c	6.3767493e+12
29	0x4600e1dc	8248.465
30	0x56659081	6.31022e+13
31	0x473efcf8	48892.97
32	0x565dbda0	6.0951626e+13
33	0x563d22d2	5.1989312e+13
34	0x45eeb2f2	7638.368
35	0xd645ae9e	-5.433844e+13
36	0x473175bc	45429.734
37	0xd63ef3c2	-5.2488535e+13
38	0xd622deae	-4.476932e+13
39	0x441e2933	632.64374
40	0x5613fa37	4.067572e+13
41	0x46f34674	31139.227
42	0x560eede6	3.9288104e+13
43	0x55f3d520	3.3512086e+13
44	0x459124ca	4644.5986
45	0xd6505cd7	-5.727429e+13
46	0x477b617f	64353.496
47	0xd649474e	-5.5327022e+13
48	0xd62babde	-4.7188663e+13
49	0x45f474a6	7822.581
50	0xd68288a6	-7.176171e+13
51	0x4745c2d0	50626.812
52	0xd67c2b33	-6.9315617e+13
53	0xd6571742	-5.9123723e+13
54	0x455f43a8	3572.2285

fc3.bias f4 [11]
0	0xc75677f0	-54903.938
1	0x466a2de6	14987.475
2	0xc54de786	-3294.4702
3	0xc7e17884	-115441.03
4	0xc72e2538	-44581.22
5	0x45d2db67	6747.4253
6	0x474ddbc2	52699.758
7	0xc72e9d43	-44701.26
8	0x47044afd	33866.99
9	0xc738d378	-47315.47
10	0xc766340d	-58932.05
