models/part1.pt (torch, 109191 bytes, 6 tensors)

net.0.weight f4 [100, 155]
0	0x3fe0aa61	1.7551996
1	0x3fccd910	1.6003742
2	0x4080519e	4.009963
3	0xbb9f7af0	-0.00486695
4	0x3c07e2c0	0.0082938075
5	0x3bc36ff0	0.0059642717
6	0x404e14fa	3.2200303
7	0x40527527	3.2884004
8	0x3ff36b41	1.9017106
9	0x4023ff9c	2.5624762
10	0x4077c1d1	3.8712046
11	0x40765982	3.8492131
12	0x406a6c8a	3.6628747
13	0x3e8dece9	0.2771981
14	0x3e7fb1a3	0.24970107
15	0x3fb9d222	1.4517252
16	0x402622d7	2.5958765
17	0x40720035	3.7812626
18	0x403fc4c5	2.9963849
19	0x3fba9f56	1.4579875
20	0x4066157c	3.5950613
21	0xbc925529	-0.017862873
22	0xbd4a45c6	-0.049382947
23	0x3e7af3e4	0.245071
24	0x3cb8eaab	0.022572836
25	0x3d8c26c3	0.06843331
26	0x3aa69821	0.0012710133
27	0xbf135f1c	-0.57567
28	0x3ce6b907	0.0281644
29	0x3e5ade23	0.21373801
30	0x3cd12024	0.025528021
31	0xbd9afe00	-0.07567978
32	0x3eb983e9	0.36233452
33	0x3f746aab	0.9547526
34	0xbf21d9fb	-0.63223237
35	0x40059029	2.0869238
36	0x4009eb00	2.1549683
37	0x3d5c2c5a	0.053753234
38	0x3d4dc57a	0.050237156
39	0x4079d938	3.903883
40	0x40666634	3.599988
41	0xbfd7a3a4	-1.6846814
42	0xbdb2b5e5	-0.087261
43	0x3fe0d173	1.7563919
44	0x3df1adbc	0.11800715
45	0x3f0ad397	0.5422911
46	0x3cbfa648	0.023394719
47	0x3d468e82	0.04847575
48	0xbcbf4b66	-0.023351382
49	0xbda3ea9a	-0.08003731
50	0x3c39fdc8	0.01135201
51	0x3d289994	0.04116209
52	0x3fe37e70	1.7772961
53	0x3bf9ba80	0.0076211095
54	0x3ff693ec	1.9263892
55	0x404723de	3.1115642
56	0x3d9d5f77	0.07684224
57	0xbd54723b	-0.05186675
58	0x3ea78bb2	0.32723767
59	0x3d6c1d12	0.05764491
60	0x3f69032e	0.91020477
61	0x3fc5aea7	1.5443925
62	0xbd667048	-0.056259423
63	0x3d78e96e	0.06076949
64	0x3d9c02a7	0.076176934
65	0x3cc73d1c	0.024321131
66	0x3d84b35b	0.06479522
67	0xbd6af251	-0.057359997
68	0x401fb0e4	2.4951715
69	0x3fda29b3	1.7043976
70	0x3d39e9f2	0.045389123
71	0xbd2fabf0	-0.04288858
72	0x3d515a6a	0.051111616
73	0x3e802b59	0.25033072
74	0x3f6b053e	0.91804874
75	0x405e9bf0	3.4782677
76	0x3fa45ae2	1.2840235
77	0x4012b3ee	2.292232
78	0xbf28cf76	-0.6594156
79	0x40647159	3.5694182
80	0x406d3272	3.706204
81	0x4059a6e6	3.4008117
82	0x3f141903	0.57850665
83	0x4072c068	3.7929935
84	0x401cf40b	2.4523952
85	0x40453e29	3.081919
86	0x3e9dfb20	0.30855656
87	0x40123970	2.2847557
88	0x4018d888	2.388216
89	0x4040503f	3.0048978
90	0xbff43650	-1.9079075
91	0x40067aac	2.1012373
92	0x3fd33597	1.6500729
93	0x3f1c7915	0.61122257
94	0xbfad78c5	-1.3552481
95	0x40535be2	3.302483
96	0x4065f838	3.593275
97	0xbefdfbd3	-0.4960619
98	0x40608acd	3.5084717
99	0x4004448a	2.0666833
100	0x405d245a	3.4553437
101	0x4028d930	2.638256
102	0xbf738837	-0.9512972
103	0xbf988988	-1.1916971
104	0xbf976fc5	-1.1830984
105	0xc06411ff	-3.5635984
106	0xc069177f	-3.642059
107	0xc064ae2d	-3.5731308
108	0xc067dd69	-3.6228888
109	0xc06625e1	-3.596062
110	0xc065eed3	-3.5927017
111	0xc064e1ab	-3.5762737
112	0xc069a4f9	-3.6506941
113	0xc060bfc1	-3.5117037
114	0xc0675313	-3.6144454
115	0xc06387e7	-3.5551698
116	0xc06198d4	-3.524953
117	0x3ee3b08f	0.4447064
118	0x3eb553f1	0.35415605
119	0x3e8a8cf0	0.27060652
120	0x40724981	3.7857363
121	0x404c16eb	3.1888988
122	0x4038d6f1	2.888119
123	0x3d955dd1	0.07293285
124	0xbdb83bbd	-0.08995769
125	0x4037a691	2.8695414
126	0x40505521	3.2551959
127	0x3dd6b3a1	0.1048348
128	0x3f1c23f7	0.6099238
129	0x3dc85f1a	0.09783764
130	0x40249b81	2.5719912
131	0x3eaaf1d3	0.33387622
132	0x3ea70a51	0.32625058
133	0xbebe4bd1	-0.37167218
134	0x4008c1e2	2.1368337
135	0x40351f73	2.8300445
136	0x3f593cc8	0.8485837
137	0x3d86d8c3	0.06584313
138	0x3f3fd7ae	0.74938476
139	0x3e2dbaf2	0.16965845
140	0x4063db20	3.5602493
141	0x3e38d7a9	0.18051018
142	0xbd4711ec	-0.048601076
143	0x3c478d81	0.012179733
144	0xbc2a3338	-0.010388188
145	0x3be7db48	0.007075701
146	0x3e763c84	0.24046522
147	0x3e7b94c8	0.24568474
148	0x402cd124	2.700265
149	0x3ead9161	0.33899978
150	0x3dfcbe84	0.123410255
151	0x405eef60	3.4833603
152	0x3ecdd282	0.40199667
153	0xbf99613a	-1.1982796
154	0xbdd8c9e0	-0.105853796
155	0x3e49b568	0.19698107
156	0x3d44f7de	0.048087947
157	0xbf3e219a	-0.7427002
158	0xbd8b1b20	-0.06792283
159	0xbd66c4ec	-0.056340143
160	0xbd8c1e57	-0.06841724
161	0x3f3b6f5e	0.7321681
162	0x3ef0c0e7	0.47022173
163	0xbec91f16	-0.3928153
164	0xbc9305d1	-0.01794711
165	0x3d56f41a	0.052478887
166	0xbd080325	-0.033206124
167	0xbf769048	-0.96313906
168	0xbbf1a6a9	-0.0073746038
169	0xbe115c7f	-0.1419544
170	0x3f5427db	0.82873315
171	0x3ed9de49	0.42552403
172	0xbf438644	-0.7637675
173	0x3eee98f2	0.46601063
174	0x3e1257fa	0.14291373
175	0xbf2d2492	-0.67633927
176	0x3dffaad3	0.12483754
177	0xbd2f639c	-0.042819604
178	0xbee0ec25	-0.43930164
179	0xbb469c4f	-0.003030557
180	0x3d27b124	0.04094042
181	0x3c13364a	0.0089851115
182	0xbe090205	-0.13379677
183	0x3eca32a3	0.39491758
184	0xbed7439d	-0.42043772
185	0xbd0a8d0a	-0.03382591
186	0xbd80a6ef	-0.0628184
187	0x3cf4f72f	0.029903023
188	0x3f8b1f93	1.0869011
189	0xbf81ace7	-1.0130891
190	0x3ed89846	0.42303675
191	0xbf8d6424	-1.1046185
192	0xbd69250a	-0.05692009
193	0xbd66583c	-0.05623649
194	0x3e1c365e	0.15255114
195	0x3dccd849	0.100021906
196	0xbf92a2cc	-1.1455932
197	0x3d491e46	0.049101137
198	0xbf8cb25e	-1.0991933
199	0x3ccf51f0	0.025307626
200	0xbebc80aa	-0.36816913
201	0xbc6a83d0	-0.014313653
202	0x3d5f6416	0.05453881
203	0xbd3c6d72	-0.046002813
204	0x3d6dcda2	0.058057435
205	0xbd9e61c6	-0.077334926
206	0xbd758e0a	-0.059949912
207	0x3cae8b0c	0.021306537
208	0xbd07812d	-0.033082176
209	0x3e7d02ba	0.24708071
210	0xbefe63f9	-0.49685648
211	0x3d16439a	0.036685564
212	0x3da101bf	0.07861661
213	0xbd0b5a8e	-0.034021907
214	0xbd1d1b57	-0.03835615
215	0xbec38e02	-0.3819428
216	0xbc848540	-0.01617682
217	0xbd10b770	-0.03533119
218	0xbba36900	-0.004986882
219	0x3d949ca9	0.07256443
220	0xbd3457d7	-0.044029083
221	0x3d38c292	0.04510743
222	0x3d18d5bc	0.037313208
223	0xbe8f7441	-0.28018382
224	0xbee39bc3	-0.44454774
225	0xbcf312f8	-0.029672131
226	0x3d07c83e	0.03314995
227	0xbd1af4f9	-0.03783128
228	0xbed10b32	-0.40828854
229	0x3dcea98a	0.10090931
230	0x3da5316f	0.08066069
231	0x3f099a72	0.5375129
232	0xbeb4b360	-0.35293102
233	0xbe9d1b8c	-0.3068508
234	0x3f2cf939	0.67567784
235	0xbe583d38	-0.21117103
236	0xbfc9c8d5	-1.5764414
237	0xbe274834	-0.16336137
238	0xbebf3b76	-0.37350053
239	0xbf25d877	-0.64783424
240	0xbfc19e7a	-1.5126488
241	0x3e3bfdef	0.18358587
242	0x3f292af3	0.6608116
243	0x3f08e5d4	0.5347569
244	0x3af07897	0.0018346485
245	0x3e9a86e6	0.30181044
246	0x3e9ce1aa	0.30640918
247	0xbd65efed	-0.056137014
248	0xbda7c89d	-0.08192561
249	0xbf2c6ed5	-0.67356616
250	0xbf82ebac	-1.0228171
251	0xbf60aab0	-0.8776045
252	0xbf5cc27b	-0.86234254
253	0xbf4fd930	-0.81190777
254	0xbf3bc1c3	-0.7334253
255	0xbf6e6f5e	-0.9313868

net.0.bias f4 [100]
0	0x40637ea7	3.5546052
1	0x3d3de430	0.046360195
2	0xbd33ae20	-0.04386723
3	0xc017d830	-2.37257
4	0x3fc639db	1.5486406
5	0x3f0b58f9	0.54432636
6	0x3f337e50	0.7011461
7	0x3f91b8aa	1.138448
8	0xbd9cce5b	-0.07656547
9	0x3d1e96d8	0.038718075
10	0x402a0c0f	2.656986
11	0xbd145ffd	-0.036224354
12	0xbd90be72	-0.070675746
13	0x3fb86d89	1.4408427
14	0xc03092b3	-2.7589538
15	0xbb3990e4	-0.0028315121
16	0xbc6c4046	-0.014419621
17	0xbc56ecff	-0.013118028
18	0x3f8deee5	1.108853
19	0xbb20bff0	-0.0024528466
20	0xbd94d786	-0.0726767
21	0xbd43d7ca	-0.047813214
22	0xbd499d4b	-0.049222272
23	0xbc934d6f	-0.01798126
24	0x3d40b253	0.047045063
25	0x3caadbf5	0.020856837
26	0x3d0144a3	0.031559598
27	0xbfbc6160	-1.4717216
28	0xbde91a98	-0.113820255
29	0xbc9e1211	-0.019295724
30	0xbd53a577	-0.05167147
31	0xc009aea1	-2.1512835
32	0x3caaa25f	0.020829378
33	0xbad72a45	-0.0016415796
34	0x3fc8e9da	1.5696366
35	0xc01bc642	-2.4339757
36	0x3bb9f5cf	0.0056750546
37	0xbda319ef	-0.07963931
38	0xc0471efd	-3.1112664
39	0xbc2c6321	-0.010521681
40	0x3c896706	0.016772758
41	0xbf1a7658	-0.6033683
42	0x3f050f8b	0.5197684
43	0xbd1e57cd	-0.038657952
44	0xbd51b4ab	-0.05119769
45	0x3ba0452e	0.0048910594
46	0x3cdb361f	0.026759205
47	0xbff4b084	-1.9116368
48	0x3f1469a0	0.5797367
49	0x3c810aca	0.015752215
50	0xbcf22210	-0.029557258
51	0x3d3bbf90	0.045836985
52	0xbda342cf	-0.07971727
53	0x3ee94d79	0.4556692
54	0xbd926ac1	-0.07149268
55	0x3c96aed6	0.018393915
56	0xbd9385eb	-0.07203277
57	0x3e64280e	0.22280905
58	0x3b0e6ce8	0.0021732394
59	0xbdb94c58	-0.090477645
60	0xbf070a14	-0.52749753
61	0xbdd65056	-0.104645416
62	0x3c187acb	0.00930662
63	0xbd6bad42	-0.05753828
64	0xbdf7f80a	-0.121078566
65	0xbd85bdf6	-0.06530373
66	0xbfd1a072	-1.6377089
67	0xbbe62bbe	-0.0070242574
68	0x3f58cc81	0.8468705
69	0x3f65bbe6	0.89739835
70	0x3f8c2b9d	1.095081
71	0x3d4a3e46	0.049375795
72	0xbd8bae83	-0.06820395
73	0x3d0cbc8e	0.034359507
74	0x3d5b62ce	0.053561024
75	0xbde8141d	-0.11331961
76	0xbc9faa5b	-0.019490412
77	0xbcd3bb99	-0.02584629
78	0xbdc9b88c	-0.09849653
79	0x4018cc20	2.3874588
80	0xbd215069	-0.039383326
81	0x3ebd4917	0.36969826
82	0x3d9302e5	0.071782865
83	0xbbda2dd7	-0.0066582966
84	0x3d940b9f	0.07228779
85	0x4014ab4e	2.3229556
86	0xbfa896bf	-1.3171004
87	0x3fa15b0f	1.2605914
88	0x3b49e9c1	0.0030809494
89	0x403e4e06	2.9735122
90	0xbd14006a	-0.036133207
91	0xbfcc3d0e	-1.5956132
92	0xbf487e8d	-0.783181
93	0xbfc8e574	-1.5695024
94	0xbc8c6e39	-0.017142402
95	0x3d49d534	0.049275592
96	0xbf8a64dd	-1.0812031
97	0x3b2ac8f6	0.0026059723
98	0xc019b008	-2.401369
99	0xbd82fb66	-0.06395607

net.2.weight f4 [100, 100]
0	0xbdb686b7	-0.089124136
1	0x3daa5b8f	0.08318245
2	0xbdbbe84b	-0.09175166
3	0x3d825868	0.063645184
4	0xbd3d4017	-0.0462037
5	0xbdd877ad	-0.10569701
6	0xbd7762b3	-0.06039686
7	0xbd7f0db0	-0.062268913
8	0xbc801918	-0.015636966
9	0xbca68a0a	-0.020329494
10	0xbd4f19ce	-0.05056172
11	0x3d4c6062	0.049896605
12	0xbd9393a2	-0.07205893
13	0x3d981e57	0.07427662
14	0xbe2f8a35	-0.17142566
15	0x3cdf871f	0.02728611
16	0xbda94174	-0.08264437
17	0xbd79623c	-0.0608847
18	0xbd411483	-0.047138702
19	0xbcc7fec9	-0.024413483
20	0xbd8966ed	-0.06709085
21	0xbc119d88	-0.008887656
22	0xbd9ed69a	-0.07755776
23	0xbd9e9e0c	-0.07744989
24	0x3d5ac4de	0.053410403
25	0x3b188b05	0.0023276221
26	0xbbd2da86	-0.0064347414
27	0x3d961a9d	0.07329295
28	0x3ba14ba8	0.004922349
29	0x3d8acd2f	0.06777417
30	0x3ca46d13	0.020071542
31	0x3a9aa1bc	0.0011797468
32	0xbd2cc648	-0.042181283
33	0xbd62121e	-0.05519306
34	0x3d929502	0.07157327
35	0xbde29949	-0.11064393
36	0x3da3c872	0.07997216
37	0x3d74c2d6	0.059756123
38	0xbd7a5496	-0.061115824
39	0xbdbcb8cb	-0.09214934
40	0x3ccbb6d0	0.024867445
41	0xbd122956	-0.035683952
42	0x3b55ccd2	0.0032623303
43	0xbd29e1ee	-0.04147523
44	0x3da0ed3d	0.078577496
45	0x3db688b2	0.08912791
46	0xbd920b12	-0.07131018
47	0xbd0ee131	-0.034882728
48	0xbd9d4c6a	-0.076805905
49	0x3d29566a	0.041342176
50	0xbda14245	-0.07873968
51	0xbdab04f5	-0.08350555
52	0xbd95b673	-0.0731019
53	0xbdb4132c	-0.08792719
54	0x3d953ea7	0.072873406
55	0xbd5015fb	-0.050802212
56	0x3d66556a	0.0562338
57	0xbce57d63	-0.02801389
58	0xbd118282	-0.035524853
59	0xbc9f096a	-0.019413669
60	0xbdc2c791	-0.095107205
61	0x3cc4b1ac	0.024010502
62	0xbd63d742	-0.055625208
63	0x3cc7cbd5	0.024389187
64	0xbdbbab5e	-0.09163545
65	0x3c1e0d76	0.009646764
66	0x3d95aa01	0.07307816
67	0xbd184c25	-0.037181992
68	0x3b07fc43	0.0020749725
69	0xbdca2fca	-0.09872396
70	0xbd9afff4	-0.075683504
71	0x3d89d57e	0.067301735
72	0x3d07c9e1	0.03315151
73	0x3ca68e87	0.020331634
74	0x3d31c3d2	0.04339964
75	0xbd04584f	-0.03231078
76	0xbbe55514	-0.0069986675
77	0x3db40ee2	0.08791901
78	0xbd16332c	-0.036669895
79	0xbcc60779	-0.024173485
80	0xbd9b3628	-0.07578689
81	0x3d7dd5cb	0.061971467
82	0xbcdabdc8	-0.026701823
83	0xbd4dbc7b	-0.050228577
84	0xbd6958c1	-0.056969408
85	0x3c3b4af8	0.011431448
86	0xbdac0486	-0.083993
87	0x3d986acb	0.07442244
88	0x3d89561e	0.06705879
89	0xbdf0f118	-0.11764735
90	0xbdbbea7a	-0.09175582
91	0x3cd60fac	0.02613052
92	0xbd837b99	-0.06420059
93	0xbdcb040f	-0.099128835
94	0x3d484d3d	0.048901785
95	0xbcf59f52	-0.029983196
96	0x3cebab8f	0.028768329
97	0x3b70abe7	0.0036723556
98	0xbd83dec6	-0.06438975
99	0xbd642479	-0.055698846
100	0x3e7f9975	0.24960883
101	0xbf14e8f8	-0.5816798
102	0xbcbb0935	-0.022831539
103	0xbdec8fe3	-0.11550882
104	0xbe0bc48c	-0.13649195
105	0x3e088409	0.13331617
106	0xbe2f412b	-0.17114703
107	0xbdbd1481	-0.092324264
108	0xbdc97cc9	-0.09838254
109	0x3d422c01	0.047405247
110	0x3c64ec20	0.013972312
111	0x3d544589	0.051824126
112	0x3db408dd	0.08790753
113	0x3d34769b	0.044058423
114	0xbea651c9	-0.32484272
115	0x3c0052f2	0.007832276
116	0xbdc600f0	-0.096681476
117	0x3c7e1076	0.015506854
118	0x3e54a67c	0.20766634
119	0xbc83ad66	-0.016073894
120	0xbda30a0b	-0.079609
121	0x3d86ca48	0.06581551
122	0x3c4f72ad	0.012661618
123	0x3d6f352c	0.058400318
124	0xbca7f1ac	-0.02050098
125	0xbdc8ac26	-0.0979846
126	0x3d9d6397	0.07685011
127	0xbe50b8b7	-0.20382963
128	0xbda4c4b2	-0.08045329
129	0x3da8a1a8	0.082339585
130	0xbd1b9685	-0.037985343
131	0xbda98016	-0.082763836
132	0x3d43e995	0.047830183
133	0xbca5ab01	-0.020223143
134	0x3e803fd2	0.2504869
135	0xbd5104c9	-0.051029954
136	0xbcecbb83	-0.028898006
137	0x3d2948da	0.041329242
138	0xbe5c65a0	-0.21523142
139	0xbd81b690	-0.06333649
140	0xbe0f73e6	-0.14009055
141	0xbe4a58ae	-0.19760391
142	0x3cc81390	0.02442339
143	0xbd5f7e81	-0.054564003
144	0x3d01a342	0.031649835
145	0xbbb27e94	-0.005447218
146	0xbd9af6c6	-0.075665995
147	0xbe24d863	-0.1609817
148	0xbcc7391c	-0.024319224
149	0x3cdc3b57	0.026883764
150	0x3f1f6180	0.6225815
151	0xbd1ce99b	-0.03830872
152	0xbd648963	-0.055795085
153	0xbdda0063	-0.10644605
154	0xbca422f0	-0.02003619
155	0x3d08380c	0.033256575
156	0xbdcd953c	-0.1003823
157	0x3cfbca65	0.030736158
158	0x3d43cffd	0.047805775
159	0xbddb8924	-0.10719517
160	0x3dd66abf	0.10469579
161	0x3bba5bc5	0.0056872093
162	0x3cfae772	0.03062794
163	0xbd83a05b	-0.0642707
164	0x3d5ebe69	0.054380808
165	0xbd880853	-0.06642213
166	0xbe1e3fed	-0.15454073
167	0x3cbf24ef	0.023333041
168	0xbdfa0efd	-0.1220989
169	0x3d18f8fd	0.03734683
170	0x3cb9bd66	0.02267332
171	0xbdb1b14e	-0.08676396
172	0xbdbbdcdd	-0.09172986
173	0x3d361771	0.04445595
174	0xbd9f9840	-0.07792711
175	0x3da5dfd9	0.08099336
176	0x3da09dc3	0.07842591
177	0x3d516d60	0.0511297
178	0xbda18fd3	-0.078887604
179	0xbdaa0170	-0.083010554
180	0x3d971abb	0.07378145
181	0xbd9d9317	-0.07694071
182	0xbd987663	-0.074444555
183	0xbc847c30	-0.016172498
184	0xbd819627	-0.063274674
185	0x3d59227d	0.053011406
186	0xbd9a27aa	-0.075270966
187	0xbdbc511b	-0.09195157
188	0xbd065729	-0.032797966
189	0x3e7b17b0	0.24520755
190	0xbd67b011	-0.056564394
191	0xbe1bb660	-0.1520629
192	0xbca3fc8b	-0.020017883
193	0xbe36fee4	-0.1787067
194	0x3d16a48d	0.03677802
195	0xbdbd32ed	-0.09238229
196	0xbce29bc3	-0.027662164
197	0xbd809507	-0.06278425
198	0x3c5b542f	0.01338677
199	0xbd160570	-0.03662628
200	0x3e65d100	0.22443008
201	0xbdf1dfd9	-0.11810274
202	0x3d8a430d	0.0675107
203	0x3db25447	0.08707481
204	0xbd31ea50	-0.04343635
205	0x3e26e736	0.16299137
206	0x3bdd211d	0.006748332
207	0x3c219de8	0.009864308
208	0x3d71d3eb	0.05903999
209	0xbbee9d90	-0.0072819665
210	0x3d928224	0.071537286
211	0x3d5aa9bb	0.053384524
212	0x3ad28cb3	0.001606366
213	0xbd64de21	-0.0558759
214	0xbef03dc4	-0.46922123
215	0xbc451dcf	-0.012031033
216	0xbc83a985	-0.016072044
217	0x3db9a1d9	0.09064073
218	0x3e3ea5ef	0.18617986
219	0xbdc5d925	-0.09660558
220	0xbce53297	-0.027978225
221	0xbc8d3010	-0.017234832
222	0x3d527a7f	0.051386353
223	0xbce5cd0d	-0.028051877
224	0xbcb0772e	-0.021541204
225	0xbd02fb12	-0.03197772
226	0xbd8be2c4	-0.068303615
227	0xbda47f4d	-0.08032093
228	0xbdaf4228	-0.0855754
229	0x3c529f5c	0.012855377
230	0x3d25b20d	0.040453006
231	0xbc18f905	-0.009336715
232	0x3dad5130	0.08462751
233	0xbcbf892b	-0.023380836
234	0x3d7c15cc	0.061544225
235	0xbdf35a22	-0.11882426
236	0xbd7c7ac1	-0.061640505
237	0x3c74af99	0.014934444
238	0xbeb2e28a	-0.3493846
239	0x3d00e96c	0.03147261
240	0x3a96a8f2	0.0011494441
241	0x3d36bbda	0.044612743
242	0x3d37704f	0.04478484
243	0x3da36e0d	0.07979975
244	0xbd865b46	-0.06560378
245	0xbdcd5474	-0.10025874
246	0x3b0aae4c	0.0021161018
247	0xbd4ead8e	-0.050458483
248	0x3cad25ea	0.021136243
249	0x3da4dc8d	0.08049879
250	0x3e8a7ee4	0.27049935
251	0xbd917f26	-0.0710433
252	0xbdaa613e	-0.08319329
253	0x3ca57c5b	0.020200899
254	0xbdb0b830	-0.08628881
255	0xbcfe35d5	-0.031031528

net.2.bias f4 [100]
0	0xbe42108f	-0.18951629
1	0x3e25c3c6	0.16187963
2	0xbbbf7c6f	-0.005843691
3	0xbcaba39f	-0.020952044
4	0x3cce3ef5	0.025176505
5	0x3ddafb52	0.10692467
6	0x3dcf2443	0.10114338
7	0xbc2727a9	-0.010202327
8	0xbced63a7	-0.028978182
9	0x3e66ad5d	0.2252707
10	0x3db448f7	0.088029794
11	0x3bc2c7c1	0.0059442227
12	0x3cd842eb	0.026399096
13	0x3f1ba9d9	0.6080604
14	0xbdc8bb02	-0.09801294
15	0xbd54e636	-0.05197736
16	0xbdb68877	-0.08912747
17	0x3b22b2ab	0.0024825733
18	0x3d945288	0.07242304
19	0x3f82a635	1.0206972
20	0xbd4624a1	-0.048374776
21	0x3d814003	0.063110374
22	0xba877156	-0.0010333459
23	0xbdbd5a77	-0.092457704
24	0xbdc112f1	-0.09427441
25	0x3d43a199	0.047761533
26	0x3d923897	0.071397
27	0x3d987139	0.074434705
28	0x3b6cedc3	0.003615246
29	0xbd9ebc5a	-0.07750769
30	0xbc7cc2cf	-0.015427305
31	0xbd606de3	-0.054792296
32	0x3d7d4c5a	0.061840393
33	0xbd2899f9	-0.041162465
34	0x3cdc08a3	0.026859587
35	0x3e5ace62	0.21367791
36	0xbc069bb9	-0.008215838
37	0xbd213b03	-0.03936292
38	0xbd3656a4	-0.04451622
39	0xbd7ddfaf	-0.0619809
40	0xbcd01e03	-0.025404936
41	0xbdbd88d2	-0.09254612
42	0x3d599a4d	0.05312567
43	0x3d4ef884	0.05052997
44	0xbeff2441	-0.49832347
45	0x3d9d3d1e	0.07677673
46	0xbd3519eb	-0.04421417
47	0xbb0e5f78	-0.0021724384
48	0xbd229059	-0.039688442
49	0x3d623cbc	0.055233702
50	0xbd813e87	-0.06310754
51	0x3d2107a4	0.039313927
52	0x3bd27907	0.006423119
53	0x401ac315	2.4181569
54	0xbd854c1e	-0.06508659
55	0xbd67b2f4	-0.056567147
56	0xbda5160c	-0.08060846
57	0x3d650f6d	0.055922914
58	0xbe1a4ff2	-0.15069559
59	0xbd0fd36f	-0.03511375
60	0x3f6ea4e2	0.9322034
61	0x3d1b13d0	0.03786069
62	0x3d86d0e0	0.065828085
63	0x3db0b77b	0.08628746
64	0x3e3078c2	0.17233565
65	0xbd039186	-0.032121204
66	0xbdb25d6f	-0.08709227
67	0xbd8676b5	-0.0656561
68	0xbd2e96fb	-0.042624455
69	0xbd1fd9eb	-0.039026182
70	0x3e098b10	0.13431954
71	0x40057dc2	2.0858006
72	0x3d479b3d	0.04873203
73	0xbd4d7d5a	-0.050168373
74	0xbc493455	-0.012280543
75	0x3bab4ec1	0.005227894
76	0xbd3dec20	-0.046367764
77	0x3d434341	0.04767156
78	0xbce77dae	-0.028258171
79	0x4058fe10	3.3905067
80	0x3d666977	0.056252923
81	0x3d39c885	0.045357246
82	0xbd344e6b	-0.044020098
83	0x3d1a3fcc	0.037658498
84	0xbda10c00	-0.07863617
85	0x3d7de62b	0.061987083
86	0x3e5617cc	0.20907515
87	0xbd552457	-0.05203661
88	0x3c28badd	0.010298458
89	0x3d023a8a	0.03179411
90	0xbdce92c8	-0.1008659
91	0xbb9d9328	-0.004808802
92	0x3c79162f	0.015203043
93	0x3f098462	0.53717625
94	0xbd8bb16c	-0.0682095
95	0xbd5136ae	-0.051077537
96	0xbdd0936d	-0.10184369
97	0xbd82bc9c	-0.06383631
98	0x3b8d49d7	0.004311781
99	0xbe0d1903	-0.13779072

net.4.weight f4 [11, 100]
0	0xbd31b152	-0.043381996
1	0xbcf34b98	-0.029699132
2	0x3d634561	0.055486087
3	0xbda55ce4	-0.08074358
4	0x3ded34e8	0.11582357
5	0x3d3b4a89	0.04572538
6	0xbd11b65e	-0.03557431
7	0xbca0b903	-0.01961947
8	0x3c9104ee	0.017702546
9	0x3d0355f1	0.032064382
10	0xbc407760	-0.011747211
11	0xbd6fc67d	-0.058538903
12	0x3d6e5384	0.058185115
13	0x3d646d76	0.055768453
14	0x3d100c51	0.035167996
15	0x3dbbe29d	0.091740824
16	0x3c61727c	0.013760205
17	0x3dac3007	0.08407598
18	0xbcbe55b7	-0.023234231
19	0x3be47400	0.006971836
20	0x3d5342d7	0.051577415
21	0x3db2b1f3	0.08725347
22	0x3dbcf21c	0.09225866
23	0x3dcb6fc8	0.0993343
24	0x3d0730e9	0.03300563
25	0xbdc09e97	-0.094052486
26	0x3db760ad	0.08953986
27	0x3da0f9cb	0.07860144
28	0xbd9c7daa	-0.07641156
29	0xbb4b7d38	-0.0031049978
30	0xba249fd7	-0.00062799215
31	0x3b97f1e7	0.0046369913
32	0x3d4fb94b	0.05071382
33	0xbd8ad05c	-0.06778023
34	0xbd1817d0	-0.037132084
35	0xbd5529b3	-0.05204172
36	0xbbf2550a	-0.0073953914
37	0xbd26fd1d	-0.04076873
38	0xbd3299b4	-0.043603614
39	0x3d58de46	0.05294635
40	0x3c69a78d	0.014261139
41	0xbda57354	-0.08078638
42	0xbd30e66c	-0.043188497
43	0xbc3f8317	-0.011688969
44	0xbcf3dfaf	-0.029769747
45	0x3dba31b2	0.0909151
46	0x3d2bb02a	0.04191605
47	0xbd76cf7c	-0.060256466
48	0xbda75b7b	-0.081717454
49	0xbd18f7ae	-0.03734558
50	0xbd8fedab	-0.070277534
51	0x3d84cea0	0.06484723
52	0xbd9207bb	-0.07130381
53	0x3e097d90	0.13426805
54	0xbd25ef27	-0.040511277
55	0x3d04fd9c	0.032468423
56	0x3c328858	0.010896765
57	0x3d58d752	0.05293972
58	0x3c931be3	0.017957633
59	0x3d60f882	0.054924496
60	0x3e35a84a	0.17739978
61	0x3dc34e40	0.095364094
62	0xbcaea58e	-0.021319177
63	0xbd7b9f39	-0.061431143
64	0xbc988b90	-0.018621236
65	0xbd027822	-0.03185285
66	0xbc4719ef	-0.012152179
67	0xbcfec94b	-0.031101843
68	0xbd924688	-0.07142359
69	0xbc359e58	-0.011085115
70	0x3dbbf713	0.09177985
71	0x3dab08b2	0.08351268
72	0xbc9a87cc	-0.018863581
73	0x3d706043	0.058685552
74	0xbce58a84	-0.028020151
75	0xbc909c90	-0.01765278
76	0xbd9d104a	-0.076691225
77	0x3d8eb09d	0.0696728
78	0xbda74266	-0.08166961
79	0x3d0d1b36	0.03444978
80	0xbd5f8c65	-0.05457725
81	0x3d8e9c17	0.069633655
82	0xbda76209	-0.081729956
83	0x3d2d7f04	0.04235746
84	0xbdbc8b1b	-0.0920622
85	0x3be9cb82	0.0071348557
86	0x3d88cbaf	0.066794746
87	0x3dbd1594	0.09232631
88	0x3bc95207	0.0061438116
89	0x3dac4741	0.08412028
90	0x3dad5c22	0.084648386
91	0x3da23d9d	0.07921908
92	0x3d8eb704	0.06968501
93	0x3d0092f3	0.03139014
94	0xbce7622c	-0.028245054
95	0xbd9ba3e8	-0.07599622
96	0x3c9bb0c9	0.019005196
97	0x3d27ea43	0.040994894
98	0x3cd136f4	0.025538899
99	0xbdcc3f8b	-0.09973057
100	0xbd2befc6	-0.041976713
101	0x3d4ec22d	0.05047815
102	0xbd9eb723	-0.07749774
103	0x3daa3c88	0.08312327
104	0xbccbcbd8	-0.024877474
105	0xbc38b14e	-0.0112727415
106	0xbc4fa734	-0.012674142
107	0xbc7251e3	-0.014790031
108	0xbd9f5144	-0.07779172
109	0xbc639c85	-0.013892298
110	0xbcbbc517	-0.022921128
111	0x3d9b9c49	0.075981684
112	0x3b8f1797	0.004366826
113	0xb9b39af8	-0.00034257
114	0x3d4affcc	0.049560353
115	0x3dc940dc	0.09826824
116	0xbd8fb54f	-0.07017004
117	0xbcd68cf6	-0.026190262
118	0xbc93f236	-0.018059831
119	0x3dc1d643	0.09464695
120	0xbc117319	-0.008877539
121	0xbc69c8dc	-0.01426908
122	0xbd102e82	-0.035200603
123	0xbcbe87da	-0.023258138
124	0xbdb3b419	-0.08774585
125	0xbda75538	-0.08170551
126	0x3d0fd362	0.0351137
127	0x3b6275c3	0.0034555055
128	0xbdb62c08	-0.08895117
129	0x3c01b49f	0.007916599
130	0xbcf03c12	-0.029325519
131	0x3d523003	0.05131532
132	0x3d903920	0.07042146
133	0x3ddcba27	0.10777693
134	0x3d0dee7b	0.03465126
135	0x3d7f1c71	0.062282983
136	0x3dbccf8f	0.09219276
137	0xbbe057e2	-0.006846414
138	0xbdb03afb	-0.08605
139	0xbb74d1e7	-0.0037356557
140	0x3dd1d339	0.10245366
141	0x3d2f42a9	0.04278818
142	0xbca979df	-0.020687995
143	0xbc705eae	-0.014671011
144	0x3d047bd3	0.03234465
145	0x3d2f3ae3	0.042780768
146	0x3d8f87c9	0.07008321
147	0x3d2d2fbe	0.04228186
148	0xbcbd7c3d	-0.02313053
149	0xbd9fff2e	-0.078123435
150	0x3d4aa2e6	0.04947176
151	0xbd6649b0	-0.056222618
152	0xbd6f71a2	-0.058457978
153	0x3d44c647	0.048040655
154	0x3b95e979	0.0045749513
155	0xbd9c3344	-0.07626966
156	0x3d6defc8	0.05809
157	0x3d455411	0.048175875
158	0xbc5cd607	-0.0134787625
159	0xbc8ac5a0	-0.016939938
160	0xbccd4078	-0.025055155
161	0x3d8271ef	0.06369387
162	0x3d7040c4	0.058655515
163	0xbda7c1e1	-0.08191276
164	0xbcd1e982	-0.02562404
165	0xbc9e6015	-0.019332925
166	0xbd9abfe5	-0.07556132
167	0xbd9515eb	-0.07279571
168	0x3c8a2064	0.016861148
169	0xbc0fdea2	-0.008781107
170	0xbdb8250d	-0.08991442
171	0x3da31d0b	0.07964524
172	0xbd7644fc	-0.060124382
173	0xbdb3d23c	-0.087803334
174	0x3ba5a854	0.0050554667
175	0xbd8a9ac6	-0.06767802
176	0x3dafa7e4	0.085769445
177	0xba15ae40	-0.0005709864
178	0xbd2da006	-0.04238894
179	0x3bd56bcf	0.006513096
180	0xbd59e973	-0.05320115
181	0xbc68c991	-0.014208213
182	0x3da7d224	0.08194378
183	0x3dc1a404	0.094551116
184	0xbdabb5da	-0.08384295
185	0x3da485ba	0.08033319
186	0xbdb68508	-0.089120924
187	0x3d5ecca3	0.054394376
188	0xbd7ff101	-0.0624857
189	0xbc4cc968	-0.012499191
190	0xbd81cd66	-0.06338005
191	0x3da8b422	0.082374826
192	0x3d35ec6f	0.044414934
193	0x3d88d13e	0.06680535
194	0x3dccccc2	0.09999992
195	0xbda086b6	-0.07838194
196	0xbd3f6bf7	-0.046733823
197	0x3d8874a2	0.06662871
198	0x3d537744	0.051627412
199	0x3d17dece	0.037077717
200	0xbd4d4d4c	-0.050122544
201	0xbd08f48c	-0.033436343
202	0x3dd2016e	0.10254179
203	0x3bda30a6	0.0066586314
204	0xbdbe4fc4	-0.09292558
205	0x3da055f1	0.07828892
206	0x3c64ee5b	0.013972844
207	0xbd97a665	-0.07404784
208	0xbd45da6e	-0.048304014
209	0xbd807e7b	-0.06274124
210	0xbcad984e	-0.021190789
211	0x3c91e7da	0.01781075
212	0xbc24973b	-0.010045822
213	0x3d665a76	0.056238614
214	0xbd4a5d16	-0.04940518
215	0x3db7afae	0.08969055
216	0xbda50fc1	-0.080596454
217	0xbd8d2790	-0.068923116
218	0x3ba7a104	0.00511563
219	0x3c299a6b	0.0103517575
220	0xbd09dbfc	-0.03365706
221	0xbd752471	-0.059849206
222	0x3d9e9cf0	0.07744777
223	0x3d4f4657	0.05060419
224	0xbcd9f6b7	-0.0266069
225	0xbda4d143	-0.08047726
226	0x3d02063d	0.03174423
227	0x3cf32c3a	0.029684175
228	0x3d71d7ab	0.059043568
229	0xbd8a9c64	-0.067681104
230	0xbc83a93b	-0.016071906
231	0x3da01f06	0.07818417
232	0x3d81d875	0.06340114
233	0xbd59bfaf	-0.05316132
234	0xbcde1159	-0.027107881
235	0x3da2fdbf	0.079585545
236	0x3ca97426	0.020685267
237	0xbd6200f5	-0.055176694
238	0x3d2b027e	0.041750424
239	0x3c0292a9	0.007969537
240	0x3df63e99	0.12023658
241	0xbd54fe8e	-0.052000575
242	0xbd0748b0	-0.033028305
243	0x3cd0dc85	0.025495777
244	0xbc8205ab	-0.015871843
245	0xbdc07712	-0.09397711
246	0x3d41e017	0.04733285
247	0x3c05247c	0.008126374
248	0x3d26cd4f	0.04072314
249	0xbc97471d	-0.018466527
250	0x3d176057	0.03695711
251	0xba30a013	-0.000673772
252	0xbb83e8a6	-0.0040255366
253	0x3dd06bbb	0.10176798
254	0xbb7a487b	-0.0038190174
255	0xbdacc27c	-0.084355325

net.4.bias f4 [11]
0	0xbc8e7caa	-0.017393429
1	0x3d3ae446	0.045627855
2	0xbd7a5536	-0.06111642
3	0xbc885cb6	-0.01664577
4	0x3dc9922c	0.09842333
5	0x3d490208	0.049074203
6	0xbdaad5ea	-0.08341582
7	0x3dc72627	0.09724074
8	0xbdd6b07a	-0.10482879
9	0x3d072446	0.032993577
10	0xbd989c01	-0.074516304
