models/part2_advanced.pt (torch, 45711 bytes, 6 tensors)

fc1.weight f4 [50, 155]
000000 bf b2 09 bd 23 b3 72 3c 2f fa 82 3d f0 7a 9f bb
       -0.03361773 0.014813217 0.06395375 -0.00486695
000010 c0 e2 07 3c f0 6f c3 3b fc 84 86 ba 51 85 45 3d
       0.0082938075 0.0059642717 -0.0010263021 0.048222844
000020 cc 04 32 3d 85 32 30 bd fb 12 9d 3d 24 4e 3d 3d
       0.043461606 -0.04301693 0.07669636 0.0462171
000030 2d ea 4d bc 14 4c 8f 3d 25 b7 90 3b 9f e3 4f 3d
       -0.012568039 0.069969326 0.004416364 0.050754186
000040 4f b3 8b bd 67 a8 93 3d 50 12 9b 3d 22 d6 75 bd
       -0.0682131 0.072098546 0.07571852 -0.060018666
000050 2b 3c 93 bd 18 79 bf bc c6 45 4a bd b2 cd af 3c
       -0.071892105 -0.023373172 -0.049382947 0.021460388
000060 e7 ad 12 3d 76 dc 1d bc c1 80 67 3d 02 26 46 3b
       0.035810377 -0.0096350815 0.056519274 0.0030235057
000070 b9 66 c1 bc e9 60 8c bd 24 20 d1 3c 00 fe 9a bd
       -0.023608552 -0.06854422 0.025528021 -0.07567978
000080 49 02 82 b9 81 e0 40 3c 4e 41 38 bd f8 ac c5 3c
       -0.00024797235 0.011772276 -0.044984154 0.02413033
000090 25 d1 7f 3c 5a 2c 5c 3d 7a c5 4d 3d 18 20 85 bd
       0.015613829 0.053753234 0.050237156 -0.06500262
0000a0 6f 1c 74 bd 1c 80 f1 bc 75 ae 6c bd c7 50 ce 3c
       -0.05959743 -0.029480033 -0.057783563 0.025185002
0000b0 78 8e 57 bd a2 2e 7b bd 48 a6 bf 3c 82 8e 46 3d
       -0.052626103 -0.06132377 0.023394719 0.04847575
0000c0 66 4b bf bc 9a ea a3 bd c8 fd 39 3c 94 99 28 3d
       -0.023351382 -0.08003731 0.01135201 0.04116209
0000d0 8f 80 80 3d 80 ba f9 3b 7e 66 64 3d d3 15 93 bd
       0.062745206 0.0076211095 0.055761807 -0.07181897
0000e0 77 5f 9d 3d 3b 72 54 bd e2 90 60 bd 12 1d 6c 3d
       0.07684224 -0.05186675 -0.05482567 0.05764491
0000f0 1c 3a 92 bc 5a 09 4b 3d 48 70 66 bd 6e e9 78 3d
       -0.017849974 0.049569465 -0.056259423 0.06076949
000100 a7 02 9c 3d 1c 3d c7 3c 5b b3 84 3d 51 f2 6a bd
       0.076176934 0.024321131 0.06479522 -0.057359997
000110 58 4b 91 bc bd 46 c8 3c f2 e9 39 3d f0 ab 2f bd
       -0.017736122 0.024447793 0.045389123 -0.04288858
000120 6a 5a 51 3d bd 90 d8 bc cd 9a 2f bd d2 b3 80 3c
       0.051111616 -0.026436204 -0.04287224 0.015710745
000130 7a 07 83 bd 15 fa 96 bd 68 c9 da 3c 27 1f e0 3c
       -0.063979104 -0.07371918 0.026707366 0.027358605
000140 38 08 fd 3c e1 93 2c bc bc 9b 70 bd 07 26 84 bd
       0.030887708 -0.010533304 -0.05874227 -0.06452566
000150 bf 68 9d 3d 03 9c 8e bd b3 50 c6 3c dc 96 85 3d
       0.07685994 -0.069633506 0.024208402 0.06522915
000160 05 58 7b 3d 48 6f 4f bd ea 29 d4 bc ec 85 83 bd
       0.06136324 -0.050643235 -0.025898892 -0.06422028
000170 fc 5b 4e 3d 65 5f 9a bd 98 6f 97 bd d1 a3 5b bd
       0.050380692 -0.07537726 -0.07394332 -0.053623024
000180 8f 2e 86 3d b2 40 55 3d ad 71 5c 3d ba 6f 7c 3d
       0.06551849 0.05206365 0.053819347 0.06162999
000190 4f 70 19 bd 70 77 37 bd 8a 1d 4a bd 98 1c d9 3c
       -0.03746062 -0.04479164 -0.049344577 0.026502892
0001a0 a0 f3 ff 3c f8 89 88 3c df 1a 7d bd 96 cf e9 3b
       0.0312441 0.016667351 -0.061793204 0.007135342
0001b0 81 94 2e bd 84 64 81 bc c4 b9 4b bc a6 d5 82 3b
       -0.042622093 -0.015795 -0.012434427 0.003992754
0001c0 74 3c 90 bd 99 6a 8c 3d f8 fe 0b bd d8 97 cd 3c
       -0.070427805 0.068562694 -0.034178704 0.025096819
0001d0 1b 90 62 3d c5 92 04 3d 9a 68 66 3d 89 c7 39 3d
       0.05531321 0.032366533 0.0562521 0.045356307
0001e0 0e e8 70 3d 30 e0 8a 3c 8a 21 52 3d a0 ee 0e bd
       0.058815055 0.016952604 0.051301517 -0.03489554
0001f0 b0 fb 32 bd e9 18 1d 3d 6f a5 ac 3c ee 34 44 bb
       -0.04369706 0.038353834 0.021074979 -0.0029938775
000200 79 a8 8a bd 71 6e d7 3c ee 1a 55 3d 22 8d 15 bc
       -0.06770415 0.02629778 0.052027635 -0.009127887
000210 a7 be 97 3c 78 76 12 3d d3 75 a2 bd c9 85 58 bc
       0.018523527 0.03575751 -0.079326294 -0.013215491
000220 ec 15 f4 bc e2 5b 24 bd 71 48 49 3d d5 25 a3 3d
       -0.02979561 -0.04012669 0.04914135 0.079662
000230 b5 fa 51 3c c1 67 4d 3d 14 96 2e bd 28 af a7 3c
       0.012816121 0.050147776 -0.042623594 0.020469263
000240 38 33 2a bc d7 17 be bd 0f 07 83 3c 56 78 cf 3c
       -0.010388188 -0.09281891 0.015994577 0.025325935
000250 3c c4 7d bb 7a 32 0f 3d 0a ed 1e 3d 31 35 95 3d
       -0.00387217 0.034960248 0.038800277 0.07285536
000260 96 93 98 3b 8d 8c 3b 3b 12 af 96 ba 9a 9c 35 3c
       0.0046562655 0.002861771 -0.0011496267 0.0110847
000270 a4 54 55 bd 4a fc 21 bc 20 1b 8b bd ec c4 66 bd
       -0.052082673 -0.009886811 -0.06792283 -0.056340143
000280 57 1e 8c bd 36 fc 73 3d 55 13 3d bd e2 67 d4 bb
       -0.06841724 0.0595667 -0.046161015 -0.0064821104
000290 a9 b2 0c 3c dd 49 91 3d 0b 50 15 3d 74 4a 6a bd
       0.008587518 0.070941664 0.036453288 -0.05719991
0002a0 ab ec a0 3d cc b7 9b bd 20 1f 2b 3c 26 4d 96 3d
       0.07857641 -0.07603416 0.0104444325 0.07338934
0002b0 9d a9 8e 3d a5 81 98 bc c5 8f 5b bd bf 76 10 3d
       0.06965945 -0.018616507 -0.053603906 0.035269495
0002c0 68 ae 7d 3d 9c 63 2f bd 60 3e 50 bc 69 eb 47 bd
       0.061933905 -0.042819604 -0.012710184 -0.04880849
0002d0 b7 63 fb 3c 94 8b 8c 3c 42 10 23 3d d0 bf e1 bc
       0.030687196 0.0171564 0.039810427 -0.027557284
0002e0 d1 c8 9e bd 0a 8d 0a bd ef a6 80 bd 00 5f 9e bc
       -0.077531464 -0.03382591 -0.0628184 -0.019332409
0002f0 f3 32 ef 3c 30 da 88 bd 80 b6 75 bb 60 f1 a0 bd
       0.0291991 -0.06682241 -0.0037492812 -0.07858539
000300 0a 25 69 bd 3c 58 66 bd cc 09 e0 bc 42 b2 26 bd
       -0.05692009 -0.05623649 -0.027348422 -0.040697344
000310 40 90 4a 3c 46 1e 49 3d 97 12 78 3d f0 51 cf 3c
       0.012363493 0.049101137 0.060564604 0.025307626
000320 c6 53 0b ba d0 83 6a bc 16 64 5f 3d 72 6d 3c bd
       -0.00053149124 -0.014313653 0.05453881 -0.046002813
000330 a2 cd 6d 3d c6 61 9e bd 0a 8e 75 bd 0c 8b ae 3c
       0.058057435 -0.077334926 -0.059949912 0.021306537
000340 2d 81 07 bd a7 86 75 3c 0b 54 8f 3d 9a 43 16 3d
       -0.033082176 0.014985717 0.06998452 0.036685564
000350 bf 01 a1 3d 8e 5a 0b bd 57 1b 1d bd 2c 17 27 bc
       0.07861661 -0.034021907 -0.03835615 -0.010198396
000360 40 85 84 bc 70 b7 10 bd 00 69 a3 bb a9 9c 94 3d
       -0.01617682 -0.03533119 -0.004986882 0.07256443
000370 d7 57 34 bd 92 c2 38 3d bc d5 18 3d 6e 87 3e 3d
       -0.044029083 0.04510743 0.037313208 0.046515875
000380 cb 83 b1 3c f8 12 f3 bc 3e c8 07 3d f9 f4 1a bd
       0.02166929 -0.029672131 0.03314995 -0.03783128
000390 a5 f1 49 bd ed c5 99 3d ef 59 88 3d 28 c4 6d bd
       -0.049302716 0.075084545 0.066577785 -0.058048397
0003a0 74 9d 85 3d 2e 71 88 3c 88 a9 a8 3c 2d 8e 9e 3d
       0.065241724 0.01665553 0.020588651 0.07741962
0003b0 44 33 8a bb 5e 46 d1 bc 94 89 4e 3d 58 f8 a9 bc
       -0.004217537 -0.025546249 0.050424173 -0.020748302
0003c0 d1 f5 9d bc a0 ab 04 bd ed e9 a1 3d 72 fd 1c 3d
       -0.019282253 -0.032390237 0.07905946 0.03832764
0003d0 2a 56 55 bc 80 09 d2 ba 36 38 b8 3b 9b 07 43 bd
       -0.013021031 -0.001602456 0.0056219352 -0.047614675
0003e0 82 d2 ba 3c 5e 58 7f bd 48 6f 75 bb 26 ed 76 bc
       0.022805456 -0.062340133 -0.0037450362 -0.015071189
0003f0 e8 55 06 bd bd 24 98 3d 68 47 b8 3c 36 7d 1e 3d
       -0.03279677 0.07428882 0.022494987 0.03869363

fc1.bias f4 [50]
000000 eb e2 bf 3b 31 e0 9b 3d ee 80 8c 3d da ce df 3c
       0.005855908 0.076111205 0.06860529 0.027320314
000010 3e 9f 7e bc 01 77 ba 3c 0d c4 b4 bc c5 75 32 3d
       -0.015540896 0.022761824 -0.02206614 0.043569345
000020 c1 22 42 3d c4 26 b6 bd 0c 52 8c 3d 19 96 19 bc
       0.047396425 -0.08894113 0.06851587 -0.009374165
000030 40 4f 90 bd 18 40 f9 bc 4f 49 c3 3d b6 38 70 bd
       -0.07046366 -0.03042607 0.09535467 -0.058647834
000040 02 69 ec 3c ee ed 5d bd 8f 09 ac bd d8 3f ea 3c
       0.028858665 -0.054181986 -0.08400261 0.028594896
000050 ba cc 67 3d 34 83 ab 3d d8 95 e1 bd 5a 5a de 3c
       0.056591727 0.083746344 -0.110149086 0.027142692
000060 17 fa 80 3d 06 83 91 3c 88 30 a8 3d 74 55 bd 3d
       0.06297701 0.017762672 0.082123816 0.092448145
000070 07 a8 6e bd 0b 96 c2 3c a8 ef 2a 3a a2 c7 5b 3c
       -0.058265712 0.023753187 0.0006520697 0.013414295
000080 09 e0 a1 3d a4 f8 61 3d 4b b5 12 bd 3a bc 9a 3d
       0.079040594 0.055168763 -0.035817426 0.075554326
000090 18 46 53 3d c3 d0 cd 3c f8 b6 6b bc f8 c1 37 bd
       0.05158052 0.02512396 -0.014386885 -0.044862717
0000a0 7e 23 11 bc 01 a5 e7 bc bf 8c 04 bd 8f d7 5b bd
       -0.00885856 -0.028276922 -0.03236079 -0.05367237
0000b0 8c 93 a3 3d e9 89 b5 bc c6 cc af bd ad a0 85 bd
       0.07987127 -0.022160487 -0.08583979 -0.06524787
0000c0 9c 5b 3f bd 32 bd 23 3d
       -0.046718225 0.039975353

fc2.weight f4 [50, 50]
000000 f0 55 9c bc 74 29 92 bd 25 f5 dd bd 95 37 9c 3d
       -0.019083947 -0.07136813 -0.10837773 0.07627789
000010 91 3d 04 be 0d 21 05 be 06 01 3a bc 40 df b7 3d
       -0.1291411 -0.13000889 -0.011352783 0.089781284
000020 3f 77 e6 bd 4c d9 b0 bd 25 34 4e 3d ee 6d 06 be
       -0.11253213 -0.08635196 0.050342698 -0.13127872
000030 d9 13 c3 3d 2c fa a2 3d c9 dd 91 3d 49 d2 e4 3d
       0.0952527 0.07957873 0.0712238 0.11172921
000040 f5 de fd 3d d9 25 8c bd a6 c1 8f 3d ff 12 9e 3d
       0.12396041 -0.06843156 0.070193574 0.07718467
000050 16 46 84 3d 6c 80 1d bd 5a db c0 bd 86 fc b4 bd
       0.0645868 -0.03845255 -0.09416838 -0.088372275
000060 e1 3d 16 3d 4f d8 1e ba 48 45 07 3c cf db 08 3e
       0.036680106 -0.0006059454 0.008256264 0.133651
000070 14 59 ee bd 73 61 f6 3c b5 cf de 3c 6e 20 ae 3b
       -0.11638084 0.030075764 0.027198652 0.0053139245
000080 36 2c c4 3d c9 95 c3 3d 71 ad c3 bd 92 86 ca 3c
       0.09578745 0.095500536 -0.09554566 0.024722371
000090 d2 35 a7 bd 0c 8f a8 bd 4a 25 f1 bd d3 50 3b 3d
       -0.08164562 -0.08230409 -0.117746904 0.045731377
0000a0 37 74 0e bc 5d 49 b1 bd fe 33 ca bc 4c 26 58 bc
       -0.0086947 -0.08656571 -0.024682995 -0.013192724
0000b0 7a 27 68 3d 8a 61 f5 3d f6 b9 cb bd c3 d3 49 bc
       0.056678273 0.11981495 -0.099475786 -0.012318554
0000c0 74 ca 0a 3e 64 8e b9 3d e9 75 85 3d cc 0b 31 bd
       0.13553792 0.09060362 0.0651663 -0.04322414
0000d0 85 a7 e8 3c a0 79 dc 3b bb 1c 87 3b df 7e bf 3d
       0.028400192 0.006728366 0.004123298 0.093503706
0000e0 33 5e 57 bd b2 83 17 bd a5 2a cf 3d 21 82 fb 3c
       -0.05258007 -0.03699083 0.10115556 0.030701699
0000f0 02 ff 0a be 2a 48 e3 bc f8 86 c2 3d 55 8b a8 3d
       -0.1357384 -0.027744371 0.094983995 0.082297005
000100 b5 be c4 3d 0d 4a a7 bd bd a0 d0 bd 59 a5 3c 3d
       0.09606687 -0.08168421 -0.101869084 0.046056125
000110 8e e5 de 3d b3 1b f3 3d 73 87 59 3d a7 c8 b2 3d
       0.10883628 0.118705176 0.05310769 0.08729678
000120 48 2e bc bd 2c f6 07 3d d5 1f 6d bc d1 7c 9d ba
       -0.09188515 0.033193752 -0.014472921 -0.0012015348
000130 9a bb 8e 3d 4f 0b dc bd 18 41 5e 3c fe 9b 37 bd
       0.06969376 -0.107443444 0.013565324 -0.0448265
000140 13 37 93 3d 96 60 0a be fe 0b 9e bd e4 ce d3 bd
       0.07188239 -0.13513407 -0.07717131 -0.10342196
000150 22 85 d8 3d 33 56 b3 3d d3 d1 f4 3d f9 ad 11 3e
       0.10572268 0.087566756 0.11954083 0.14226522
000160 08 3b 27 3d 99 fd 97 3c 4d 40 16 3d 65 bf 97 3c
       0.04082778 0.018553542 0.036682416 0.018523881
000170 c8 c5 4a 3c 23 8a db bd c0 81 df 3d 1f af c4 bd
       0.012376256 -0.10719707 0.1091342 -0.09603714
000180 d8 32 ca 3d 15 16 82 3d 92 2a 09 3d 3e 81 74 3d
       0.09872979 0.06351868 0.033487864 0.059693567
000190 e8 42 fe 3c 7c 1d 8e bd 79 01 9a bd af 33 93 bd
       0.031037763 -0.069392174 -0.07519812 -0.07187592
0001a0 94 5b ae bd 54 f7 83 3d 30 66 2c 3c 00 cf be ba
       -0.08513561 0.064436585 0.01052241 -0.001455754
0001b0 04 14 1b 3d 17 c3 05 3e c0 85 33 bc 8c 10 8b bd
       0.037860885 0.13062702 -0.010957181 -0.067902654
0001c0 1c 12 d2 bd 1a 4d ef 3d 7d ec ff bd 62 56 8d 3d
       -0.1025736 0.11684628 -0.124962784 0.06901242
0001d0 4e 7a fd 3d ac b4 9a 3d 80 07 8f ba e0 72 96 bc
       0.123768434 0.07553992 -0.0010912269 -0.018365324
0001e0 9a 83 b7 3d bf 01 9a bd d4 c6 4c 3d 48 09 33 bd
       0.08960648 -0.07519864 0.049994305 -0.043710023
0001f0 1e 99 98 3d b4 3e 00 bd 0e 4a c1 bd 08 32 5d bd
       0.0745108 -0.0313098 -0.09437953 -0.05400279
000200 00 54 aa 3d f0 64 53 3d 4a 7e cc bd 93 55 bc bd
       0.08316803 0.051609933 -0.09985025 -0.091960095
000210 3c c2 ed bc 00 60 5d bc 4c dd 22 bd f4 ba c2 3d
       -0.029023282 -0.013511658 -0.039761826 0.09508315
000220 d0 d7 20 3c 62 c2 1a bd 70 f2 04 bc 9a 9f 84 3d
       0.009817079 -0.037783034 -0.008114442 0.06475754
000230 0e 1e cb bd e2 4c 0e be cc ab e8 bd 9c ae 7e 3d
       -0.09917842 -0.13896516 -0.11360893 0.06217824
000240 80 92 7b 3c d5 86 01 be 3a b9 ec 3d f6 21 9b 3d
       0.015354753 -0.1264909 0.11558767 0.07574837
000250 0c 1f 07 be 10 f6 b1 3d 55 1c c3 ba bf 4c 55 3c
       -0.13195437 0.08689511 -0.0014885763 0.013018786
000260 e7 01 08 3e 07 ea b9 3d a3 1c 36 3d bc a0 7b bd
       0.13281976 0.0907784 0.044460904 -0.061432585
000270 ac a4 bb 3d f8 6a d7 3d d7 ba 1c bc d5 cf 0a be
       0.09162268 0.105184495 -0.00956603 -0.13555844
000280 5f 74 fd 3d 1a 95 8f bd 87 9d b4 bd fe 74 19 be
       0.12375712 -0.07010861 -0.088191085 -0.14986035
000290 6b 13 7f 3d 54 08 8b 3d b4 31 3e bd 36 ea 00 be
       0.062274378 0.06788698 -0.04643412 -0.12589344
0002a0 53 2b d7 3d c2 fa a8 3c c1 be 00 3e 42 7d b3 3b
       0.1050631 0.020627383 0.12572767 0.0054775784
0002b0 ac 7c 21 3e 38 24 19 bd a0 09 8a bd 4e 40 a4 3d
       0.15770215 -0.037388057 -0.06740117 0.08020078
0002c0 8c d7 43 3d 4e 4f f3 3d aa 07 34 3c 19 2a b0 bd
       0.047812983 0.118803605 0.010988155 -0.086017795
0002d0 99 81 c5 bd b7 80 8d bd 1f ce 91 bc d4 86 ab bd
       -0.096438594 -0.06909316 -0.017798482 -0.08375326
0002e0 5e 82 e6 3d 2d ae 98 bd a8 34 a9 3c 3a 41 c1 3d
       0.11255334 -0.074550964 0.020654991 0.09436269
0002f0 e4 f1 c2 3c 6f 78 87 3c 83 50 1d 3d dc 3a c3 bd
       0.023796983 0.01653692 0.03840686 -0.09532711
000300 2b fd 24 be 4f 69 2c 3d 48 44 d7 bd bb 4f f9 bd
       -0.16112201 0.042092618 -0.105110705 -0.121734105
000310 e4 b2 cc bd f5 8d dc 3d b7 7c d6 bd 5a 0f 08 3e
       -0.09995058 0.10769264 -0.10473006 0.13287106
000320 c2 01 be 3d 53 3f ca 3c 09 23 b0 bd 17 ab fb bd
       0.09277679 0.024688398 -0.086004324 -0.12288492
000330 89 95 e8 bd 30 7c b8 3d e6 78 b8 bd 46 56 6f bc
       -0.113566466 0.09008062 -0.090074345 -0.0146079715
000340 ac 9f a9 3c 63 a0 4a bc 8e 43 0e 3d ac 1f df bd
       0.02070602 -0.012367341 0.034732394 -0.10894713
000350 36 61 ee 3d 4f f7 c8 bd a1 59 a9 bd 86 5b fb bd
       0.11639635 -0.09812795 -0.082690485 -0.12273316
000360 5f 38 b7 3d e6 b8 96 bd a4 88 53 bd 7b 95 92 3d
       0.08946299 -0.07359485 -0.051643983 0.071574174
000370 ad 49 69 bc 4c 05 e8 3d bf 40 09 3d 4f fd 36 bc
       -0.014238757 0.11329135 0.033509012 -0.011168792
000380 be 6d be bd 49 ed 08 be 08 f1 18 3d b2 8a 67 3c
       -0.092982754 -0.13371767 0.03733924 0.014132189
000390 67 ef 02 3e 9f 05 0a be 9a 26 e4 3c 75 fb 7f 3d
       0.12786637 -0.13478707 0.027850438 0.062495667
0003a0 27 3f a0 3d 4a 25 91 3d 82 51 0e bc fa d2 09 be
       0.07824545 0.070871904 -0.008686425 -0.13459387
0003b0 2f 27 ee bc d8 71 0b 3e 09 f1 d6 bd 33 97 c8 bd
       -0.029071419 0.13617647 -0.104951926 -0.09794464
0003c0 a1 55 08 3e 8e de 8f bb 32 73 2f bd de 2f 75 3c
       0.13313915 -0.0043905443 -0.04283447 0.014965026
0003d0 8c b3 79 3d 8f 83 4e 3c 4b c5 e4 3d 55 41 bd ba
       0.060962245 0.012604608 0.11170443 -0.0014439026
0003e0 66 04 6c bd e9 38 91 bd 50 89 32 bc 5c 4e e2 bc
       -0.057621382 -0.07090933 -0.010896996 -0.027625255
0003f0 92 d6 c3 3d f8 0b 87 3d 76 1c df 3d 4e f1 e2 3d
       0.095624104 0.0659408 0.108941 0.110811815

fc2.bias f4 [50]
000000 8e d8 a4 3d 96 00 1b 3e 60 e4 fd bd 57 47 0e 3e
       0.08049117 0.15136942 -0.12397075 0.13894401
000010 f2 cf ae 3d ab 8e 08 be 6c 32 5f bd fd e0 97 3d
       0.08535756 -0.13335674 -0.054491445 0.0741596
000020 a4 03 da bd 42 db 4a 3e 06 ec 59 bd a4 40 89 3d
       -0.10645226 0.19810203 -0.053203605 0.06701782
000030 a6 e4 4d 3b e4 80 61 bd a5 48 08 be 29 ba 2c 3c
       0.0031416803 -0.05505456 -0.13308962 0.010542431
000040 b8 a8 ec bd ad e3 06 bc cb 91 99 3c 66 d7 4a bd
       -0.11555618 -0.008232993 0.018746277 -0.049521826
000050 6e 58 eb 3d 82 1b 02 be 80 a5 e4 bd 8b 95 ff 3d
       0.11491476 -0.12705806 -0.11164379 0.12479695
000060 3f d5 96 bd 99 4d 38 3e 00 54 ea bc c6 39 3b 3c
       -0.07364892 0.17998351 -0.028604507 0.0114273485
000070 7d b2 15 3e b9 53 a2 bc 95 39 e8 bd d0 4e 71 bd
       0.14618869 -0.019815313 -0.11339108 -0.058913052
000080 bb 87 26 3d ba be 4a 3e 82 2e 42 3e 18 a7 54 bd
       0.040656786 0.19799319 0.18963054 -0.051917166
000090 f3 be 50 3d 52 6a fa 3d 22 ce f4 3c 77 26 00 bd
       0.050963353 0.1222731 0.029883448 -0.031286683
0000a0 1a 5d 8c bd 13 3b 56 3c 35 c5 c2 3d 99 99 11 3e
       -0.06853695 0.013075608 0.095102705 0.14218749
0000b0 ef 7a be bd c2 d9 31 3d 99 94 17 3e 28 19 cd bc
       -0.093007915 0.04342056 0.1480278 -0.02503641
0000c0 79 fb 24 3d 43 0b 02 be
       0.040278886 -0.12699609

fc3.weight f4 [11, 50]
000000 87 59 9e 3d 2a c9 0a ba 63 02 05 3e 1e bc 01 3e
       0.0773192 -0.0005294258 0.12989192 0.12669417
000010 3d 85 92 bd 70 14 80 bd 1f bf e3 bd 37 a4 16 be
       -0.071543194 -0.06253898 -0.11120438 -0.1471108
000020 0b 63 03 be 98 18 89 3d 66 10 c0 3d 12 57 b9 bd
       -0.1283075 0.06694144 0.09378128 -0.090498105
000030 e4 7e ca 3d 46 ba 35 bd 28 d5 2c 3d 4b 98 f2 3d
       0.09887484 -0.044367097 0.04219547 0.11845454
000040 6a b6 e0 3d ad c5 f9 bd 5c 4c 73 3d 29 79 91 bd
       0.10972293 -0.12195907 0.059398994 -0.071031876
000050 00 bc b5 bd a0 56 cd bb 6a bb 01 bd f2 74 70 3d
       -0.08873749 -0.00626643 -0.031672873 0.058705278
000060 c8 b0 82 3c 42 83 b7 3d 88 66 95 3d a9 3b e9 bd
       0.015953436 0.08960582 0.07294947 -0.113883324
000070 57 35 18 be 3f 06 b7 bd 86 26 95 3d d5 bc 05 3e
       -0.14864098 -0.08936738 0.072827384 0.13060315
000080 e3 98 b1 bd e7 f3 64 3c 5a 8a 43 bc 4c 2d 58 3d
       -0.08671739 0.0139741665 -0.011934841 0.052777573
000090 cc e3 35 3d 2e be 96 3c c8 a3 88 3d 56 78 20 bd
       0.044406697 0.018401232 0.06671864 -0.03917726
0000a0 ff 3e 0a 3e c4 44 77 3b 62 e8 fd bd 2e 18 7c 3d
       0.13500594 0.0037730196 -0.12397839 0.061546497
0000b0 62 e7 cb 3d 5a b5 b0 3d b3 f8 e1 3c 28 fb 43 3d
       0.09956242 0.0862834 0.02758441 0.047846943
0000c0 eb a5 32 3d 0a 56 77 bd 70 fa bf 3b 14 8c 29 bd
       0.043615263 -0.060384788 0.005858712 -0.041393355
0000d0 13 5f a0 bd 4c ed e0 bd ae 1b 8d bd 00 2a be bc
       -0.07830634 -0.10982761 -0.06890045 -0.023213387
0000e0 9a 93 be bd bc 3a 04 3e c0 c0 69 bb 1c 25 12 3e
       -0.093054965 0.1291303 -0.0035667866 0.14271969
0000f0 83 f0 b9 bd 29 2a 31 3d 68 8b 3c bd 4a 75 99 3d
       -0.09079077 0.043253098 -0.046031386 0.07493074
000100 2e a1 67 bd 07 a6 8f bd 20 2c 38 3c e1 df 71 bd
       -0.056550197 -0.07014089 0.011240989 -0.0590514
000110 32 06 ba 3d c0 93 ae bb ad f8 47 3c cc fb 29 bd
       0.09083213 -0.0053276718 0.012205285 -0.041499898
000120 3a 98 0e bd b3 8a 49 be 50 e0 21 3d 44 02 5d 3d
       -0.034813143 -0.19681816 0.03952056 0.05395724
000130 3c 27 be 3d f9 f4 02 bc c1 4b 8b 3d 7a a0 9b bc
       0.09284827 -0.007992976 0.06801558 -0.01899742
000140 e8 3d 6c 3d 87 83 0a 3e 83 73 0c 3d eb c7 8c bd
       0.057676226 0.13526736 0.034289848 -0.06874069
000150 9d d8 72 bd 40 c6 5d 3d fd fd 18 3e ec 6a 45 bd
       -0.05928861 0.054144144 0.14940639 -0.04819767
000160 aa ee 07 3e 26 b5 ce 3d d2 82 fd 3d 6c c0 99 3d
       0.13274637 0.10093145 0.123784676 0.07507405
000170 1e b8 cb bd eb 18 09 3e 80 d6 a2 3b 71 90 70 bd
       -0.09947227 0.13388412 0.004969418 -0.0587315
000180 26 9e 1b be 1e 78 63 bd 2d fd f2 3d ed b1 10 3e
       -0.15197048 -0.055534475 0.11864696 0.14130373
000190 e0 0a bd 3d 4d b9 ee bd 1e 0b a7 3d 14 50 90 3d
       0.0923059 -0.11656437 0.08156417 0.07046524
0001a0 7b 28 ee 3d 02 71 aa bd 2a e6 ef 3d 89 73 f7 bc
       0.11628815 -0.08322336 0.11713822 -0.030206459
0001b0 40 69 67 3d a1 fb 18 be bc 85 b3 bc b5 9e ba bd
       0.05649686 -0.14939739 -0.021914355 -0.09112302
0001c0 ab ad 26 bd 50 37 70 bc ee 88 4f bd be 82 80 3d
       -0.040692966 -0.014661625 -0.050667696 0.06274937
0001d0 41 32 06 3e 4d bd 09 3d 55 86 81 bd 04 38 01 bd
       0.13105108 0.033627797 -0.0632445 -0.03154756
0001e0 75 2c 3b bd b0 dc 2b 3c 50 2f 4e bc af 83 a3 3d
       -0.045696694 0.010489628 -0.012584522 0.07984101
0001f0 d0 58 31 3c 3b 31 1d be 38 39 4f bd 1d b6 91 bd
       0.010824397 -0.15350811 -0.050591677 -0.071148135
000200 46 14 c7 3c 5b cf 01 3e 0e 63 eb 3d 04 1b 09 3d
       0.02430166 0.12676756 0.114935026 0.03347303
000210 e8 29 d8 bd b3 68 f1 bc cc 72 a1 bb 40 5d 3a 3b
       -0.10554868 -0.02946887 -0.004927015 0.002843693
000220 ba c7 99 3d 73 df 4e 3d 4c 4e 40 bd 25 92 67 bd
       0.07508798 0.050506067 -0.04694967 -0.05653586
000230 20 c8 86 3c e3 ab 5a 3c 8b eb 74 bb 79 20 23 be
       0.016452849 0.013346645 -0.003737184 -0.15930356
000240 ad df 07 be ba 99 f2 3d d5 ba ed 3d 0b e0 fd bd
       -0.1326892 0.11845727 0.11607901 -0.123962484
000250 73 77 cb bd 10 6a a8 bc be 14 aa bd dc ba 0a be
       -0.099348925 -0.020558387 -0.083047375 -0.13547844
000260 18 45 33 3d 6f cd aa bd 16 53 37 3d 7e 17 bb bd
       0.043767065 -0.083399646 0.04475697 -0.0913534
000270 80 f3 f1 bb 35 ca 5a bd a8 52 db bc 37 24 92 bd
       -0.007383764 -0.053415496 -0.026772812 -0.07135814
000280 5f ba f2 bd cc ab e7 3d 94 ae 45 bc 3c fa 9b bd
       -0.11851954 0.113120645 -0.012065548 -0.07616088
000290 85 42 07 3e 03 e4 93 3c 5c 7c 08 bd 47 75 1e 3d
       0.13208969 0.01805306 -0.033321723 0.038686063
0002a0 86 01 07 bc 38 43 11 3d 0e b8 03 3e 9c f3 55 3d
       -0.008240109 0.035464495 0.1286318 0.052234277
0002b0 c0 27 cc 3d 66 b0 ac 3d f4 48 69 bd 0a 58 97 bc
       0.09968519 0.08432083 -0.05695434 -0.018474597
0002c0 90 57 da bc e2 68 12 3e 50 e7 91 bd 91 0a cf 3d
       -0.026653081 0.14297822 -0.071241975 0.10109437
0002d0 34 b4 27 bd a6 39 f2 3d e8 77 57 3d 61 07 86 3d
       -0.04094334 0.11827402 0.052604586 0.06544376
0002e0 b4 f7 f0 bd c0 38 89 bb 70 db 01 3e 2d c5 f4 bd
       -0.117659956 -0.0041876733 0.12681365 -0.11951671
0002f0 7d 98 2c bd 47 1e 0d be 1c d4 05 be 68 da da 3d
       -0.04213761 -0.13781081 -0.13069195 0.10686189
000300 b9 83 ad bd 72 1c 7a 3b f1 ef f6 bd 12 ca e8 bd
       -0.0847239 0.0038163927 -0.12057484 -0.11366667
000310 b2 c0 fd 3d 08 9f e2 3c 76 53 20 bd 4c ac 19 bd
       0.12390269 0.027663723 -0.039142095 -0.03751783
000320 74 ed 03 3e e7 7a 02 3e e8 04 cd 3d 5f aa 26 3e
       0.1288355 0.12742196 0.100107014 0.16275929
000330 4e 27 41 3c 60 cd ac 3c a0 8f 07 3c 3d 83 ae bd
       0.011789156 0.021094024 0.008273989 -0.085211255
000340 5e 67 fb bd 09 9c d9 3d 3a 5b f0 3d a3 3e 3f 3c
       -0.12275575 0.106254645 0.1173615 0.011672649
000350 75 76 4f bd ca a6 fb 3d 44 c5 80 bd 95 f9 af bb
       -0.05065008 0.12287672 -0.062876254 -0.0053703287
000360 98 9b 46 bd de 60 c3 bd 10 79 d3 bd 43 54 0d 3e
       -0.04848823 -0.0953996 -0.10325825 0.13801675
000370 91 c5 2c 3e 28 5e 8e 3d 3c da 54 bd 44 c5 c3 bb
       0.1687224 0.06951553 -0.051965937 -0.0059744436
000380 3a b6 a9 3d 3e 4a d3 3d 4d c5 10 3e 16 4e a9 3d
       0.0828671 0.10316895 0.14137764 0.08266847
000390 53 66 db bd b8 97 7d bd 45 f4 09 3e 99 3e cc bd
       -0.10712876 -0.06191227 0.13472088 -0.09972877
0003a0 d0 2f 0a be 3a f5 44 bd d5 e9 88 bd 82 36 90 3d
       -0.13494802 -0.04808543 -0.06685225 0.070416465
0003b0 a2 91 e6 bd cd 48 47 bd 3e 04 19 be 27 b6 d8 3d
       -0.11258246 -0.048653413 -0.14943025 0.10581618
0003c0 a8 9b 03 3d 53 63 73 bd 2a 96 0e bd 50 70 85 3d
       0.032130867 -0.059420895 -0.034811176 0.065155625
0003d0 1e ac e5 3d e0 1f 18 be 55 6d 9b bd 80 eb c6 3c
       0.112144694 -0.1485591 -0.07589213 0.024282217
0003e0 c0 63 0f 3d e8 9c b7 bd 13 ff b8 3d 30 4c 42 3c
       0.03500724 -0.08965474 0.090330265 0.011858985
0003f0 e3 c4 a0 bd bb 65 06 be a0 40 8a 3c ac a2 34 3d
       -0.07850053 -0.13124745 0.016876519 0.04410045

fc3.bias f4 [11]
000000 b7 6b c1 3b 5f 19 c3 3b 0b 48 60 be c2 63 ba 3d
       0.005902733 0.005953952 -0.21902482 0.091010585
000010 ab 82 bc bd c3 78 22 3e cb c8 48 3d ed 08 3c 3d
       -0.092046104 0.1586638 0.049019616 0.04590695
000020 63 da 85 be 38 f0 03 3e 85 5a 2e 3d
       -0.26143178 0.12884605 0.042566795
