models/part2_basic.pt (torch, 109303 bytes, 6 tensors)

net.0.weight f4 [100, 155]
000000 1b c8 08 bd 7c 54 79 3c 6c 42 83 3d f0 7a 9f bb
       -0.03339396 0.015217897 0.06409153 -0.00486695
000010 c0 e2 07 3c f0 6f c3 3b 73 2b 82 ba 87 9d 45 3d
       0.0082938075 0.0059642717 -0.0009931162 0.048245933
000020 cc 04 32 3d 4a 33 30 bd fb 12 9d 3d 53 51 3d 3d
       0.043461606 -0.043017663 0.07669636 0.046220135
000030 ac e4 4d bc 4a 06 94 3d 31 4a d7 3b 0c a7 52 3d
       -0.012566727 0.07227762 0.0065701236 0.05142884
000040 fd 20 8a bd 29 f4 93 3d b4 4b 9b 3d 9d 81 74 bd
       -0.06744573 0.07224304 0.075827986 -0.05969392
000050 9b f4 92 bd 33 a9 ac bc c6 45 4a bd 43 e9 b2 3c
       -0.07175561 -0.021076774 -0.049382947 0.021839743
000060 e7 f7 1b 3d ed 9f 01 bc 8c 68 6f 3d b4 d4 8d 3b
       0.038078215 -0.007911664 0.058449313 0.0043283347
000070 a2 64 c1 bc 32 b3 89 bd 24 20 d1 3c 00 fe 9a bd
       -0.023607556 -0.06723632 0.025528021 -0.07567978
000080 e7 09 ed 3a 2b 57 5a 3c 2e 41 38 bd f8 ac c5 3c
       0.0018084616 0.0133264465 -0.044984035 0.02413033
000090 61 fb 7f 3c 5a 2c 5c 3d 7a c5 4d 3d d4 14 85 bd
       0.015623898 0.053753234 0.050237156 -0.06498113
0000a0 85 ee 73 bd 1c 80 f1 bc 75 ae 6c bd 39 c4 d1 3c
       -0.05955364 -0.029480033 -0.057783563 0.025606262
0000b0 78 8e 57 bd a2 2e 7b bd 48 a6 bf 3c 82 8e 46 3d
       -0.052626103 -0.06132377 0.023394719 0.04847575
0000c0 66 4b bf bc 9a ea a3 bd c8 fd 39 3c 94 99 28 3d
       -0.023351382 -0.08003731 0.01135201 0.04116209
0000d0 8f 80 80 3d 80 ba f9 3b 7e 66 64 3d c7 15 93 bd
       0.062745206 0.0076211095 0.055761807 -0.07181888
0000e0 77 5f 9d 3d 3b 72 54 bd e2 90 60 bd 12 1d 6c 3d
       0.07684224 -0.05186675 -0.05482567 0.05764491
0000f0 4c 9c 93 bc 5a 09 4b 3d 48 70 66 bd 6e e9 78 3d
       -0.018018864 0.049569465 -0.056259423 0.06076949
000100 a7 02 9c 3d 1c 3d c7 3c 5b b3 84 3d 51 f2 6a bd
       0.076176934 0.024321131 0.06479522 -0.057359997
000110 58 4b 91 bc c8 47 c8 3c f2 e9 39 3d f0 ab 2f bd
       -0.017736122 0.02444829 0.045389123 -0.04288858
000120 6a 5a 51 3d c2 f4 d9 bc 7d 8b 2f bd be 06 89 3c
       0.051111616 -0.026605967 -0.042857636 0.016726848
000130 50 07 81 bd 5d 0a 96 bd 88 88 da 3c ef 56 e0 3c
       -0.06300223 -0.073261954 0.026676431 0.027385203
000140 9a 1c fd 3c 89 7b 2c bc 33 97 70 bd 9c fb 83 bd
       0.030897427 -0.0105275 -0.058737945 -0.06444475
000150 7d 8a 9d 3d 4e 83 8e bd d9 50 c6 3c bc 09 88 3d
       0.0769243 -0.06958638 0.024208473 0.06642482
000160 f4 a4 80 3d 0c e2 4b bd ea 29 d4 bc bb 21 82 bd
       0.06281462 -0.049776122 -0.025898892 -0.0635409
000170 08 0f 51 3d b5 42 9a bd 98 6f 97 bd 86 6b 5b bd
       0.051039726 -0.075322546 -0.07394332 -0.05356934
000180 8d 3b 86 3d b2 40 55 3d f8 a9 5c 3d ba 6f 7c 3d
       0.06554327 0.05206365 0.053873032 0.06162999
000190 04 38 19 bd 0e 3f 32 bd 8a 1d 4a bd 98 1c d9 3c
       -0.037406936 -0.043517165 -0.049344577 0.026502892
0001a0 a0 f3 ff 3c 14 e5 87 3c 78 55 7d bd e3 e5 e6 3b
       0.0312441 0.016588725 -0.061849087 0.0070464476
0001b0 1a cf 2e bd 68 09 82 bc 66 21 4d bc 9f d7 7f 3b
       -0.042677976 -0.015873626 -0.01252017 0.0039038432
0001c0 fe 49 90 bd 0f 5d 8c 3d 91 39 0c bd f4 f2 cc 3c
       -0.07045363 0.06853687 -0.034234587 0.025018193
0001d0 82 55 62 3d c7 28 07 3d c3 28 68 3d 84 ee 39 3d
       0.055257328 0.032997873 0.0566795 0.04539348
0001e0 dc e9 70 3d 32 e0 8a 3c b6 23 52 3d 7e a6 09 bd
       0.058816776 0.016952608 0.051303588 -0.033606045
0001f0 cb 46 31 bd 3e 19 1d 3d c4 e5 ac 3c b4 7e de ba
       -0.043280404 0.03835415 0.021105655 -0.0016975016
000200 7c 46 86 bd 05 cd e7 3c 44 97 59 3d 94 e3 0f bc
       -0.065564126 0.028296003 0.053122774 -0.008782286
000210 57 f5 97 3c 02 2e 14 3d b3 a8 a1 bd 87 d7 57 bc
       0.018549604 0.03617669 -0.07893505 -0.013173944
000220 e3 83 ef bc 42 28 28 bd 6b bf 50 3d 59 19 a3 3d
       -0.029237693 -0.041054018 0.0509638 0.07963819
000230 6f 5d 52 3c be 89 56 3d 4e 4b 6b bd d0 1a 81 3c
       0.012839659 0.052377455 -0.057444863 0.015759856
000240 38 33 2a bc d3 48 46 bd 59 2b 87 3c 25 1e d1 3c
       -0.010388188 -0.048409294 0.016500162 0.02552707
000250 2a 99 74 bb 4a 10 10 3d c1 a8 1d 3d cd 27 95 3d
       -0.0037322738 0.035171784 0.038491014 0.07282982
000260 0a f3 9b 3b 5b 81 45 3b 34 3f 56 ba 18 d8 46 3c
       0.004759197 0.0030136916 -0.000817287 0.012136482
000270 e6 a0 51 bd 2a c6 1f bc 20 1b 8b bd ec c4 66 bd
       -0.051178835 -0.009751836 -0.06792283 -0.056340143
000280 57 1e 8c bd aa 18 74 3d 58 f7 3c bd e0 67 d4 bb
       -0.06841724 0.059593834 -0.046134323 -0.0064821094
000290 5e 5d 0e 3c 2c 5f 91 3d b3 a1 15 3d 74 4a 6a bd
       0.008689253 0.07098231 0.03653116 -0.05719991
0002a0 04 06 a4 3d a8 75 98 bd 9f 03 43 3c fe 3e 99 3d
       0.0800896 -0.07444316 0.011902719 0.07482718
0002b0 78 d0 8e 3d d7 ea 93 bc ad 1f 5a bd 4c ec 10 3d
       0.06973356 -0.018056316 -0.053252865 0.0353816
0002c0 7f 96 81 3d 9c 63 2f bd 72 1a 4c bc 42 16 43 bd
       0.06327533 -0.042819604 -0.012457477 -0.04762865
0002d0 85 e1 05 3d 51 0d 97 3c 53 29 27 3d fc 4f e5 bc
       0.032685775 0.018438967 0.040810894 -0.027992241
0002e0 43 47 9d bd 0a 8d 0a bd ef a6 80 bd 8b b9 94 bc
       -0.07679608 -0.03382591 -0.0628184 -0.01815488
0002f0 3f e5 01 3d b2 d0 88 bd 80 b6 75 bb 42 ec a0 bd
       0.031712767 -0.066804305 -0.0037492812 -0.078575626
000300 0a 25 69 bd 3c 58 66 bd 98 9b df bc 3a 8f 26 bd
       -0.05692009 -0.05623649 -0.027295873 -0.040663935
000310 40 90 4a 3c 46 1e 49 3d 74 71 78 3d f0 51 cf 3c
       0.012363493 0.049101137 0.060655072 0.025307626
000320 c1 b4 0a ba d0 83 6a bc 16 64 5f 3d 72 6d 3c bd
       -0.00052912167 -0.014313653 0.05453881 -0.046002813
000330 a2 cd 6d 3d c6 61 9e bd 0a 8e 75 bd 0c 8b ae 3c
       0.058057435 -0.077334926 -0.059949912 0.021306537
000340 2d 81 07 bd 35 02 75 3c 0b 54 8f 3d 9a 43 16 3d
       -0.033082176 0.0149541395 0.06998452 0.036685564
000350 bf 01 a1 3d 8e 5a 0b bd 57 1b 1d bd 6d 35 1b bc
       0.07861661 -0.034021907 -0.03835615 -0.009473187
000360 40 85 84 bc 70 b7 10 bd 00 69 a3 bb a9 9c 94 3d
       -0.01617682 -0.03533119 -0.004986882 0.07256443
000370 d7 57 34 bd 92 c2 38 3d bc d5 18 3d 6e 87 3e 3d
       -0.044029083 0.04510743 0.037313208 0.046515875
000380 ec 83 b1 3c f8 12 f3 bc 3e c8 07 3d f9 f4 1a bd
       0.02166935 -0.029672131 0.03314995 -0.03783128
000390 da fa 46 bd 06 c6 99 3d 2f 99 8a 3d fb 28 67 bd
       -0.048579074 0.07508473 0.06767499 -0.056435566
0003a0 bc bf 86 3d 7c 85 88 3c 37 fb a8 3c 4d 92 9e 3d
       0.06579539 0.016665213 0.020627601 0.077427484
0003b0 ac 68 89 bb be cc d0 bc 38 74 4f 3d 05 31 a8 bc
       -0.004193386 -0.025488254 0.050647944 -0.020531187
0003c0 21 c3 9c bc a0 ab 04 bd 37 e6 a3 3d 88 41 24 3d
       -0.019136013 -0.032390237 0.08002894 0.040101558
0003d0 f4 21 48 bc 42 10 d2 ba 91 54 d0 3b 47 1e 41 bd
       -0.012215126 -0.0016026574 0.0063577374 -0.047148015
0003e0 1a ae be 3c 5e 58 7f bd 70 3b 70 bb b5 a0 75 bc
       0.023276377 -0.062340133 -0.0036656521 -0.014991929
0003f0 e8 55 06 bd 72 3b 98 3d 68 47 b8 3c ff bd 1e 3d
       -0.03279677 0.07433213 0.022494987 0.038755413

net.0.bias f4 [100]
000000 ab 56 be bc 2c 66 48 3d 2c 28 a1 bc e2 ce 93 bb
       -0.023234686 0.048925564 -0.019672476 -0.0045107463
000010 c4 b3 2d 3c 99 16 91 bd 6c 2f 33 3d d8 d2 a6 3d
       0.0106019415 -0.07084388 0.043746397 0.08145684
000020 03 bb 75 bd fb 45 22 3d c6 97 95 bd 87 7f b8 3b
       -0.0599928 0.03961752 -0.07304339 0.005630437
000030 0c 0b ea bc fb 39 8f bd 12 a4 31 3d ea c3 68 3d
       -0.02856972 -0.06993481 0.04336936 0.056827463
000040 3b ee a2 3c 13 c3 10 3d eb f9 35 bd 29 95 3c 3d
       0.019888988 0.035342287 -0.044427793 0.046040688
000050 6e ec 82 bd ad 51 72 bc 50 66 f2 bc b3 1c 07 bd
       -0.06392752 -0.014789981 -0.029589802 -0.032986354
000060 3a b7 95 3d 08 10 84 3d 91 e8 47 3d ef 1b f6 bc
       0.07310338 0.0644837 0.048805777 -0.030042617
000070 c9 65 2b bd d1 9a 64 bc e1 74 cd bc 2c 49 d6 3b
       -0.041845117 -0.013952927 -0.025080146 0.0065394845
000080 0d df 47 3d 6c c9 9f 3d ec 86 48 3d 67 24 87 bd
       0.048796702 0.0780209 0.048956797 -0.0659874
000090 04 9d 7e 3d a5 9f 98 bd 1e b5 41 3c de 36 7b 3b
       0.06216146 -0.07452325 0.011822967 0.0038332264
0000a0 27 64 46 bc a6 f9 d8 bc 70 73 d8 bc 98 eb 60 3d
       -0.012108839 -0.02648623 -0.026422232 0.05491218
0000b0 ab b4 51 bd 95 1e a1 3c a8 f1 19 3d be e8 79 3d
       -0.05119769 0.019667903 0.037583977 0.061012976
0000c0 fd f0 06 3c 5c 70 9d 3d 8b 3d a2 bd 92 85 37 bd
       0.008236167 0.076874465 -0.07921895 -0.044805117
0000d0 35 f4 8e bd e6 08 bd bb 6c 76 4b bd 20 03 80 3d
       -0.069801725 -0.005768883 -0.049673483 0.06250596
0000e0 a8 00 fd bc b7 36 09 3c 09 8e 72 3d f7 1e a2 bd
       -0.030884102 0.008374861 0.059217487 -0.07916062
0000f0 ca 4e e7 3c 26 d2 76 bd 2b 13 44 3d a2 c4 51 bc
       0.028235812 -0.060259007 0.047869842 -0.012803229
000100 88 25 8d bd 9b c7 ab 3c 7a e6 62 3c 86 30 13 3d
       -0.06891924 0.020969203 0.013848895 0.035934947
000110 70 6c 54 3d f5 5f f2 bb 25 92 18 bd 60 84 ac 3d
       0.051861227 -0.007396693 -0.03724875 0.08423686
000120 49 59 ba bc 96 57 81 3d 15 8c 79 3d 24 54 a1 bd
       -0.022747653 0.06315534 0.06092461 -0.07877377
000130 0f 46 a3 bc d3 4d 1a bb 52 d3 83 bd 75 49 b9 3c
       -0.019930867 -0.0023544922 -0.064367905 0.022618035
000140 8b fd 07 bd da d5 28 bd 59 f9 8b 3d 5a 95 31 3d
       -0.03320078 -0.04121957 0.06834669 0.043355323
000150 0e 33 b0 3d 64 6d fb bb 17 70 85 bc 0b 5d 4d bd
       0.08603488 -0.0076729525 -0.0162888 -0.05013756
000160 e7 13 7b 3b fe 1a 91 3d 77 36 ab bb e4 0f f5 bc
       0.0038311423 0.070852265 -0.0052249986 -0.029914804
000170 75 75 75 3d 37 c6 0d 3b 57 78 8b 3c bd ec a0 3d
       0.05992647 0.0021633038 0.017025156 0.07857654
000180 7b 02 9e 3d 0a 8b a1 3d fa 7c 95 bd 10 3d f8 3b
       0.07715317 0.07887848 -0.07299228 0.0075756386

net.2.weight f4 [100, 100]
000000 58 fe a1 3d 65 28 af 3d a1 cb ae bd ad e3 85 3d
       0.0790984 0.085526265 -0.08534933 0.06537566
000010 ac bc 3b bd c7 20 4d bd 60 89 84 bd 7f f0 7b bd
       -0.04583423 -0.050080087 -0.06471515 -0.06150865
000020 18 19 80 bc 53 b4 23 bc 7d 75 33 bd 6e a3 65 3d
       -0.015636966 -0.009991723 -0.043813217 0.05606406
000030 15 ba 85 bd 7b 6c b6 3d 48 fc c7 bd 9e 6e 17 3d
       -0.06529633 0.0890741 -0.09764916 0.036970727
000040 fa 9d 8a bd 1d 34 57 bd 54 38 c2 3c 6a 06 ad bc
       -0.06768413 -0.052539933 0.0237085 -0.021121223
000050 ed 66 89 bd 96 64 71 bb 24 52 98 bd 57 dc 73 bd
       -0.06709085 -0.0036833636 -0.07437542 -0.059536304
000060 d0 63 51 3d 94 69 fb ba 8e 20 d0 bc 75 b7 a1 3d
       0.05112058 -0.0019181245 -0.025406148 0.0789632
000070 c0 46 81 3c a0 9b 97 3d ba 30 35 3d 15 ff 00 b9
       0.015780807 0.0740273 0.044235922 -0.00012302057
000080 ab ee 32 bd 82 49 54 bd 76 4e a2 3d 54 25 af 3c
       -0.043684643 -0.051827915 0.079251215 0.021380104
000090 5d 0f 9f 3d d6 c2 74 3d c8 99 20 bc 24 2c ad bd
       0.07766602 0.059756123 -0.009802289 -0.08455685
0000a0 2c f8 02 3d 91 cc f9 bc d0 03 3f 3c c5 21 36 bd
       0.031974956 -0.030493053 0.011658624 -0.0444658
0000b0 3d ed a0 3d ba 44 b4 3d b1 5e 8a bd 9d a3 03 bd
       0.078577496 0.08802171 -0.06756342 -0.032138456
0000c0 6b 99 a9 bd 74 c8 26 3d fb c7 97 bd fb c3 a1 bd
       -0.08281215 0.04071851 -0.0741119 -0.078987084
0000d0 73 b6 95 bd 59 0a b6 bd eb 34 9e 3d 45 7c 51 bd
       -0.0731019 -0.088886924 0.07724937 -0.051143903
0000e0 f9 1a 8c 3d 90 59 ed bc 4b 8f fe bc 60 67 e0 bc
       0.06841082 -0.02897337 -0.031074187 -0.027393043
0000f0 72 3a b7 bd 52 d5 e5 3c 17 23 45 bd 9c 9c 12 3d
       -0.089466944 0.02805582 -0.048129167 0.035793886
000100 ca 80 ae bd d4 27 03 3c 92 34 95 3d 1d 13 09 bd
       -0.08520658 0.008005101 0.072854176 -0.033465493
000110 11 83 54 3c 9f ba c7 bd a3 4c 27 bd e1 1f 99 3d
       0.012970702 -0.09752392 -0.04084457 0.074767835
000120 46 52 00 3d 0c cb e7 3c b3 bb 26 3d 78 44 a7 bc
       0.031328462 0.028295062 0.040706348 -0.02041839
000130 0c cb 0d bd c2 02 b0 3d 2c 33 16 bd a7 e1 85 bc
       -0.03461747 0.08594276 -0.036669895 -0.016342951
000140 28 36 9b bd 6b fc 9c 3d 0f ad 26 bd dd ff 39 bd
       -0.07578689 0.076653324 -0.040692385 -0.045410026
000150 2c 5b 8f bd 65 fd 73 3c 2d c2 af bd 55 22 ae 3d
       -0.069998115 0.014891957 -0.08581958 0.08502642
000160 64 92 93 3d a2 03 ad bd 5f ea ae bd ef a4 c7 3c
       0.07205656 -0.084479585 -0.085407965 0.024370639
000170 9e 9a 8a bd fe 13 d0 bd 7f 80 5f 3d 13 04 08 bd
       -0.06767772 -0.10160063 0.054565903 -0.03320701
000180 5f 7f 4b 3c 6d dc 37 3b 8e 23 80 bd 52 a1 69 bd
       0.012420504 0.0028054968 -0.062567815 -0.057038613
000190 9d a5 14 3d 28 e2 ba bd ce bd fc bb 3c 07 64 bc
       0.036290754 -0.09125167 -0.007713056 -0.01391774
0001a0 c8 a3 62 bd 8b 6a ca 3d 8f c1 bf bd 21 80 b9 bd
       -0.055331975 0.09883603 -0.0936309 -0.09057642
0001b0 e5 0f 94 bd 06 dc 60 3d 8d 55 ae bd 1f 4e 72 3d
       -0.07229594 0.05489733 -0.08512411 0.059156533
0001c0 1a d0 c6 3d 31 37 c0 3d 4a b4 bf 3d 52 43 af 3c
       0.09707661 0.09385527 0.09360559 0.021394406
0001d0 b3 e6 aa bd 17 08 f8 3c 72 a4 28 3d f2 6e 3f bb
       -0.08344784 0.030277295 0.041172452 -0.0029210416
0001e0 ad 7a b3 bd 4b a8 a6 3d fc dc a2 3c 9c ef 88 3d
       -0.08763633 0.08137568 0.019880764 0.06686327
0001f0 ec 5c 38 bc 8c 38 b8 bd 14 cb ba 3d 9a ae ca bd
       -0.011252623 -0.089951605 0.09120765 -0.09896584
000200 6e 5e 86 bd c0 71 c7 3d 93 88 be bc 48 5f 48 3d
       -0.0656098 0.09738493 -0.023258483 0.048918992
000210 80 0b 86 3d 18 b3 49 bc 33 dc cb bc 4a ff 35 3d
       0.06545162 -0.012310766 -0.024885273 0.044432916
000220 50 98 92 bc da 48 29 3d 90 95 0c bd 11 0c 50 bd
       -0.017894894 0.041329242 -0.03432232 -0.050792757
000230 3c 34 8c bd 86 42 d5 bd b6 43 13 bd d0 84 41 bd
       -0.068459004 -0.10413079 -0.035953246 -0.0472458
000240 42 a3 01 3d 73 02 4d 3a c5 18 8a bd c5 c5 9e bd
       0.031649835 0.00078204944 -0.06743006 -0.07752565
000250 b8 a7 a9 bc 11 89 1a 3d 85 05 ed 3b 35 71 10 3c
       -0.020709857 0.037728373 0.007233324 0.008816053
000260 aa f6 5b bd 8d 4b 4c bd f0 9c 61 bc c8 08 27 3d
       -0.053702034 -0.04987674 -0.013770327 0.04077986
000270 76 a5 b0 bd c4 79 26 3d 46 3d 78 3d 4f 5c ca bd
       -0.08625309 0.04064347 0.06060531 -0.09880888
000280 22 78 16 3d 21 44 ae 3c 49 80 27 3d fb cb 4b bd
       0.03673566 0.02127272 0.040893827 -0.049755078
000290 63 0e 81 3d a6 82 64 bd e5 54 46 bd 5c 36 18 3d
       0.06301572 -0.05578866 -0.048420805 0.037161216
0002a0 cc 45 dc bc 63 e0 8c 3d a8 bc 3d bc 91 ff a1 bd
       -0.02688875 0.06878736 -0.011580624 -0.079100735
0002b0 1d a4 b4 bd da 07 6a 3a 9f fd 94 bd b9 14 b7 3d
       -0.088203646 0.00089275616 -0.07274937 0.089394994
0002c0 f8 b8 b9 3d 44 5b 62 3d 8b 44 9c bd 8f a1 e3 bc
       0.09068483 0.05526282 -0.07630261 -0.027786998
0002d0 bb 1a 97 3d 20 d5 a6 3c ca 41 cf 3b 4f 72 23 bc
       0.07378145 0.020365298 0.0063249813 -0.009975984
0002e0 80 e2 5d bd 92 85 15 bd 59 ea 59 3d e5 35 b8 bc
       -0.054171085 -0.036504336 0.053202007 -0.022486636
0002f0 0a c2 d6 bc 77 dc 34 3d af df 2d bd 1e 73 5a bc
       -0.026215572 0.044155564 -0.04244965 -0.01333311
000300 c4 85 a1 3d 9a 1b 77 3c b9 ef 39 3d 6f ed 52 bd
       0.07886842 0.015082264 0.045394633 -0.051495966
000310 22 bf 39 3d e0 61 5e bd 67 34 c8 3d 57 38 dc bc
       0.045348294 -0.05429256 0.0977562 -0.026882334
000320 d2 6f 93 bd 9b d2 a5 bc 31 c4 a7 3d 98 03 b2 3d
       -0.071990624 -0.020242026 0.081917174 0.08692092
000330 19 cf da 3b 41 73 8e 3d 49 14 cc bc 30 fb a5 ba
       0.00667752 0.06955577 -0.024912016 -0.0012663361
000340 41 a1 96 3d 3b e9 fd 3b f4 e2 ac 3c 54 e6 8b 3d
       0.073549755 0.0077487505 0.021104313 0.06831041
000350 76 27 88 3c a5 a7 6e bd c5 58 a1 3c 66 90 14 3b
       0.016620379 -0.058265347 0.019695649 0.0022669076
000360 77 b2 9a ba 0a 23 d7 3d 77 ae ae 3d 74 ed a7 bd
       -0.0011802454 0.1050473 0.0852937 -0.081995875
000370 20 04 15 bd de 41 34 bb 82 3c 6f 3d 85 ad b3 bc
       -0.036380887 -0.002750508 0.058407314 -0.021933326
000380 99 05 d5 bb 98 ce 8b bc 56 31 5d bd 32 bd b2 bd
       -0.0065009114 -0.017066285 -0.05400213 -0.087274924
000390 6a b9 91 bd e3 43 df 3c fb ff 60 3d 40 2a 03 3b
       -0.07115443 0.02725405 0.054931622 0.0020014197
0003a0 b6 a4 ce 3d 75 96 0b bc 1e f3 a9 3d a0 56 89 bc
       0.1009001 -0.0085197585 0.08298324 -0.016764939
0003b0 01 9d 3f bd 18 dd 20 3c 17 44 bf bd 7f 74 39 3d
       -0.04678059 0.009818338 -0.09339159 0.045277115
0003c0 11 b2 f2 3c a3 52 61 3d 0e 66 78 3d 23 07 c2 3d
       0.029625924 0.05501045 0.060644202 0.094740175
0003d0 46 5b 86 bd f3 eb ae bd 43 6f 8e 3c 1c 29 12 bd
       -0.06560378 -0.085410975 0.017387038 -0.035683736
0003e0 94 b7 12 3c 21 96 c3 3d 76 41 44 3c 3b f4 5c 3c
       0.008954901 0.09550119 0.011978498 0.013485963
0003f0 3e 61 aa bd a0 ba 11 3c ed 38 a4 bd 85 4e 84 bc
       -0.08319329 0.0088945925 -0.0801867 -0.016150722

net.2.bias f4 [100]
000000 b3 81 16 3c fc 8a a6 3d 96 07 2e bd 48 31 81 bd
       0.009186196 0.08131978 -0.042487703 -0.06308228
000010 a7 b8 da 3c b9 bf ce 3d 6f ff ae 3d f4 7a 27 bc
       0.026699377 0.10095162 0.08544814 -0.010222185
000020 b6 d2 3c bb 08 70 5d bc 87 ef d2 3d 8a 98 ac 3c
       -0.0028812117 -0.01351548 0.102995925 0.02106883
000030 6f 2a 66 3c dd 56 0c 3d 94 ea 8a bd e9 60 99 bc
       0.014048203 0.034262527 -0.067830235 -0.018722968
000040 ad 15 93 bd 66 3b 16 3d d3 bf 8b 3d bb b9 04 3c
       -0.07181869 0.03667774 0.06823697 0.008100922
000050 64 0b 19 bd 99 e2 a9 3d 47 fd ac 3c 74 92 98 bd
       -0.03736438 0.08295173 0.021116866 -0.07449809
000060 15 7c 9d bd ea 38 55 3d e4 91 8d 3d db 21 cb 3d
       -0.076896824 0.05205623 0.06912592 0.09918567
000070 46 6e 0a 3d 1a 5b 71 bd 16 0e 85 bd 9a 3a d9 3a
       0.03379657 -0.05892477 -0.06496827 0.0016573251
000080 1a ab 4b 3d ef 40 f3 bc b6 7f 17 3d 9b f9 57 3d
       0.049723722 -0.029694049 0.03698703 0.052728277
000090 be 8e 0a 3d 45 a1 0a bd ea 3e d6 bc ac 53 78 bd
       0.033827536 -0.033845205 -0.026153047 -0.06062667
0000a0 eb 8e c0 bb 71 01 b5 bd bc ce 7f 3d d4 99 c6 3c
       -0.005876412 -0.088381656 0.062453017 0.024243273
0000b0 ed af 09 3d 1c 8a 9c 3d 00 f5 11 bd 20 4e 04 3c
       0.03361504 0.0764353 -0.03563404 0.008075267
0000c0 39 2c 14 bd c9 35 5d 3d e9 73 fc 3c ef 4b 83 3d
       -0.036174987 0.05400637 0.030816989 0.064109676
0000d0 30 21 8b 3b 6f f9 40 3d 1f 72 58 bd e3 03 4e bd
       0.0042458996 0.04711288 -0.05284321 -0.050296675
0000e0 9c e4 9f bd 6a e4 4a 3d d4 00 ad bd 8d 82 0c bd
       -0.07807276 0.04953424 -0.084474236 -0.03430419
0000f0 91 15 99 bc b2 f6 92 bb 7e 16 ac 3d 6a 62 c9 3d
       -0.018687041 -0.004484975 0.084027275 0.09833224
000100 32 16 4f bd 62 51 a4 bc aa a9 ae bd f9 78 51 bd
       -0.050558276 -0.020058338 -0.085284546 -0.05114076
000110 45 49 30 bd 5f 3b da bc 30 d8 9b 3d 1d 2c ea bc
       -0.043038625 -0.026639638 0.07609594 -0.028585488
000120 8a 06 06 3d e2 df 91 bd a0 51 2f bd 44 65 9c 3c
       0.03272108 -0.071227804 -0.042802453 0.019091256
000130 65 50 24 bd 2a 5f be 3d 9b 70 92 bc 4d 34 cd 3d
       -0.040115733 0.09295495 -0.01787596 0.10019741
000140 b9 88 59 3d 43 b8 39 3d ac 5b ce bd 24 ad 61 3d
       0.053108905 0.04534174 -0.10076079 0.05509676
000150 21 aa 83 bd c6 78 b9 3d ff 64 a6 3d fa f8 4c bd
       -0.06428934 0.09056239 0.08124732 -0.05004213
000160 a3 40 d9 3c a2 4e f2 3c 51 09 bb bd da 43 31 3c
       0.026520079 0.02957851 -0.09132636 0.0108194
000170 bb 83 5d bc 20 79 7a 3c 63 f7 89 3d bc 3e 39 bd
       -0.0135201765 0.0152876675 0.067366384 -0.045225844
000180 70 88 ad bd d5 ea 9d bd a4 07 00 ba 57 f3 c2 bc
       -0.08473289 -0.07710806 -0.0004883951 -0.023797674

net.4.weight f4 [11, 100]
000000 48 6e 5f bd 75 bf f6 bc 60 a2 67 3d 4a 92 67 bd
       -0.05454853 -0.03012059 0.056551337 -0.056535996
000010 87 60 9b 3d 5a c0 76 3d 89 0f bf bc 6e 43 08 bc
       0.075867705 0.060242034 -0.023322837 -0.008316858
000020 af 0d 00 3d bf 74 8c 3d 88 5f 29 3a ac 84 46 bd
       0.03126305 0.06858205 0.00064610736 -0.04846637
000030 00 c8 be 3d c5 fb 3a bc f0 7c 29 3d c5 84 ca 3d
       0.09315491 -0.011412566 0.041378915 0.09888605
000040 96 7d e8 3c 0f b6 c8 3d 3b 9f 83 bc e8 61 38 bd
       0.028380197 0.0980035 -0.016067138 -0.045015246
000050 05 23 70 3d 92 29 cd 3d 8b 16 dc 3d e1 84 da 3d
       0.058627147 0.100176945 0.10746487 0.10669876
000060 38 88 12 3d 4c c5 b2 bd 48 0a bd 3d 79 db cf 3d
       0.03577444 -0.08729038 0.092304766 0.10149283
000070 d4 50 a6 bd bb e9 d7 3b 4b 0e e8 3b 65 f2 1e ba
       -0.081208855 0.006589142 0.007081782 -0.0006063341
000080 19 2b 7d 3d 03 c4 21 bd b3 cd 0f bd 2a 30 97 bd
       0.06180868 -0.039493572 -0.03510828 -0.073822334
000090 72 35 90 bc 32 1e 3a bd df 2d 32 bd cb 34 99 3d
       -0.01760361 -0.045438953 -0.043500777 0.074807726
0000a0 9a da 97 bb da 66 87 bd 7d 0e 4e bd e5 1e 1f 3d
       -0.0046342136 -0.06611414 -0.050306786 0.038847823
0000b0 c6 84 1f bd 61 df bf 3d a3 a3 45 3d e8 10 50 bd
       -0.038944982 0.09368778 0.04825176 -0.050797373
0000c0 51 5c 7f bd 95 2a 00 bd c0 d9 94 bd 08 1b 97 3d
       -0.0623439 -0.03129061 -0.07268095 0.07378203
0000d0 2a 67 92 bd b5 8d 76 3d 3d c7 30 bd 64 bd 27 3d
       -0.07148583 0.060193736 -0.04315876 0.0409521
0000e0 1c 9d f0 3c d0 71 5c 3d bb c6 5a 3d cb ae a3 3d
       0.02937179 0.053819478 0.05341218 0.079923235
0000f0 d7 04 a6 3d a1 7b c7 3d 2e bf b6 bc 6c 12 71 bd
       0.08106392 0.09740377 -0.022307958 -0.05885546
000100 9d 22 c1 bb 0b 7d d6 bc 97 5d 5c 39 84 24 15 bd
       -0.005894019 -0.026182672 0.000210157 -0.036411777
000110 f3 e8 8f bd fd 52 86 bc b6 3c d5 3d 43 24 ba 3d
       -0.070268534 -0.016396994 0.1041197 0.090889476
000120 3e 00 f3 bc 76 1e a5 3d ef bb f8 bb ca 15 07 bc
       -0.029663201 0.080624506 -0.007590763 -0.008244941
000130 87 39 b0 bd 43 68 c4 3d 43 93 ae bd 78 ca 11 3d
       -0.086047225 0.09590199 -0.08524182 0.03559348
000140 3f 4c a0 bd 34 51 b9 3d e3 75 ab bd e0 4e 5e 3d
       -0.07827043 0.090486914 -0.083720945 0.05427444
000150 3f 8b b0 bd c3 cb c3 3c 50 a3 8a 3d 53 66 c1 3d
       -0.08620309 0.023900872 0.06769431 0.09443345
000160 1c e0 fe 3b f7 86 bc 3d d2 2e 97 3d 5b 98 a8 3d
       0.0077781808 0.0920543 0.07381977 0.082321845
000170 b4 52 a4 3d 1e 3a 6a bc 41 74 54 3c c7 8e 77 bd
       0.08023587 -0.014296083 0.01296717 -0.060438897
000180 69 4a db 3c 2d 9c 7e 3d 56 2e ec 3c 18 33 a8 bd
       0.02676888 0.06216066 0.028830688 -0.0821287
000190 12 96 64 bd 12 9e 09 3d fd a1 bc bd 4b f1 a2 3d
       -0.05580718 0.033598013 -0.09210584 0.07956179
0001a0 3f e8 57 bd dc 32 ee bc 24 30 df bc 7f d6 0f bd
       -0.05271172 -0.029076986 -0.027244635 -0.03511667
0001b0 e5 7e bb bd b4 27 71 bc 6d b2 1a bd 78 b6 72 3d
       -0.091550626 -0.014718939 -0.037767816 0.059256047
0001c0 c0 33 95 bc 91 fd 79 bc e3 bf 16 3d a2 12 ba 3d
       -0.018213153 -0.015258209 0.03680409 0.09085585
0001d0 16 74 af bd 84 7f 2c bd b8 37 dd bc 9b ea a0 3d
       -0.085670635 -0.042113796 -0.027004108 0.078572474
0001e0 8c 09 b1 bc f9 bd 04 bd da 96 5b bd 1b 9d 11 bd
       -0.021610998 -0.032407735 -0.05361066 -0.035550218
0001f0 a5 3b d3 bd 64 1b cd bd a2 50 05 3d 48 1c 2e bc
       -0.10314111 -0.1001499 0.0325476 -0.01062686
000200 b4 44 d9 bd 08 e1 d2 38 04 82 30 bd 74 d4 1b 3d
       -0.10608807 0.00010055496 -0.043092743 0.038044408
000210 40 70 7d 3d 1d a4 a1 3d 55 c1 9a 3c 00 7f b6 3d
       0.061874628 0.0789263 0.018891016 0.08910942
000220 d7 9d ad 3d c7 e2 07 bd ed 11 c1 bd cd 21 87 bc
       0.08477371 -0.033175256 -0.09427247 -0.01649561
000230 e6 76 89 3d 35 62 0b 3d fb 81 32 bd b6 e4 d0 bc
       0.06712131 0.034029204 -0.04358099 -0.025499683
000240 db 9d 55 3d 01 82 21 3d 34 d8 8a 3d e6 4a fc 3c
       0.052152496 0.039430622 0.06779519 0.030797433
000250 5f 26 2b bd 8e 64 c7 bd f7 ee 4d 3d cd f9 9a bd
       -0.04178464 -0.09735976 0.050276723 -0.07567177
000260 06 5d 99 bd 73 aa 38 bc ed 69 28 bc cb 8a ba bd
       -0.07488446 -0.011271107 -0.010279161 -0.09108504
000270 f5 7d 62 3d 57 2c 01 3d ab 53 14 bd f9 29 ef bc
       0.055295903 0.031536426 -0.036212604 -0.029194819
000280 3f dd f2 bc 2a 14 49 3d 2b eb 35 3d 21 f3 c6 bd
       -0.029646514 0.049091496 0.044413727 -0.09714342
000290 af f6 18 bd 14 2f 61 bc c6 c4 be bd e1 fd bb bd
       -0.03734463 -0.013744134 -0.09314875 -0.09179283
0002a0 f4 39 96 3c bd 80 1a bd 98 be d8 bd 3f ef 91 3d
       0.018338181 -0.03772043 -0.10583228 0.07125711
0002b0 88 ef 98 bd c5 26 d5 bd 5d 3a 03 bc 2a 85 ab bd
       -0.07467562 -0.10407785 -0.00800952 -0.083750084
0002c0 7b 2e a1 3d c1 28 87 bc 3b 77 6a bd 0d 5f eb 3c
       0.078701936 -0.016498925 -0.057242613 0.028731847
0002d0 26 90 82 bd 3e c8 cc bc 49 98 4b 3d 08 7c 9d 3d
       -0.063751504 -0.024997827 0.049705777 0.07689673
0002e0 2d 8c ce bd 73 da 87 3d 81 a6 d4 bd 2e 37 23 3d
       -0.1008533 0.06633463 -0.103833206 0.039847545
0002f0 ce d6 9d bd 52 20 ac bc 0f 24 96 bd e2 5c 9d 3d
       -0.07706986 -0.021011505 -0.073310964 0.076837316
000300 88 e7 18 3d 9d 41 8d bb a5 60 b9 3d 84 af b8 bd
       0.03733018 -0.0043108 0.090516366 -0.09017852
000310 69 9e 83 bd 8c 8c 69 3d 74 47 3c 3d a3 c5 01 3d
       -0.06426699 0.0570188 0.04596658 0.03168262
000320 7c b3 33 bd 63 d6 4f bd 17 ea b6 3d c3 ec 03 3b
       -0.04387234 -0.050741564 0.08931368 0.0020130135
000330 0f 8d cf bd 5e 18 82 3d 9d f3 bf bb ba 0d db bd
       -0.10134327 0.06352304 -0.0058578984 -0.106959775
000340 4f 03 7d bd 67 d8 b4 bd 7e 42 0f bd b4 b7 05 3c
       -0.061770733 -0.08830338 -0.03497552 0.008161474
000350 f3 8d 32 bd 85 96 4d 3d 48 ea 7a bd a9 b2 bc 3d
       -0.043592405 0.050192375 -0.061258584 0.09213764
000360 51 2d c1 bd 2d da b5 bd 89 c6 31 bc 12 8e 8e 3d
       -0.094324715 -0.08879504 -0.010850557 0.069606915
000370 64 50 0f bd a8 a9 9a bd 03 14 85 3d 16 e5 68 3d
       -0.034988776 -0.075518906 0.064979576 0.0568591
000380 35 33 25 bd 09 2b ba bd 67 e5 c5 3c 68 e6 e7 3b
       -0.040332038 -0.090902396 0.02415724 0.007077027
000390 86 cb 6b 3d 62 c0 b1 bd a6 ee 21 bd 8c ae b6 3d
       0.057567142 -0.08679272 -0.039534234 0.08920011
0003a0 df 33 74 3d 4f 9b 23 bd ce 55 29 bd 8a 78 8b 3d
       0.05961978 -0.039943036 -0.041341595 0.068101004
0003b0 50 58 19 3d 29 53 a3 bd 1d 04 33 3d c8 7f 90 bc
       0.037437737 -0.07974846 0.043705095 -0.017639056
0003c0 43 c5 b0 3d d5 4f a7 bd 03 eb 5d bd b8 61 b1 3d
       0.08631375 -0.081695236 -0.054179203 0.086612165
0003d0 82 48 2a bd dd 95 d9 bd 7e e4 38 3d a1 b9 6d bc
       -0.041573055 -0.10624287 0.045139782 -0.014509589
0003e0 2a 3d 12 3d 5c 27 d8 bc 6c 2f 90 3d 01 c9 65 bc
       0.03570286 -0.026385956 0.07040295 -0.014024974
0003f0 78 35 6e bc 77 a3 74 3d 01 1a 10 bc 1f 84 cc bd
       -0.014539115 0.059726205 -0.008795262 -0.099861376

net.4.bias f4 [11]
000000 4b c0 47 bb 32 4b 74 3d 32 78 52 bd 16 36 9b 3c
       -0.0030479606 0.059642024 -0.05138416 0.018946689
000010 47 2a 77 3d a5 c3 8b 3d 0a 40 0d bd 42 4e 88 3d
       0.060343053 0.068244256 -0.0344849 0.066555515
000020 1b 19 6d bd 66 25 60 3d 6e 9f a2 bd
       -0.05788527 0.054723166 -0.07940565
