models/part3_1.pt (torch, 109207 bytes, 6 tensors)

net.0.weight f4 [100, 155]
0.01437217 0.054853342 0.077609695 -0.00486695 0.0082938075 0.0059642717 0.0023369982 0.051610563
0.04365388 -0.0012494295 0.0818737 0.05311655 -0.011704202 0.22426769 0.15945846 0.09912462
-0.0099611 0.08663623 0.109871805 -0.030468848 -0.058970835 0.12637517 -0.049382947 0.03874229
0.19049157 0.12950833 0.20642552 0.12189755 -0.0038431955 0.026491484 0.025528021 -0.07567978
0.129839 0.11786005 -0.044324066 0.024130492 0.01656138 0.053753234 0.050237156 -0.057509176
-0.0515642 -0.029502451 -0.057783563 0.049430862 -0.05196432 -0.054740425 0.023394719 0.04847575
-0.023351382 -0.08003731 0.01135201 0.04116209 0.0646477 0.0076211095 0.06253054 -0.07173445
0.07684224 -0.05186675 -0.054302838 0.05764491 0.012535509 0.04956948 -0.056259423 0.06076949
0.076176934 0.024321131 0.06479522 -0.057359997 -0.016552249 0.036319494 0.045389123 -0.04288858
0.051111616 -0.00030052778 -0.04004241 0.042814963 -0.0020898185 -0.040038798 0.02069391 0.029314402
0.035339303 -0.010287676 -0.058440354 -0.054544374 0.09003899 -0.061659858 0.02345744 0.11750522
0.13488977 0.0015227034 -0.027828733 -0.04505629 0.08432844 -0.056063194 -0.07513441 -0.046870124
0.07261797 0.051055476 0.060676098 0.06080984 -0.030454116 0.023741836 -0.05059914 0.025219444
0.029961793 0.008028728 -0.07039817 -0.0015076952 -0.051245995 -0.024430802 -0.021071779 -0.0046493923
-0.07901988 0.059958 -0.04280261 0.016461017 0.04668931 0.054774236 0.12768933 0.11402844
0.063334644 0.019871231 0.055871632 0.06845891 -0.13985667 0.03899382 0.026573474 0.100365065
0.05803535 0.17186764 0.10328429 0.11737891 0.13535134 0.050316166 -0.05331752 -0.0017611858
-0.0009953838 0.06040485 0.17727484 0.16664691 0.037713923 0.1966226 0.13379627 0.19533882
-0.010388188 0.16799022 0.15785755 0.16394176 0.08046783 0.1274599 0.11173387 0.068697475
0.058891416 0.042226873 0.06351208 0.060038764 -0.007103356 0.0056563667 -0.06792283 -0.056340143
-0.06841724 0.065438084 -0.040292904 -0.005931504 0.05840402 0.076262884 0.04899042 -0.054729454
0.24979687 0.096605845 0.064059034 0.14573567 0.08736808 0.01603941 -0.021424802 0.049303085
0.22823638 -0.042819604 0.0053363047 0.12556091 0.18069036 0.18700995 0.17975865 0.0069119423
0.04239786 -0.03382591 -0.0628184 0.123688444 0.14093606 -0.06605378 -0.003712538 -0.07716413
-0.05692009 -0.05623649 -0.020531708 -0.033195816 0.012384192 0.049101137 0.10855065 0.025708554
0.0066619064 -0.014313653 0.05453881 -0.046002813 0.058057435 -0.077334926 -0.059949912 0.026041878
-0.033082176 0.021512162 0.07459412 0.036685564 0.07861661 -0.03374624 -0.03835615 0.033365894
-0.016171586 -0.03533119 -0.004986882 0.07256443 -0.044029083 0.04510743 0.037313208 0.04784207
0.036787633 -0.029672131 0.03314995 -0.03783128 -0.014511877 0.07785425 0.10231417 0.009149282
0.100531854 0.012966335 0.023773357 0.08177508 -0.0034044515 -0.024009531 0.06460893 -0.0075863376
-0.009404831 -0.031063149 0.14622882 0.11808483 0.047212996 -0.0033662028 0.027471354 -0.0034875218
0.042152006 -0.063083075 0.0029858167 -0.007736215 -0.03332085 0.08124971 0.022319483 0.045884274
00000000: 4079 6b3c e6ad 603d d5f1 9e3d f07a 9fbb
00000010: c0e2 073c f06f c33b 5328 193b 9965 533d
00000020: 69ce 323d e6c3 a3ba 66ad a73d bd90 593d
00000030: fbc2 3fbc 6ea6 653e 1449 233e d901 cb3d
00000040: e233 23bc 566e b13d 7804 e13d ce99 f9bc
00000050: 678b 71bd 7e68 013e c645 4abd 3cb0 1e3d
00000060: 3910 433e d59d 043e 3661 533e 6ca5 f93d
00000070: 1fde 7bbb ab04 d93c 2420 d13c 00fe 9abd
00000080: 84f4 043e 9c60 f13d 278d 35bd 4fad c53c
00000090: bbab 873c 5a2c 5c3d 7ac5 4d3d be8e 6bbd
000000a0: fc34 53bd 20af f1bc 75ae 6cbd 0478 4a3d
000000b0: 8ad8 54bd 7f37 60bd 48a6 bf3c 828e 463d
000000c0: 664b bfbc 9aea a3bd c8fd 393c 9499 283d
000000d0: 0366 843d 80ba f93b 0310 803d 83e9 92bd
000000e0: 775f 9d3d 3b72 54bd a76c 5ebd 121d 6c3d
000000f0: bc61 4d3c 5e09 4b3d 4870 66bd 6ee9 783d
00000100: a702 9c3d 1c3d c73c 5bb3 843d 51f2 6abd
00000110: 9598 87bc c0c3 143d f2e9 393d f0ab 2fbd
00000120: 6a5a 513d 2890 9db9 8303 24bd be5e 2f3d
00000130: 56f5 08bb b9ff 23bd 4686 a93c c224 f03c
00000140: f2bf 103d a48d 28bc 275f 6fbd ec69 5fbd
00000150: 5d66 b83d 0c8f 7cbd d129 c03c 94a6 f03d
00000160: 8b20 0a3e 7395 c73a 15f9 e3bc f28c 38bd
00000170: 64b4 ac3d 85a2 65bd 12e0 99bd e3fa 3fbd
00000180: bbb8 943d 8c1f 513d 8087 783d bd13 793d
00000190: e97a f9bc 3d7e c23c 0b41 4fbd 0299 ce3c
000001a0: 6f72 f53c ed8a 033c ea2c 90bd db9d c5ba
000001b0: 52e7 51bd 1b23 c8bc b99e acbc ee59 98bb
000001c0: 2dd5 a1bd 8596 753d ca51 2fbd 41d9 863c
000001d0: 4a3d 3f3d f35a 603d fec0 023e be87 e93d
000001e0: 98b5 813d fec8 a23c a7d9 643d 2f34 8c3d
000001f0: 9636 0fbe fcb7 1f3d 9db0 d93c 338c cd3d
00000200: 7ab6 6d3d 12fe 2f3e b786 d33d 5b64 f03d
00000210: 8b99 0a3e 5318 4e3d 7963 5abd 97d7 e6ba
00000220: 8a77 82ba 136b 773d 8987 353e 7da5 2a3e
00000230: ea79 1a3d 6f57 493e e401 093e e606 483e
00000240: 3833 2abc a105 2c3e 69a5 213e 59e0 273e
00000250: 51cc a43d d984 023e bad4 e43d 43b1 8c3d
00000260: 2038 713d 16f6 2c3d 9f12 823d 35eb 753d
00000270: 45c3 e8bb 0b59 b93b 201b 8bbd ecc4 66bd
00000280: 571e 8cbd 6704 863d 2c0a 25bd 105d c2bb
00000290: 0e39 6f3d b72f 9c3d 2eaa 483d fe2b 60bd
000002a0: c0ca 7f3e 49d9 c53d 6231 833d bb3b 153e
000002b0: 09ee b23d 1565 833c 1183 afbc 08f2 493d
000002c0: ccb6 693e 9c63 2fbd 2bdc ae3b 0a93 003e
000002d0: e506 393e 897f 3f3e a712 383e 937d e23b
000002e0: 61a9 2d3d 0a8d 0abd efa6 80bd 5e50 fd3d
000002f0: 8b51 103e 3447 87bd 0d4e 73bb 3a08 9ebd
00000300: 0a25 69bd 3c58 66bd 1d32 a8bc 56f8 07bd
00000310: 11e7 4a3c 461e 493d ce4f de3d bf9a d23c
00000320: 1f4c da3b d083 6abc 1664 5f3d 726d 3cbd
00000330: a2cd 6d3d c661 9ebd 0a8e 75bd c755 d53c
00000340: 2d81 07bd 463a b03c cdc4 983d 9a43 163d
00000350: bf01 a13d 7f39 0abd 571b 1dbd adaa 083d
00000360: 467a 84bc 70b7 10bd 0069 a3bb a99c 943d
00000370: d757 34bd 92c2 383d bcd5 183d 0cf6 433d
00000380: a1ae 163d f812 f3bc 3ec8 073d f9f4 1abd
00000390: 39c3 6dbc 0d72 9f3d 178a d13d dfe6 153c
000003a0: a5e3 cd3d c070 543c 58c0 c23c b179 a73d
000003b0: 381d 5fbb a3af c4bc b051 843d d096 f8bb
000003c0: b816 1abc 2578 febc 02bd 153e 76d6 f13d
000003d0: 6a62 413d 839b 5cbb 9b0b e13c e88e 64bb
000003e0: 95a7 2c3d b331 81bd b1ad 433b 1380 fdbb
000003f0: 727b 08bd 3f66 a63d 59d7 b63c 26f1 3b3d

net.0.bias f4 [100]
0.20267874 0.29552206 0.24027577 0.2614658 0.2916426 -0.07084388 0.3242183 0.3591578
-0.0599928 0.3187772 -0.07304339 0.26957148 0.25192863 0.19079563 0.3023722 0.31948832
0.27817994 0.2992295 -0.044427793 0.33667773 -0.06392752 0.2522707 0.23306763 0.10367811
0.35408872 0.35011116 0.31842962 -0.021773359 0.23036629 0.25401613 0.24801348 0.28100592
0.32769838 0.36254224 0.33794543 -0.0659874 0.34924808 -0.07452325 0.27545246 0.23195246
0.27158576 0.19528459 0.2493845 0.29389632 -0.05119769 0.2932288 0.31705 0.34770435
0.27697787 0.3556842 0.04862866 -0.051377777 -0.069801725 0.28264156 -0.049673483 0.32474345
0.2366533 0.27542984 0.35530102 -0.07916062 0.32141697 0.21125206 0.32368863 0.23997468
-0.06891924 0.29977554 0.2866829 0.29592726 0.2811718 0.07569637 -0.03724875 0.3665307
0.26357627 0.34510526 0.34110475 -0.07877377 0.25640726 0.29039377 -0.064367905 0.29972187
-0.03320078 -0.04121957 0.3385858 0.21448457 0.34001124 0.2697551 0.25560004 0.2193618
0.2968431 0.35001794 0.27218866 0.07062413 0.33683342 0.21576484 0.28025216 0.35394877
0.35094193 0.36545125 -0.07300186 0.21963154
00000000: 048b 4f3e ab4e 973e da0a 763e d8de 853e
00000010: 2e52 953e 9916 91bd f1ff a53e 88e3 b73e
00000020: 03bb 75bd c436 a33e c697 95bd 4605 8a3e
00000030: cafc 803e ee5f 433e 87d0 9a3e f993 a33e
00000040: 9a6d 8e3e 9c34 993e ebf9 35bd 0661 ac3e
00000050: 6eec 82bd a029 813e 48a9 6e3e 3055 d43d
00000060: 1e4b b53e c541 b33e 3509 a33e 0b5e b2bc
00000070: 24e5 6b3e 670e 823e 3ff7 7d3e 02e0 8f3e
00000080: 15c8 a73e 239f b93e 2f07 ad3e 6724 87bd
00000090: a5d0 b23e a59f 98bd 1b08 8d3e f284 6d3e
000000a0: 4a0d 8b3e aff8 473e a65e 7f3e 9479 963e
000000b0: abb4 51bd 1622 963e 6154 a23e 4e06 b23e
000000c0: 0bd0 8d3e 3d1c b63e d92e 473d 8171 52bd
000000d0: 35f4 8ebd 65b6 903e 6c76 4bbd c644 a63e
000000e0: 3e55 723e 2405 8d3e 04ea b53e f71e a2bd
000000f0: c490 a43e 7652 583e 84ba a53e ecbb 753e
00000100: 8825 8dbd 2e7c 993e 1ac8 923e c783 973e
00000110: c0f5 8f3e b306 9b3d 2592 18bd e9a9 bb3e
00000120: 78f3 863e a3b1 b03e 48a5 ae3e 2454 a1bd
00000130: d047 833e 7eae 943e 52d3 83bd 2575 993e
00000140: 8bfd 07bd dad5 28bd 1e5b ad3e d8a1 5b3e
00000150: f415 ae3e 571d 8a3e 02de 823e 61a0 603e
00000160: d2fb 973e 8d35 b33e 505c 8b3e 62a3 903d
00000170: 6e75 ac3e 75f1 5c3e 367d 8f3e c638 b53e
00000180: a9ae b33e 6d1c bb3e 0082 95bd 17e7 603e

net.2.weight f4 [100, 100]
-0.07138173 -0.10318758 -0.30129644 -0.14708203 -0.25637537 -0.050080087 -0.27919748 -0.27617893
-0.015636966 -0.2254748 -0.043813217 -0.15858756 -0.2811527 -0.105467685 -0.31057364 -0.1859559
-0.2818886 -0.26914972 0.0237085 -0.24213728 -0.06709085 -0.21574253 -0.25896257 -0.11813197
-0.16487432 -0.21782067 -0.24820934 0.06418009 -0.20631514 -0.1407922 -0.1780352 -0.21273905
-0.26071924 -0.267676 -0.135182 0.021380104 -0.13833167 0.059756123 -0.21520892 -0.30659986
-0.18220215 -0.23980784 -0.20102406 -0.2585411 0.078577496 -0.12715043 -0.28282624 -0.24669577
-0.2962558 -0.17539924 -0.094956495 -0.08175904 -0.0731019 -0.3025943 0.07724937 -0.26594958
-0.15133715 -0.22765182 -0.2537637 -0.027393043 -0.30378413 -0.17961216 -0.26397172 -0.18318562
-0.08520658 -0.20804666 -0.14119281 -0.25112122 -0.1989578 -0.1140807 -0.04084457 -0.14138275
-0.18405813 -0.18641247 -0.17896037 -0.02041839 -0.25263855 -0.12905692 -0.036669895 -0.2308453
-0.07578689 0.076653324 -0.25594136 -0.25727656 -0.28469726 -0.19837706 -0.29907918 -0.12028966
-0.15068814 -0.29850617 -0.30443212 0.004875407 -0.28247187 -0.2491887 -0.15991907 -0.24846539
-0.20219487 -0.21320243 -0.06249629 -0.268746 -0.11885719 -0.21068223 -0.10888694 -0.104247525
-0.15526967 0.09883603 -0.18171962 -0.1806925 -0.07229594 -0.037158556 -0.08512411 -0.03259249
0.0045801788 -0.026852408 -0.0006161546 -0.07874979 -0.18193844 -0.07214248 0.041172452 -0.10061296
-0.08763633 -0.02058308 -0.098368086 -0.038407173 -0.104917355 -0.18340153 -0.009192616 -0.09937595
-0.16538595 -0.00502023 -0.12325806 -0.04097428 -0.030984938 -0.10527738 -0.114701785 0.044432916
-0.113764524 0.041329242 -0.13535468 -0.14716028 -0.15721083 -0.19292584 -0.12512173 -0.13781823
0.031649835 -0.09116761 -0.15912405 -0.16688153 -0.108659856 -0.05746 -0.050019942 0.015974455
-0.053702034 -0.13914396 -0.013770327 -0.051573925 -0.18854113 -0.068013534 -0.036985166 -0.09880888
-0.05300403 -0.080458246 -0.053731002 -0.1530314 0.06301572 -0.15067257 -0.1370945 -0.062097717
-0.115142725 0.052566577 -0.011580624 -0.17230861 -0.17535369 -0.089635625 -0.1698698 0.089394994
-0.00817297 -0.032771874 -0.07630261 -0.11744086 0.07378145 0.020365298 -0.08529147 -0.09859537
-0.14794454 -0.1260472 -0.035647802 -0.12817504 -0.11781977 -0.04500084 -0.14421535 -0.04180799
-0.010788672 -0.13705271 -0.04696841 -0.14291735 -0.045252398 -0.14779471 0.09794888 -0.11833656
-0.044209022 0.04466549 0.16403604 0.1721222 0.09319519 0.06955577 0.0623084 0.08472058
0.073549755 0.094389915 0.021104313 0.15492709 0.103925236 0.011315016 0.105076194 0.0861604
0.083321534 0.18526208 0.0852937 0.0046915626 -0.036380887 0.075306706 0.12188913 -0.061568353
0.07977983 0.06928708 0.030942747 -0.07733423 0.013530709 0.10754647 0.1395787 0.08734399
0.18802965 0.078095995 0.16931647 -0.016764939 0.03957951 0.009818338 -0.01554369 0.12947932
0.11616524 0.1403424 0.14673533 0.18165237 -0.06560378 0.001974465 0.10411158 0.050573945
0.09549853 0.18191771 -0.038265046 0.017345509 -0.08319329 0.095204294 -0.0801867 0.07057009
00000000: 9630 92bd 0354 d3bd 8743 9abe ac9c 16be
00000010: a243 83be c720 4dbd f9f2 8ebe 5367 8dbe
00000020: 1819 80bc dee2 66be 7d75 33bd c764 22be
00000030: 3ff3 8fbe 71ff d7bd 8203 9fbe 396b 3ebe
00000040: b453 90be fecd 89be 5438 c23c d6f2 77be
00000050: ed66 89bd 9ceb 5cbe be96 84be 2def f1bd
00000060: d0d4 28be 620c 5fbe 972a 7ebe da70 833d
00000070: 4744 53be d52b 10be dc4e 36be 44d8 59be
00000080: fe7c 85be d40c 89be 266d 0abe 5425 af3c
00000090: d1a6 0dbe d6c2 743d ba5f 5cbe a8fa 9cbe
000000a0: 3393 3abe 3090 75be 40d9 4dbe 805f 84be
000000b0: 3ded a03d b933 02be 9ace 90be d19d 7cbe
000000c0: d7ae 97be dc9b 33be 8d78 c2bd 4971 a7bd
000000d0: 73b6 95bd a4ed 9abe eb34 9e3d 8b2a 88be
000000e0: 20f8 1abe 8f1d 69be 51ed 81be 6067 e0bc
000000f0: 9889 9bbe 40ec 37be 4d27 87be 0395 3bbe
00000100: ca80 aebd 2f0a 55be d994 10be f692 80be
00000110: 98bb 4bbe 24a3 e9bd a34c 27bd a4c6 10be
00000120: bc79 3cbe e9e2 3ebe 6341 37be 7844 a7bc
00000130: d759 81be 7f27 04be 2c33 16bd b662 6cbe
00000140: 2836 9bbd 6bfc 9c3d bf0a 83be c1b9 83be
00000150: d7c3 91be 5b23 4bbe e820 99be 6d5a f6bd
00000160: fe4d 1abe cdd5 98be 87de 9bbe e1c1 9f3b
00000170: 27a0 90be 532b 7fbe d3c1 23be b66d 7ebe
00000180: 2c0c 4fbe bd51 5abe 1cfc 7fbd 1399 89be
00000190: 666b f3bd 15bd 57be 1e00 dfbd ba7f d5bd
000001a0: 03ff 1ebe 8b6a ca3d b514 3abe 7407 39be
000001b0: e50f 94bd 9233 18bd 8d55 aebd b47f 05bd
000001c0: 5315 963b 95f9 dbbc 6f85 21ba 9247 a1bd
000001d0: 124e 3abe 70bf 93bd 72a4 283d 2b0e cebd
000001e0: ad7a b3bd d99d a8bc 3575 c9bd d750 1dbd
000001f0: e9de d6bd 9ccd 3bbe a09c 16bc 9e85 cbbd
00000200: ef5a 29be be80 a4bb b96e fcbd a6d4 27bd
00000210: 20d4 fdbc ab9b d7bd c5e8 eabd 4aff 353d
00000220: 60fd e8bd da48 293d 6b9a 0abe 2fb1 16be
00000230: e0fb 20be 5a8e 45be e91f 00be 3920 0dbe
00000240: 42a3 013d 15b6 babd 6af1 22be fee2 2abe
00000250: 0f89 debd 2d5b 6bbd b6e1 4cbd dcdc 823c
00000260: aaf6 5bbd c17b 0ebe f09c 61bc 2e3f 53bd
00000270: ed10 41be ae4a 8bbd c27d 17bd 4f5c cabd
00000280: c11a 59bd 4bc7 a4bd 0a15 5cbd 43b4 1cbe
00000290: 630e 813d e949 1abe 8062 0cbe 2d5a 7ebd
000002a0: f3cf ebbd 0d50 573d a8bc 3dbc ab71 30be
000002b0: eb8f 33be e292 b7bd 59f2 2dbe b914 b73d
000002c0: ece7 05bc cd3b 06bd 8b44 9cbd d584 f0bd
000002d0: bb1a 973d 20d5 a63c 4bad aebd 5fec c9bd
000002e0: c67e 17be 8412 01be 6e03 12bd 5140 03be
000002f0: 7e4b f1bd cd52 38bd 30ad 13be db3e 2bbd
00000300: f8c2 30bc 8c57 0cbe f361 40bd ed58 12be
00000310: 945a 39bd 7f57 17be 6c99 c83d 705a f2bd
00000320: 8514 35bd 29f3 363d 10f9 273e cd40 303e
00000330: 1fdd be3d 4173 8e3d 1837 7f3d fc81 ad3d
00000340: 41a1 963d 804f c13d f4e2 ac3c 35a5 1e3e
00000350: c1d6 d43d 9e62 393c 3032 d73d dd74 b03d
00000360: 7ba4 aa3d 58b5 3d3e 77ae ae3d aebb 993b
00000370: 2004 15bd 673a 9a3d 02a1 f93d 192f 7cbd
00000380: 9c63 a33d 62e6 8d3d a57b fd3c 6961 9ebd
00000390: e8af 5d3c 5341 dc3d b8ed 0e3e 68e1 b23d
000003a0: d88a 403e cbf0 9f3d 4c61 2d3e a056 89bc
000003b0: 201e 223d 18dd 203c f6aa 7ebc 3a96 043e
000003c0: 0be8 ed3d ebb5 0f3e c941 163e 1403 3a3e
000003d0: 465b 86bd 0766 013b 7438 d53d a026 4f3d
000003e0: bc94 c33d a348 3a3e cfbb 1cbd 2b18 8e3c
000003f0: 3e61 aabd 78fa c23d ed38 a4bd 0d87 903d

net.2.bias f4 [100]
-0.20999894 -0.014099445 0.043628644 -0.07694744 -0.2052925 0.039719075 -0.13731225 -0.24608493
-0.1865388 -0.22619447 -0.12657318 -0.13206236 -0.22200838 -0.10814042 -0.15193737 -0.07433649
-0.3048291 -0.19929607 -0.15786247 -0.07868367 -0.25861585 -0.022715641 -0.18461993 -0.04434452
-0.31250992 -0.18703929 -0.1275655 -0.09474702 -0.109168634 -0.13028145 -0.29586315 -0.11072301
-0.08161481 -0.14564468 -0.19172725 -0.1416002 0.020759573 -0.25613266 -0.24719083 -0.290665
0.013063712 -0.31422585 -0.15894124 -0.10966819 -0.18630676 -0.14406098 0.006231563 -0.22197136
-0.2631059 -0.17848666 -0.1908183 -0.11166382 -0.23568915 -0.020476278 -0.28663796 -0.26557738
-0.12265565 0.004546932 -0.2340151 -0.26879957 -0.15831397 -0.16240838 0.045036133 -0.13628004
-0.12357248 -0.24392523 -0.23938799 -0.28230408 -0.21328382 -0.2458428 -0.07975797 0.26313913
-0.037753623 -0.3075374 -0.26548693 -0.21496376 -0.2444407 -0.14009053 -0.22198647 0.0027339605
-0.12121487 -0.1098275 -0.3127594 -0.17698565 -0.21861243 -0.1305108 -0.04015274 -0.26826477
-0.20691746 0.019004377 -0.28901842 -0.21077296 -0.1869355 -0.15351345 -0.15377568 -0.27760172
-0.2987287 -0.29605922 -0.2204727 -0.24530622
00000000: f609 57be 5c01 67bc f3b3 323d 9f96 9dbd
00000010: 3238 52be 78b0 223d 959b 0cbe b0fd 7bbe
00000020: 0704 3fbe 869f 67be 669c 01be 5b3b 07be
00000030: 2a56 63be b978 ddbd 7895 1bbe bb3d 98bd
00000040: 8f12 9cbe 4514 4cbe b3a6 21be e724 a1bd
00000050: 4c69 84be 2716 babc 020d 3dbe 99a2 35bd
00000060: 4d01 a0be 3a87 3fbe 88a0 02be ba0a c2bd
00000070: ce93 dfbd 8068 05be 607b 97be bfc2 e2bd
00000080: aa25 a7bd e123 15be 2654 44be a5ff 10be
00000090: fb0f aa3c d223 83be 981f 7dbe 0bd2 94be
000000a0: 2e09 563c 36e2 a0be 7ec1 22be b799 e0bd
000000b0: 33c7 3ebe b984 13be 2432 cc3b 764c 63be
000000c0: d1b5 86be 35c5 36be df65 43be 00b0 e4bd
000000d0: 7f58 71be debd a7bc 36c2 92be c2f9 87be
000000e0: e332 fbbd 6efe 943b a8a1 6fbe 19a0 89be
000000f0: 0f1d 22be 624e 26be cf77 383d ff8c 0bbe
00000100: 9213 fdbd 89c7 79be 2022 75be 298a 90be
00000110: 1367 5abe 37be 7bbe 2658 a3bd 2cba 863e
00000120: 8ba3 1abd 8b75 9dbe e7ed 87be 761f 5cbe
00000130: aa4e 7abe e473 0fbe 6c50 63be 3f2c 333b
00000140: 803f f8bd 3eed e0bd 0022 a0be ba3b 35be
00000150: f0db 5fbe a0a4 05be 3377 24bd 005a 89be
00000160: 2ce2 53be 11af 9b3c 39fa 93be ded4 57be
00000170: 056c 3fbe a132 1dbe 5f77 1dbe d021 8ebe
00000180: f8f2 98be 1395 97be 98c3 61be 8e31 7bbe

net.4.weight f4 [11, 100]
0.1652552 0.23512436 0.33843032 0.21943618 0.2941819 0.33327562 0.19898498 0.21154977
0.267049 0.29880118 0.22043273 0.19552818 0.3147214 0.24113336 0.31239358 0.37213692
0.24542667 0.3235426 0.20502256 0.21998493 0.2824129 0.36675388 0.33834204 0.38593662
0.25928128 0.13552804 0.32124898 0.33974236 0.17470324 0.2790088 0.22761647 0.26241642
0.3107588 0.215542 0.18590692 0.15524903 0.2584337 0.17450176 0.17579606 0.29631752
0.2724989 0.15272404 0.17002581 0.29226187 0.18255185 0.31205645 0.32726276 0.1710918
0.1571743 0.19462208 0.14811945 0.31795496 0.15190196 0.3310233 0.1813569 0.2738645
0.30453643 0.32672974 0.30511203 0.3018252 0.328356 0.34159693 0.2535979 0.1600454
0.2646251 0.19468787 0.24635415 0.18183845 0.16619469 0.20053673 0.3505101 0.3822447
0.24223527 0.30333382 0.21176572 0.21255933 0.14173482 0.318347 0.15011616 0.3022153
0.1685122 0.3376383 0.13741174 0.2772454 0.1646747 0.2457224 0.33080953 0.31267166
0.22646357 0.36766988 0.30070958 0.30396873 0.31697935 0.21728106 0.23085384 0.1568472
0.25079617 0.28239363 0.2503211 0.13548076 0.16836205 0.30198947 0.19422299 0.35987502
0.1698548 0.2481202 0.1990368 0.18881011 0.14714243 0.21935448 0.18620095 0.30674523
0.20744422 0.24050573 0.31158248 0.36812988 0.13570105 0.18734896 0.19844796 0.3468399
0.2058238 0.23772202 0.1807629 0.2480235 0.12455144 0.12681343 0.26516542 0.23105577
0.15256451 0.27653527 0.18155605 0.3041663 0.31411445 0.33706018 0.24403626 0.3222223
0.36511397 0.19099647 0.12934688 0.20920178 0.34868643 0.2571443 0.18093638 0.23096149
0.27793187 0.26215243 0.35123077 0.2568344 0.1819768 0.13218792 0.27520785 0.17177504
0.15256806 0.2633522 0.21830343 0.14547667 0.33474377 0.30837762 0.2186389 0.19705239
0.22088562 0.296833 0.3245755 0.12608697 0.23691729 0.21140315 0.1561844 0.13069218
0.2585018 0.18349032 0.14384826 0.36688468 0.20101558 0.12266904 0.21571578 0.1410966
0.31047407 0.21009775 0.18158221 0.29877803 0.18604195 0.2252546 0.27492395 0.30411398
0.1529803 0.2922183 0.16242994 0.2623361 0.14582711 0.2588554 0.15743393 0.3028839
0.27768168 0.23094237 0.312797 0.1314006 0.16377355 0.28129122 0.27157494 0.25366762
0.18211423 0.22024281 0.37819755 0.2847632 0.12323961 0.3430673 0.22256547 0.1191165
0.17964222 0.147786 0.19097276 0.25775236 0.1840898 0.3082176 0.21599032 0.37190336
0.12893781 0.14279136 0.21636216 0.34031445 0.1948134 0.19689886 0.30166206 0.34306905
0.18929495 0.13801967 0.25897318 0.25110564 0.3188953 0.19206695 0.18713479 0.35786527
0.3140497 0.22055253 0.18578126 0.3030808 0.32028636 0.14642668 0.26915413 0.21001117
0.37030524 0.14336099 0.17231783 0.3454701 0.18600906 0.11840484 0.33113095 0.21349812
0.26135918 0.20546077 0.2972542 0.23570792 0.21493007 0.33671376 0.2217144 0.13885167
00000000: a938 293e 71c4 703e bd46 ad3e e1b3 603e
00000010: 039f 963e 1aa3 aa3e b8c2 4b3e 81a0 583e
00000020: a6ba 883e 78fc 983e 1eb9 613e 8a38 483e
00000030: 2a23 a13e aaeb 763e 0df2 9f3e bb88 be3e
00000040: 2151 7b3e 60a7 a53e 6ff1 513e bb43 613e
00000050: 6c98 903e 2ac7 bb3e 2b3b ad3e 7c99 c53e
00000060: 84c0 843e ddc7 0a3e bf7a a43e b6f2 ad3e
00000070: 68e5 323e 3eda 8e3e 4b14 693e 725b 863e
00000080: c71b 9f3e 0bb7 5c3e 625e 3e3e 9af9 1e3e
00000090: 6c51 843e 97b0 323e e203 343e eeb6 973e
000000a0: fa84 8b3e b163 1c3e 3f1b 2e3e 59a3 953e
000000b0: dfee 3a3e ddc5 9f3e fc8e a73e b032 2f3e
000000c0: 4df2 203e 034b 473e a0ac 173e feca a23e
000000d0: 308c 1b3e e37b a93e a0b5 393e f837 8c3e
000000e0: 33ec 9b3e 1f49 a73e a537 9c3e d588 9a3e
000000f0: 471e a83e cbe5 ae3e 95d7 813e f1e2 233e
00000100: f17c 873e 425c 473e 4344 7c3e dc33 3a3e
00000110: f12e 2a3e 8059 4d3e 0f76 b33e 94b5 c33e
00000120: 860c 783e 924e 9b3e 1dd9 583e 27a9 593e
00000130: ef22 113e 61fe a23e 0db8 193e f7bb 9a3e
00000140: 768e 2c3e edde ac3e aab5 0c3e 1cf3 8d3e
00000150: 7ca0 283e a79e 7b3e de5f a93e 8016 a03e
00000160: 11e6 673e 3a3f bc3e 9bf6 993e caa1 9b3e
00000170: 1e4b a23e ed7e 5e3e f364 6c3e 8d9c 203e
00000180: 5b68 803e e695 903e 162a 803e 78bb 0a3e
00000190: 1a67 2c3e 5d9e 9a3e 64e2 463e 8a41 b83e
000001a0: 6bee 2d3e 3913 7e3e 4ed0 4b3e 7057 413e
000001b0: 81ac 163e 769e 603e 76ab 3e3e b60d 9d3e
000001c0: 426c 543e 2247 763e bd87 9f3e 857b bc3e
000001d0: 37f5 0a3e 68d8 3f3e f135 4b3e 0095 b13e
000001e0: 79c3 523e 676d 733e e919 393e dff9 7d3e
000001f0: d314 ff3d 61db 013e c3c3 873e e299 6c3e
00000200: df39 1c3e 0896 8d3e d4e9 393e afbb 9b3e
00000210: 9cd3 a03e 2793 ac3e a4e4 793e 52fa a43e
00000220: 38f0 ba3e 9494 433e 8273 043e fe38 563e
00000230: 0787 b23e 6ba8 833e 6347 393e 2b81 6c3e
00000240: 164d 8e3e d838 863e 85d4 b33e cc7f 833e
00000250: 2058 3a3e 455c 073e 0be8 8c3e cce5 2f3e
00000260: cd3a 1c3e 19d6 863e ef8a 5f3e d6f7 143e
00000270: 8963 ab3e ace3 9d3e e0e2 5f3e 1ac8 493e
00000280: d72f 623e 7ffa 973e c32e a63e f11c 013e
00000290: 729a 723e 117a 583e ceee 1f3e 2cd4 053e
000002a0: 595a 843e e3e4 3b3e f54c 133e 4fd8 bb3e
000002b0: 07d7 4d3e e839 fb3d 99e4 5c3e a17b 103e
000002c0: 75f6 9e3e dd23 573e b0f0 393e 6ff9 983e
000002d0: c881 3e3e 24a9 663e d5c2 8c3e d4b4 9b3e
000002e0: dea6 1c3e a39d 953e 0954 263e eb50 863e
000002f0: b453 153e b288 843e 5c36 213e 9913 9b3e
00000300: 4b2c 8e3e 287c 6c3e ee26 a03e e18d 063e
00000310: 41b4 273e 6705 903e df0b 8b3e b9e0 813e
00000320: 277c 3a3e 5587 613e 1ca3 c13e 7bcc 913e
00000330: 0c65 fc3d 84a6 af3e 34e8 633e 5af3 f33d
00000340: 21f4 373e 3755 173e 5d8e 433e 1ef8 833e
00000350: 0982 3c3e b3ce 9d3e 912c 5d3e 1e6a be3e
00000360: 4608 043e e637 123e 0b8e 5d3e b23d ae3e
00000370: 2a7d 473e db9f 493e 7373 9a3e bfa6 af3e
00000380: 89d6 413e 0755 0d3e 2298 843e eb90 803e
00000390: 3f46 a33e 33ad 443e 43a0 3f3e 1e3a b73e
000003a0: 1fcb a03e 86d8 613e 713d 3e3e 682d 9b3e
000003b0: 93fc a33e e0f0 153e 92ce 893e 2b0d 573e
000003c0: a698 bd3e 39cd 123e 1674 303e 75e1 b03e
000003d0: 2979 3e3e 3d7e f23d ff89 a93e 409f 5a3e
000003e0: dfd0 853e 4f64 523e b431 983e 6b5d 713e
000003f0: a116 5c3e bf65 ac3e 1a09 633e 222f 0e3e

net.4.bias f4 [11]
0.2838268 0.3509706 0.24262553 0.30621842 0.3587744 0.35585114 0.25260034 0.36478594
0.23623368 0.34198 0.20711988
00000000: bf51 913e 6bb2 b33e d472 783e a9c8 9c3e
00000010: 47b1 b73e 1f32 b63e d554 813e 39c5 ba3e
00000020: 3ee7 713e 0118 af3e 3c17 543e
