models/part1.pt (torch, 109191 bytes, 6 tensors)

net.0.weight f4 [100, 155]
00000000: 48b2 09bd 80bb 723c 55fa 823d f07a 9fbb
00000010: c0e2 073c f06f c33b 807d 86ba 5a85 453d
00000020: cc04 323d 4a33 30bd fb12 9d3d b64e 3d3d
00000030: e8e9 4dbc 1138 8f3d d08d 8d3b 2ae6 4f3d
00000040: ddac 8bbd 95a8 933d 6b12 9b3d edd4 75bd
00000050: 0d3c 93bd b281 bfbc c645 4abd 00ce af3c
00000060: b472 123d d0ad 27bc 06dd 663d a078 473b
00000070: a264 c1bc 6d69 8cbd 2420 d13c 00fe 9abd
00000080: 0002 90b9 b85a 403c 4e41 38bd f8ac c53c
00000090: 30d1 7f3c 5a2c 5c3d 7ac5 4d3d 1820 85bd
000000a0: 6e1c 74bd 1c80 f1bc 75ae 6cbd 984e ce3c
000000b0: 788e 57bd a22e 7bbd 48a6 bf3c 828e 463d
000000c0: 664b bfbc 9aea a3bd c8fd 393c 9499 283d
000000d0: 8f80 803d 80ba f93b 7e66 643d c715 93bd
000000e0: 775f 9d3d 3b72 54bd e290 60bd 121d 6c3d
000000f0: 0037 92bc 5a09 4b3d 4870 66bd 6ee9 783d
00000100: a702 9c3d 1c3d c73c 5bb3 843d 51f2 6abd
00000110: 584b 91bc c847 c83c f2e9 393d f0ab 2fbd
00000120: 6a5a 513d 768f d8bc cd9a 2fbd 78b6 803c
00000130: 6406 83bd 2cfa 96bd 6cc9 da3c 301f e03c
00000140: 3808 fd3c e093 2cbc bc9b 70bd fc25 84bd
00000150: bf68 9d3d 029c 8ebd d850 c63c 679a 853d
00000160: ce58 7b3d 5e6f 4fbd ea29 d4bc c885 83bd
00000170: e25e 4e3d 645f 9abd 986f 97bd d0a3 5bbd
00000180: 8f2e 863d b240 553d ae71 5c3d ba6f 7c3d
00000190: 4e70 19bd 757a 37bd 8a1d 4abd 981c d93c
000001a0: a0f3 ff3c d489 883c e01a 7dbd 70ce e93b
000001b0: 8294 2ebd a864 81bc 58ba 4bbc 80d4 823b
000001c0: 743c 90bd 996a 8c3d f9fe 0bbd b497 cd3c
000001d0: 1a90 623d 9493 043d 7a67 663d aac7 393d
000001e0: 0ee8 703d 30e0 8a3c 8a21 523d d801 0fbd
000001f0: 7547 31bd 3e19 1d3d 08a6 ac3c e065 45bb
00000200: b2c1 8abd 7c02 d73c 261c 553d 00f0 17bc
00000210: 342b 973c ba76 123d c174 a2bd c084 58bc
00000220: 0e18 f4bc 4228 28bd 3216 493d 5919 a33d
00000230: e0fa 513c 6ec3 4c3d 0214 74bd f8d7 673c
00000240: 3833 2abc c8e9 4abd e4ea 863c 1475 d13c
00000250: e03f 7ebb 0ab5 0b3d 88f4 1d3d 3135 953d
00000260: 9092 983b c08b 3b3b 00b0 96ba e2b0 65bf
00000270: db6a a1bf 6dc9 babf 201b 8bbd ecc4 66bd
00000280: 571e 8cbd a977 a8bf 2c33 bbbf 5d2a febe
00000290: 7501 6140 26ab 9bbf 9b7c babf 5dd3 94bf
000002a0: 3ab4 c63f ccff 1140 e799 2fbf 0833 3dbf
000002b0: 7f69 aebf 8a09 53bf 2517 95bf 9ec9 babf
000002c0: c05b cc3f 9c63 2fbd 2d5c 35bf ac8e e03f
000002d0: 28f2 2340 ccc3 4840 ebe5 263f 765c 20bf
000002e0: c2f5 0840 0a8d 0abd efa6 80bd bd77 0940
000002f0: 10fc 1c3e 85bc f9be 44ae e2bf a408 4abe
00000300: 0a25 69bd 3c58 66bd 0f9a bdbf b9a9 c8bf
00000310: ca0a dcbf 7543 3c3f 8a94 8d3e c023 323f
00000320: 68e5 ae3e d083 6abc 1664 5f3d 726d 3cbd
00000330: a2cd 6d3d c661 9ebd 0a8e 75bd c822 5d40
00000340: 2d81 07bd 3cc0 833f 1c42 dabf 9a43 163d
00000350: bf01 a13d b526 c1be 571b 1dbd ae1d 37bf
00000360: 6529 3b3f 70b7 10bd 0069 a3bb a99c 943d
00000370: d757 34bd 92c2 383d bcd5 183d 219c 6fbf
00000380: bfcb 13bf f812 f3bc 3ec8 073d f9f4 1abd
00000390: 4dfa f23d d80d ffbf e522 41bf 8695 4dbf
000003a0: 0f2a 9abe 9085 acbf 5c4a cabf 2f2f 9d3f
000003b0: 147c fe3d de29 08c0 d2d4 afbf 2843 8a3c
000003c0: 02f0 853c fca8 17c0 76cd 0abf db41 5b3d
000003d0: 1c1b 303e d4ec 4bc0 6f02 43bf 927e a3bf
000003e0: 39f2 05bf 77c6 a2be 17bc cfbf 116f cdbf
000003f0: ce4c 2bbf 3460 c3bf 6570 15be 7d69 c9bf
-0.033617288 0.014815211 0.06395403 -0.00486695 0.0082938075 0.0059642717 -0.0010260791 0.048222877
0.043461606 -0.043017663 0.07669636 0.046217643 -0.012567975 0.06993116 0.004319884 0.05075661
-0.068200804 0.07209889 0.07571872 -0.060017515 -0.07189188 -0.023377273 -0.049382947 0.021460533
0.03575392 -0.010234311 0.056363128 0.0030436888 -0.023607556 -0.06856046 0.025528021 -0.07567978
-0.0002746731 0.011740379 -0.044984154 0.02413033 0.015613839 0.053753234 0.050237156 -0.06500262
-0.059597425 -0.029480033 -0.057783563 0.02518396 -0.052626103 -0.06132377 0.023394719 0.04847575
-0.023351382 -0.08003731 0.01135201 0.04116209 0.062745206 0.0076211095 0.055761807 -0.07181888
0.07684224 -0.05186675 -0.05482567 0.05764491 -0.017848492 0.049569465 -0.056259423 0.06076949
0.076176934 0.024321131 0.06479522 -0.057359997 -0.017736122 0.02444829 0.045389123 -0.04288858
0.051111616 -0.026435595 -0.04287224 0.015712008 -0.06397703 -0.07371935 0.026707374 0.027358621
0.030887708 -0.010533303 -0.05874227 -0.064525574 0.07685994 -0.0696335 0.024208471 0.065235905
0.061363988 -0.050643317 -0.025898892 -0.06422001 0.050383456 -0.075377256 -0.07394332 -0.05362302
0.06551849 0.05206365 0.05381935 0.06162999 -0.037460618 -0.04479452 -0.049344577 0.026502892
0.0312441 0.016667284 -0.061793208 0.007135205 -0.042622097 -0.015795067 -0.0124345645 0.003992617
-0.070427805 0.068562694 -0.034178708 0.025096752 0.055313207 0.032367304 0.056251027 0.04535643
0.058815055 0.016952604 0.051301517 -0.034913868 -0.043281037 0.03835415 0.021075264 -0.0030120537
-0.06775226 0.026246302 0.052028798 -0.009273529 0.018453218 0.035757758 -0.07932425 -0.013215244
-0.029796626 -0.041054018 0.049093433 0.07963819 0.012816161 0.049991064 -0.059589393 0.014150612
-0.010388188 -0.049539357 0.016469426 0.025568523 -0.0038795397 0.0341082 0.03856328 0.07285536
0.0046561435 0.0028617233 -0.0011496544 -0.89723027 -1.2610735 -1.459272 -0.06792283 -0.056340143
-0.06841724 -1.3161517 -1.4624991 -0.49641696 3.515714 -1.2161605 -1.4569277 -1.1627003
1.5523751 2.2812376 -0.6859421 -0.7390599 -1.3625945 -0.8243643 -1.1647688 -1.4592779
1.59655 -0.042819604 -0.70843774 1.754354 2.561655 3.1369505 0.65194577 -0.62641084
2.1399999 -0.03382591 -0.0628184 2.1479332 0.15330529 -0.4877664 -1.7709432 -0.19729859
-0.05692009 -0.05623649 -1.481264 -1.5676795 -1.7190793 0.7354043 0.2765239 0.695858
0.34159398 -0.014313653 0.05453881 -0.046002813 0.058057435 -0.077334926 -0.059949912 3.4552479
-0.033082176 1.029304 -1.7051425 0.036685564 0.07861661 -0.37724844 -0.03835615 -0.7152966
0.7311004 -0.03533119 -0.004986882 0.07256443 -0.044029083 0.04510743 0.037313208 -0.9359761
-0.57732767 -0.029672131 0.03314995 -0.03783128 0.11864147 -1.99261 -0.7544387 -0.8030628
-0.30110213 -1.347826 -1.5803943 1.2280024 0.1242601 -2.1275554 -1.3736823 0.016877726
0.016349796 -2.369689 -0.5421976 0.0535296 0.17197841 -3.1863298 -0.7617559 -1.2773001
-0.5232273 -0.31792042 -1.6229275 -1.604952 -0.6691407 -1.5263734 -0.14593656 -1.5735317

net.0.bias f4 [100]
00000000: fe37 d2bc dfba 933f 67d4 8e3f 0ce1 8d3f
00000010: bd3c 8f3f 9916 91bd 40d5 943f 29c9 9a3f
00000020: 03bb 75bd b523 963f c697 95bd 6fbd 903f
00000030: 81dd 8c3f 4c43 8ebd d4ef 913f 30f3 973f
00000040: 589a 913f 249c 933f ebf9 35bd 88ef 973f
00000050: 6eec 82bd 402b 8e3f fa9b 8a3f af98 8b3f
00000060: 2878 993f 69bc 983f 4798 973f ee8b fdbc
00000070: e2c1 8a3f 326a 8d3f 7adf 8e3f bb07 923f
00000080: 9b70 963f 4515 9b3f 384b 963f 6724 87bd
00000090: 2335 9a3f a59f 98bd 16da 933f 4f9f 923f
000000a0: 4d61 8f3f d081 36bd 3394 8d3f e1f5 973f
000000b0: abb4 51bd 4859 933f b463 953f da3a 993f
000000c0: f405 903f 5548 993f b7fb a0bd cdcb 35bd
000000d0: 35f4 8ebd 3a21 923f 6c76 4bbd 6f5e 983f
000000e0: 01b6 873f b608 923f 7e4c 9a3f f71e a2bd
000000f0: 41f3 943f 84c6 883f a74e 973f 2fb2 8e3f
00000100: 8825 8dbd 78bd 913f fa77 913f 9d0b 933f
00000110: 667f 983f 1d6f 8f3f 2592 18bd 65eb 9b3f
00000120: d9af 02bd 9caa 983f 9e5e 953f 2454 a1bd
00000130: a8c2 8e3f fe1d 923f 52d3 83bd d6f2 913f
00000140: 8bfd 07bd dad5 28bd a242 983f f239 953f
00000150: fb40 993f 86ae d2bc 65d7 8d3f 3320 52bd
00000160: 701b 913f 4e9b 983f c0f9 903f a0f2 e3bc
00000170: e6af 983f 4d5d 903f b47b 943f 866b 9c3f
00000180: b4dc 9a3f 4c2c 9c3f f299 94bd ee34 933f
-0.025661465 1.1541404 1.115857 1.1084304 1.1190411 -0.07084388 1.1627579 1.2092639
-0.0599928 1.1729647 -0.07304339 1.130781 1.1005098 -0.069464296 1.1401315 1.187109
1.1375227 1.1532025 -0.044427793 1.1869974 -0.06392752 1.1106949 1.082885 1.090597
1.1989794 1.1932498 1.1843346 -0.030950513 1.0840418 1.1048033 1.116195 1.1408609
1.1753114 1.2115866 1.1741705 -0.0659874 1.2047466 -0.07452325 1.155093 1.1454867
1.1201569 -0.044557393 1.1060852 1.1871911 -0.05119769 1.1511621 1.1671052 1.1971085
1.1251817 1.1975199 -0.07860511 -0.044383813 -0.069801725 1.141639 -0.049673483 1.1903819
1.0602418 1.1408908 1.2054594 -0.07916062 1.1636735 1.0685582 1.1820878 1.1148127
-0.06891924 1.1385946 1.1364739 1.1487919 1.1913879 1.1205784 -0.03724875 1.2181212
-0.031905983 1.1927066 1.16695 -0.07877377 1.1153154 1.1415403 -0.064367905 1.1402233
-0.03320078 -0.04121957 1.1895335 1.1658309 1.1972955 -0.025717985 1.1081358 -0.05130024
1.1336498 1.1922395 1.1326218 -0.027825654 1.192868 1.1278473 1.1600251 1.2220314
1.2098603 1.2201018 -0.07255925 1.1500528

net.2.weight f4 [100, 100]
00000000: a984 a63d 424c b03d 7850 b9bd f398 8b3d
00000010: 938c 41bd c720 4dbd aa71 7cbd 6139 71bd
00000020: 1819 80bc 24b5 f4bb 7d75 33bd 45e0 703d
00000030: 0f29 82bd 6972 b63d a3fd c1bd 5ddf ec3c
00000040: 2f1b 86bd e4ee 72bd 5438 c23c 6a0c c4bc
00000050: ed66 89bd c814 1bbc dcc2 94bd cd9a 73bd
00000060: 036d 5c3d 7189 593a 95b3 04bd 83fc a33d
00000070: ab00 193c 05a8 8c3d 9dab 193d 1139 2b3b
00000080: 4aa6 2dbd 7a90 49bd 29dd a73d 5425 af3c
00000090: dbc6 a33d d6c2 743d 32de 28bc 522d c3bd
000000a0: e703 0e3d 6924 e2bc 5977 603c 650a 2cbd
000000b0: 3ded a03d 49f7 b83d 9809 85bd 234f f2bc
000000c0: dcce a2bd 5711 303d 4d64 94bd fb5b 9ebd
000000d0: 73b6 95bd 08db b1bd eb34 9e3d b117 47bd
000000e0: dba4 743d bb7e fabc 11c8 10bd 6067 e0bc
000000f0: f0b7 b1bd 1b40 c43c c535 3bbd 88f4 d93c
00000100: ca80 aebd a6d9 233c 8dec 9a3d ed16 0dbd
00000110: 0f1e 7f3c ca2f cabd a34c 27bd fe44 9e3d
00000120: 1353 103d cd16 ff3c 77e2 233d 7844 a7bc
00000130: 3b9e 38bd a195 b43d 2c33 16bd 48f3 5ebc
00000140: 2836 9bbd 6bfc 9c3d bd0f 1bbd 1a33 2fbd
00000150: f2c7 89bd 3ed6 953c 8b43 a9bd 7d69 b03d
00000160: 515b 8f3d 83e3 a7bd fbe3 c3bd ac0f d63c
00000170: 842e 85bd 3afe cdbd 6555 693d b412 fbbc
00000180: 5281 7b3c a9ee b03b 57a5 7fbd 55f8 5fbd
00000190: f666 0e3d 699d 983f cbe0 a13f 0b4a 9e3f
000001a0: c1f4 9c3f 8b6a ca3d 6476 953f 09d0 903f
000001b0: e50f 94bd 8c45 a33f 8d55 aebd 706d a53f
000001c0: c48e ac3f 3137 c03d c324 ae3f 153c a33f
000001d0: e45e 953f c63b a63f 72a4 283d f377 9e3f
000001e0: ad7a b3bd 4fe8 af3f 473b a73f 7e97 ac3f
000001f0: 007b 9c3f 2b8c 913f f6b9 ab3f 5571 c8bd
00000200: 78cb 9a3f 4407 b13f 4afb 9e3f 84fe a43f
00000210: 3d9f a83f 7ee7 9c3f aa7f 9a3f 4aff 353d
00000220: 2b55 9b3f da48 293d 4168 9d3f 80fd 9c3f
00000230: e8e7 963f 0c5a b0bd 1021 9c3f 1337 983f
00000240: 42a3 013d 3014 a03f c1ed 963f c744 933f
00000250: 1263 9f3f 5b82 a23f 00cd c03b 50b6 3e3c
00000260: aaf6 5bbd 07b7 993f f09c 61bc 58ee a23f
00000270: acef 973f 3e23 aa3f e0dc a63f 4f5c cabd
00000280: 5fed a13f 40c6 a73f 8fa7 a23f 8ee6 9c3f
00000290: 630e 813d 9950 973f 3c7f 993f 7c08 a63f
000002a0: 731b 993f ad0b ad3f a8bc 3dbc c146 913f
000002b0: e799 9ebd e4cf 9c3f 3f8f 983f b914 b73d
000002c0: 7903 b13f e02f a63f 8b44 9cbd 036d 9a3f
000002d0: bb1a 973d 20d5 a63c bf6e a03f 21cf 9b3f
000002e0: 3d67 983f ca26 c4bc dc03 a83f 5491 9fbc
000002f0: a36c 9e3f 05bf a43f ac48 9e3f 2813 73bc
00000300: 13ab a73f f120 a63f 2081 a43f 86d1 963f
00000310: ad3d a43f 3fb5 963f df7a c83d e977 9a3f
00000320: 257d 95bd 781e b1bc 33db 963d 19b0 a03d
00000330: b0b4 e73b 4173 8e3d b4a9 08bd 98d0 21bc
00000340: 41a1 963d 404f 8eba f4e2 ac3c 829e 733d
00000350: 5074 fd3b eda4 6ebd 0082 313c d071 c5bb
00000360: f06f 22bc 7728 c63d 77ae ae3d 2883 b9bd
00000370: 2004 15bd 704e 34bc 421b 6c3d e8a1 b3bc
00000380: 40d2 7bbc 0c4f d4bc c72e 7fbd 8fef afbd
00000390: 4bc3 a2bd 0076 9b3c 86f4 3e3d 8049 d2bb
000003a0: f391 bc3d b456 8ebc 2993 983d a056 89bc
000003b0: 2dbe 63bd 18dd 203c 372a ccbd 9e82 193d
000003c0: 6087 ad3c 92de 3e3d aea7 553d 91dd af3d
000003d0: 465b 86bd 6ff6 c0bd e892 0b3c 90db 34bd
000003e0: 80d9 033a a172 b13d 5815 2e3c 68e0 443c
000003f0: 3e61 aabd 8042 093a ed38 a4bd 6803 cdbc
0.08130772 0.08608295 -0.09048551 0.06816282 -0.047253203 -0.050080087 -0.061631836 -0.05889261
-0.015636966 -0.0074678827 -0.043813217 0.05880763 -0.063554876 0.08908541 -0.094722055 0.028915102
-0.065481536 -0.059309855 0.0237085 -0.0239317 -0.06709085 -0.009465404 -0.07263729 -0.0594738
0.0538149 0.00082983734 -0.032397825 0.08007147 0.009338538 0.06867985 0.03751718 0.0026126544
-0.042394914 -0.04921005 0.0819648 0.021380104 0.07996913 0.059756123 -0.010306882 -0.095301285
0.03467169 -0.027605252 0.01370033 -0.0420021 0.078577496 0.09031541 -0.064959705 -0.029578751
-0.079496115 0.042985287 -0.07245693 -0.07732388 -0.0731019 -0.08684355 0.07724937 -0.04860658
0.05972753 -0.030578008 -0.03534705 -0.027393043 -0.086776614 0.02395635 -0.045705575 0.02660586
-0.08520658 0.010000622 0.0756465 -0.03444569 0.015571131 -0.09872396 -0.04084457 0.07728003
0.035235476 0.031138802 0.040010896 -0.02041839 -0.045072775 0.08817602 -0.036669895 -0.013607807
-0.07578689 0.076653324 -0.037856806 -0.042773344 -0.0672759 0.018290635 -0.08264836 0.0861387
0.06999839 -0.08197691 -0.09564968 0.02613052 -0.06503013 -0.100582555 0.056966204 -0.030648567
0.015350657 0.0053995443 -0.06241354 -0.054680187 0.03476616 1.1923038 1.2646726 1.2366346
1.2262193 0.09883603 1.1676755 1.1313487 -0.07229594 1.2755599 -0.08512411 1.2924023
1.3481069 0.09385527 1.3604969 1.275271 1.1669583 1.2986991 0.041172452 1.2380356
-0.08763633 1.374277 1.3064965 1.3483732 1.2225037 1.1370901 1.3416126 -0.09787241
1.2093344 1.3830342 1.2420437 1.2890172 1.3173596 1.2258146 1.207021 0.044432916
1.2135366 0.041329242 1.2297441 1.2264862 1.1789522 -0.08610925 1.219759 1.1891807
0.031649835 1.2506161 1.1791307 1.1505364 1.2452109 1.2696031 0.005883813 0.011640146
-0.053702034 1.200898 -0.013770327 1.2728987 1.1870017 1.3292005 1.3036156 -0.09880888
1.2650565 1.3107376 1.2707385 1.225786 0.06301572 1.1821471 1.1991954 1.2971339
1.1961502 1.3519188 -0.011580624 1.1349717 -0.07744198 1.2250943 1.1918715 0.089394994
1.3829185 1.298336 -0.07630261 1.2064518 0.07378145 0.020365298 1.2533797 1.2172586
1.1906506 -0.023944277 1.3126178 -0.019478478 1.2376903 1.2870795 1.2365928 -0.01483611
1.3099083 1.2978803 1.2851906 1.1782691 1.2831322 1.1774062 0.09789061 1.2067844
-0.0729926 -0.021620974 0.07366028 0.07846088 0.0070711 0.06955577 -0.033364967 -0.009876393
0.073549755 -0.0010857359 0.021104313 0.059477337 0.007734813 -0.058262754 0.010834217 -0.0060255304
-0.009914383 0.09675687 0.0852937 -0.09058219 -0.036380887 -0.011005029 0.057643183 -0.021927789
-0.015369952 -0.025916599 -0.06230047 -0.08590614 -0.079474054 0.018977165 0.046619914 -0.0064174533
0.09207525 -0.017375328 0.074499436 -0.016764939 -0.055601288 0.009818338 -0.09968989 0.037478082
0.021182716 0.04659898 0.052161865 0.08587182 -0.06560378 -0.094220035 0.008518912 -0.044154704
0.00050296634 0.08664442 0.010625206 0.012016393 -0.08319329 0.00052360445 -0.0801867 -0.025026038

net.2.bias f4 [100]
00000000: 02c2 423c 6470 833f 2a3a 52bd c726 633f
00000010: 4895 5d3c bf16 863f 3fa8 853f 493f acbc
00000020: d176 6c3f 15fb 713f 106b 893f 05a0 803f
00000030: 42b6 603a 8067 7b3f a5ba 5b3f 5510 6d3f
00000040: 2b7d a4bd ec57 803f fe7b 873f c862 893c
00000050: 69fc 683f c02f 843f b77a 733f e292 593f
00000060: 7d4a c1bd e560 033d 740d 863f b265 873f
00000070: e645 7a3f 4bf2 5d3f fa23 97bd f785 763f
00000080: f33a 843f 18a0 aabc 6a01 d93c 3285 843f
00000090: 4575 7c3f f207 f2bc d45a a8bc c929 663f
000000a0: c016 ba3a 5005 b2bd a866 6d3d 0125 7a3f
000000b0: 46e3 7b3f 155e 913d 7f41 663f 6ded 243b
000000c0: 9791 17bd 9d54 7f3f 9139 d53c 54df 823f
000000d0: fc03 56bc 57fc 7b3f 0fb9 6c3f 9d75 693f
000000e0: 3e2b 603f ae11 803f 0820 5a3f 14a6 2fbd
000000f0: e85d 57bc 2852 28bc da86 843f 925b 9d3d
00000100: cbb8 683f d146 9ebc bc6a adbd 2001 6abd
00000110: b7eb 6d3f e0b6 a8bc 8cb9 843f a1ca 663f
00000120: 6a26 793f 319a 4b3f 5dca 1abd 6ac8 783f
00000130: e730 6a3f 5b40 8a3f 9290 773f 1905 863f
00000140: 9e37 7e3f e543 7b3f 2a99 bcbd 6385 833f
00000150: 5d1b 603f 14d6 883f 3bc2 813f b708 3cbd
00000160: 80a6 933c f649 763f 2559 aebd 1207 c63b
00000170: b0be a0bb bde2 7d3f 45fb 823d d71e 51bd
00000180: fa75 bdbd a71a 91bd 8af5 4e3b 34e8 9cbc
0.011887075 1.0268674 -0.051325 0.88731045 0.013524361 1.0475692 1.044197 -0.02102627
0.923688 0.94523746 1.0735798 1.0048834 0.00085720804 0.98204803 0.8583167 0.92603046
-0.080316864 1.0026832 1.0584714 0.016770735 0.9101015 1.0327072 0.95109123 0.8498975
-0.09438036 0.032074828 1.0472856 1.057791 0.97762907 0.86697835 -0.07379909 0.96298164
1.033049 -0.020828292 0.026489932 1.0353148 0.9861644 -0.029544804 -0.020551123 0.8990751
0.0014197454 -0.086924195 0.05795923 0.97712713 0.98393667 0.07098023 0.8994369 0.002516593
-0.03700408 0.99738485 0.026028426 1.0224404 -0.013062473 0.98431915 0.92469877 0.9119509
0.8756598 1.0005395 0.85205126 -0.042882994 -0.013144948 -0.010273494 1.0353653 0.07683481
0.9090697 -0.019320877 -0.084676236 -0.05712998 0.929378 -0.020595014 1.0369124 0.9015294
0.9732424 0.7953215 -0.037790645 0.9718081 0.9148087 1.080089 0.9670497 1.0470306
0.99303615 0.98150474 -0.09208901 1.0275081 0.87541753 1.0690331 1.01374 -0.04590675
0.01802373 0.96206605 -0.08513097 0.0060433233 -0.004905544 0.991741 0.06395582 -0.0510548
-0.09251018 -0.07085162 0.0031579458 -0.019153692

net.4.weight f4 [11, 100]
00000000: 9672 6fbd 6afc 993f 6629 473d 4022 963f
00000010: aa8b 923d a4c2 a43f 2e17 9b3f 432f 67bc
00000020: b8e4 a33f ad33 a83f e540 9e3f 3682 993f
00000030: bf47 b73d e0f7 9d3f 5441 a23f 2a2d aa3f
00000040: 3877 a73c 5c14 aa3f a999 9b3f 73e6 58bd
00000050: 1f7e a63f d8dd a93f e9fc ac3f faea a73f
00000060: d542 0f3d 6945 b2bd cbf4 a83f f91f a93f
00000070: ee4b 933f 5aa0 9e3f 7388 953b ea91 9d3f
00000080: 4d09 a63f ca56 42bd 9d4a 0ebd 5bdd 933f
00000090: 5554 9b3f a97c 46bd dac2 52bd 6382 a33f
000000a0: 58d7 4dbc 0daf 97bd 29e6 47bd 9d36 a43f
000000b0: b825 993f 0859 c43d d92b a53f 9541 5dbd
000000c0: d0cf 8bbd 6c32 993f 50ca 90bd ca05 a63f
000000d0: 4602 97bd 6d8c a73f 76a3 983f c870 a33f
000000e0: 44da 9e3f 462d a53f 0cc9 9d3f 96a7 963d
000000f0: d9c0 953d cb33 b73d fcc6 993f 8d0d 62bd
00000100: b259 9d3f bf6b 00bd 10dc bcbb 97a8 35bd
00000110: 9a09 963f 689d c7bc 3050 ab3f d5bb aa3f
00000120: 1f1d 9b3f ed9d 943f a245 66bc 42dd 9d3f
00000130: 8e33 8b3f 2851 a93f d2e0 913f 718b a23f
00000140: 25cd 923f a57b a93f ddb6 bbbd 2e37 a43f
00000150: 19f2 8d3f 47d9 a03f bf1e a63f 3f1e b13d
00000160: dd3e e839 1954 ab3f c9ed 863d 4c9c ae3d
00000170: e716 943d 4a59 9e3f d5ab 3a3c d616 8cbd
00000180: 5830 9a3c e68e 683d 8451 c53c 356f b8bd
00000190: 48df 30bd c327 843f b532 abbd 8188 893f
000001a0: 9e63 25bd a1fc 763f 1319 793f dccd c7bc
000001b0: 9337 6c3f 2019 7f3f 46d0 763f ea3f 893f
000001c0: 3bf6 aebb 7bf2 7e3f ef96 833f 1f3f 8b3f
000001d0: 6003 9ebd 2567 743f f302 793f 6959 b23d
000001e0: 8f67 7c3f 1b36 763f d6df 743f d4c7 6e3f
000001f0: 8e27 b5bd 5f98 aabd 2854 833f bcbb 793f
00000200: 7810 643f 147e 7f3f dac0 eebc a484 843f
00000210: 4c1f 883f 3115 b33d 3e1f 133d 66ef 8a3f
00000220: 907a 8a3f cd73 c5bc b89f afbd 4a7b 733f
00000230: 5fe3 9a3d 6a46 2e3d 671f d3bc 87ed 7b3f
00000240: e1eb 863f 9948 6e3d 84b6 893f 6bd8 343d
00000250: fdde ffbc 5296 653f 4944 8d3d b72c 6a3f
00000260: 3202 79bd ea67 803f 65c1 7d3f 756a 693f
00000270: d820 843f f35c 843f 4576 683f aeff 9bbc
00000280: e01d adbc f2f8 6b3d a050 843f 28b4 9dbd
00000290: 7b9d 763f aabe 31bb 460b a9bd a68d aabd
000002a0: c76f 833f 982c efbc 7313 653f a423 8a3f
000002b0: 8ba0 6e3f 0096 3c3f b7a5 013b 6462 6a3f
000002c0: 4eab 813f 0c57 7a3f 6300 6f3f 34aa 833f
000002d0: 5c86 6d3f e684 793f e274 6e3d a361 893f
000002e0: 41aa 5b3f 5176 883f 116e 643f fa19 463d
000002f0: 3412 8bbd bca1 7d3f 92b5 84bd a5e9 c53d
00000300: 32bf 3b3d 7299 813f c71f d83d 3b3a a7bd
00000310: ca57 64bd 2b81 8b3d 6506 6c3d 9a9f 243d
00000320: 5530 06bd 791b 6a3f 0775 c53d f2a4 763f
00000330: 9c9e b9bd 83f7 823f 2d04 763f 00f1 c7bd
00000340: 674a 6b3f 2fb0 633f add8 6e3f bed9 7c3f
00000350: 3e95 03bd b88f 833f e28a 653f 6d18 873f
00000360: 5b9f b2bd 69d5 5f3f 2f3b 743f 791b 9d3d
00000370: 907d 703f 7557 623f 924d 853f 3eef 7d3f
00000380: 22fd ddbc 65e4 9abd a9f5 7b3f ffa2 753f
00000390: f9bc 823f 3da8 603f 6920 ddbc 15cc 863f
000003a0: 6e7f 833f c075 06bd cc5e d4bc 7cdc 833f
000003b0: 9c1a 803f 2d93 8abd a22a 503d 2093 6a3f
000003c0: bf4e bf3d a8bd 98bd b494 1abd f604 883f
000003d0: 3a2c 6d3f 905b b6bd 4d7f 823f f0af 31bb
000003e0: b2b9 373d 6b24 6f3f 5d21 b33d b435 713f
000003f0: a4cf f5ba 862b 853f 2b92 753f b473 5e3f
-0.058458887 1.2030156 0.048623465 1.1729202 0.07155545 1.28719 1.2116449 -0.014110389
1.2804174 1.314077 1.2363554 1.1992862 0.08949231 1.234127 1.2676187 1.3295033
0.02044259 1.3287463 1.2156268 -0.05295415 1.3007239 1.3270826 1.3514682 1.3118584
0.034975845 -0.08704645 1.3199705 1.3212882 1.1507547 1.2392685 0.004563385 1.2310154
1.2971588 -0.04744605 -0.034739126 1.1551927 1.2135111 -0.04845873 -0.051455356 1.2774166
-0.012563549 -0.07406435 -0.048803482 1.2829167 1.1964636 0.09587294 1.2904006 -0.054017622
-0.068267465 1.1968513 -0.07069838 1.2970517 -0.073734805 1.308973 1.1924884 1.2768793
1.2410359 1.2904441 1.232698 0.07356183 0.073121734 0.089454256 1.201385 -0.055188704
1.2292998 -0.031352755 -0.005763538 -0.044350233 1.172168 -0.02436705 1.3383846 1.3338572
1.2118262 1.1610695 -0.014054688 1.2333148 1.0875108 1.3227892 1.1396735 1.2698804
1.1468855 1.3240858 -0.09165738 1.282934 1.1089507 1.2566308 1.2978133 0.08648347
0.00044297325 1.338504 0.06588323 0.08525905 0.07230931 1.2370999 0.011393507 -0.06840293
0.01882188 0.056776904 0.024086721 -0.09005586 -0.043181688 1.0324634 -0.08359281 1.0744783
-0.040378205 0.9647923 0.97303885 -0.024390154 0.922723 0.9964771 0.9641155 1.072263
-0.0053394116 0.99588746 1.0280436 1.0878638 -0.077154875 0.95469886 0.97270125 0.0870846
0.9859552 0.9617631 0.95654047 0.93273664 -0.08845435 -0.08329844 1.0260057 0.97552085
0.8908763 0.99801755 -0.029144693 1.0352979 1.0634551 0.08744276 0.035918467 1.0854309
1.0818653 -0.02410307 -0.08575386 0.9511 0.07562899 0.04254762 -0.02577181 0.9840931
1.0540735 0.058174703 1.0758824 0.044151705 -0.031234259 0.89682496 0.0689779 0.9147448
-0.06079311 1.0031712 0.9912322 0.91178066 1.0322523 1.0340866 0.90805465 -0.019042816
-0.02113241 0.05761046 1.0337105 -0.07700378 0.96334046 -0.0027121701 -0.08254103 -0.083277985
1.0268487 -0.029196069 0.894828 1.0792127 0.9321372 0.7366638 0.0019782612 0.9155638
1.0130403 0.97789073 0.93359965 1.0286317 0.9278314 0.9746841 0.058216937 1.0732921
0.8580666 1.0661107 0.8923045 0.048364617 -0.06790581 0.9907491 -0.06479944 0.09663705
0.045836635 1.0124953 0.10552936 -0.081654035 -0.055747785 0.06811746 0.057623286 0.04019127
-0.032760937 0.9144817 0.09641462 0.96345437 -0.090634555 1.0231785 0.9610012 -0.09762764
0.91910404 0.8894071 0.9329937 0.9876975 -0.03212475 1.0278234 0.89665043 1.0554329
-0.08721801 0.87435013 0.95402807 0.076712556 0.93941593 0.884147 1.0414298 0.9919318
-0.027098242 -0.07563094 0.9842172 0.9595184 1.021392 0.8775671 -0.026992993 1.0531031
1.0273263 -0.03282714 -0.025924109 1.0301661 1.000812 -0.06766353 0.050821908 0.91630745
0.093411915 -0.07458049 -0.03773947 1.0626514 0.9264561 -0.08904183 1.0195099 -0.0027112924
0.044854827 0.93414944 0.08746598 0.9422257 -0.0018753898 1.0403907 0.9592616 0.868953

net.4.bias f4 [11]
00000000: 7b43 d53e 6311 c63f 9021 3b3f ce33 343f
00000010: abc7 bdbc 0f82 c93f fbab 203e 8bec 0b3f
00000020: 83ae a5bd d374 ff3f 47aa 993d
0.41653046 1.5474056 0.7309809 0.7039155 -0.023166498 1.5742816 0.15690605 0.5465781
-0.08089926 1.9957527 0.07503181
