models/part2_advanced.pt (torch, 109391 bytes, 6 tensors)

net.0.weight f4 [100, 155]
000000 a0 93 2f be c3 9c ee bd 4e 0b 0b 3d f0 7a 9f bb
       -0.17146158 -0.11650994 0.033946328 -0.00486695
000010 c0 e2 07 3c f0 6f c3 3b d3 15 04 be 67 58 4a bd
       0.0082938075 0.0059642717 -0.1289895 -0.049400713
000020 b0 6c 25 3e fa 14 ec 3c c5 02 e1 bb 7f 2f 30 bd
       0.16154742 0.028818596 -0.006866785 -0.043014046
000030 10 cf c8 3d bf 39 56 3e ae ef 7d 3e d3 98 1c 3e
       0.09805119 0.20920466 0.24798462 0.15292673
000040 f1 1d 00 bd f0 a8 b2 3d f4 23 d6 bd e6 0b 64 be
       -0.031278554 0.087236285 -0.10456076 -0.22270164
000050 b8 16 ea bd 0e 9b 2d 3e c6 45 4a bd 68 1f 23 3e
       -0.114301145 0.1695368 -0.049382947 0.1592995
000060 32 51 52 3e 1d 8b 5a 3e c0 77 b2 3e 94 88 6e bd
       0.20538786 0.2134213 0.34856987 -0.05823572
000070 33 a8 99 3e 88 06 22 3e 24 20 d1 3c 00 fe 9a bd
       0.30011138 0.15822804 0.025528021 -0.07567978
000080 db 6f 6b 3e 03 a4 82 bd 52 7f 91 3d e6 33 a8 3d
       0.22991888 -0.06378939 0.071043625 0.08213024
000090 eb fa 34 3e 5a 2c 5c 3d 7a c5 4d 3d 3a a1 02 be
       0.17673843 0.053753234 0.050237156 -0.12756816
0000a0 10 1a 08 be 9e 5d 21 39 5d a6 6d bd 25 ea 0e 3e
       -0.13291192 0.00015389032 -0.058019985 0.13956507
0000b0 10 6f ca bd e8 e3 3c be 48 a6 bf 3c 82 8e 46 3d
       -0.09884465 -0.18446314 0.023394719 0.04847575
0000c0 66 4b bf bc 9a ea a3 bd c8 fd 39 3c 94 99 28 3d
       -0.023351382 -0.08003731 0.01135201 0.04116209
0000d0 20 1b e3 3d 80 ba f9 3b 7f cf e0 3c b7 70 91 be
       0.11089158 0.0076211095 0.027442692 -0.28406307
0000e0 77 5f 9d 3d 3b 72 54 bd 8c e8 74 bd 12 1d 6c 3d
       0.07684224 -0.05186675 -0.059792086 0.05764491
0000f0 a6 38 93 bd d2 99 47 3d 48 70 66 bd 6e e9 78 3d
       -0.07188539 0.04873068 -0.056259423 0.06076949
000100 a7 02 9c 3d 1c 3d c7 3c 5b b3 84 3d 51 f2 6a bd
       0.076176934 0.024321131 0.06479522 -0.057359997
000110 b2 1f 39 be 00 34 13 be f2 e9 39 3d f0 ab 2f bd
       -0.18078497 -0.14375305 0.045389123 -0.04288858
000120 6a 5a 51 3d 82 e2 91 bc d9 59 8e 3d fd 78 a2 bc
       0.051111616 -0.017808203 0.06950731 -0.019833082
000130 99 a2 c3 bd 14 92 3a be 06 01 1e 3e 48 6a 8f 3d
       -0.095524974 -0.18219787 0.15430078 0.070026934
000140 cd d8 94 3e 16 c1 3a 3e 8b fd b5 3d ba e3 60 3b
       0.29071656 0.18237719 0.0888625 0.0034315423
000150 f3 33 aa 3e 88 b3 26 3e cf a5 f1 3d 26 c8 08 3e
       0.3324276 0.16279423 0.117992036 0.133576
000160 f6 4b 39 3e 4f 67 a3 bd 91 34 b1 3d ef bb 25 be
       0.18095383 -0.07978689 0.08652604 -0.16184972
000170 a4 46 ed bd cb 56 68 be eb d7 99 bd 2c 40 c5 bd
       -0.11585739 -0.22689359 -0.07511886 -0.096313804
000180 aa bb a8 3c 48 b2 ac 3c aa e5 3f 3c 74 4e 20 3d
       0.020597298 0.021081105 0.011712471 0.03913732
000190 1f 8e a8 bd 1b 17 35 be 9b 0a 49 bd a5 99 e3 3c
       -0.082302324 -0.17684595 -0.04908238 0.027783224
0001a0 89 c5 04 3d 1a 64 70 3d 5c f7 a1 bc ce 58 49 3d
       0.032414947 0.058689214 -0.01977127 0.049156956
0001b0 42 69 1d ba 50 d9 d6 3c ae 60 f2 3c 82 79 3c 3d
       -0.00060047593 0.02622667 0.029587116 0.046014316
0001c0 fd b0 e8 bc fb 7b e2 3d 39 82 00 3c 89 75 89 3d
       -0.028404707 0.11058804 0.0078435475 0.06711871
0001d0 a3 58 c7 3d 3f 3c d7 3d 54 21 aa bf 6e 9f 8f bf
       0.09733703 0.10509538 -1.3291421 -1.1220529
0001e0 af ae 3a 3e 13 a4 46 3e ed 7a 5a 3e 42 de 6c 3d
       0.18230699 0.19398527 0.21335955 0.05782915
0001f0 ba d0 35 3f fb b5 20 bd 41 08 30 3c b4 c5 b7 3d
       0.71021616 -0.03923605 0.010744155 0.08973256
000200 a6 a7 4b 3d 26 56 80 3c db 31 68 3e 12 44 b2 bc
       0.04972043 0.015666079 0.22675268 -0.021760974
000210 b9 ae 43 3d c4 ac b0 3d ce 5b 29 3d c5 db 16 be
       0.04777405 0.086267024 0.041347317 -0.14732273
000220 51 44 8c be 48 0e 5f bf e6 a7 70 3c 37 f5 2a bf
       -0.2739587 -0.87131166 0.014688468 -0.6678042
000230 04 b5 2c be f7 66 46 3e 03 b1 ea bd 6c 53 0f 3f
       -0.16865927 0.19375215 -0.114595436 0.55986667
000240 38 33 2a bc d9 2f 9c 3d 84 34 7e 3f 5b 02 82 3f
       -0.010388188 0.07626314 0.9929888 1.0156969
000250 c9 f8 12 be 25 85 ea 3b 92 70 ae 3e 66 6d d9 3d
       -0.14352717 0.0071569853 0.3407026 0.10616569
000260 d6 e8 81 be b7 40 60 bd cd 40 c3 bd 3d 04 05 be
       -0.25372952 -0.054749217 -0.09533844 -0.12989898
000270 0b f7 12 be 6f 22 4a 3e 20 1b 8b bd ec c4 66 bd
       -0.14352052 0.19739698 -0.06792283 -0.056340143
000280 57 1e 8c bd 7d 6e e4 3e 11 08 ad 3e 8b 32 1d 3e
       -0.06841724 0.44615546 0.33795217 0.15351312
000290 c5 3b d3 be 8d 71 f5 3c 4c ba a0 3e eb b1 93 3e
       -0.41256538 0.029961372 0.31392133 0.28846678
0002a0 1d ca f3 3d 0d dd 03 3d 60 b4 ec 3d 62 c5 79 3e
       0.119037844 0.032193232 0.11557841 0.24391702
0002b0 88 bc a4 3e 86 19 4c be 42 c2 54 be 17 1c 61 3e
       0.32175088 -0.19931611 -0.20777228 0.21983372
0002c0 0f 1c 0c 3e 9c 63 2f bd 28 6a ec 3d 36 96 be bb
       0.13682579 -0.042819604 0.11543685 -0.0058162464
0002d0 33 e7 11 3d f5 9b d0 3d 23 3e 13 be 8f 54 fa 3e
       0.03562088 0.101859964 -0.14379172 0.48892638
0002e0 6c e3 10 3e 0a 8d 0a bd ef a6 80 bd 0d a7 e3 3d
       0.14149255 -0.03382591 -0.0628184 0.11115847
0002f0 b0 a5 90 bd 46 1e a5 3d 4d 21 9e 3d d5 61 00 3e
       -0.070628524 0.08062415 0.07721195 0.1253732
000300 0a 25 69 bd 3c 58 66 bd 9d d3 90 bc 7d a0 11 bd
       -0.05692009 -0.05623649 -0.01767903 -0.035553444
000310 73 66 8a 3d db 34 47 3d 71 1a c8 3e 1c d6 5c bd
       0.06757822 0.04863439 0.39082673 -0.053915128
000320 63 5c 8a be d0 83 6a bc 16 64 5f 3d 72 6d 3c bd
       -0.2702361 -0.014313653 0.05453881 -0.046002813
000330 a2 cd 6d 3d c6 61 9e bd 0a 8e 75 bd e6 d0 15 3f
       0.058057435 -0.077334926 -0.059949912 0.5852188
000340 2d 81 07 bd 93 79 51 be f1 69 13 3f 9a 43 16 3d
       -0.033082176 -0.20456533 0.5758353 0.036685564
000350 bf 01 a1 3d 33 f9 82 bd 57 1b 1d bd 6e 58 13 be
       0.07861661 -0.06395187 -0.03835615 -0.14389202
000360 8f df d6 bc 70 b7 10 bd 00 69 a3 bb a9 9c 94 3d
       -0.026229648 -0.03533119 -0.004986882 0.07256443
000370 d7 57 34 bd 92 c2 38 3d bc d5 18 3d 72 09 71 bc
       -0.044029083 0.04510743 0.037313208 -0.014711725
000380 b2 37 2f be f8 12 f3 bc 3e c8 07 3d f9 f4 1a bd
       -0.1711109 -0.029672131 0.03314995 -0.03783128
000390 4a e6 40 be 5e cf 01 3f bb d1 0a 3d ab 4a d7 bd
       -0.18837848 0.5070704 0.03389142 -0.10512289
0003a0 4f f7 15 bd e3 56 56 3e ad ef a7 3e fa e3 ac 3e
       -0.036612805 0.20931582 0.32800046 0.33767682
0003b0 e3 ea 75 3e b3 b0 99 3e 83 e9 a0 3e 68 6b 6d 3e
       0.24015383 0.30017623 0.31428155 0.23185503
0003c0 a3 e0 79 3e 28 58 f5 3e f3 a0 2e 3e b4 e4 06 3e
       0.24402098 0.4791882 0.17053585 0.13173181
0003d0 c3 f2 95 bc ab 06 2a 3e f6 ac f5 bd 5f af 33 be
       -0.018304234 0.16604106 -0.1199588 -0.17547368
0003e0 84 39 01 be 4f 8f c0 bc 11 99 3d 3d c6 9b 08 3d
       -0.12619597 -0.023505835 0.046288554 0.033351682
0003f0 b3 fa ee bc 3a 88 01 3e eb 36 52 3d f7 7c b4 3d
       -0.029172277 0.12649623 0.051321905 0.08812898

net.0.bias f4 [100]
000000 01 bd 08 3e 01 c1 40 3e b9 16 e6 3d 37 6f 24 3e
       0.1335335 0.18823625 0.11234803 0.1605805
000010 d0 e7 7c 3e 99 16 91 bd 30 0f 38 3e 32 52 56 3e
       0.24697804 -0.07084388 0.17974544 0.20929793
000020 03 bb 75 bd 84 48 10 3e c6 97 95 bd c8 0c ed 3c
       -0.0599928 0.14090163 -0.07304339 0.028936759
000030 35 73 83 3d d4 11 ca 3d 85 4f 0b 3e 22 b7 1c 3e
       0.06418458 0.09866682 0.13604553 0.15304235
000040 20 8e d2 3d 02 2c 27 3e eb f9 35 bd 69 0a 1b 3e
       0.102810144 0.16325381 -0.044427793 0.1514069
000050 6e ec 82 bd 5c e1 59 3e d3 67 1e 3d 80 0d 4c 3e
       -0.06392752 0.21277374 0.038673233 0.19927025
000060 02 7e 33 3e 8e b5 78 3e 23 fe 2e 3e c3 67 39 3e
       0.17528537 0.24288008 0.17089133 0.18105988
000070 60 ed 93 3d e7 78 24 3e 39 0f a2 3d 88 d2 49 3e
       0.0722301 0.16061746 0.0791306 0.19709218
000080 e0 c5 35 3e 95 0b 6b 3e b5 82 56 3e 67 24 87 bd
       0.17751265 0.22953637 0.20948298 -0.0659874
000090 f9 87 2e 3e a5 9f 98 bd a8 ad fd 3d 19 bb 25 3e
       0.17044057 -0.07452325 0.12386638 0.16184653
0000a0 b4 ea 0f 3e 43 d0 25 3e 36 25 e0 3d ec 3a d6 3d
       0.14054376 0.16192727 0.109445974 0.10460457
0000b0 ab b4 51 bd bb be 0b 3e 12 95 f2 3d 40 ed 67 3e
       -0.05119769 0.13646977 0.11844839 0.22649097
0000c0 94 6c 00 3e 4f f8 09 3e 85 46 03 bc 7a f9 2b 3e
       0.1254142 0.13473628 -0.008012419 0.16794387
0000d0 35 f4 8e bd d2 fe 49 3e 6c 76 4b bd 18 85 d4 3d
       -0.069801725 0.19726112 -0.049673483 0.10376948
0000e0 e3 7b b1 3d 24 7a 35 3e cf ec 3b 3e f7 1e a2 bd
       0.08666208 0.17722374 0.18352054 -0.07916062
0000f0 8c 02 2c 3e 4f ed c2 3d 72 31 13 3e af 05 c8 3d
       0.16797847 0.09517919 0.1437433 0.09766709
000100 88 25 8d bd 51 65 09 3e 09 72 31 3e 56 a0 0d 3e
       -0.06891924 0.13417555 0.17328657 0.13830695
000110 40 1f 2d 3e 1b b7 11 3e 25 92 18 bd 49 2c 3d 3e
       0.16906452 0.14230005 -0.03724875 0.18473925
000120 2d b9 d3 3d ad ce 58 3e a9 19 20 3e 24 54 a1 bd
       0.10338054 0.2117259 0.15634789 -0.07877377
000130 6e a1 30 3e ca cc 24 3e 52 d3 83 bd 2b e2 19 3e
       0.1724908 0.16093746 -0.064367905 0.15027682
000140 8b fd 07 bd da d5 28 bd ef ab 24 3e 82 34 4e 3d
       -0.03320078 -0.04121957 0.16081212 0.050343044
000150 99 7a 48 3e 88 8c 1c 3e 8c c6 22 3e e3 d3 12 3e
       0.19578017 0.15287983 0.15896052 0.14338641
000160 6b 54 3c 3e 8a dc 72 3e 5e 06 1f 3e da be 74 3d
       0.18391578 0.23716941 0.15529773 0.059752323
000170 37 d0 47 3e d2 c5 18 3d 46 f9 c7 3d a0 6c 47 3e
       0.19513021 0.03729803 0.09764342 0.19475031
000180 59 b1 25 3e de 9b 55 3e 49 81 95 bd 88 cb 90 3d
       0.16180934 0.2086024 -0.0730005 0.070700705

net.2.weight f4 [100, 100]
000000 f7 bf 88 3e d7 a2 c9 3c 1b 5c f1 bd a1 28 5c 3d
       0.26708958 0.02461378 -0.11785146 0.053749684
000010 74 bb 5c 3e c7 20 4d bd e5 a9 20 bd 31 dd 80 bc
       0.21555883 -0.050080087 -0.039224524 -0.015730472
000020 18 19 80 bc 8d bd f3 ba 7d 75 33 bd 0a 1f 55 bb
       -0.015636966 -0.0018595919 -0.043813217 -0.0032519721
000030 56 1a d7 be 1d e9 95 3e d5 9f 04 bf 1a 69 8e bd
       -0.4201228 0.29279414 -0.51806384 -0.0695364
000040 2f 4f bc be 1e a4 93 bd 54 38 c2 3c 91 9d d3 bd
       -0.36779162 -0.07209037 0.0237085 -0.10332788
000050 ed 66 89 bd 24 f3 94 3e cc d2 96 be 73 50 86 3e
       -0.06709085 0.29091752 -0.294577 0.26233253
000060 2a d1 8a 3d 46 2a 89 3d 5e 62 01 be 24 d0 d6 3e
       0.06778176 0.06697516 -0.1263518 0.41955674
000070 ed e0 10 be 77 f2 a3 3e 4f d5 15 be 60 de 65 3c
       -0.14148302 0.32020923 -0.14632152 0.014030069
000080 c1 db 7c bc eb 5b 3f ba d6 9c 01 3e 54 25 af 3c
       -0.015433253 -0.00072997686 0.12657484 0.021380104
000090 dc d6 31 be d6 c2 74 3d 89 a4 a1 be 00 45 c3 bc
       -0.17367119 0.059756123 -0.31570843 -0.023836613
0000a0 bd ed a6 3d 8d 49 63 bd 3e 26 e5 bd 46 0d 03 be
       0.08150814 -0.055490065 -0.11188935 -0.12798032
0000b0 3d ed a0 3d 59 c8 0d 3c e7 ba a2 be 33 23 ad 3a
       0.078577496 0.008653724 -0.3178322 0.0013209343
0000c0 55 77 8b bd 66 e9 21 be 49 e9 9f be cd 47 3c 3e
       -0.0680987 -0.1581169 -0.3123267 0.18386765
0000d0 73 b6 95 bd 6a e1 24 bd eb 34 9e 3d 62 a0 00 bf
       -0.0731019 -0.040254034 0.07724937 -0.50244725
0000e0 9f 94 83 3d 30 81 3c 3e 47 9a 3d 3e 60 67 e0 bc
       0.064248316 0.18408656 0.18515883 -0.027393043
0000f0 4a aa 2c be 54 e1 43 3d e2 25 33 be 3d 78 97 bc
       -0.16861835 0.04782231 -0.1749492 -0.018489951
000100 ca 80 ae bd ff f0 0f bd af c2 4f 3d 4e df c6 be
       -0.08520658 -0.03514194 0.050722774 -0.38842243
000110 73 24 4f 3d ae d2 81 3e a3 4c 27 bd 48 dd d1 3d
       0.05057187 0.25356048 -0.04084457 0.10247284
000120 ee f4 9a bd f9 ea 9b 3d 26 41 a2 be 78 44 a7 bc
       -0.07566248 0.07613177 -0.3169033 -0.02041839
000130 56 80 7a bb c3 12 bb 3d 2c 33 16 bd 2f cf 79 3c
       -0.0038223467 0.09134438 -0.036669895 0.01524715
000140 28 36 9b bd 6b fc 9c 3d a8 04 81 be 18 b3 ff be
       -0.07578689 0.076653324 -0.25198865 -0.49941325
000150 18 ae 5a be e5 d5 10 3c f6 f3 80 bd d7 bf cf 3d
       -0.21355474 0.008840059 -0.06296532 0.101440124
000160 57 48 e7 3e f3 6b fc bd a7 8f 70 bd 35 44 74 be
       0.45172378 -0.12325277 -0.058730748 -0.23854144
000170 4a c6 79 bd 88 0e 4a be 4c bd 93 be c2 d3 7c bd
       -0.06098012 -0.19732106 -0.2885536 -0.061725385
000180 54 c5 fd bd 9e 39 93 bd 84 4f 80 bd 5f 63 fb bd
       -0.12391153 -0.07188724 -0.062651664 -0.12274813
000190 76 b3 8a 3e 33 a5 08 be 82 60 7b bd 44 51 8c 3c
       0.27090043 -0.13344269 -0.061371334 0.017128594
0001a0 69 45 2f 3e 8b 6a ca 3d c9 eb 22 bc 1a c8 e4 39
       0.17116322 0.09883603 -0.009943911 0.00043636636
0001b0 e5 0f 94 bd aa d3 fd 3d 8d 55 ae bd a4 be bf 3d
       -0.07229594 0.12393887 -0.08512411 0.09362534
0001c0 d4 e4 83 be 33 e3 a1 3e b4 a6 8d be d7 c9 d4 bd
       -0.2576052 0.31618652 -0.27666247 -0.103900604
0001d0 72 1e a6 be 34 ab 83 bc 72 a4 28 3d e3 20 d4 bd
       -0.32445103 -0.016072847 0.041172452 -0.10357835
0001e0 ad 7a b3 bd 53 33 bb 3e 85 23 09 be 32 35 c1 3e
       -0.08763633 0.36562595 -0.13392456 0.37735897
0001f0 23 28 38 3d a1 c5 29 3d 83 f7 9c bb 97 03 84 3e
       0.044960152 0.04144824 -0.004790248 0.2578399
000200 93 d9 33 be 9e 93 a5 3e 7b 52 3c be 19 93 cc 3d
       -0.17563467 0.32339185 -0.18390839 0.09988994
000210 e0 a7 28 3e 25 4c af 3d c3 89 9f 3d 4a ff 35 3d
       0.16470289 0.08559445 0.07789948 0.044432916
000220 48 a5 61 be da 48 29 3d 87 67 a3 be df 43 56 bd
       -0.22035706 0.041329242 -0.31914923 -0.05231082
000230 ff 14 e4 3c 46 ab a5 bd 67 08 12 be 12 3a db bd
       0.027842043 -0.080893084 -0.14261018 -0.107044354
000240 42 a3 01 3d 36 68 4e bc f4 bc 9a be e0 9f 31 3b
       0.031649835 -0.012598088 -0.30222285 0.002710335
000250 15 af 24 3d 2a 7b 11 be 15 2f fb bd b0 14 84 3e
       0.040206034 -0.1420714 -0.122648396 0.25797033
000260 aa f6 5b bd fd 52 11 3d f0 9c 61 bc fe ad cd be
       -0.053702034 0.035479534 -0.013770327 -0.40171808
000270 66 47 15 be 48 38 5e 3e a3 c2 61 3e 4f 5c ca bd
       -0.14578018 0.21701157 0.22046904 -0.09880888
000280 92 25 da bc 2b 9e 75 3c a4 db 6a bd e9 35 1e be
       -0.026629243 0.014991323 -0.057338372 -0.15450253
000290 63 0e 81 3d b1 18 54 bd 0f f7 e1 bc 0b 50 87 be
       0.06301572 -0.05178136 -0.027583627 -0.26428255
0002a0 a2 cc 69 3d fa 8f e8 3e a8 bc 3d bc 63 9c e4 ba
       0.05707992 0.45422345 -0.011580624 -0.0017441626
0002b0 b3 4f 2e be 9f eb d1 3d bc c7 bd be b9 14 b7 3d
       -0.1702259 0.10250019 -0.37066448 0.089394994
0002c0 d0 08 a7 3d 41 c4 cf 3d 8b 44 9c bd 76 1c 65 3d
       0.08155978 0.10144854 -0.07630261 0.055935346
0002d0 bb 1a 97 3d 20 d5 a6 3c 94 28 4d be f4 29 ef be
       0.07378145 0.020365298 -0.2003501 -0.46711695
0002e0 64 e3 40 be ac b9 3a 3c ed 83 03 3e f8 b8 93 3c
       -0.18836743 0.011396807 0.12843294 0.018032536
0002f0 54 c8 80 3e f6 fa d4 3c 48 c8 84 bd 32 9d 62 be
       0.25152838 0.025998574 -0.06483513 -0.22130278
000300 62 f5 f4 3d f2 31 93 3d 5a 4c 81 be 4a aa 5c bd
       0.119608656 0.07187261 -0.25253564 -0.053873338
000310 47 6c a5 bd 85 77 e6 bd 1b 07 c8 3d 46 35 cd bc
       -0.08077293 -0.11253265 0.0976698 -0.025049817
000320 96 c4 b5 bd 7d d2 bd bd 7a 40 34 3d 48 9f 22 3d
       -0.088753864 -0.09268663 0.044006802 0.039702684
000330 7e ba b0 be 41 73 8e 3d 87 bc 0b 3c 2d 26 0e bd
       -0.34517282 0.06955577 0.008528835 -0.034704376
000340 41 a1 96 3d e6 10 d2 3d f4 e2 ac 3c 60 c5 90 3e
       0.073549755 0.10257129 0.021104313 0.28275585
000350 33 0e 93 be b2 0f b5 bd e2 ed 1d be 0d b5 a6 bd
       -0.2872177 -0.08840884 -0.15422776 -0.081400014
000360 f8 f6 97 bd 29 6d b0 3d 77 ae ae 3d 3f f7 26 be
       -0.074201524 0.08614571 0.0852937 -0.16305254
000370 20 04 15 bd e3 ea 02 3b 49 de 21 be a9 b9 3a be
       -0.036380887 0.001997643 -0.15807451 -0.18234886
000380 a6 d7 39 3c ea f6 51 3d ac 39 c2 bd 78 c1 8d be
       0.0113429185 0.051260866 -0.09483656 -0.27686667
000390 6b dc 12 be cb be 0f 3d f3 77 f1 bc d4 81 3b bd
       -0.14341895 0.035094064 -0.029476142 -0.04577811
0003a0 d3 a6 41 3e cd 4a 50 3d 3b d7 c6 3d a0 56 89 bc
       0.18911295 0.050852586 0.09709021 -0.016764939
0003b0 9c af 2a be 18 dd 20 3c fb 9f 92 be 9f df 15 bc
       -0.16668552 0.009818338 -0.2863768 -0.009147554
0003c0 f0 6a 5d 3d c9 f9 51 3b 86 c2 5b be 1b b3 18 3d
       0.05405706 0.0032039753 -0.21460924 0.037280183
0003d0 46 5b 86 bd e5 03 4e bd 7d 84 56 be 83 7b d2 bd
       -0.06560378 -0.050296683 -0.20948978 -0.10277464
0003e0 0f 21 3e 3b 09 00 0e bd df 5e 96 bd 0b 0e 5d be
       0.0029011404 -0.034668002 -0.07342314 -0.21587388
0003f0 3e 61 aa bd 68 bf 55 be ed 38 a4 bd 88 a1 99 be
       -0.08319329 -0.20873797 -0.0801867 -0.3000605

net.2.bias f4 [100]
000000 80 38 fa 3d 41 28 70 3e 50 63 1c be cf 60 1c 3d
       0.12217808 0.23452856 -0.1527226 0.03817826
000010 5c 51 70 3d eb 45 aa 3d 62 e6 50 3e db c8 3e bd
       0.05867134 0.08314117 0.20400384 -0.04657827
000020 de 7c 4d bd 46 2c bc 3d 57 16 25 3e 1d f8 46 bd
       -0.05016791 0.09188132 0.16121803 -0.048576463
000030 d0 b4 4c 3d a6 06 91 3d 52 c2 92 bd a4 10 0c 3e
       0.049977124 0.07081346 -0.0716597 0.13678223
000040 45 e7 1b 3e 01 c3 07 3e 8c da 30 3e 9e e7 ec 3d
       0.15224941 0.13257982 0.17270869 0.11567615
000050 9b 5e 3e be 78 99 5d 3e c0 f6 6c be 4e 61 2f bd
       -0.18590777 0.21640575 -0.23141003 -0.042817406
000060 b2 1b 1b 3e 0e aa 64 3d 71 21 62 3e a6 84 96 3e
       0.15147284 0.05582624 0.2208307 0.29398078
000070 f8 60 51 be c7 65 12 be 3a c1 80 bd f7 c6 a4 3d
       -0.20447147 -0.14296637 -0.06286855 0.08045762
000080 7a 64 2b 3e de f9 1a 3e 7d 94 14 3d 49 5a 45 3e
       0.16737548 0.1513438 0.036274422 0.19272722
000090 9d 7a 29 3e 9d fd 9e bd e1 db 93 3d 5a fc 11 3d
       0.1655068 -0.07763217 0.07219673 0.03564105
0000a0 bb fc 0f bd 49 14 d5 bc e6 1e 24 3e f3 6d 3e 3d
       -0.035153132 -0.02601065 0.16027412 0.046491574
0000b0 1f a6 32 3e a0 ef 25 3e 22 3c 27 3d 09 af 62 bc
       0.17446183 0.16204691 0.04082883 -0.013835677
0000c0 26 c8 a2 3c ad 92 43 be 84 30 d1 3d 39 2b 8a 3d
       0.019870829 -0.19098921 0.10214332 0.06746525
0000d0 79 b6 59 3d c1 9f 9d 3d 60 1c ee b9 31 b3 cb 3d
       0.053152535 0.07696486 -0.00045416038 0.099462874
0000e0 b4 10 3d 3d 57 f1 c3 3d 37 6e c5 bd 9b 34 41 3d
       0.046158507 0.09567516 -0.096401624 0.04716931
0000f0 a2 3c a1 3d c2 21 14 bd 5b 1c 49 be 3e 23 8e 3d
       0.07872893 -0.036165006 -0.19639723 0.06940316
000100 c7 7b 7d 3d a4 a3 5b bd dd d5 b5 be bd f7 75 bc
       0.06188562 -0.053622857 -0.35514727 -0.015012679
000110 39 2e 8f 3d 47 45 d5 3d e1 95 ae 3d 97 ee ba 3d
       0.06991238 0.10413604 0.08524681 0.09127539
000120 44 ed fd 3b b6 5d 7f bc 4e a1 6a bd ae 85 b8 3d
       0.0077492315 -0.015586307 -0.05728274 0.090098724
000130 87 3c 9f 3d 7a c4 23 3d cf e8 63 3d 23 f9 99 3d
       0.077752165 0.039982297 0.055641945 0.07518222
000140 48 a6 36 3e d5 dd 0b bd 62 17 62 3d 02 cb cb bc
       0.17836869 -0.034147102 0.05519808 -0.024877075
000150 91 ed 08 3d d0 ec 44 3e 19 10 42 bc 0b 81 80 3d
       0.033429686 0.19230962 -0.011844658 0.06274613
000160 08 cb 88 3c 89 0f 2c 3e 82 fc 9a 3c 94 e6 cf 3d
       0.016698375 0.16802801 0.018919233 0.10151401
000170 c8 7d 0a 3e c2 5a 2a 3e 07 c2 b0 3d 26 83 4f bd
       0.13524544 0.16636184 0.08630758 -0.050662182
000180 9f ef 27 be 24 04 29 3d 56 09 4a 3d 04 7d 83 3c
       -0.16400002 0.041263714 0.04932531 0.016050823

net.4.weight f4 [11, 100]
000000 c6 09 ef 3e 89 b0 05 3f 4e 27 36 3f 78 f2 83 3e
       0.46687144 0.52222496 0.71153724 0.25770926
000010 30 2a a6 3e db 5c 09 3f bb 39 aa 3e 41 5e 9e 3e
       0.32454062 0.5365731 0.3324717 0.30931285
000020 5b 3e 50 3f af 16 d2 3e 9e 79 91 3e c0 e1 81 3e
       0.81345147 0.4103293 0.284131 0.25367546
000030 c0 c3 01 3f 6e 9c f7 3e 46 e2 1f 3f 1c d3 0d 3f
       0.50689316 0.48361534 0.6245464 0.5540025
000040 44 3c 1f 3f 8d 6b 02 3f 3f 7a 5a 3e 12 ec 9a 3e
       0.62201333 0.5094536 0.21335696 0.30258232
000050 cc d7 5e 3f 37 52 1f 3f 5d 0d 63 3f 4a 8c 3e 3f
       0.8704803 0.62234825 0.88692266 0.74432814
000060 a3 f3 0e 3f 27 bd 14 3f 5f 4d e7 3e f3 b4 25 3f
       0.5584051 0.58101124 0.45176217 0.6472923
000070 1b 5a 2b 3f ed 19 45 3f a7 90 83 3e dd aa c0 3e
       0.66934365 0.76992685 0.25696298 0.37630358
000080 4e a3 b7 3e 9a 67 b6 3e 9f ca b8 3e 2b 00 6d 3e
       0.3586678 0.35625917 0.36092088 0.23144595
000090 f2 aa af 3e 61 3a 8c 3e 78 fe c5 3e 4f ca aa 3e
       0.34310108 0.2738829 0.38670707 0.33357474
0000a0 e0 fe c8 3e f1 bc 55 3e 28 15 a9 3e 9e 10 b0 3e
       0.39256954 0.20872857 0.33023953 0.34387678
0000b0 c3 04 a4 3e ad 98 f8 3e 32 a3 e1 3e 99 cd 72 3e
       0.32034883 0.48553982 0.4406982 0.23711242
0000c0 2e 05 ab 3e 53 17 3f 3f 91 fc 71 3e f8 d0 25 3f
       0.3340239 0.74644965 0.23631503 0.64771986
0000d0 cc 97 08 3f 38 3c ce 3e e2 aa 4a 3e a8 4e 16 3f
       0.53356624 0.40280318 0.19791749 0.5871377
0000e0 69 60 29 3f 54 fc d4 3e 8f ad da 3e 65 c3 b0 3e
       0.66162735 0.4159876 0.4271054 0.34524074
0000f0 a0 e0 e3 3e 24 19 cc 3e fb e8 d9 3e 4b bb 1c 3e
       0.44507313 0.3986293 0.42560562 0.15305822
000100 e3 ad c1 3e 17 bd 81 3e 14 87 40 3f 2b 69 94 3e
       0.37827978 0.25339577 0.7520611 0.28986487
000110 45 08 7c 3e df 73 27 3f 52 da e8 3e 3a d8 48 3f
       0.2461253 0.6541118 0.45479065 0.78454936
000120 3e 04 d7 3e 27 28 29 3f 4c e6 a0 3e 6b 89 ce 3e
       0.41995424 0.6607689 0.31425703 0.40339217
000130 4b 3e 84 3e bd 54 b7 3e b3 0b 8a 3e dd 3e fc 3e
       0.25828776 0.35806838 0.2696205 0.4926671
000140 bf f1 3b 3f 9b ed 43 3f 20 4c 72 3e da 76 ae 3e
       0.7341575 0.7653443 0.23661852 0.34075052
000150 e4 5d f1 3e fc 37 ac 3e 05 4b 52 3f d8 47 cc 3e
       0.47141945 0.33636463 0.8214572 0.39898562
000160 ee 72 f6 3e d2 71 46 3f be 1b 15 3f 57 ff aa 3e
       0.4813456 0.77517426 0.58245456 0.33397934
000170 86 59 eb 3e f7 eb 87 3e 6d 00 80 3e 87 01 b4 3e
       0.45966738 0.26547214 0.25000325 0.35157415
000180 86 24 95 3e 53 a3 c7 3e 66 e6 9d 3e 2a 9b 30 3e
       0.29129428 0.38991794 0.30839843 0.1724669
000190 4d 7c 56 3f 35 3b 62 3f 1f 95 0d 3f 40 18 58 3f
       0.8378342 0.8837159 0.55305666 0.84412
0001a0 16 4d 53 3f bb af 50 3f 74 d5 76 3f e7 1e 6c 3f
       0.825395 0.81518143 0.96419454 0.92234653
0001b0 ba 57 15 bf 8f 89 6d 3f 6d 23 5f 3f 83 ad 41 3f
       -0.58336985 0.9278802 0.8716343 0.7565538
0001c0 87 d2 7f 3f e7 4a 60 3f 70 0d 67 3f 5d 9a 7b 3f
       0.99930614 0.8761429 0.9025488 0.98282415
0001d0 cb 8d 2e 3f a2 9d 6e 3f 1f 4b 51 3f 93 7e 6c 3f
       0.6818511 0.9320928 0.8175525 0.92380637
0001e0 90 79 7a be b6 8d 5b 3f ec 86 58 3d ad 2f 27 3f
       -0.24460435 0.8576311 0.052863047 0.6530712
0001f0 27 36 69 3f 9e d2 99 3e 0b b7 79 3f 17 32 6e 3f
       0.91098255 0.300435 0.97544926 0.9304518
000200 af 3e d9 3d 4e f0 3f 3e 92 c4 69 3f 8c 84 69 3f
       0.10607659 0.18744013 0.9131557 0.91217875
000210 30 b4 61 3f 74 a4 82 3f 93 77 82 3f e8 4b 6d 3f
       0.8816557 1.0206437 1.0192741 0.9269395
000220 9f 0f 60 3f 6d 42 7b 3f 10 e3 6c 3f 15 b6 65 3f
       0.87523836 0.9814823 0.9253397 0.8973096
000230 f0 a0 57 3f 2c 66 83 3f de 2b 7a 3f 25 89 52 3f
       0.84229946 1.0265555 0.97723186 0.82240516
000240 f0 46 89 3f 6a ea 86 3f c5 9e 5d 3f d9 e0 84 3f
       1.0724773 1.0540287 0.8657039 1.0381118
000250 1d b0 80 3f 11 33 05 bf 86 29 83 3f d6 3b 40 3f
       1.0053746 -0.52031046 1.0247047 0.750913
000260 9a ad 2e 3f 26 95 42 3f 76 6f 4e 3f 36 85 59 3f
       0.68233645 0.7600883 0.80638826 0.8496889
000270 83 22 0d 3f ca cf 52 3f 03 c4 5d 3f e5 e5 61 3f
       0.55130786 0.8234831 0.86627215 0.88241416
000280 40 89 6a 3f 8c 81 41 3f df bb 1d 3f c5 5c 53 3f
       0.91615677 0.755883 0.61614794 0.8256343
000290 b3 1d 4f 3f 6f be 75 3f 95 63 06 be 94 e8 55 3f
       0.8090469 0.95993704 -0.13123925 0.8355801
0002a0 12 1b 6e 3f 29 f4 28 3f b1 83 45 3f c3 c3 0e 3f
       0.93010056 0.6599756 0.7715407 0.5576746
0002b0 15 3b 3b 3f 8a f0 0e 3f e4 3e 84 3f ca f5 58 3f
       0.7313703 0.55835783 1.0331693 0.84750044
0002c0 e5 05 81 3f 6a b8 54 3f ee ca 54 3f 74 2f 7b 3f
       1.0079924 0.83093894 0.83122146 0.9811928
0002d0 58 94 34 bf f2 62 1c 3f 98 d7 7a 3f b3 7e 6d 3f
       -0.70538855 0.6108848 0.9798522 0.9277145
0002e0 0f ec 33 3f de c6 77 3f df 5a 92 3b cc c1 73 3f
       0.7028207 0.9678782 0.004466399 0.95217586
0002f0 96 e9 60 3f 4e 11 0e 3f cf 09 5d 3f 83 c6 6f 3f
       0.87856424 0.55495155 0.8634309 0.9366228
000300 bd d5 84 3f 4f 63 5e 3f 1f d3 81 3f 5c ad 79 3f
       1.0377728 0.8687028 1.0142554 0.9753015
000310 e2 c6 3c 3f 53 30 81 3f ab a4 6c 3f fa 48 7c 3f
       0.7374097 1.0092872 0.92438763 0.98548853
000320 90 97 64 3f f6 09 5b 3f a2 a0 5a 3f e1 44 59 3f
       0.89293766 0.85562074 0.85401356 0.84870726
000330 e8 8b 4f 3f f7 56 58 3f 72 5b 7a 3f 03 7c 36 3f
       0.81072855 0.845077 0.97795784 0.71282977
000340 eb e1 9a 3d 7e 3f 4e 3f 56 8b 64 3f b3 00 45 3f
       0.07562622 0.8056563 0.8927511 0.7695419
000350 8a 5e 4f 3f a2 f5 ab 3e 2d d0 51 3f c1 19 80 3f
       0.8100363 0.3358584 0.81958276 1.000786
000360 e4 76 72 3e 4e 9c 52 3f 81 f7 66 3f 7d c4 76 3f
       0.23678166 0.8226975 0.9022141 0.9639357
000370 41 d6 f5 3d fe 3d 83 3e 15 db ff 3e 94 59 59 3f
       0.12003756 0.25633234 0.49971834 0.8490231
000380 13 b6 05 3f 12 4b 85 bc 22 89 7b 3f 00 f9 e4 3e
       0.5223095 -0.016271148 0.98256123 0.44721222
000390 02 02 fc 3e 70 5f 8f 3e ad bf 5d 3f f5 32 82 3f
       0.49220282 0.280025 0.866206 1.0171801
0003a0 9d 17 72 3f 72 4d 6c 3f a2 78 57 3f fb c7 78 3f
       0.9456728 0.9230567 0.84168446 0.97180146
0003b0 96 a5 65 3f ab 0d 3b 3f 7a ba 7f 3f e0 33 6b 3f
       0.8970579 0.7306773 0.99893916 0.9187603
0003c0 3c b3 69 3f df 02 51 3f 15 2a 61 3f 63 80 7d 3f
       0.91289115 0.81645006 0.8795484 0.9902403
0003d0 13 06 72 3f 14 28 4f 3f fd a1 6a 3f 55 0c 55 3f
       0.9454052 0.8092053 0.91653425 0.8322194
0003e0 0c c0 6d 3f 04 fa 08 3e f3 21 82 3f 4d 86 66 3f
       0.92871165 0.13376623 1.016661 0.90048677
0003f0 89 e6 a1 3e 56 47 6c 3f b8 89 61 3f 3d 37 ca 3e
       0.31621197 0.9229635 0.8810077 0.39495268

net.4.bias f4 [11]
000000 ec 85 3f 3f dd 67 de 3e 6d af f0 3e 91 fa 43 3f
       0.74813724 0.43438616 0.4700884 0.7655421
000010 f9 a5 1c 3f 40 c5 43 3f 48 f7 4c 3f bc f5 3a 3f
       0.61190754 0.76472855 0.8006482 0.7303121
000020 53 ac eb 3e 38 28 4c 3f 68 b3 3f 3f
       0.4602991 0.7974887 0.7488313
