models/part2_advanced.pt (torch, 109391 bytes, 6 tensors)

net.0.weight f4 [100, 155]
00000000: 48b2 09bd 80bb 723c 55fa 823d f07a 9fbb
00000010: c0e2 073c f06f c33b 807d 86ba 5a85 453d
00000020: cc04 323d 4a33 30bd fb12 9d3d b64e 3d3d
00000030: e8e9 4dbc 1138 8f3d fe8d 8d3b 2ae6 4f3d
00000040: ddac 8bbd 95a8 933d 6b12 9b3d edd4 75bd
00000050: 0d3c 93bd af81 bfbc c645 4abd 00ce af3c
00000060: b772 123d 94ad 27bc 0cdd 663d a078 473b
00000070: a264 c1bc 6d69 8cbd 2420 d13c 00fe 9abd
00000080: 0901 90b9 b85a 403c 4e41 38bd f8ac c53c
00000090: 30d1 7f3c 5a2c 5c3d 7ac5 4d3d 1820 85bd
000000a0: 6e1c 74bd 1c80 f1bc 75ae 6cbd 984e ce3c
000000b0: 788e 57bd a22e 7bbd 48a6 bf3c 828e 463d
000000c0: 664b bfbc 9aea a3bd c8fd 393c 9499 283d
000000d0: 8f80 803d 80ba f93b 7e66 643d c715 93bd
000000e0: 775f 9d3d 3b72 54bd e290 60bd 121d 6c3d
000000f0: 0037 92bc 5a09 4b3d 4870 66bd 6ee9 783d
00000100: a702 9c3d 1c3d c73c 5bb3 843d 51f2 6abd
00000110: 584b 91bc c847 c83c f2e9 393d f0ab 2fbd
00000120: 6a5a 513d 768f d8bc cd9a 2fbd 78b6 803c
00000130: 6406 83bd 2cfa 96bd 6cc9 da3c 301f e03c
00000140: 3808 fd3c e093 2cbc bc9b 70bd fc25 84bd
00000150: bf68 9d3d 029c 8ebd d850 c63c 679a 853d
00000160: ce58 7b3d 5e6f 4fbd ea29 d4bc c885 83bd
00000170: e25e 4e3d 645f 9abd 986f 97bd d0a3 5bbd
00000180: 8f2e 863d b240 553d ae71 5c3d ba6f 7c3d
00000190: 4e70 19bd 757a 37bd 8a1d 4abd 981c d93c
000001a0: a0f3 ff3c d489 883c e01a 7dbd 70ce e93b
000001b0: 8294 2ebd a864 81bc 58ba 4bbc 80d4 823b
000001c0: 743c 90bd 996a 8c3d f9fe 0bbd b497 cd3c
000001d0: 1a90 623d 9493 043d 7a67 663d aac7 393d
000001e0: 0ee8 703d 30e0 8a3c 8a21 523d d801 0fbd
000001f0: 7547 31bd 3e19 1d3d 08a6 ac3c e065 45bb
00000200: b2c1 8abd 7d02 d73c 261c 553d 00f0 17bc
00000210: 342b 973c ba76 123d c174 a2bd c084 58bc
00000220: 0e18 f4bc 4228 28bd 3216 493d 5919 a33d
00000230: e0fa 513c 71c3 4c3d ff13 74bd f8d7 673c
00000240: 3833 2abc c8e9 4abd e4ea 863c 1475 d13c
00000250: e03f 7ebb 0ab5 0b3d 88f4 1d3d 3135 953d
00000260: 9092 983b c08b 3b3b ffaf 96ba 889c 353c
00000270: 2854 55bd 19fc 21bc 201b 8bbd ecc4 66bd
00000280: 571e 8cbd 36fc 733d 5513 3dbd e067 d4bb
00000290: 00b1 0c3c dd49 913d 0e50 153d 744a 6abd
000002a0: 8ae4 a03d c8cf 9bbd 481a 2b3c cb4d 963d
000002b0: 91a9 8e3d be81 98bc a28f 5bbd aa76 103d
000002c0: d39c 7d3d 9c63 2fbd a93e 50bc d614 48bd
000002d0: 9347 fb3c da0d 8c3c 1e15 233d f0c1 e1bc
000002e0: fbca 9ebd 0a8d 0abd efa6 80bd 9d84 9ebc
000002f0: 3721 ef3c 30da 88bd 80b6 75bb 60f1 a0bd
00000300: 0a25 69bd 3c58 66bd d609 e0bc 42b2 26bd
00000310: 4090 4a3c 461e 493d f612 783d f051 cf3c
00000320: 0054 0bba d083 6abc 1664 5f3d 726d 3cbd
00000330: a2cd 6d3d c661 9ebd 0a8e 75bd 0c8b ae3c
00000340: 2d81 07bd b886 753c 0b54 8f3d 9a43 163d
00000350: bf01 a13d 8e5a 0bbd 571b 1dbd 0018 27bc
00000360: 4085 84bc 70b7 10bd 0069 a3bb a99c 943d
00000370: d757 34bd 92c2 383d bcd5 183d 6e87 3e3d
00000380: ec83 b13c f812 f3bc 3ec8 073d f9f4 1abd
00000390: edf1 49bd edc5 993d f759 883d b6c4 6dbd
000003a0: 799d 853d 3871 883c 88a9 a83c 2d8e 9e3d
000003b0: 4033 8abb 5e46 d1bc 8e89 4e3d 46f8 a9bc
000003c0: bcf5 9dbc a0ab 04bd 33ea a13d 34fc 1c3d
000003d0: 5856 55bc 8009 d2ba f534 b83b 7b07 43bd
000003e0: 54d2 ba3c 5e58 7fbd 016f 75bb 30ed 76bc
000003f0: e855 06bd bd24 983d 6847 b83c 367d 1e3d
-0.033617288 0.014815211 0.06395403 -0.00486695 0.0082938075 0.0059642717 -0.0010260791 0.048222877
0.043461606 -0.043017663 0.07669636 0.046217643 -0.012567975 0.06993116 0.0043199053 0.05075661
-0.068200804 0.07209889 0.07571872 -0.060017515 -0.07189188 -0.023377268 -0.049382947 0.021460533
0.03575393 -0.010234255 0.05636315 0.0030436888 -0.023607556 -0.06856046 0.025528021 -0.07567978
-0.00027466592 0.011740379 -0.044984154 0.02413033 0.015613839 0.053753234 0.050237156 -0.06500262
-0.059597425 -0.029480033 -0.057783563 0.02518396 -0.052626103 -0.06132377 0.023394719 0.04847575
-0.023351382 -0.08003731 0.01135201 0.04116209 0.062745206 0.0076211095 0.055761807 -0.07181888
0.07684224 -0.05186675 -0.05482567 0.05764491 -0.017848492 0.049569465 -0.056259423 0.06076949
0.076176934 0.024321131 0.06479522 -0.057359997 -0.017736122 0.02444829 0.045389123 -0.04288858
0.051111616 -0.026435595 -0.04287224 0.015712008 -0.06397703 -0.07371935 0.026707374 0.027358621
0.030887708 -0.010533303 -0.05874227 -0.064525574 0.07685994 -0.0696335 0.024208471 0.065235905
0.061363988 -0.050643317 -0.025898892 -0.06422001 0.050383456 -0.075377256 -0.07394332 -0.05362302
0.06551849 0.05206365 0.05381935 0.06162999 -0.037460618 -0.04479452 -0.049344577 0.026502892
0.0312441 0.016667284 -0.061793208 0.007135205 -0.042622097 -0.015795067 -0.0124345645 0.003992617
-0.070427805 0.068562694 -0.034178708 0.025096752 0.055313207 0.032367304 0.056251027 0.04535643
0.058815055 0.016952604 0.051301517 -0.034913868 -0.043281037 0.03835415 0.021075264 -0.0030120537
-0.06775226 0.026246304 0.052028798 -0.009273529 0.018453218 0.035757758 -0.07932425 -0.013215244
-0.029796626 -0.041054018 0.049093433 0.07963819 0.012816161 0.049991075 -0.059589382 0.014150612
-0.010388188 -0.049539357 0.016469426 0.025568523 -0.0038795397 0.0341082 0.03856328 0.07285536
0.0046561435 0.0028617233 -0.0011496543 0.011084683 -0.05208221 -0.009886765 -0.06792283 -0.056340143
-0.06841724 0.0595667 -0.046161015 -0.0064821094 0.008587122 0.070941664 0.0364533 -0.05719991
0.0785609 -0.076079905 0.010443278 0.073390566 0.06965936 -0.018616553 -0.053603776 0.035269417
0.061917137 -0.042819604 -0.012710252 -0.048847996 0.030673778 0.017096449 0.03981506 -0.027558297
-0.07753559 -0.03382591 -0.0628184 -0.019350344 0.029190643 -0.06682241 -0.0037492812 -0.07858539
-0.05692009 -0.05623649 -0.02734844 -0.040697344 0.012363493 0.049101137 0.060564958 0.025307626
-0.0005314946 -0.014313653 0.05453881 -0.046002813 0.058057435 -0.077334926 -0.059949912 0.021306537
-0.033082176 0.014985733 0.06998452 0.036685564 0.07861661 -0.034021907 -0.03835615 -0.010198593
-0.01617682 -0.03533119 -0.004986882 0.07256443 -0.044029083 0.04510743 0.037313208 0.046515875
0.02166935 -0.029672131 0.03314995 -0.03783128 -0.049302984 0.075084545 0.066577844 -0.058048926
0.06524176 0.01665555 0.020588651 0.07741962 -0.0042175353 -0.025546249 0.05042415 -0.020748269
-0.019282214 -0.032390237 0.07905998 0.038326457 -0.013021074 -0.001602456 0.0056215473 -0.047614556
0.02280537 -0.062340133 -0.0037450197 -0.015071198 -0.03279677 0.07428882 0.022494987 0.03869363

net.0.bias f4 [100]
00000000: fe37 d2bc daab 3c3d 90ba d4bc 57b7 48bc
00000010: 3871 433c 9916 91bd ec86 173d 31d6 943d
00000020: 03bb 75bd eea6 fb3c c497 95bd 9e14 4fbb
00000030: ebc4 15bd 4c43 8ebd 7629 103d e2be 4d3d
00000040: 4878 333c 5cae dd3c ebf9 35bd be67 593d
00000050: 6eec 82bd d6cc b4bc 9bea ecbc 1cf0 0dbd
00000060: 686f 873d cda6 7e3d 6b19 293d 028c fdbc
00000070: 7bae 4abd 8348 b6bc 4475 00bd 88af 123c
00000080: 2003 263d dc47 9a3d 628b 663d 6724 87bd
00000090: cb4d 8d3d a59f 98bd 9891 113c e844 1c3c
000000a0: 8713 6abc 58c2 cabc f0e3 0dbd 3aa6 3c3d
000000b0: abb4 51bd c8be 813c f571 ed3c 6272 7b3d
000000c0: 47c2 ca3a 6bb0 8d3d b7fb a0bd cdcb 35bd
000000d0: 35f4 8ebd 8f9b 17bb 6c76 4bbd f294 5b3d
000000e0: 4e67 1cbd a4c2 df3b 9511 8b3d f81e a2bd
000000f0: cfb6 073d 971f 8cbd 496d 1f3d f46a acbc
00000100: 8825 8dbd f0da 583c 732f c03b 0fe9 e43c
00000110: 1648 453d d8d9 07bc 2592 18bd 28c5 a03d
00000120: f332 cbbc 2dbe 8c3d ce62 5b3d 2454 a1bd
00000130: 168b bebc 9005 aa3b 52d3 83bd d8f5 603c
00000140: 8bfd 07bd dad5 28bd 37e0 743d b372 0d3d
00000150: 15b6 a33d 309a 86bc 7925 bbbc 3320 52bd
00000160: 50e1 143c 6d10 813d 4809 10bc a0f2 e3bc
00000170: 5a4d 523d f28f 373b 2fe9 3a3c 3505 9b3d
00000180: c18d 9d3d 9c46 9d3d f299 94bd 8f7b 5f3c
-0.025661465 0.046062328 -0.025967866 -0.012250743 0.011928849 -0.07084388 0.036993906 0.07267416
-0.0599928 0.030719247 -0.073043376 -0.0031597982 -0.03656475 -0.069464296 0.03519579 0.05023087
0.01095397 0.02706068 -0.044427793 0.053077452 -0.06392752 -0.02207033 -0.028920462 -0.034652814
0.06613046 0.062170792 0.041284006 -0.03095055 -0.049482804 -0.022251373 -0.031361833 0.008952983
0.040530324 0.07533237 0.05628527 -0.0659874 0.068996035 -0.07452325 0.00888481 0.009537913
-0.014286882 -0.024750873 -0.034641206 0.046056964 -0.05119769 0.015838042 0.028985003 0.06138838
0.0015469276 0.06918415 -0.07860511 -0.044383813 -0.069801725 -0.0023133492 -0.049673483 0.053608842
-0.038184457 0.006828623 0.06790463 -0.07916063 0.033133324 -0.06841963 0.03892258 -0.021047093
-0.06891924 0.0132357925 0.0058650314 0.027943162 0.04816445 -0.008291684 -0.03724875 0.078501046
-0.024804568 0.06872211 0.053561024 -0.07877377 -0.02325968 0.0051886514 -0.064367905 0.013730489
-0.03320078 -0.04121957 0.05978414 0.034533214 0.07993714 -0.016430944 -0.022845017 -0.05130024
0.009086922 0.06301961 -0.008791275 -0.027825654 0.0513433 0.0028009382 0.011408134 0.075693525
0.07693053 0.07679483 -0.07255925 0.0136402985

net.2.weight f4 [100, 100]
00000000: a984 a63d b992 b53d 3bbb b1bd a30e 973d
00000010: 1740 3dbd c720 4dbd 97b5 66bd 8ab9 59bd
00000020: 1819 80bc 8016 ebba 7d75 33bd 39a0 833d
00000030: ad39 6bbd 6972 b63d c0d1 b8bd 4afc 063d
00000040: f0e6 7abd 9ac6 63bd 5438 c23c c85b 99bc
00000050: ed66 89bd 5095 c1bb 709f 93bd cd9a 73bd
00000060: 2217 723d b0fb ca3b 4c57 e7bc 83fc a33d
00000070: e890 493c 6f1c 943d 5a99 293d 1884 063c
00000080: 0cef 16bd adf9 33bd c151 b33d 5425 af3c
00000090: b999 ae3d d6c2 743d b00d b9bb cbb8 bcbd
000000a0: fa2e 253d 54bd b5bc 883d a43c 1436 15bd
000000b0: 3ded a03d 8522 c53d 30ec 72bd 40d7 c2bc
000000c0: aa74 98bd f244 463d 4d64 94bd fb5b 9ebd
000000d0: 73b6 95bd 852d a5bd eb34 9e3d 435b 30bd
000000e0: 5a33 7d3d 28b3 e2bc 2c34 f7bc 6067 e0bc
000000f0: 4b20 a6bd 2c1f eb3c a3c0 24bd 8c37 f53c
00000100: ca80 aebd 3423 803c f556 a63d 6ccf fbbc
00000110: 989f ae3c ca2f cabd a34c 27bd 37a1 a93d
00000120: 2678 223d 2e12 163d d2c3 313d 7844 a7bc
00000130: 5add 2dbd 29bc c03d 2c33 16bd 50aa 02bc
00000140: 2836 9bbd 6bfc 9c3d 2ad1 05bd c6b5 18bd
00000150: 7ac3 7ebd ccac be3c 2894 9ebd 7d69 b03d
00000160: 678f 963d 90dd 9bbd 7aea bbbd ac0f d63c
00000170: 2a8c 73bd 0f04 cbbd a995 803d 8c02 cebc
00000180: e87f a93c 403a 2f3c 57a5 7fbd 6aed 48bd
00000190: f666 0e3d 55d4 b4bd d000 61bc 5827 10bc
000001a0: 7d19 63bd 8b6a ca3d 6d7c b5bd eb8c afbd
000001b0: e50f 94bd 7647 683d 8d55 aebd 02a5 783d
000001c0: 09cb c63d 3137 c03d 71dd be3d 6c11 853c
000001d0: ed13 b3bd 089e c83c 72a4 283d 2099 f7bb
000001e0: ad7a b3bd e981 9a3d 78da 9d3c 3df5 893d
000001f0: 10bb 35bc 400e b7bd dd68 ae3d 5571 c8bd
00000200: eb4f 92bd 471e bb3d b4c5 ebbc 826a 5e3d
00000210: 02e7 7a3d 4067 40bc 80b9 a4bc 4aff 353d
00000220: 483d a6bc da48 293d 16c8 01bd 77b6 60bd
00000230: 425c 81bd 5b93 cbbd 686b f9bc b01f 3bbd
00000240: 42a3 013d 80a5 633a 3c79 87bd c86d 94bd
00000250: 400c 76bc 52a7 133d 00cd c03b 50b6 3e3c
00000260: aaf6 5bbd d020 38bd f09c 61bc a6af 2a3d
00000270: 2be7 bbbd 061d 2e3d 6a13 663d 4f5c cabd
00000280: 12e9 2b3d 1822 773c da12 233d 4d62 63bd
00000290: 630e 813d fa87 6cbd a331 32bd 62d6 033d
000002a0: 6c71 b0bc 09bd 8e3d a8bc 3dbc 88ab 9fbd
000002b0: bbab aabd d0af a83b 4098 9fbd b914 b73d
000002c0: 7f08 b23d 9295 763d 8b44 9cbd a051 bcbc
000002d0: bb1a 973d 20d5 a63c 50e6 003c 3040 febb
000002e0: a7d0 60bd b44e 02bd 7ac2 6e3d 5491 9fbc
000002f0: e87b dbbc 9edc 493d f727 45bd 2813 73bc
00000300: 6921 aa3d 1086 6a3c be93 3a3d fa13 4abd
00000310: 7202 463d 57e8 5dbd df7a c83d f4cd e2bc
00000320: 257d 95bd 781e b1bc 33db 963d 19b0 a03d
00000330: b0b4 e73b 4173 8e3d b4a9 08bd 98d0 21bc
00000340: 41a1 963d 404f 8eba f4e2 ac3c 829e 733d
00000350: 5074 fd3b eda4 6ebd 0082 313c d071 c5bb
00000360: f06f 22bc 7728 c63d 77ae ae3d 2883 b9bd
00000370: 2004 15bd 704e 34bc 421b 6c3d e8a1 b3bc
00000380: 40d2 7bbc 0c4f d4bc c72e 7fbd 8fef afbd
00000390: 4bc3 a2bd 0076 9b3c 86f4 3e3d 8049 d2bb
000003a0: f391 bc3d b456 8ebc 2993 983d a056 89bc
000003b0: 2dbe 63bd 18dd 203c 372a ccbd 9e82 193d
000003c0: 6087 ad3c 92de 3e3d aea7 553d 91dd af3d
000003d0: 465b 86bd 6ff6 c0bd e892 0b3c 90db 34bd
000003e0: 80d9 033a a172 b13d 5815 2e3c 68e0 443c
000003f0: 3e61 aabd 8042 093a ed38 a4bd 6803 cdbc
0.08130772 0.08865876 -0.086782895 0.073758386 -0.0462037 -0.050080087 -0.05632552 -0.05315546
-0.015636966 -0.0017935783 -0.043813217 0.064270444 -0.05742805 0.08908541 -0.09024382 0.032955445
-0.061255395 -0.055609323 0.0237085 -0.018720523 -0.06709085 -0.005907692 -0.07208145 -0.0594738
0.059104092 0.0061945543 -0.028239869 0.08007147 0.012302615 0.07231986 0.041406013 0.008210205
-0.036849067 -0.04393928 0.08755828 0.021380104 0.08525414 0.059756123 -0.0056473836 -0.09214934
0.040328003 -0.022185005 0.020048872 -0.036428526 0.078577496 0.09625725 -0.059307277 -0.02378428
-0.07444127 0.048405595 -0.07245693 -0.07732388 -0.0731019 -0.08065323 0.07724937 -0.043055784
0.06181655 -0.027673319 -0.030176245 -0.027393043 -0.08111628 0.028701387 -0.040222775 0.029933713
-0.08520658 0.015641786 0.081220545 -0.030738555 0.021316335 -0.09872396 -0.04084457 0.082827024
0.039665364 0.03663843 0.04339964 -0.02041839 -0.042447425 0.09410889 -0.036669895 -0.007975176
-0.07578689 0.076653324 -0.032670178 -0.037282728 -0.06219814 0.023275755 -0.07743102 0.0861387
0.073515706 -0.07610619 -0.09175582 0.02613052 -0.059459843 -0.099128835 0.062785454 -0.025147699
0.020690873 0.01069504 -0.06241354 -0.04905454 0.03476616 -0.088295616 -0.013733104 -0.008798443
-0.05544423 0.09883603 -0.08861623 -0.085718 -0.07229594 0.056708775 -0.08512411 0.06070424
0.09706695 0.09385527 0.0931958 0.016243659 -0.08744035 0.024489418 0.041172452 -0.0075560957
-0.08763633 0.0754431 0.019269213 0.067362286 -0.011091962 -0.08938265 0.08516095 -0.09787241
-0.071441494 0.09136634 -0.028780796 0.054300793 0.061255462 -0.011743367 -0.020107985 0.044432916
-0.020292893 0.041329242 -0.031684957 -0.054861512 -0.06316425 -0.09940215 -0.030446723 -0.045684516
0.031649835 0.0008684024 -0.066149205 -0.072475016 -0.015017569 0.03604824 0.005883813 0.011640146
-0.053702034 -0.044953167 -0.013770327 0.041671418 -0.09174951 0.042508148 0.05617086 -0.09880888
0.04197032 0.015083812 0.0398129 -0.05551367 0.06301572 -0.057746865 -0.04350437 0.032186873
-0.021538459 0.06969649 -0.011580624 -0.07796389 -0.08333536 0.0051479116 -0.07792711 0.089394994
0.08693027 0.060201235 -0.07630261 -0.02298814 0.07378145 0.020365298 0.007867411 -0.0077591166
-0.054886486 -0.03181334 0.058290936 -0.019478478 -0.026792482 0.049282663 -0.048133817 -0.01483611
0.08307154 0.01431419 0.045551054 -0.049335457 0.048342176 -0.054176655 0.09789061 -0.027686097
-0.0729926 -0.021620974 0.07366028 0.07846088 0.0070711 0.06955577 -0.033364967 -0.009876393
0.073549755 -0.0010857359 0.021104313 0.059477337 0.007734813 -0.058262754 0.010834217 -0.0060255304
-0.009914383 0.09675687 0.0852937 -0.09058219 -0.036380887 -0.011005029 0.057643183 -0.021927789
-0.015369952 -0.025916599 -0.06230047 -0.08590614 -0.079474054 0.018977165 0.046619914 -0.0064174533
0.09207525 -0.017375328 0.074499436 -0.016764939 -0.055601288 0.009818338 -0.09968989 0.037478082
0.021182716 0.04659898 0.052161865 0.08587182 -0.06560378 -0.094220035 0.008518912 -0.044154704
0.00050296634 0.08664442 0.010625206 0.012016393 -0.08319329 0.00052360445 -0.0801867 -0.025026038

net.2.bias f4 [100]
00000000: 94d3 8d3c 4360 a93d 2a3a 52bd 077c 5fbd
00000010: 1459 963c 4903 c03d 25ab bf3d 8848 9abc
00000020: 801d ccbb 34d6 a3bc 01c2 c63d a845 823c
00000030: 5004 e63b acf3 d23c 53f3 9abd 80e0 22bc
00000040: 2b7d a4bd a412 fa3c 754c 8f3d c862 893c
00000050: f49c f9bc 01b9 973d c090 7e3c 62c7 a9bd
00000060: 2bfb aebd 6ee7 333d 31d0 9f3d 0c82 ba3d
00000070: 6ce0 d03c be51 87bd 9a49 88bd c03f 293c
00000080: 3e57 6f3d 18a0 aabc 026c 163d 6229 7c3d
00000090: b69f 2e3d f869 cdbc d45a a8bc ed66 81bd
000000a0: c016 ba3a 5005 b2bd cfca 8f3d e0ea ad3c
000000b0: 3ee5 2d3d 33cf a73d 74c5 dcbc 80d7 193c
000000c0: 7c40 0fbd 22fc 433d 1ea3 203d 5231 693d
000000d0: 2db3 8bbb 52a7 293d eaae 65bd e383 71bd
000000e0: eb8b abbd 5eef 643d 2ac5 bebd ed1a 24bd
000000f0: e85d 57bc 2852 28bc 2be5 9d3d 9fb4 bc3d
00000100: 7a94 31bd a803 61bc cb20 a9bd 2001 6abd
00000110: 942a 0ebd e0b6 a8bc 516b 8c3d 48cb b7bc
00000120: c421 e23c 88db a3bd fab3 14bd 5096 413c
00000130: 3a28 01bd d360 b73d 4049 41bc 49bd bb3d
00000140: 0029 3f3d 7284 2e3d 2a99 bcbd 4683 483d
00000150: 7ee4 95bd 4990 ca3d 65e1 943d b708 3cbd
00000160: d4df 983c 8a3a 023d 2559 aebd 28f3 993c
00000170: b0be a0bb 00f5 c23c 09e7 923d d71e 51bd
00000180: fa75 bdbd cdd2 8bbd 00e0 f43b 34e8 9cbc
0.017312802 0.082703136 -0.051325 -0.05456164 0.018353023 0.093756266 0.09358815 -0.018833414
-0.0062291026 -0.019999601 0.09704972 0.015902355 0.007019557 0.025750957 -0.07565942 -0.00994122
-0.080316864 0.030526467 0.06997005 0.016770735 -0.030470349 0.074083336 0.015537441 -0.082899824
-0.08544 0.04392188 0.07803381 0.09106836 0.025497638 -0.06607388 -0.066546634 0.010330141
0.05843281 -0.020828292 0.036724098 0.061562903 0.04263278 -0.025074944 -0.020551123 -0.0631846
0.0014197454 -0.086924195 0.070211045 0.021230161 0.04245495 0.08193817 -0.026949622 0.009389758
-0.034973606 0.047847874 0.03921806 0.0569318 -0.004263303 0.041419335 -0.056075014 -0.058963668
-0.083762966 0.05589234 -0.0931495 -0.04006474 -0.013144948 -0.010273494 0.07709726 0.09214138
-0.04335449 -0.013733782 -0.08258208 -0.05712998 -0.034708574 -0.020595014 0.068564065 -0.0224358
0.027603991 -0.08000857 -0.03630445 0.011815622 -0.031532504 0.08954015 -0.011797249 0.09166963
0.04666996 0.04260678 -0.09208901 0.048953317 -0.07318972 0.098908015 0.07269553 -0.04590675
0.018661417 0.03179411 -0.08513097 0.018792704 -0.004905544 0.023798466 0.07172973 -0.0510548
-0.09251018 -0.068273164 0.007472992 -0.019153692

net.4.weight f4 [11, 100]
00000000: 70f2 7fbd 2a06 1cbd 6629 473d f001 84bd
00000010: 5b0f 8b3d f236 563d 943d 00bd 488e 85bc
00000020: eca7 be3c 226e 783d 60c0 efbb da15 67bd
00000030: dd84 ae3d d4a7 9ebc c2f2 083d 4141 ba3d
00000040: 3877 a73c 5965 b83d 1492 c4bc 73e6 58bd
00000050: fe7a 4f3d 81e8 bc3d 31c0 cb3d a93f ca3d
00000060: d4e8 e33c 0f0d c3bd 57be ac3d 7256 4a3d
00000070: d09e b6bd 42ef 7ebb 749d 873c 4067 0cbc
00000080: 82a9 5c3d ca56 42bd 3756 30bd 0d6f a7bd
00000090: b440 d1bc b7c8 5abd dac2 52bd ebed 883d
000000a0: 58d7 4dbc 0daf 97bd e3a9 6ebd 241a fd3c
000000b0: cada 3fbd 9d9f af3d 5e14 253d 47e0 72bd
000000c0: 13f8 8fbd 97cf 20bd 3512 a5bd 21cf 863d
000000d0: f224 b4bd 1a20 563d 633a 51bd 4e22 073d
000000e0: c0ad af3c e2d4 3b3d 2a2e 3a3d 6d70 933d
000000f0: d9c0 953d cb33 b73d 922c 823d ded0 88bd
00000100: 5b12 50bc bcce 0bbd e041 fdbb 97a8 35bd
00000110: b32b a0bd 689d c7bc 79f1 c43d 4beb a93d
00000120: f322 1abd 41c7 943d f06d 7ebc 88c9 84bc
00000130: 2286 c0bd 912d b43d 693a 0abd 2489 e23c
00000140: a9fa a7bd 2f07 a93d ddb6 bbbd 6ee3 3d3d
00000150: b7d9 c0bd 94c1 823c e2d6 743d 3f1e b13d
00000160: 002c 4cb9 4147 ac3d c9ed 863d 8c0a 823d
00000170: e716 943d d453 b6bc 50c4 a53b d616 8cbd
00000180: 5830 9a3c 3eff 5d3d 2008 ab3c 356f b8bd
00000190: 0ab8 41bd 5a8a 2c3d b532 abbd 8f5c b43d
000001a0: 4dfb 34bd 4c6a a8bc 744f 99bc 80c4 d9bc
000001b0: 5005 aabd 0058 cbbb 988e efbc 95cd 8a3d
000001c0: 58dd 1ebc 00b7 dcbb 72a5 393d bb81 cb3d
000001d0: 6003 9ebd 2c92 09bd 4082 97bc 6959 b23d
000001e0: 685f 56bc acb7 c3bc 9da6 38bd d870 ddbc
000001f0: 53c7 c1bd 65a8 bbbd 9234 283d 8a46 67be
00000200: 5dcf c7bd 4f17 973c e189 bebc 1abc 3e3d
00000210: 0f26 903d 3115 b33d f484 e03c 5feb c73d
00000220: af0c bf3d cced c9bc b89f afbd 98b3 02bc
00000230: 5fe3 9a3d 6a46 2e3d 3a9b 0fbd 3419 8bbc
00000240: 526a 783d 0a5f 443d d148 9c3d 076e 2d3d
00000250: 9640 08bd 97ed b5bd a2c4 703d 6085 89bd
00000260: b09f d2bc 601e 35bb b0f6 e7ba 2815 a9bd
00000270: 03ad 823d 3613 243d 68d2 e2bc ec6a a9bc
00000280: e01d adbc f2f8 6b3d 30fb afbe 1a81 b5bd
00000290: 0779 c2bc a048 abbb 2d55 adbd a68d aabd
000002a0: a4f4 db3c 982c efbc ba4a c7bd c55a a33d
000002b0: 3679 87bd 15ae c3bd 8011 043a d20f 9abd
000002c0: 11a1 b23d e8e6 02bc e142 503e 7293 183d
000002d0: 12ac 87bd 00fb 86bc e274 6e3d 19e8 ae3d
000002e0: 4316 bdbd 2949 993d 1039 c3bd fa19 463d
000002f0: 405f 8cbd 68c9 4cbc 92b5 84bd cd65 b03d
00000300: 32bf 3b3d 30ec 893b 7fc9 ca3d 3b3a a7bd
00000310: ca57 64bd 5939 863d 8e2a 5f3d 9a9f 243d
00000320: 169b 16bd 20a3 32bd 0775 c53d 9031 153c
00000330: edf6 c0bd efa6 903d 0006 a83a a86e ccbd
00000340: f7c4 5fbd 124c a6bd 782c e4bc e846 7a3c
00000350: c673 15bd e2bd 6a3d caca 5dbd 5f44 cb3d
00000360: 5b9f b2bd 5342 a7bd 4045 76bb 791b 9d3d
00000370: 8832 e4bc 5c1d 8cbd b1b1 933d 8103 833d
00000380: 940e 08bd 9b99 abbd 8a1b 003d bd32 b1bd
00000390: c57b 843d eafa 88bd 9be7 33bd 1144 c53d
000003a0: 4ba3 883d c075 06bd 2434 0cbd 8103 9a3d
000003b0: 3e75 363d 38b9 94bd a22a 503d 5878 2cbc
000003c0: bf4e bf3d a8bd 98bd b0bb 40bd 21f4 bf3d
000003d0: 844e 0dbd 2709 cbbd 4207 563d bfc0 86bb
000003e0: 9a68 2f3d f8c3 9dbc 69b6 9e3d a047 e2bb
000003f0: 060e 68bb 71d6 883d a0cd deba fbec bdbd
-0.062487066 -0.038091816 0.048623465 -0.06445682 0.06790038 0.052298494 -0.031308725 -0.016303197
0.02327343 0.060651906 -0.007316634 -0.056417324 0.085214354 -0.019367136 0.033434637 0.090944774
0.02044259 0.090037055 -0.023995437 -0.05295415 0.050654404 0.09224034 0.09948767 0.098754235
0.027820982 -0.09523975 0.08434742 0.049398847 -0.0891701 -0.0038899933 0.016554572 -0.008569539
0.053872593 -0.04744605 -0.04305097 -0.08175478 -0.025543548 -0.053414073 -0.051455356 0.06686004
-0.012563549 -0.07406435 -0.058267485 0.030896254 -0.046839513 0.08575366 0.040302627 -0.05929592
-0.07029738 -0.039260473 -0.08060113 0.065824755 -0.08796109 0.05227671 -0.051081073 0.0329917
0.021445155 0.045857318 0.04545418 0.07199178 0.073121734 0.089454256 0.06356157 -0.06680463
-0.012699689 -0.034132704 -0.0077288 -0.044350233 -0.07820835 -0.02436705 0.0961637 0.08296832
-0.037630986 0.07264567 -0.015529141 -0.016209379 -0.09400584 0.087977536 -0.03374711 0.027653284
-0.082021065 0.08253323 -0.09165738 0.046359472 -0.09416526 0.015961446 0.05977524 0.08648347
-0.00019471347 0.08412028 0.06588323 0.06349668 0.07230931 -0.02225677 0.0050588027 -0.06840293
0.01882188 0.054198496 0.020877898 -0.09005586 -0.047294654 0.04212413 -0.08359281 0.08806717
-0.04418497 -0.020558499 -0.018714644 -0.026582956 -0.083017945 -0.006205559 -0.029242799 0.06777493
-0.009696327 -0.0067356825 0.045323797 0.099368535 -0.077154875 -0.033586666 -0.018494725 0.0870846
-0.01308427 -0.023891293 -0.04508077 -0.027031347 -0.09461846 -0.09162978 0.04106576 -0.22585502
-0.09756348 0.018443732 -0.023259105 0.046566106 0.07038509 0.08744276 0.027407147 0.0976169
0.09328591 -0.024649523 -0.08575386 -0.007977389 0.07562899 0.04254762 -0.035060145 -0.016979791
0.06064827 0.0479422 0.07631076 0.04234126 -0.03326472 -0.08883207 0.058781274 -0.067148924
-0.02571091 -0.0027636513 -0.001769742 -0.08255988 0.063806556 0.040057383 -0.02768822 -0.020680867
-0.02113241 0.05761046 -0.34371328 -0.08862515 -0.023739351 -0.0052271634 -0.084635116 -0.083277985
0.026850052 -0.029196069 -0.0973105 0.07976297 -0.06614916 -0.09554688 0.0005038008 -0.07522549
0.08722127 -0.007989623 0.20338012 0.03724999 -0.06624617 -0.016477108 0.058216937 0.08540363
-0.09232762 0.07484657 -0.09532368 0.048364617 -0.06854105 -0.012499191 -0.06479944 0.08613167
0.045836635 0.004209064 0.099017136 -0.081654035 -0.055747785 0.06553907 0.054483943 0.04019127
-0.036768995 -0.0436126 0.09641462 0.009106055 -0.09422097 0.0706309 0.0012819171 -0.099820435
-0.0546312 -0.08119978 -0.027853236 0.015275694 -0.036487363 0.057309993 -0.054148473 0.0992515
-0.08721801 -0.08166947 -0.0037577897 0.076712556 -0.027856126 -0.06841537 0.07211626 0.06397153
-0.033217028 -0.08378907 0.031276263 -0.08652256 0.0646892 -0.06688483 -0.043922048 0.09632123
0.06671771 -0.03282714 -0.034229413 0.075201996 0.044545405 -0.0726189 0.050821908 -0.010526739
0.093411915 -0.07458049 -0.047053993 0.09372736 -0.034498706 -0.09913855 0.052253015 -0.0041123326
0.042824365 -0.019258484 0.07749636 -0.006905511 -0.003540875 0.066815265 -0.0016998537 -0.09273716

net.4.bias f4 [11]
00000000: d391 c93d f83c 76be bc01 1abe bc9f bb3d
00000010: b7c1 513d 4c53 0e3e b1ba 983d 56f8 863d
00000020: d73c b2bd ecea 1b3c 522c 213d
0.09842267 -0.24046695 -0.15039724 0.09161326 0.05121013 0.13898963 0.074574836 0.06590335
-0.087030105 0.009516459 0.039348908
